checkpoints/vehicle_repositioning/unknown/1-ra/no-constraint/run-1/policy217.pt (torch, 913815 bytes, 6 tensors)

weight f4 [256, 627]
0	0xbe2118bd	-0.15732093
1	0x3a4123b5	0.00073676865
2	0x3bb698ae	0.0055724
3	0x3bb698ae	0.0055724
4	0x3bb698ae	0.0055724
5	0x3bb698af	0.0055724005
6	0x3bb69958	0.005572479
7	0x3bb4b516	0.005514751
8	0x3bb4c6c8	0.0055168606
9	0x3bb7163b	0.005587367
10	0x3bb6be45	0.005576881
11	0x3bb69956	0.0055724783
12	0x3bb698ae	0.0055724
13	0x3bb698ae	0.0055724
14	0x3bb698ae	0.0055724
15	0x3bb698ae	0.0055724
16	0x3bb698ae	0.0055724
17	0x3bb698ae	0.0055724
18	0x3bb698ae	0.0055724
19	0x3bb698ae	0.0055724
20	0x3bb698ae	0.0055724
21	0x3bb698ae	0.0055724
22	0x3bb698ae	0.0055724
23	0x3bb698ae	0.0055724
24	0x3bb698ae	0.0055724
25	0x3bb698ae	0.0055724
26	0x3bb698ae	0.0055724
27	0x3bb698ae	0.0055724
28	0x3bb698ae	0.0055724
29	0x3bb6994f	0.005572475
30	0x3bb6b42e	0.0055756783
31	0x3bb885b3	0.0056311726
32	0x3bbd875e	0.0057839593
33	0x3bcd8412	0.0062718475
34	0x3be21695	0.0068996646
35	0x3bc93f3f	0.0061415727
36	0x3bb7e355	0.005611817
37	0x3bb69a8d	0.005572623
38	0x3bb698ad	0.0055723996
39	0x3bb698ae	0.0055724
40	0x3bb698ae	0.0055724
41	0x3bb698ae	0.0055724
42	0x3bb698ae	0.0055724
43	0x3bb698ae	0.0055724
44	0x3bb698ae	0.0055724
45	0x3bb698ae	0.0055724
46	0x3bb698ae	0.0055724
47	0x3bb698ae	0.0055724
48	0x3bb698ae	0.0055724
49	0x3bb698ae	0.0055724
50	0x3bb698ae	0.0055724
51	0x3bb698ae	0.0055724
52	0x3bb6990f	0.005572445
53	0x3bb6b1a1	0.0055753742
54	0x3bb95ccc	0.005656814
55	0x3bcd342e	0.006262324
56	0x3c216cf6	0.0098526385
57	0x3c1db841	0.009626449
58	0x3c5fbb71	0.013655529
59	0x3c299775	0.010351052
60	0x3b78cddb	0.0037964496
61	0x3bf6d21c	0.007532371
62	0x3bb9c183	0.0056688203
63	0x3bb69d4f	0.005572952
64	0x3bb698ae	0.0055724
65	0x3bb698ae	0.0055724
66	0x3bb698ae	0.0055724
67	0x3bb698ae	0.0055724
68	0x3bb698ae	0.0055724
69	0x3bb698ae	0.0055724
70	0x3bb698ae	0.0055724
71	0x3bb698ae	0.0055724
72	0x3bb698ae	0.0055724
73	0x3bb698ae	0.0055724
74	0x3bb698ae	0.0055724
75	0x3bb698ae	0.0055724
76	0x3bb698ae	0.0055724
77	0x3bb92438	0.0056500696
78	0x3bcc3353	0.0062317043
79	0x3bf3ace5	0.007436382
80	0x3b195be5	0.002340072
81	0x3c08883c	0.008333262
82	0x3bf2db80	0.0074114203
83	0x3bc6dce8	0.0060688145
84	0x3bf2796d	0.007399729
85	0xbaccf490	-0.001563685
86	0xba3a8df2	-0.00071164884
87	0x3b5c4a72	0.0033613709
88	0x3bb8705b	0.005628628
89	0x3bb69cfc	0.005572913
90	0x3bb698af	0.0055724005
91	0x3bb698ae	0.0055724
92	0x3bb698ae	0.0055724
93	0x3bb698ae	0.0055724
94	0x3bb698ae	0.0055724
95	0x3bb698ae	0.0055724
96	0x3bb698ae	0.0055724
97	0x3bb698ae	0.0055724
98	0x3bb698ae	0.0055724
99	0x3bb698ae	0.0055724
100	0x3bb698ae	0.0055724
101	0x3bb698ae	0.0055724
102	0x3c1bba6f	0.009504898
103	0x3c5dd1cc	0.013538789
104	0xbad0d7ce	-0.0015933455
105	0xbc3913b3	-0.011296201
106	0xbaefda16	-0.0018299248
107	0xbbf71fa2	-0.0075416127
108	0xbb7241f1	-0.0036965574
109	0xbb6e077e	-0.0036320384
110	0xbcd680ac	-0.026184402
111	0xbcfe3595	-0.03103141
112	0xbc89dcb9	-0.016828882
113	0x3c16a626	0.009194886
114	0x3bbd9329	0.005785365
115	0x3bb63a8a	0.0055611776
116	0x3bb698d1	0.0055724164
117	0x3bb698af	0.0055724005
118	0x3bb698ae	0.0055724
119	0x3bb698ae	0.0055724
120	0x3bb698ae	0.0055724
121	0x3bb698ae	0.0055724
122	0x3bb698ae	0.0055724
123	0x3bb698ae	0.0055724
124	0x3bb698ae	0.0055724
125	0x3bb698ae	0.0055724
126	0x3bb698ae	0.0055724
127	0x3c12cec1	0.008960427
128	0x3bf1948d	0.007372445
129	0xbc1ecb17	-0.009691975
130	0xbc0ffcab	-0.008788268
131	0xbc22e265	-0.009941672
132	0xbcb9eaec	-0.022695027
133	0xbc827d40	-0.015928864
134	0xbcd699d9	-0.026196407
135	0xbd09f8bf	-0.03368449
136	0xbc5d70ac	-0.013515633
137	0xbcae30a9	-0.021263437
138	0x3bdd7575	0.0067583867
139	0x3c3d751f	0.011563568
140	0x3bd22201	0.006412745
141	0x3bb8a253	0.005634585
142	0x3bb5a6e2	0.0055435756
143	0x3bb6ae7a	0.0055749984
144	0x3bb5a6e2	0.0055435756
145	0x3bb5a6e2	0.0055435756
146	0x3bb5a6e2	0.0055435756
147	0x3bb5a6e2	0.0055435756
148	0x3bb6aea6	0.005575019
149	0x3bb698ff	0.005572438
150	0x3bb698ae	0.0055724
151	0x3bb698ae	0.0055724
152	0x399a90cd	0.00029481054
153	0xbb4e2b0c	-0.0031458763
154	0xbbb7e979	-0.005612549
155	0x3a2a2f53	0.0006492037
156	0xbbfbca52	-0.0076840306
157	0xbcad18ab	-0.021129927
158	0xbc6ac7ab	-0.014329831
159	0xbcabbe2b	-0.020964703
160	0xbd1a5e99	-0.03768787
161	0xbcc1ffdb	-0.023681572
162	0xbc1cc3d5	-0.009568174
163	0xbbe10ab0	-0.006867729
164	0xbb34c2e5	-0.0027581987
165	0x3bc002e4	0.0058597196
166	0x3c2ed398	0.010670565
167	0x3c066c5d	0.008204547
168	0x3bed44d2	0.00724087
169	0x3bce4632	0.006294989
170	0x3bf99acf	0.0076173316
171	0xbcc2ac46	-0.023763787
172	0x3c0135b6	0.007886341
173	0x3bd99fc8	0.006641362
174	0x3bb5b6dd	0.0055454806
175	0x3bb699b4	0.005572522
176	0x3bb698b5	0.0055724033
177	0xbc81baf8	-0.015836224
178	0xbc10dfad	-0.008842391
179	0xbb7e50b9	-0.0038805439
180	0x3bee799a	0.0072776796
181	0x3c6ce551	0.01445897
182	0xbc07897c	-0.008272525
183	0xbd6436c7	-0.055716302
184	0xbcd4de78	-0.025984988
185	0xbcb39d51	-0.0219256
186	0xbc8eee36	-0.017447572
187	0x3bd252d3	0.006418565
188	0xbb7f0304	-0.003891171
189	0xbd058e94	-0.032606676
190	0xbc057c5b	-0.008147324
191	0x3c8373f7	0.016046507
192	0x3c6c1f28	0.014411725
193	0x3c3fbf36	0.011703303
194	0x3b3e340f	0.0029022729
195	0xbcec684a	-0.028858323
196	0xbd72e755	-0.059302647
197	0xbd604473	-0.05475278
198	0xbc006977	-0.007837645
199	0x3c04a4ba	0.0080959145
200	0x3bb5c1c5	0.005546781
201	0x3bb7cbd4	0.005609015
202	0xbc6a9e43	-0.014319959
203	0xbbba78d0	-0.0056906715
204	0x39807fa7	0.0002450917
205	0x3a81a286	0.0009890355
206	0x3b71fad0	0.0036923178
207	0xbc81c591	-0.015841277
208	0xbd0f3638	-0.034963816
209	0xbc5f3b90	-0.013625041
210	0xbc5b25e8	-0.013375737
211	0xbca54a47	-0.02017702
212	0xbbb85340	-0.0056251585
213	0x3b852748	0.0040635206
214	0xbcbcd519	-0.023050832
215	0xbce8fc57	-0.028440638
216	0xbbfc6ce5	-0.007703411
217	0x3b9fedea	0.0048806565
218	0xbc06a9df	-0.008219211
219	0xbc9f2f29	-0.019431667
220	0xbdae6cf6	-0.085168764
221	0xbd87a246	-0.06622748
222	0xbdb9ca59	-0.09071798
223	0xbd6bf388	-0.057605296
224	0xbc1a10d3	-0.009403425
225	0x3bbe6b47	0.0058111283
226	0x3c0d50a3	0.008625182
227	0xb91be60c	-0.00014867651
228	0x3be953f2	0.0071206028
229	0x3be0d079	0.0068607894
230	0xbb870483	-0.004120411
231	0xbbaae63e	-0.0052154353
232	0xbc875448	-0.01651968
233	0xbbd91b5e	-0.006625577
234	0x3c0080f8	0.007843249
235	0x3ba98187	0.0051729116
236	0xbbfe0163	-0.00775163
237	0xbc2a1647	-0.010381288
238	0xbc5a6948	-0.013330765
239	0xbce68f8b	-0.028144618
240	0xbcac3e53	-0.021025812
241	0xbba0e3e9	-0.0049099815
242	0x3c9092a5	0.01764805
243	0xbbd1736f	-0.0063919346
244	0xbd08386f	-0.033256944
245	0xbcc22582	-0.023699526
246	0xbd7cf1f0	-0.061754167
247	0xbd74dec6	-0.059782766
248	0xbd616905	-0.055031795
249	0xbd49d0c4	-0.04927136
250	0xbd006d24	-0.031354085
251	0xbc242deb	-0.010020713
252	0x3b7b8f7d	0.0038385086
253	0x3c30aed4	0.01078387
254	0x3c33419c	0.010940935
255	0xbb33909c	-0.0027399426

bias f4 [256]
0	0x3dccb718	0.0999586
1	0xb6295051	-2.5229713e-06
2	0x3d81c22b	0.06335863
3	0x3d0205e0	0.031743884
4	0xb858608a	-5.1588322e-05
5	0x3ddc8410	0.107673764
6	0xbda9a1f3	-0.082828425
7	0x3de740f4	0.11291686
8	0x3daa3ed3	0.08312764
9	0xb1f25571	-7.0528405e-09
10	0x3cd0c8e8	0.025486425
11	0xbd276855	-0.040870983
12	0xbd369c85	-0.044582862
13	0xbdb78fdd	-0.089629866
14	0x3e4b6818	0.19863927
15	0xbd8f5b06	-0.06999783
16	0x3df848d2	0.12123264
17	0x3d04acdf	0.032391425
18	0x3e1b118d	0.15143414
19	0xbd9ebe6a	-0.07751162
20	0xbd4c4845	-0.04987361
21	0xbd7004d3	-0.05859835
22	0x3ce40c08	0.027837768
23	0xbc7bc9de	-0.015367953
24	0xbda09adf	-0.07842039
25	0x3d90d382	0.07071592
26	0xbd589a10	-0.0528813
27	0xbe242b5c	-0.16032165
28	0xbde87059	-0.113495536
29	0x3dd8d370	0.105872035
30	0xbca725cc	-0.020403765
31	0x3d2a1186	0.041520618
32	0x3c4c8be3	0.0124845235
33	0x3da8a97e	0.08235453
34	0x3dcd57bf	0.10026502
35	0x3ce48c76	0.027899008
36	0xbd9b23eb	-0.0757521
37	0xba8e2724	-0.0010845405
38	0x3dbb9610	0.091594815
39	0x3c8043e6	0.015657376
40	0xbcdba396	-0.026811402
41	0xbadba2c6	-0.0016756884
42	0x3e045dff	0.12926482
43	0xbdad7414	-0.08469406
44	0x3c7fc008	0.015609749
45	0x3d9d579e	0.07682727
46	0x3cf7c98a	0.030247469
47	0xbd0dd40c	-0.03462605
48	0x3d830b8f	0.06398689
49	0x3d36f664	0.04466857
50	0x3d3445ab	0.044011753
51	0x3e2678be	0.16256997
52	0xbdbbf1a7	-0.09176951
53	0x3df6ec43	0.12056782
54	0xba7a7716	-0.00095544884
55	0x3d9322c0	0.071843624
56	0xbb1f2731	-0.0024284835
57	0x3cc4a906	0.024006378
58	0xbe0a0da6	-0.13481769
59	0x3b8b83e5	0.0042576664
60	0x3de9414b	0.11389407
61	0x3c84902c	0.016182028
62	0xb9f27d29	-0.00046251088
63	0xb9e4ea64	-0.00043662183
64	0xbd261e4e	-0.040556245
65	0xbe098557	-0.13429771
66	0x3ad974f3	0.001659064
67	0x3cf62ecb	0.03005161
68	0x3c11abf9	0.008891099
69	0x3cd9e829	0.02659996
70	0x3ca38bb7	0.019964082
71	0xbd5e6f60	-0.054305434
72	0x3ce3c024	0.02780158
73	0xbde1ae71	-0.110196
74	0xba9c3cd5	-0.0011919985
75	0xbd8385f1	-0.06422032
76	0xbe1c467e	-0.15261266
77	0xbdda380f	-0.106552236
78	0xbcdbd532	-0.026835058
79	0xb4a192d2	-3.0095413e-07
80	0xbe1f3f33	-0.15551452
81	0x3d83be0c	0.06432733
82	0xbd8a7abe	-0.067616925
83	0xbe0b6138	-0.13611305
84	0xbd80c894	-0.06288257
85	0xbd9dea14	-0.077106625
86	0xbd8a7b88	-0.06761843
87	0xbc97eaba	-0.018544544
88	0xbd2be253	-0.041963886
89	0xbdf25875	-0.11833278
90	0xbc08d977	-0.008352629
91	0xbc853901	-0.016262533
92	0x3e53fcda	0.20701924
93	0x3c5fe012	0.013664262
94	0x3d6c517c	0.057694897
95	0x3bd4cea9	0.0064943624
96	0x3cc3bb9c	0.02389317
97	0xbad3633f	-0.00161276
98	0xbdab41aa	-0.08362134
99	0xbd035080	-0.032059193
100	0x3cea7efe	0.028625008
101	0x3dabef9e	0.08395313
102	0x3dee19e9	0.11626036
103	0xbcfc9118	-0.030830905
104	0x3d769dcc	0.06020908
105	0xba9959d6	-0.0011699747
106	0x3d2cc17b	0.042176705
107	0x3d6a2f18	0.05717382
108	0xbceb5eb0	-0.028731674
109	0xb75427ad	-1.2645422e-05
110	0xbaa89e7c	-0.0012864615
111	0xb280ebda	-1.5008414e-08
112	0x3e317557	0.17329918
113	0xbac8969c	-0.0015303674
114	0x3d58dc3c	0.052944407
115	0xbe4371ad	-0.19086333
116	0xbd85374c	-0.06504688
117	0x3d233932	0.039849468
118	0x3e3bc8fe	0.18338391
119	0x3d671a66	0.05642166
120	0x3d489fd8	0.048980564
121	0xbd66d451	-0.056354824
122	0xbcc83bc6	-0.024442565
123	0xbcc00a00	-0.023442268
124	0xae8f990c	-6.530074e-11
125	0x3d408a08	0.047006637
126	0x3d3fd940	0.046838045
127	0xbda95c3a	-0.08269544
128	0x3dc67555	0.09690348
129	0xbe0f1345	-0.13972194
130	0x3bb0e801	0.005398751
131	0x3d526f6d	0.051375795
132	0x3e3268ed	0.17422839
133	0xbd761601	-0.06007958
134	0x3e52026b	0.20508735
135	0x3d47a07a	0.048737027
136	0xbc7c7369	-0.015408375
137	0xb5054514	-4.9646883e-07
138	0x3d4cd6b4	0.050009444
139	0xbe16f279	-0.14740933
140	0x3d3b0ca3	0.04566635
141	0x3e0582f5	0.13038237
142	0x3e03e226	0.12879238
143	0xbdd27110	-0.10275471
144	0x3e1743ba	0.1477193
145	0xbe00d406	-0.1258088
146	0x3dbe8221	0.09302164
147	0xbaddc6f6	-0.0016920257
148	0x3ccab01b	0.024742177
149	0xb887e48a	-6.47987e-05
150	0x3d419c0f	0.04726797
151	0x3c893b13	0.016751802
152	0xbd8c95d1	-0.06864513
153	0x3e24df17	0.16100727
154	0x3da2fac8	0.07957989
155	0xba5dff28	-0.0008468502
156	0xbda9d707	-0.08292966
157	0xbd8d50a7	-0.06900149
158	0x3d6f69ea	0.058450617
159	0xbd2047fb	-0.039131146
160	0x3c9f402b	0.019439777
161	0xbb0af590	-0.0021203496
162	0xbe01582d	-0.12631293
163	0x3d7d18cf	0.061791237
164	0xbdb47af2	-0.088125125
165	0xbc2f4ecc	-0.010699939
166	0xbc9b5c4d	-0.01896491
167	0x3d3c1f80	0.04592848
168	0xbdc6ebe8	-0.09712964
169	0x3befbaf0	0.007315986
170	0x3c945ab3	0.018109655
171	0xbd027f19	-0.03185949
172	0x3d92bf4d	0.07165394
173	0xbcd8197d	-0.026379341
174	0xbe110d43	-0.14165215
175	0xb4a5710b	-3.0815895e-07
176	0xbda23dd0	-0.07921946
177	0xb422fd3d	-1.5179553e-07
178	0xbd7b1084	-0.061295047
179	0x3d8a0de3	0.0674093
180	0xbe171cae	-0.14757034
181	0x3c36851d	0.011140135
182	0x3db5547a	0.08854003
183	0xbdde422c	-0.10852465
184	0x3e0d858e	0.13820478
185	0x3d8b064e	0.06788312
186	0x3d403887	0.04692891
187	0xbd1c0b10	-0.038096488
188	0x3c32a12e	0.010902686
189	0xb4a18dc3	-3.0091732e-07
190	0x3e43a212	0.19104794
191	0x3d34464f	0.044012364
192	0xbd586038	-0.052826136
193	0xbe3f0bd6	-0.18656859
194	0x3e8a5e3c	0.2702502
195	0xbbdc60a9	-0.00672539
196	0x3b49fb52	0.0030819965
197	0xb6ad7631	-5.169561e-06
198	0x3dc55005	0.09634403
199	0xbb15e8f4	-0.0022874447
200	0xbde5e0a3	-0.11224487
201	0xbc2c575d	-0.010518876
202	0x3d38af87	0.04508927
203	0x3db26525	0.08710698
204	0x3d05caf1	0.032664243
205	0x3d98d243	0.07461979
206	0x3c79a062	0.015235992
207	0xbc48aaba	-0.012247736
208	0x3d06400f	0.032775935
209	0xbe6b81d2	-0.22998741
210	0x3bdc5cca	0.0067249285
211	0x3d271308	0.040789634
212	0x3db23480	0.0870142
213	0xb38c5366	-6.534428e-08
214	0x3c1662bd	0.0091788145
215	0xbd45ccc7	-0.048290994
216	0x3daecb1d	0.085348345
217	0xbdfabfd0	-0.122436166
218	0xbddabc88	-0.10680491
219	0xbd70fb65	-0.0588335
220	0xbdfc18e4	-0.12309435
221	0x3ddc2253	0.10748734
222	0xbe4577c0	-0.19283962
223	0xbd279963	-0.040917765
224	0x3e104f92	0.14092854
225	0x3cba04fa	0.022707451
226	0x3e05e739	0.13076486
227	0x3cee6fed	0.029106105
228	0x3c9a64fa	0.018846978
229	0x3cd851f7	0.026406271
230	0x3d02c451	0.031925503
231	0xbe522f06	-0.2052575
232	0xb3bc8048	-8.7777664e-08
233	0xb4838f8a	-2.450509e-07
234	0xbe19ef2f	-0.15032648
235	0x3e303d67	0.17210923
236	0xbce56753	-0.02800337
237	0x3db4b0b9	0.0882277
238	0x3db53691	0.08848298
239	0x3cf25f94	0.02958659
240	0xb30f3d6e	-3.3350652e-08
241	0x3d92947f	0.0715723
242	0x3ce65ef1	0.028121443
243	0xbe3f0a17	-0.18656193
244	0xbdb0268e	-0.08601104
245	0xbd944285	-0.0723925
246	0xad3b2a67	-1.06391345e-11
247	0xb1bbb4ba	-5.4629625e-09
248	0x3dcd9c3e	0.100395665
249	0xb26ff4a4	-1.3967256e-08
250	0x3dade572	0.08491029
251	0x3e16fc32	0.14744642
252	0x3e401acb	0.1876022
253	0x3dcd4cff	0.100244515
254	0xbde49cc6	-0.11162715
255	0x3be7b267	0.0070708278

weight f4 [256, 256]
0	0x3ca1636d	0.01970073
1	0x3100654c	1.8684032e-09
2	0xbc292f37	-0.010326198
3	0x39f82d29	0.00047335893
4	0x38a6d081	7.954334e-05
5	0xbc640273	-0.0139166
6	0x3c7ac3a6	0.015305435
7	0x3ca4f247	0.020135058
8	0x3b47dee6	0.0030497848
9	0x30d7c9f0	1.5700703e-09
10	0x3b382a16	0.0028101257
11	0xbc3102cb	-0.010803889
12	0x3bdebb51	0.006797232
13	0xbba5ea9e	-0.005063369
14	0x3c2035cd	0.009778452
15	0xbb005e98	-0.0019587632
16	0x3c96f926	0.01842935
17	0x3a79e3ab	0.00095325214
18	0xbbbf999a	-0.005847168
19	0xbb8fd7a1	-0.0043897186
20	0x3a89c028	0.0010509538
21	0x3c788e28	0.015170611
22	0x3d299335	0.041400153
23	0x39b2eeeb	0.00034128813
24	0x3c753f3b	0.014968689
25	0x3bca45a3	0.006172852
26	0x39e832be	0.00044288294
27	0x3b8b4975	0.0042507
28	0x3c173158	0.009228073
29	0x3c377c33	0.011199045
30	0x3cf18f5b	0.029487303
31	0xbc66a2e4	-0.014076922
32	0xbc017cf6	-0.007903328
33	0x3c061b53	0.008185226
34	0x3c82b2e2	0.015954439
35	0x3b4e3a05	0.0031467688
36	0xbbae9346	-0.005327615
37	0x36ff218c	7.6034976e-06
38	0xbbc9bd3b	-0.0061565912
39	0x3ba28f00	0.0049608946
40	0x3b8ab01b	0.004232419
41	0x368c1e5f	4.175861e-06
42	0x3b8ceb02	0.004300476
43	0xbbeb5fee	-0.0071830666
44	0x3cc1bbf2	0.02364919
45	0x3bbe2f84	0.005804004
46	0x3bcbdddf	0.0062215175
47	0x3b448603	0.0029987104
48	0xbbc571d3	-0.006025532
49	0x3aa53606	0.0012604601
50	0x3b8e30a1	0.004339293
51	0xbcddc0c4	-0.027069457
52	0x3c7acc35	0.015307476
53	0xbc5be568	-0.013421394
54	0x36841ca7	3.937242e-06
55	0xbca25e21	-0.019820275
56	0x369b0846	4.620323e-06
57	0xbb1317dc	-0.0022444641
58	0x3be28e41	0.0069139306
59	0xbbe98df2	-0.007127517
60	0x3c4dfec9	0.012572953
61	0x393b94cc	0.00017889141
62	0xbce4ed2f	-0.02794513
63	0xb7b459d7	-2.1499507e-05
64	0xb928f16a	-0.00016111662
65	0xbc7b55a4	-0.015340243
66	0x3ad45041	0.0016198234
67	0xbb56989f	-0.0032744778
68	0xbbb7c99d	-0.005608751
69	0xbbfde465	-0.007748174
70	0xbb645c5e	-0.0034845094
71	0xbb3b3a7e	-0.00285688
72	0x3c185c6d	0.00929938
73	0x3c0ab6f4	0.008466471
74	0xb4294270	-1.5763521e-07
75	0xbb2ca463	-0.00263431
76	0x3c61501c	0.01375201
77	0x3c246392	0.010033505
78	0x3b67c34e	0.0035364213
79	0xb0aa508f	-1.2392024e-09
80	0x3caa3735	0.020778278
81	0xbaffc423	-0.0019513409
82	0x3c3ff09f	0.011715083
83	0xbc12a52f	-0.008950516
84	0x3ba87a9d	0.0051415698
85	0x3b84fb5c	0.0040582847
86	0xbcde7e48	-0.027159825
87	0x3c34372a	0.01099948
88	0x3c46240d	0.012093556
89	0x3b9ecbe9	0.0048460853
90	0x3ca7cf48	0.020484582
91	0x3b402496	0.0029318682
92	0x3d80e3a7	0.06293421
93	0x3cb62f1f	0.022239266
94	0xba9aedc1	-0.0011820124
95	0x3b0b26af	0.0021232774
96	0xbc3e3f2c	-0.011611741
97	0x3698358e	4.5361876e-06
98	0x3bc867fd	0.006115912
99	0x3bdb9ebd	0.0067022727
100	0x3cea2603	0.028582579
101	0xbc10ed06	-0.008845573
102	0x3ca0078b	0.019534847
103	0x3b58e889	0.0033097586
104	0x3b881e5f	0.004154011
105	0x35e1edfe	1.6833071e-06
106	0x3bf6f958	0.0075370483
107	0xbc24a7c0	-0.01004976
108	0x3b514a1a	0.0031935037
109	0xb27435e6	-1.4214924e-08
110	0x38558771	5.0909297e-05
111	0xaef3ecf1	-1.109245e-10
112	0x3cae305d	0.021263296
113	0x36a22750	4.832553e-06
114	0x3bacb886	0.0052710203
115	0xbb46b18f	-0.0030318236
116	0xbc2f10a6	-0.010685122
117	0x3c3a06e9	0.011354187
118	0x3ce8c690	0.028414994
119	0x3d4c4889	0.049873862
120	0x3aaa8572	0.001300974
121	0x3c4dc226	0.012558496
122	0xbc8343f0	-0.016023606
123	0xbc63b68c	-0.013898503
124	0x2d2ebb49	9.9323405e-12
125	0x3c35882a	0.011079827
126	0xbcc96b1e	-0.02458721
127	0x3c26d9eb	0.010183792
128	0x37cebf2a	2.4646131e-05
129	0xbcdaf67b	-0.02672886
130	0x3b1ac2e5	0.0023614701
131	0x3a0e43d7	0.0005426979
132	0x3d2c3590	0.04204327
133	0xbcc2ef53	-0.02379576
134	0x3cb0f1a7	0.021599604
135	0x3b80843b	0.003922013
136	0xbbe94a79	-0.0071194735
137	0x330118f2	3.005784e-08
138	0xbbf50eab	-0.007478555
139	0xbcdd32be	-0.027001735
140	0x3b247318	0.0025093015
141	0x3c747d0a	0.01492239
142	0x3ca89aae	0.02058157
143	0xbca45744	-0.020061143
144	0x3c090b3e	0.008364497
145	0x3c46a164	0.012123439
146	0x3ca4a044	0.020095952
147	0xbc69a4e1	-0.014260502
148	0x3c941949	0.018078463
149	0x33cc4086	9.511227e-08
150	0xbacabdf3	-0.0015467986
151	0xbbb2fdca	-0.005462383
152	0xbc6d8f6f	-0.014499529
153	0xbd4240c7	-0.047425058
154	0x3c55b1bb	0.0130428625
155	0x3666439a	3.431202e-06
156	0x3b7cffa7	0.003860453
157	0x3bf6d340	0.007532507
158	0x3c57c662	0.013169857
159	0xbbe9157f	-0.0071131582
160	0x3ba595ad	0.005053243
161	0x3c7ab2d4	0.015301425
162	0xbc3b65dc	-0.011437859
163	0x3c31203f	0.010810911
164	0xbc077196	-0.008266827
165	0x399e1fe4	0.0003015987
166	0xbc534005	-0.012893681
167	0x3a8eb7c5	0.0010888508
168	0x3bd9e48b	0.006649559
169	0xbc690798	-0.014223002
170	0x3d0b121e	0.033952825
171	0x3b140021	0.0022583085
172	0xbc902d4d	-0.017599726
173	0xbbc7853a	-0.00608888
174	0xbc82f7ee	-0.015987363
175	0x2f322054	1.6200491e-10
176	0xbc8066e0	-0.015674055
177	0xb33235e1	-4.1492857e-08
178	0x3cc7430a	0.024323959
179	0xbc207e5f	-0.009795754
180	0x3caa3ea7	0.020781828
181	0x3ca61b8a	0.020276804
182	0x3c063ce7	0.008193231
183	0x3c3c8510	0.011506334
184	0x3c9abfc8	0.018890277
185	0x3be98359	0.0071262536
186	0x3aa8b293	0.0012870602
187	0x3a992b1d	0.0011685822
188	0x3b4314fd	0.0029767149
189	0x310f3b90	2.0843096e-09
190	0x3cc1b6ea	0.02364679
191	0x3ca87cc1	0.0205673
192	0x3c6ef88b	0.014585624
193	0x3cdbe7d8	0.02684395
194	0x3c0b38af	0.008497401
195	0xbb11b53c	-0.0022233268
196	0x3ab6b20f	0.0013938564
197	0xb1a65071	-4.840381e-09
198	0x3c48f71d	0.012265948
199	0xbd085b0e	-0.03328996
200	0x3b8d8f01	0.004320026
201	0xba2c3657	-0.00065693766
202	0x3b6c8118	0.0036087688
203	0xbbae3423	-0.005316274
204	0x3a059e3f	0.0005097128
205	0x3b333186	0.002734275
206	0xbcba4c5c	-0.02274149
207	0xbaa4ed8f	-0.0012583005
208	0xbb878c21	-0.0041365777
209	0x3d36e9c9	0.04465655
210	0xbc5ff1a9	-0.013668456
211	0xba020b75	-0.00049608137
212	0x3c430eeb	0.011905412
213	0xb23db93a	-1.1043364e-08
214	0x3b3060bc	0.0026913127
215	0x3c117e18	0.008880161
216	0x3c9df17a	0.019280184
217	0x3c0d801f	0.0086365035
218	0xbd36236a	-0.044467367
219	0x3ba08a1c	0.0048992764
220	0xbd3bdae2	-0.04586304
221	0x3c4d0e52	0.012515621
222	0xbd012c01	-0.031536106
223	0xbc9856a6	-0.018596005
224	0x3c96d83b	0.018413654
225	0x3b46c827	0.0030331702
226	0x3c276be1	0.010218591
227	0xbc9a07ee	-0.01880261
228	0x3b72b1bf	0.0037032214
229	0xbc934086	-0.017975103
230	0xbc81db41	-0.015851619
231	0x3cbdf66a	0.023188788
232	0xaf72d8a9	-2.2086745e-10
233	0xb3b59f70	-8.457471e-08
234	0x3c892604	0.01674176
235	0x3cad5a79	0.021161305
236	0xbcb08d9f	-0.021551905
237	0xbb49632a	-0.0030729272
238	0xbc3e8a4c	-0.011629652
239	0x3b3259df	0.0027214212
240	0x2ea2eeff	7.409361e-11
241	0x3c56e01f	0.013114958
242	0x3ba09980	0.004901111
243	0xbb3e3b12	-0.0029026908
244	0x3be976b5	0.0071247467
245	0x3c51bc46	0.012801236
246	0xaa0c2ae2	-1.2449376e-13
247	0xb0b53510	-1.3184565e-09
248	0x3c3a8130	0.01138334
249	0xaeaa12ce	-7.7340453e-11
250	0xbc68b3d7	-0.014203033
251	0xbcf79a6a	-0.030224998
252	0xbce94611	-0.028475793
253	0x3cdb8d25	0.026800701
254	0xb8cfdcb1	-9.911636e-05
255	0xbba62531	-0.0050703515

bias f4 [256]
0	0x3dc98657	0.098400764
1	0x3d60fc53	0.054928135
2	0x3d13af93	0.036056112
3	0x39b1035a	0.00033762568
4	0x3be0f4c5	0.0068651163
5	0xb2701381	-1.3974273e-08
6	0x3d9d98da	0.0769517
7	0xbb51edef	-0.0032032689
8	0xbd1cdba4	-0.038295403
9	0x3c993e74	0.018706538
10	0x3c3b3205	0.0114255
11	0xb38b55dd	-6.48831e-08
12	0x3d613441	0.054981474
13	0xbd7a95fc	-0.061178192
14	0x3bd32b71	0.0064443876
15	0xbc682b72	-0.014170514
16	0x3d3cc79e	0.046088807
17	0xbc101231	-0.0087934
18	0x3b3d9790	0.002892945
19	0x3ca829f8	0.020527825
20	0x3cc396b8	0.02387558
21	0x3c02f362	0.007992597
22	0xbaee61f8	-0.0018187156
23	0x3b72fd09	0.003707709
24	0x3d365553	0.044514965
25	0x3d71a275	0.05899282
26	0x3b07ae78	0.0020703357
27	0x3d61f304	0.0551634
28	0xb2d7aa6a	-2.510679e-08
29	0x3db43750	0.087996125
30	0xb9807d6d	-0.00024507512
31	0x3d15e76e	0.03659766
32	0xbcfeca3b	-0.03110229
33	0x3d111efe	0.035429947
34	0xbbb572ab	-0.005537351
35	0xbc06fd47	-0.008239097
36	0x3d84dfeb	0.064880215
37	0x3d684e72	0.056715436
38	0x3d5376c2	0.05162693
39	0x3d30c744	0.043158785
40	0x3cdcdced	0.026960814
41	0x3d3080ca	0.043091573
42	0x3d9e279b	0.07722398
43	0x3c81d674	0.01584933
44	0xb7b74242	-2.1846154e-05
45	0x3cf7fb33	0.030271148
46	0xbd3b0cc9	-0.04566649
47	0x3d44e484	0.048069492
48	0x3ddb3dc0	0.10705137
49	0x3c2f011c	0.010681417
50	0x3c20e550	0.009820297
51	0x3ccff54e	0.025385525
52	0x3c509a76	0.012732139
53	0x3d76fc0a	0.060298957
54	0x3d294b2d	0.04133146
55	0xb8445edb	-4.6818383e-05
56	0x3cbc1e4b	0.022963664
57	0xb845d341	-4.7165206e-05
58	0x3a9ea89c	0.0012104693
59	0x3cfabbca	0.030607123
60	0xbcd42f1c	-0.02590137
61	0x3cf7d43c	0.030252568
62	0x3d4d19b0	0.050073326
63	0xbd249d20	-0.04018891
64	0x3d10977e	0.035300724
65	0x3da92f07	0.08260923
66	0xbbb9806e	-0.005661062
67	0x3bf8461a	0.007576716
68	0x3d418560	0.047246337
69	0x3d630775	0.055427033
70	0x3d8ae86d	0.06782613
71	0x3c2df7b0	0.010618135
72	0x3cd1aed4	0.02559606
73	0x3cb87e54	0.022521175
74	0x3d937bf2	0.07201375
75	0xbb2e9a75	-0.0026642357
76	0xb93fc46c	-0.00018288352
77	0x3bf5e5c2	0.007504196
78	0x3d5f6323	0.054537904
79	0x3dacf577	0.08445256
80	0xabad5617	-1.2316284e-12
81	0xb8421dfa	-4.6281122e-05
82	0x3c654952	0.013994532
83	0xbc870da3	-0.016485995
84	0x3c584766	0.013200616
85	0x3d37dc1e	0.044887654
86	0xbcacd06a	-0.021095473
87	0x3c967164	0.018364616
88	0x3ce0134b	0.02735295
89	0xb712893c	-8.7342305e-06
90	0x3d5dd9ff	0.054162975
91	0xb982a95c	-0.00024921715
92	0x3d7aeedd	0.061262954
93	0xbba755f2	-0.005106681
94	0x3cefc992	0.02927092
95	0xbc06ba59	-0.00822314
96	0x3d0d5cdc	0.034512386
97	0x3c39854b	0.011323283
98	0x3d0fb0ce	0.035080723
99	0xbc5beeff	-0.01342368
100	0xbca6383c	-0.020290487
101	0x3d8e0f58	0.0693652
102	0x3dfd640a	0.123725966
103	0xbbcd3557	-0.006262462
104	0x3d517e36	0.051145755
105	0x3c3ef8cd	0.011655998
106	0x3d185a68	0.037195593
107	0x3d74981d	0.05971538
108	0xbc8c7ceb	-0.01714941
109	0xba335649	-0.00068411656
110	0x3d4a3aa9	0.04937235
111	0xbca7638f	-0.020433215
112	0x3d2e8ee5	0.042616744
113	0x3d25a6dc	0.040442333
114	0x3cb297dd	0.02180093
115	0xb6acfd2e	-5.1554734e-06
116	0x3d1f2aa1	0.038859013
117	0x3c5b4ae7	0.013384557
118	0x3d053f27	0.03253093
119	0x3d3f2945	0.046670217
120	0x3cc6ed7b	0.024283161
121	0xbaebd306	-0.0017991967
122	0x3d52461b	0.05133639
123	0x3d6f4742	0.058417566
124	0xba1a663d	-0.00058898685
125	0xbc19fa71	-0.009398089
126	0x3d78dfe2	0.060760386
127	0xba5bac6f	-0.00083798816
128	0x3d0df4e3	0.03465737
129	0x3d865476	0.065590784
130	0x3d27e387	0.04098847
131	0xbcdbe349	-0.026841776
132	0x3cc4ab5b	0.02400749
133	0x3d1236f1	0.035696927
134	0x3ce37a83	0.02776838
135	0x3cba498a	0.022740144
136	0x3d8cd59b	0.068766795
137	0x3d4a5830	0.04940051
138	0x3bbd7abb	0.005782453
139	0xbba1ea47	-0.004941258
140	0xbbf6927d	-0.007524787
141	0x3dad5b42	0.08464672
142	0xb7c5b52c	-2.3568595e-05
143	0x3d61707d	0.055038918
144	0x3ce5ea91	0.028065952
145	0x3d0ac6d9	0.033881042
146	0xbddbee51	-0.107388146
147	0xbc1dcfdd	-0.009632078
148	0xb9ea5ee4	-0.00044702657
149	0xb85b8070	-5.2333286e-05
150	0xbbe1dd96	-0.00689287
151	0x3cdfd092	0.027321134
152	0x3c98b86f	0.018642632
153	0xbd2480ae	-0.04016178
154	0xba88a7ad	-0.0010425948
155	0x3e1e1b2a	0.1544005
156	0x3d045994	0.03231199
157	0x3d0849f4	0.033273652
158	0x3b4d4265	0.0031320092
159	0x3d09ba54	0.033624962
160	0x3cd855df	0.026408134
161	0x3ce01fba	0.027358878
162	0x3d6794f1	0.056538526
163	0x3d8dd2ed	0.069249965
164	0xb39f0f4b	-7.406796e-08
165	0xba02f326	-0.00049953384
166	0x3d628a0d	0.055307437
167	0x3d5b6dfd	0.05357169
168	0x3d467b8f	0.04845768
169	0x3d5a8e73	0.053358506
170	0x39b30343	0.0003414397
171	0xbc6e71b6	-0.014553478
172	0x3daa0bf1	0.08303059
173	0xbb378126	-0.0028000562
174	0x3d1f0b30	0.03882903
175	0x3c65a9bb	0.014017518
176	0xb9edf35b	-0.00045385477
177	0xb5cc6312	-1.5228018e-06
178	0x3d444836	0.04792043
179	0x3bcc016f	0.006225757
180	0xbca7eee7	-0.02049966
181	0x3c3d1ae4	0.011542056
182	0x3ce1c10a	0.027557869
183	0x3d2c7c08	0.042110473
184	0xb80b4605	-3.3205393e-05
185	0x3c4ca1da	0.01248976
186	0x3cf09c64	0.029371448
187	0x3cb42e63	0.021994775
188	0x3a42f92b	0.00074376416
189	0x3ca404e7	0.020021869
190	0x3cc14652	0.023593102
191	0x3dad47a5	0.08460931
192	0x3d0b8483	0.03406192
193	0x3d47391a	0.04863844
194	0x3d22512d	0.039628197
195	0x3c710fcb	0.014713238
196	0xb4b677e1	-3.3987365e-07
197	0xb69bfab5	-4.648546e-06
198	0x3db8ce4b	0.09023722
199	0xbd54e0dc	-0.051972255
200	0xbbe26613	-0.006909141
201	0x3d43d060	0.047806144
202	0x3c03e88d	0.00805105
203	0x3d22b548	0.039723665
204	0xbc94d111	-0.018166097
205	0x3c06bb6d	0.008223397
206	0xb9627e54	-0.000216001
207	0x3d65dcba	0.056118704
208	0x3ca2bd2a	0.019865591
209	0x3ce5b7b2	0.028041694
210	0x3ca6d7d3	0.020366585
211	0x3cf45a93	0.029828345
212	0xbd017e21	-0.031614427
213	0xbd148265	-0.036257166
214	0xb9faddda	-0.00047849008
215	0x3c30fab3	0.010801959
216	0xb9fbcb33	-0.00048025846
217	0x3d3e2494	0.046421602
218	0xb7ca0c3c	-2.4085974e-05
219	0x3d3d5261	0.04622114
220	0x3b1ca1de	0.0023900191
221	0xbdd28b8e	-0.10280524
222	0x3cecf397	0.028924746
223	0x3d030f49	0.031997
224	0x3d44a7d7	0.048011627
225	0xb8ae6f80	-8.317735e-05
226	0x3c95a133	0.018265342
227	0xbccb7b04	-0.024838932
228	0x3d45370c	0.0481482
229	0x3cdbe2b6	0.026841503
230	0xb0b0d657	-1.2866604e-09
231	0x3c45788f	0.012052669
232	0x3d149e0c	0.036283538
233	0xbc843029	-0.016136246
234	0xbae7270c	-0.0017635538
235	0x3da32f01	0.0796795
236	0x3bc7cb9e	0.006097271
237	0x3d2cf6af	0.042227443
238	0xb8681dd3	-5.5340886e-05
239	0xb58c517a	-1.0454526e-06
240	0xb8385bba	-4.3954446e-05
241	0x3ac61ea8	0.0015115337
242	0x3b83272f	0.004002474
243	0x3dbf4902	0.09340097
244	0xbcb6d94d	-0.022320414
245	0x3db57b2b	0.08861383
246	0x3db4472c	0.088026375
247	0xbcce5945	-0.025189051
248	0x3d47b20c	0.048753783
249	0x3d15383f	0.036430594
250	0x3d832c24	0.064049035
251	0x3c57b169	0.0131648565
252	0x3ceb735f	0.028741537
253	0xb9357e4f	-0.00017308559
254	0xbc298d9a	-0.010348702
255	0x3ca57cbb	0.020201078

weight f4 [4, 256]
0	0x3e03e342	0.1287966
1	0x3e69c24d	0.22828026
2	0x3e165770	0.14681792
3	0xbe0edb4b	-0.13950841
4	0xbe18fe70	-0.1494081
5	0x3287fdf0	1.5831546e-08
6	0xbf0d9c27	-0.55316395
7	0xbecdbabd	-0.40181533
8	0xbd96f59c	-0.07371065
9	0x3ea8fb2c	0.3300413
10	0x3ddf6e0c	0.10909662
11	0x351ee258	5.918896e-07
12	0xbe710087	-0.23535357
13	0x3ec74878	0.38922477
14	0xbe367413	-0.17817716
15	0xbe6e56af	-0.23275255
16	0x3e37b5c8	0.17940438
17	0xbeacefcd	-0.33776703
18	0x3dc21af7	0.094777994
19	0xbe20003d	-0.15625091
20	0xbe932871	-0.28741792
21	0xbdae36f9	-0.08506579
22	0xbe5eddd7	-0.21764313
23	0xbe9bfd89	-0.3046687
24	0xbe6c5a24	-0.23081261
25	0xbda73f03	-0.081663154
26	0x3c7c2175	0.015388836
27	0x3e44515e	0.19171664
28	0xb3a4a9bf	-7.667722e-08
29	0xbf0f6c7f	-0.56024927
30	0x39200081	0.00015258977
31	0xbe7176aa	-0.23580423
32	0xbe4e3fa1	-0.2014146
33	0xbdb26333	-0.08710327
34	0x3e15f25c	0.14643234
35	0xbe444c1d	-0.1916966
36	0xbe289981	-0.16464807
37	0x3df38fd6	0.11892669
38	0xbda73277	-0.08163922
39	0x3d932115	0.07184044
40	0x3dcf7e0b	0.10131463
41	0xbdf46d28	-0.119348824
42	0x3e82767c	0.2548102
43	0x3e07b1fc	0.1325149
44	0x38845d5f	6.311642e-05
45	0xbb7d5d1c	-0.0038660234
46	0xbe2b1ff3	-0.16711406
47	0x3dd2ff86	0.103026435
48	0xbe8de4ff	-0.27713773
49	0x3d953f92	0.07287516
50	0x3e75e392	0.24012592
51	0x3e0403a4	0.12892014
52	0xbed58f27	-0.4171078
53	0xbe9627c2	-0.29327208
54	0xbe2c661f	-0.16835831
55	0xb846a13c	-4.735704e-05
56	0x3e4ed07c	0.20196718
57	0x392f1895	0.00016698458
58	0x3d91b483	0.07114508
59	0x3df20e6b	0.11819156
60	0xbe2edd79	-0.17076673
61	0x3e064462	0.13112023
62	0xbdfd6406	-0.123725936
63	0xbe5dfe30	-0.21678996
64	0xbdfdd8e9	-0.12394888
65	0xbea962d6	-0.33083218
66	0x3e152060	0.14563131
67	0xbe5615da	-0.20906773
68	0xbd02de36	-0.031950198
69	0xbd736e0c	-0.05943112
70	0xbf097be0	-0.53704643
71	0xbe0b2372	-0.1358774
72	0x3cd32075	0.025772313
73	0xbdb87a0b	-0.09007653
74	0x3e80828a	0.25099593
75	0x3dc68b6a	0.0969456
76	0xb8f32312	-0.00011593675
77	0xbe3d9ac8	-0.18516076
78	0x3e40b820	0.18820238
79	0x3e1c43ad	0.15260191
80	0xaac166a2	-3.4354903e-13
81	0xb9a920ed	-0.00032258724
82	0x3bea0c1e	0.0071425578
83	0x3d9ce363	0.07660558
84	0xbd7aa5b0	-0.06119317
85	0x3cd7f984	0.026364096
86	0x3e261b91	0.16221453
87	0x3e53daf4	0.20688993
88	0x3d9f4b33	0.07778015
89	0xb69e81c8	-4.7238755e-06
90	0x3e19f057	0.15033089
91	0x3a4da1e4	0.0007844253
92	0x3c66dda7	0.014090932
93	0xbe323ee9	-0.17406811
94	0xbe47f2c5	-0.19526203
95	0xbe015125	-0.1262861
96	0x3df7890f	0.12086689
97	0x3e66c85b	0.22537367
98	0xbe0a2927	-0.13492261
99	0xbe9c86ac	-0.30571496
100	0x3e511346	0.20417508
101	0xbe3c4621	-0.18386127
102	0xbee9ff35	-0.4570252
103	0x3cf4a03b	0.02986156
104	0xbe1b39f3	-0.15158825
105	0xbecc06a3	-0.39848813
106	0xbe43f3df	-0.19135998
107	0xbd4083fc	-0.04700087
108	0x3db5fe4b	0.08886393
109	0xbce69d3f	-0.028151153
110	0x3e02b6ab	0.12764995
111	0x3dd042b0	0.1016897
112	0xbe1d6291	-0.15369631
113	0xbbbc80d6	-0.005752663
114	0xbd0dfc52	-0.03466446
115	0xb5b328e0	-1.3348435e-06
116	0xbe66c1b3	-0.22534828
117	0xbea57b5f	-0.32320687
118	0x3da795c0	0.081828594
119	0x3db87dbf	0.09008359
120	0xbb7c6359	-0.0038511364
121	0x3e21086a	0.15725866
122	0xbc275be5	-0.01021478
123	0x3e41ace8	0.18913615
124	0x3960f25b	0.00021452589
125	0x3e11ff17	0.14257465
126	0x3cf0b591	0.029383453
127	0xba79b1fb	-0.00095251173
128	0xbe8a48b0	-0.2700858
129	0xbebfa4be	-0.37430376
130	0x3d0b2a03	0.033975612
131	0xbd9c4544	-0.07630399
132	0x3da8a569	0.082346745
133	0xbe3ab405	-0.18232735
134	0x3db42091	0.08795274
135	0xbd777bdd	-0.06042086
136	0xbe3c162a	-0.1836783
137	0x3d5082ab	0.050905865
138	0xbe473fdc	-0.19457954
139	0x3dbd3c07	0.09239965
140	0xbe37b6d5	-0.17940839
141	0x3e738115	0.2377971
142	0x3e17c5d0	0.14821553
143	0xbdaf5c36	-0.0856251
144	0x3e5bca6f	0.21463941
145	0xbe695026	-0.2278448
146	0xbe79ed01	-0.24406816
147	0x3dbd6d13	0.0924932
148	0xb76dfdad	-1.4185364e-05
149	0xb5d5facf	-1.5942732e-06
150	0x3dd53a72	0.10411538
151	0xbe284821	-0.16433765
152	0x3c86957e	0.016428705
153	0xbe348167	-0.17627488
154	0x3ab2a6a1	0.0013629982
155	0x3e74b081	0.23895456
156	0xbe2fd8f5	-0.17172606
157	0x3e0f0278	0.13965786
158	0xbc0cee7f	-0.008601784
159	0xbcce4d48	-0.025183335
160	0xbe404d20	-0.18779421
161	0xbd824554	-0.063608795
162	0x3de9b7c5	0.114120044
163	0x3d8564f0	0.06513393
164	0xb24ed081	-1.20381864e-08
165	0x382da1b1	4.1397e-05
166	0x3e174a12	0.1477435
167	0x3ccc5c06	0.024946224
168	0x3e6efc76	0.23338494
169	0xbe7c2b18	-0.24625814
170	0xbea17636	-0.315355
171	0xbe05957d	-0.13045307
172	0xbe819712	-0.2531057
173	0xbe2f280b	-0.17105119
174	0xbda4d384	-0.08048156
175	0x3d337871	0.043816034
176	0xbe1a75b1	-0.15083958
177	0x37501174	1.240183e-05
178	0x3e275692	0.16341618
179	0x3e008307	0.12549983
180	0xbe9c9d8d	-0.30588952
181	0xbe8d5bec	-0.27609193
182	0x3da5330c	0.08066377
183	0xbde9341b	-0.113868915
184	0x3a1a4efa	0.0005886402
185	0x3e6165ba	0.22011462
186	0x3e5eb086	0.21747026
187	0xbc171727	-0.009221829
188	0xbe468fdc	-0.19390815
189	0x3d29024a	0.04126195
190	0x3e5e3552	0.21700028
191	0x3e773a0e	0.2414324
192	0x3ca99131	0.020699115
193	0x3e1b9782	0.15194514
194	0x3df1602d	0.11785922
195	0x3e0d5b03	0.1380425
196	0xb5890233	-1.0207935e-06
197	0x3832e2ac	4.264961e-05
198	0x3e14a364	0.14515454
199	0xbe624eab	-0.22100322
200	0xbe4c1823	-0.19931082
201	0x3de792f7	0.11307328
202	0x3d94f59c	0.07273409
203	0xbdd8d951	-0.10588325
204	0xbe89144c	-0.26773298
205	0x3e03b2b4	0.12861139
206	0xb817972a	-3.6141988e-05
207	0xbd581619	-0.05275545
208	0x3e0b6689	0.13613333
209	0xbeba6f07	-0.36412832
210	0x3c8e4f0d	0.017371679
211	0xbe0c4f94	-0.13702232
212	0xbe816d81	-0.25278857
213	0xbe80be24	-0.25145066
214	0xb9863483	-0.00025597596
215	0x3d071a3e	0.03298401
216	0xb919b1e4	-0.00014657486
217	0x3c841224	0.016121931
218	0xb983826f	-0.00025083448
219	0x3e67712b	0.22601764
220	0x3d3569a1	0.04429019
221	0x3f02b97c	0.51064277
222	0xbecbe891	-0.39825872
223	0x3d9e20d1	0.07721103
224	0xbc282c5f	-0.010264485
225	0x390a2b4f	0.0001317684
226	0x3e835755	0.25652567
227	0xbe509e06	-0.20372781
228	0x3d08c0e8	0.033387095
229	0xbb8f9aa9	-0.0043824506
230	0x2eac6ded	7.841181e-11
231	0x3d0829e1	0.033243064
232	0x3da72c7f	0.08162784
233	0x3e050ac0	0.12992382
234	0x3e2d61f0	0.16931891
235	0xbe51becf	-0.20482944
236	0xbdd2c818	-0.10292071
237	0xbe542d14	-0.20720321
238	0xba2fac8e	-0.0006701433
239	0x3448a0b1	1.868491e-07
240	0xb8943363	-7.0667615e-05
241	0x3e0eeb9e	0.13957068
242	0xbd8b0168	-0.067873776
243	0x3e915c27	0.2839062
244	0xbeaa6c22	-0.33285624
245	0x3e0bdd4c	0.13658637
246	0x3e8538ce	0.260199
247	0x3e8f4b17	0.27986977
248	0xbd6e885d	-0.058235515
249	0x3d411fab	0.04714934
250	0x3e20302c	0.15643376
251	0xbea69da6	-0.3254215
252	0xbddb2969	-0.10701258
253	0xb61776d8	-2.256993e-06
254	0xbe9b9824	-0.30389512
255	0x3d7c4db5	0.061597545

bias f4 [4]
0	0x3bc836d0	0.00611005
1	0x3b8cde12	0.004298934
2	0xba02369f	-0.00049672456
3	0xb80c03c5	-3.338211e-05
