checkpoints/swarm_1d/unknown/95pct-constraint/policy_final.pt (torch, 124255 bytes, 6 tensors)

weight f4 [64, 401]
00000000: efee 0fbd e7bc 0037 9352 e836 0b0b c336
00000010: b291 ac36 779f 8b36 fbaa 3636 dad0 4635
00000020: 8356 ea35 9b09 1d35 8a18 3fb5 eda4 fcb5
00000030: c0c0 abb6 12ab 96b6 f818 c3b6 8d15 f2b6
00000040: b74c 23b7 db09 1fb7 3de9 30b7 40b0 40b7
00000050: e4de 57b7 1c94 5cb7 19e0 63b7 9e04 68b7
00000060: 4ae8 6cb7 3508 69b7 50d0 69b7 2525 62b7
00000070: 331a 59b7 8396 4fb7 f998 43b7 0e76 36b7
00000080: b95d 28b7 aa83 19b7 b7e7 0ab7 ded2 feb6
00000090: bbae d5b6 02a6 b9b6 75b5 9ab6 a974 97b6
000000a0: 63d8 4bb6 24d3 06b6 ab7a b0b5 1c22 73b5
000000b0: 0021 1fb4 a53a 9f34 7d8d 3d35 131b 7635
000000c0: 73a5 9535 8164 9435 f146 a635 19d8 c135
000000d0: b639 5135 ec1e 2635 c4d2 7235 cf38 48b4
000000e0: eb44 80b4 a590 54b5 f060 d7b5 0b82 10b6
000000f0: 68c1 36b6 889b 03b6 2c46 73b6 ceba 96b6
00000100: 33b1 95b6 1798 bab6 e726 c5b6 af5c d8b6
00000110: 52ce f4b6 eae9 01b7 eb78 07b7 fd22 e0b6
00000120: ec90 1cb7 0fb4 feb6 2889 06b7 44ea 32b7
00000130: 5502 15b7 011c 33b7 584c 42b7 d686 4eb7
00000140: ded8 2cb7 b906 46b7 5f32 34b7 5aa4 38b7
00000150: dc6e 56b7 4341 41b7 4c1f 70b7 56bc 66b7
00000160: 63d4 6db7 8c67 78b7 1ce6 79b7 80d4 5cb7
00000170: 0243 7cb7 ef51 51b7 b73d 7fb7 cc00 7ab7
00000180: b301 5bb7 c846 65b7 14d9 7eb7 5436 7bb7
00000190: 7818 7db7 b2dd 4eb7 d655 7ab7 4d65 76b7
000001a0: 1d60 76b7 1ff9 74b7 097f 70b7 0b40 55b7
000001b0: 84a2 40b7 5004 4bb7 21ca 3cb7 560d 65b7
000001c0: b4b9 58b7 96bf 40b7 2185 63b7 34ef 61b7
000001d0: 070a 46b7 1c2f 33b7 7fe2 48b7 55b5 5cb7
000001e0: bfac 5bb7 5c5d 48b7 851b 4bb7 fbe6 58b7
000001f0: bef7 38b7 99c8 56b7 02d9 40b7 c30c 54b7
00000200: 526e 35b7 500a 53b7 9475 2fb7 c921 4cb7
00000210: 2764 4eb7 ce6c 4cb7 14eb 48b7 470b 2ab7
00000220: 940e 2bb7 1c73 40b7 0c96 24b7 2911 39b7
00000230: 82b8 2ab7 c0b0 2eb7 2978 30b7 54e9 2bb7
00000240: 8489 27b7 597d 1cb7 0802 1eb7 5829 0fb7
00000250: 8f5c feb6 9aa3 f6b6 dab2 0ab7 ab1a f4b6
00000260: 30c7 ffb6 cbee e8b6 d360 ceb6 56fa bbb6
00000270: b14f b2b6 d397 cab6 66f0 bfb6 b7b9 b5b6
00000280: b7dd aab6 9bb8 80b6 dda0 7fb6 8fd8 8ab6
00000290: d19a 7fb6 bd52 6bb6 7f31 55b6 421f 41b6
000002a0: d16a 04b6 2743 17b6 1316 ddb5 0c13 dcb5
000002b0: fe47 37b5 5787 83b5 951f 8d34 9384 1a35
000002c0: dac4 1235 7631 2835 d30c bd35 891c 6835
000002d0: ea22 f135 7b83 1836 2863 c735 f226 3836
000002e0: 2729 0636 79ac 5736 9492 2f36 1df6 3736
000002f0: 5508 8736 0b1e 6536 3481 a036 4dc6 7c36
00000300: 175d 8236 d760 a236 0542 b536 52bc c636
00000310: af7c 9d36 f9ec cc36 113c d936 969a cc36
00000320: 8e6b b736 8493 bc36 1717 c236 17ca f736
00000330: e1a9 f536 9a54 d236 3ed1 0037 3597 0337
00000340: 421e 0a37 7112 1137 c033 f236 fff9 0c37
00000350: 44ab f236 7b06 0437 9f85 1037 1b5e fe36
00000360: b0be 1f37 3552 0237 1945 0b37 a29b 0437
00000370: ea5d 0937 d9a2 1e37 4a8b 2637 9c43 2037
00000380: 5890 2a37 799b 0b37 681b 2337 0d12 2637
00000390: 2314 1737 3e39 1437 bc7a 1137 7a99 2437
000003a0: 20ec 0c37 c702 2637 39c1 1d37 6a69 2437
000003b0: 495d 0d37 5884 2437 da23 0b37 3558 2237
000003c0: 0b3d 2137 90e3 2037 26ea 1337 3f19 0737
000003d0: 620d 0637 7c18 0537 f428 1e37 a80f 1a37
000003e0: 523c 0f37 cb96 1b37 f13e 1937 ed2e 1437
000003f0: 43d9 fa36 514b 0737 ea60 f436 ee9a f436
-0.035139974 7.673377e-06 6.9237517e-06 5.8127384e-06 5.1429606e-06 4.161087e-06 2.7219637e-06 7.4064667e-07
1.7459537e-06 5.8501035e-07 -7.1188754e-07 -1.8823463e-06 -5.118636e-06 -4.4902636e-06 -5.8143596e-06 -7.214671e-06
-9.733419e-06 -9.479433e-06 -1.05447225e-05 -1.1485128e-05 -1.2866894e-05 -1.3147506e-05 -1.3582431e-05 -1.3829353e-05
-1.412078e-05 -1.3889793e-05 -1.3936384e-05 -1.3479298e-05 -1.2940308e-05 -1.2373205e-05 -1.1658522e-05 -1.0875532e-05
-1.0035402e-05 -9.150166e-06 -8.279391e-06 -7.594338e-06 -6.368236e-06 -5.5327555e-06 -4.610682e-06 -4.5137317e-06
-3.037531e-06 -2.0090456e-06 -1.3148723e-06 -9.057419e-07 -1.4820034e-07 2.9658727e-07 7.061388e-07 9.168154e-07
1.1149517e-06 1.105611e-06 1.238861e-06 1.4442513e-06 7.794255e-07 6.1884816e-07 9.045873e-07 -1.8647118e-07
-2.3892002e-07 -7.918664e-07 -1.6046961e-06 -2.1533367e-06 -2.723269e-06 -1.9611052e-06 -3.6250667e-06 -4.4920953e-06
-4.4611747e-06 -5.5609376e-06 -5.8755863e-06 -6.4480914e-06 -7.2957855e-06 -7.7434615e-06 -8.07478e-06 -6.6797934e-06
-9.332067e-06 -7.5907515e-06 -8.018957e-06 -1.0664171e-05 -8.881635e-06 -1.0675752e-05 -1.1581076e-05 -1.2309951e-05
-1.0302492e-05 -1.1803285e-05 -1.0740564e-05 -1.1005521e-05 -1.2781205e-05 -1.1518891e-05 -1.4312402e-05 -1.3752919e-05
-1.4175751e-05 -1.4806061e-05 -1.4895133e-05 -1.3162498e-05 -1.5035972e-05 -1.2476447e-05 -1.52135535e-05 -1.4901347e-05
-1.3053813e-05 -1.3665944e-05 -1.5190122e-05 -1.4973415e-05 -1.5085672e-05 -1.2330174e-05 -1.4921146e-05 -1.46863285e-05
-1.4685121e-05 -1.4601536e-05 -1.4334692e-05 -1.27107005e-05 -1.148193e-05 -1.2100747e-05 -1.1252735e-05 -1.3652569e-05
-1.2917841e-05 -1.1488699e-05 -1.3561251e-05 -1.3466739e-05 -1.1804054e-05 -1.06802e-05 -1.1973664e-05 -1.31552415e-05
-1.3093638e-05 -1.1942666e-05 -1.210615e-05 -1.2928383e-05 -1.1024937e-05 -1.2802099e-05 -1.1494618e-05 -1.2639156e-05
-1.0814127e-05 -1.2578981e-05 -1.0458189e-05 -1.2167214e-05 -1.2301875e-05 -1.2184681e-05 -1.1975662e-05 -1.0135415e-05
-1.01957885e-05 -1.1470893e-05 -9.810097e-06 -1.1030855e-05 -1.0175749e-05 -1.0412361e-05 -1.0518394e-05 -1.024672e-05
-9.9859935e-06 -9.327509e-06 -9.418007e-06 -8.53309e-06 -7.580565e-06 -7.350417e-06 -8.267083e-06 -7.274871e-06
-7.6227807e-06 -6.941938e-06 -6.1505502e-06 -5.602177e-06 -5.3140907e-06 -6.037744e-06 -5.7202296e-06 -5.4158404e-06
-5.092206e-06 -3.836188e-06 -3.8091596e-06 -4.1379312e-06 -3.8088076e-06 -3.5065889e-06 -3.1768284e-06 -2.8777436e-06
-1.9731708e-06 -2.2539841e-06 -1.6472208e-06 -1.6396821e-06 -6.8277575e-07 -9.79965e-07 2.6286276e-07 5.756239e-07
5.4675695e-07 6.265685e-07 1.408533e-06 8.646826e-07 1.796606e-06 2.2726297e-06 1.4855514e-06 2.7440806e-06
1.999151e-06 3.213789e-06 2.6162352e-06 2.7412382e-06 4.0242835e-06 3.4141146e-06 4.783413e-06 3.7666352e-06
3.885139e-06 4.83925e-06 5.401906e-06 5.922783e-06 4.6934797e-06 6.107261e-06 6.4740966e-06 6.09767e-06
5.466346e-06 5.6200097e-06 5.7843386e-06 7.3847e-06 7.3213455e-06 6.2683366e-06 7.6781125e-06 7.843414e-06
8.232486e-06 8.646967e-06 7.2181865e-06 8.402857e-06 7.2321e-06 7.869322e-06 8.61418e-06 7.580745e-06
9.521536e-06 7.767744e-06 8.301134e-06 7.904049e-06 8.187702e-06 9.45545e-06 9.926802e-06 9.552485e-06
1.0166397e-05 8.321244e-06 9.721938e-06 9.898574e-06 9.00499e-06 8.834815e-06 8.67125e-06 9.810896e-06
8.399627e-06 9.895018e-06 9.402917e-06 9.799705e-06 8.425975e-06 9.805975e-06 8.293393e-06 9.67649e-06
9.6105605e-06 9.589727e-06 8.8164e-06 8.052505e-06 7.990138e-06 7.9331185e-06 9.427069e-06 9.182761e-06
8.537509e-06 9.273829e-06 9.134165e-06 8.832413e-06 7.475873e-06 8.064163e-06 7.283049e-06 7.289803e-06

bias f4 [64]
00000000: a7af 8038 0801 3a3e 7e3c 73be e043 4b3e
00000010: 1331 0ebc 87d1 423e 0c34 99bd 8599 b93d
00000020: 4035 f53d 3feb 70bb a90b 53bb 2b33 22bc
00000030: 66b7 2e3d e809 4ebd 7379 d23c 04ea 503e
00000040: 4813 083d 7eb0 133d 8e93 a1bd 57ee d73d
00000050: d872 bebb 4c9e 87bb ba1b 3ebe 3abb 60bc
00000060: 05ce 5cbe adbb ceba 8315 7eba 756e 9cbd
00000070: 0bda 493e 8c80 553e a277 0fbd d276 da3d
00000080: 09b4 a93c 6fb7 903d b0b3 95bd 56ac b53d
00000090: 3348 73be bbcb 50bd f39d 903d f3ae 5cbc
000000a0: 86d7 593d 36f4 f8bb 5e22 c5b9 c487 f83d
000000b0: 2052 223d a7b3 073c b78b 1bbc 0a96 5dbe
000000c0: 023e 3bbc 8642 8bbd c306 92bd c293 f93d
000000d0: ded7 a4bd 4e1e 5c3e ed65 06bb 29ee 9cbb
000000e0: 79c8 37bc d002 31bc 5ed5 0fbc a1e5 eebb
000000f0: 5360 5cbe 7d28 d23d 6294 55be dc70 41bc
6.1362334e-05 0.18164456 -0.23753545 0.19850111 -0.008678692 0.19025241 -0.0748063 0.09062485
0.11973047 -0.0036761311 -0.0032202995 -0.009899895 0.04265537 -0.050302416 0.025692677 0.2040177
0.033221513 0.036056988 -0.07889472 0.105435066 -0.0058120303 -0.0041387435 -0.18565264 -0.013716513
-0.21562965 -0.0015772484 -0.00096925366 -0.076382555 0.19712083 0.20849818 -0.0350262 0.106671944
0.02071573 0.07066237 -0.07309663 0.08870761 -0.2375801 -0.050975543 0.070613764 -0.0134694455
0.053184055 -0.0075974716 -0.00037600374 0.1213527 0.0396291 0.008282579 -0.00949376 -0.21639267
-0.011428358 -0.06799798 -0.07130196 0.12186386 -0.08048986 0.21495935 -0.002050753 -0.004789133
-0.01121723 -0.010803893 -0.008778898 -0.0072905575 -0.2152112 0.10261629 -0.20857385 -0.011806693

weight f4 [64, 64]
00000000: 3f36 3d37 3f24 b2be 782d 2e3c 029a d2be
00000010: 7a35 acbe ce1e f63d 1348 f93b 7d2c ba3e
00000020: 6047 e0be 79fb 03bf f8a4 9e36 03d4 fabe
00000030: 6314 203f 1ed5 3bbc 6156 d0be a681 b63e
00000040: 64b6 be3e 086b 0e3f fd93 573b 0ca5 acbe
00000050: c82d 8536 10cc 9737 32d9 8a3c a8d4 17bf
00000060: 9692 2c3c e445 a135 9fe0 1e38 8270 fb3b
00000070: 5572 f43e 38c6 033e 2de1 d03a 3d36 79bd
00000080: c297 02bf 0add f13e 5818 0d3b 17f9 a33e
00000090: c46b 333c 6ceb 3bbc 7f66 18bf 925f eebe
000000a0: d9e9 b23e 6849 91be 362b 9c34 6c52 52be
000000b0: c268 d43e 4488 d73e fc16 a5be e68a 2b3c
000000c0: 9e67 8b39 72a0 013b 0550 073b 556b 51be
000000d0: c864 a03b 46d3 a63e db3f 3337 18a0 03bf
000000e0: 3807 4837 dfb8 9939 acbd d8be 7983 07bf
000000f0: 3ded 3e3c d21a 8fbe f0ea 243c 5efc bebe
00000100: 41fe c8b9 4212 b23c abca 64be 90c3 64bd
00000110: 0515 6d3e c6ce cebe 221d 89be cff3 71be
00000120: f153 3e3d f119 9f3e bbab ce38 f708 733e
00000130: 54c7 e4be 2356 09be d869 123d 9f19 a33e
00000140: b98b 963e fc1e f83d 7ade 8fbe 9538 433d
00000150: 1258 1139 41de d438 386e c1bd b467 46bb
00000160: 0947 dc3d b905 4a38 2bba d2b9 379e 6bbe
00000170: cc4d d93e d78f af3d 1e83 a23a 1a9b d63d
00000180: 7b03 9f3e 0fd4 d2be 0bbb 8fbe d79c 0bbf
00000190: 07aa 5bbe 159c 89be 4d53 153d 1eb9 7f3e
000001a0: ab19 bf3e cadb 353e 8233 3437 53dd 07be
000001b0: 053f 773e 9c98 bfbe 5fc0 a43c d8e0 793c
000001c0: b6d2 a639 ca8b aebe 67e9 95bd b02e 45bb
000001d0: 58d2 72be a19e 593e 1d55 6438 30e6 aa3e
000001e0: 592f 8339 33f4 1e39 bca4 ba3d c02b 2f3d
000001f0: 0172 8fbe 4c2b 59bd 02af 533d a512 ac3d
00000200: 83cb 6f39 e021 9b3e 7a85 2e3b 3b2b a13e
00000210: 7f75 09be 5bfd b13e 389c 8c3d c31c 903e
00000220: fa5e ae3d 9c63 57be b42b b1b8 a7ba 66bd
00000230: 1f8f f13e 7edc a83c 1918 b0bd a4a0 b73c
00000240: ac71 a7be 8091 bebe d57e 8fbb c690 5c3e
00000250: b310 0db9 a3c9 d3b8 a530 9f3d 5734 81be
00000260: ada8 fdbd 478d 50b8 3380 1339 45b0 e53b
00000270: 75a4 d8bd 9854 8c3e 38f8 8bba 7d40 633e
00000280: 6b03 f0bd 6f00 d03e 6ef7 1c3e 3d36 873e
00000290: 6ee5 823d fb7a 633e e88c 96bd 1da7 87bd
000002a0: dfac 7cbe 82fc 74be ea18 39b7 887a 543d
000002b0: 649d ecbe c51c b73e 8d9e a23b afff debd
000002c0: 415c 8cb9 50ae 563e 21bd 333e 7490 383e
000002d0: 2abe 2f3e 7fa5 72be 12ad 5cb8 9818 61be
000002e0: e956 82b9 32bc 46b9 7ee4 d23c a1e3 47be
000002f0: 7d82 08bc 31ee 7e3d 93b0 d5bc 9e19 c23c
00000300: 04c7 2038 2a60 b8be 8dc5 183c 909c 7abe
00000310: e8df c0be ee9a 1e3e 8fa3 d83b 263f b03e
00000320: eb11 c2be 8a68 debe 882d d136 a62b ebbe
00000330: e15f d03e a328 3dbc f3db e4be 69fa aa3e
00000340: eca6 bd3e 7633 8c3e 728f 253b b5f1 75be
00000350: 5fd1 ceb5 7701 1b39 6178 7c3c c566 0abf
00000360: ff11 143c 3389 2a37 883d 1db4 eba9 023c
00000370: 2ab7 df3e b975 7b3e 6d57 493a f525 233b
00000380: c2d0 b3be e6f8 ba3e 7a47 ff3a f3e1 e93e
00000390: d570 1b3c c3f9 3abc 5cc0 00bf 24d2 cbbe
000003a0: fa9c 863e afb7 e8be 3e93 d437 8911 babe
000003b0: 57c2 b53e 6f6d bb3e 7826 c5be 2a3f 133c
000003c0: a770 0e39 bb60 e93a 5b07 cd3a 67ff 99be
000003d0: 905f 883b 5d19 4a3e 2a92 a2b5 def0 03bf
000003e0: f46c b639 f8ac 3138 044d c4be deaa e2be
000003f0: 28cd 263c d193 8abe 4b8e 113c 3493 e2be
1.1277908e-05 -0.3479328 0.010630958 -0.41133124 -0.3363455 0.12017594 0.007607469 0.36362067
-0.43804455 -0.5155559 4.727972e-06 -0.48989877 0.6253111 -0.011464385 -0.40690902 0.3564579
0.37248528 0.55632067 0.0032894604 -0.3371967 3.9690385e-06 1.8095627e-05 0.01694927 -0.5930886
0.010532996 1.2015776e-06 3.787933e-05 0.007673324 0.47743478 0.12868583 0.0015936248 -0.06084274
-0.51012814 0.47238952 0.0021529403 0.32025978 0.010950986 -0.011469703 -0.59531397 -0.4655729
0.34944037 -0.28376317 2.9088704e-07 -0.20539254 0.41486174 0.4209615 -0.32244098 0.010470128
0.00026589347 0.001977947 0.002064706 -0.204511 0.0048948266 0.32583064 1.0684099e-05 -0.5141616
1.192261e-05 0.00029320174 -0.42332208 -0.52934986 0.011653242 -0.2795015 0.010065779 -0.37301916
-0.00038336407 0.021737222 -0.22342937 -0.055850565 0.2315255 -0.4039213 -0.2678004 -0.23628162
0.04646677 0.3107448 9.854833e-05 0.23733889 -0.44683325 -0.13411765 0.03574547 0.31855485
0.29403475 0.12115285 -0.28099424 0.047661383 0.00013861086 0.00010150346 -0.09444851 -0.0030274214
0.107557364 4.8165883e-05 -0.00040193027 -0.23009573 0.42442167 0.08572357 0.0012398695 0.10478802
0.31057343 -0.41177413 -0.2807239 -0.54536194 -0.21451579 -0.26876894 0.036456395 0.2497296
0.3732427 0.17759624 1.0740829e-05 -0.13268022 0.24145134 -0.3742112 0.020111261 0.015251361
0.0003181898 -0.34091026 -0.073199086 -0.0030087642 -0.23713052 0.21251918 5.4438704e-05 0.33378744
0.00025021544 0.00015159025 0.09113452 0.042766333 -0.28016666 -0.053019807 0.051680572 0.08401994
0.0002286863 0.30299282 0.0026629851 0.31478295 -0.13423727 0.34763607 0.06865734 0.28146943
0.08514209 -0.21034092 -8.448158e-05 -0.05633035 0.47179505 0.020612951 -0.08598346 0.022415467
-0.32703912 -0.37220383 -0.004379133 0.21539602 -0.00013453029 -0.00010098822 0.0777295 -0.25235245
-0.12385688 -4.972264e-05 0.0001406677 0.0070095384 -0.10578243 0.2740829 -0.0010678833 0.22192569
-0.11719402 0.4062533 0.15328762 0.26408568 0.063914165 0.22214882 -0.073510945 -0.06623671
-0.2467532 -0.23924449 -1.103266e-05 0.051874667 -0.4621383 0.35764137 0.0049627484 -0.108886115
-0.00026771615 0.20964932 0.17552616 0.18023854 0.17162386 -0.23695944 -5.261327e-05 -0.21982038
-0.00024860285 -0.0001895286 0.02574372 -0.19520427 -0.008331892 0.062238876 -0.026085174 0.023693856
3.833232e-05 -0.36010867 0.0093244435 -0.24473786 -0.37670827 0.15488788 0.0066112946 0.34423178
-0.37904295 -0.43439132 6.233986e-06 -0.4593174 0.4069815 -0.011545333 -0.44699058 0.33394173
0.37041414 0.27383012 0.0025262502 -0.24017985 -1.5409131e-06 0.00014782498 0.01540956 -0.54063064
0.009037494 1.0164734e-05 -1.464415e-07 0.007975082 0.4369443 0.24556626 0.0007680569 0.002489445
-0.35120207 0.3651802 0.0019476258 0.45680198 0.0094873505 -0.011412087 -0.5029352 -0.39808762
0.2629164 -0.4545264 2.5340934e-05 -0.36341503 0.35499832 0.3660693 -0.38505912 0.008987227
0.00013584142 0.0017805317 0.0015642451 -0.3007767 0.0041617826 0.19736238 -1.211248e-06 -0.5153941
0.00034794922 4.236118e-05 -0.38340008 -0.44270986 0.010180749 -0.270659 0.008884023 -0.44252932

bias f4 [64]
00000000: 947e d9bd 7c5b cdbc 8586 393e 482b cfbd
00000010: 2e40 953d a182 c93d 893d 953d ec0f 473e
00000020: cab5 963d c2ce 3cbd c20e 453d 7498 4ebb
00000030: 97f0 273e 8b68 c53d b1ea 0e3e 92b3 123e
00000040: ef15 a2bc b7a0 7b3d fad4 23bd 5d8b b2bc
00000050: 5f14 aebd 8b31 3b3d 5681 223e 2c14 58bd
00000060: 775f 053d 3ba5 793d aa84 b6bc b9de d9bc
00000070: 7d7c 803c a574 82bd f0fc d1bd 7c99 52bb
00000080: 81b5 aa3d e814 31be 8cf5 5ebd 5aec 80bd
00000090: 2331 80be b336 97bc 37c5 d63d fbc9 663d
000000a0: 1be8 8b3d 638d 273e 7899 88bc 1b4f 34bc
000000b0: e937 553d f3d9 c8bc 5034 963c 21b8 a4b8
000000c0: 2b9c 36bd dfdf 283e c887 71bc d89c 543c
000000d0: 322d a63d 409d 8abd 580d f53d ffc2 9b3b
000000e0: e805 793e 7494 e23d 375e 683d 41bf 713d
000000f0: 8c81 623d 649f 443d 62af b6bc 05db 95bc
-0.10619846 -0.025068037 0.18117721 -0.10115677 0.07287632 0.098393686 0.072871275 0.19439667
0.07358892 -0.046095617 0.048109777 -0.0031523975 0.16400371 0.096390806 0.13956715 0.14326313
-0.01978585 0.061432566 -0.039998032 -0.02179497 -0.08499979 0.045701545 0.1586965 -0.052753612
0.032561745 0.06094859 -0.022280056 -0.02659546 0.01568436 -0.063699044 -0.10253322 -0.003213494
0.083354004 -0.17293131 -0.05443339 -0.062950805 -0.25037488 -0.0184587 0.104868345 0.056344967
0.0683138 0.16362529 -0.016674742 -0.011005188 0.052055273 -0.024517989 0.018335491 -7.854426e-05
-0.044582527 0.1649165 -0.014741845 0.012976848 0.08114089 -0.06768274 0.11965436 0.00475347
0.2431866 0.110634714 0.056730475 0.059020285 0.055299327 0.04800357 -0.022300426 -0.018292913

weight f4 [2, 64]
00000000: 45d7 683f 84cd 0bbf 5257 c73e 3c53 673f
00000010: 751c 35bf 95ec 103f 4336 c9be 6f2d ca3e
00000020: 7e79 073f e11e 16bf ad60 12bf 7747 b2b9
00000030: 4778 213f dfef 113f 709b 223f 76d7 dc3e
00000040: d5e7 a53e c13a 1abf 987b f7be 1fda 4bbf
00000050: 0113 0ebf b2f5 c5be 3b0b 233f 3c16 3abf
00000060: 8b14 12bf b9d5 01bf a5d4 1ebf d585 19bf
00000070: 2bd7 1d3f 0b3a 29bf 53c1 0dbf 9728 02bb
00000080: b8e5 023f a4d6 a2be ec1a 00bf 4ec4 ddbe
00000090: 479f c8be eafd 0fbf 45ee f0be 4423 f3be
000000a0: 5391 ed3e 99c9 243f c986 3d3f 8ab3 673f
000000b0: 8c1a 293f 2039 16bf c5c1 263f 524a 32b7
000000c0: 1780 ec3e 0c8d 3b3f 9bb9 ac3e a6d2 173f
000000d0: ddbc 1f3f 4788 dc3e 951b d6be e250 4fbe
000000e0: 18ea c43e c179 d2be c61d 4cbf 1e39 40bf
000000f0: ee32 22bf 7e45 273f 1bec a2be 2d44 d7be
00000100: c4dc 34be b76e 52be d5be 3cbe fc32 26be
00000110: 623a 2f3d 8b16 d8be e8cf c2ba d096 713e
00000120: ebda eabe b87d c4be f0ec 193e e40f 8738
00000130: c851 6e3e f7a8 dbbe 8575 aebe 8f55 5fbe
00000140: c3a2 9ebc fadc b6bd 3516 8cbd 9eab 923e
00000150: 0d9b 92bd 1fef 01bf ecc0 b6bd 8b04 8d3d
00000160: 821b 00bf a99d 44be 4ffc ac3d bf64 103e
00000170: 9d7a e33c b14c 6bbe c9b0 743e 8d82 f439
00000180: 00a9 943c 1d07 8dbd 37b1 a23e 0c90 b2bc
00000190: 84bf cd3d f516 303d ce57 02bf bdfe 58be
000001a0: 1e05 173f 434b e1be 1647 853e 2339 063f
000001b0: 4023 d23d c59d 4ebc 9131 f93e 3eea f939
000001c0: 7dd1 063f 290d ecbe 84d8 ad3c 9c70 003f
000001d0: 100a 873e 33e7 a23c cfb7 49be 34f7 83bd
000001e0: 9951 e2be 3c03 b2be f399 8f3c 1355 5ebe
000001f0: 379d 853d 17fc c23e e51f 2c3e ff11 bd3e
0.90953475 -0.54610467 0.38933808 0.9036138 -0.70746547 0.56610996 -0.3929921 0.39487788
0.5291976 -0.5864087 -0.57178766 -0.0003400405 0.63074154 0.5700664 0.6351843 0.43133134
0.32403436 -0.602459 -0.48336482 -0.796297 -0.5549775 -0.38664013 0.6368901 -0.72690177
-0.57062596 -0.5071674 -0.6204322 -0.59969836 0.61656445 -0.6610419 -0.55373114 -0.001986062
0.51131773 -0.31804383 -0.5004108 -0.4331383 -0.3918402 -0.5624682 -0.47056785 -0.47487843
0.46399936 0.64370114 0.7403379 0.9050833 0.6605613 -0.58680916 0.6513942 -1.0626931e-05
0.46191475 0.73262095 0.33735356 0.593058 0.6239756 0.4307272 -0.41817918 -0.20245698
0.3845985 -0.41108516 -0.7973293 -0.75087154 -0.6335896 0.6534041 -0.3182076 -0.42044201
-0.1766234 -0.20550047 -0.18432172 -0.16230386 0.042780288 -0.422047 -0.0014862986 0.23592687
-0.45870146 -0.38377166 0.1503179 6.4402615e-05 0.23273385 -0.42902347 -0.34074035 -0.21809982
-0.01936472 -0.08928867 -0.06840173 0.2864656 -0.0715848 -0.50755495 -0.08923516 0.06885632
-0.50041974 -0.19200768 0.084465615 0.14100932 0.027768428 -0.22978474 0.23895563 0.00046636575
0.018146992 -0.068861224 0.3177583 -0.021797203 0.10046294 0.042990644 -0.5091523 -0.21190925
0.58992183 -0.44002733 0.26030797 0.52430934 0.1026063 -0.012610857 0.4867063 0.00047667505
0.52663404 -0.4610379 0.021221407 0.5017183 0.26374865 0.019885635 -0.19699024 -0.06443635
-0.4420288 -0.34768093 0.017529463 -0.2171214 0.06524127 0.38082954 0.16809042 0.36927792

bias f4 [2]
00000000: 1277 b33d c5e3 91bd
0.08762945 -0.07123522
