checkpoints/vehicle_repositioning/known/1-ra/85pct-constraint/run-1/policy_final.pt (torch, 911767 bytes, 6 tensors)

weight f4 [256, 627]
-0.005073879 0.11291991 -0.00039585598 -0.0012096163 -0.0012742326 -0.0012589642 -0.0014732437 -0.0012291798
-0.0021859093 -0.0023126218 -0.0021522674 -0.0016303001 -0.0017243429 -0.002425695 -0.0026932654 -0.0029027632
-0.0027374548 -0.0030695566 -0.0030595863 -0.0027739361 -0.0028029927 -0.002844311 -0.0030298983 -0.003482639
-0.0038909942 -0.0037966329 -0.0033125984 -0.00044101904 -0.0015125278 -0.001460737 -0.0011351214 -0.0012394709
-0.001429569 -0.0015666749 -0.0014613537 -0.0013817714 -0.0012310339 -0.0013337345 -0.0019190898 -0.0017324494
-0.0019713824 -0.001925782 -0.0019314126 -0.0019206866 -0.001787421 -0.0017818421 -0.0019281249 -0.0019211945
-0.0017996536 -0.0020149178 -0.0020210452 -0.0015492063 -0.0008335574 -0.0012357659 -0.001367408 -0.0012772735
-0.00144326 -0.00051273144 -0.00041182892 0.00027586767 -0.00017382616 -0.0012572812 -0.000929892 -0.001269288
-0.0011258895 -0.0007761323 -0.0006911577 -0.00090255216 -0.0011645613 -0.0011222562 -0.0013677349 -0.001342158
-0.001518027 -0.0009547367 -0.0009357766 -0.0013793048 -0.0010821918 -0.00044947548 -0.0010031019 -0.0014470164
0.00041024547 0.0006830646 0.00035490034 0.0005217108 0.00053131813 0.0003942142 0.0007922919 -0.00023929431
-0.0014607351 -0.001077867 -0.00064445246 -0.00045610638 -0.0005146456 -0.00056655676 -0.0009307149 -0.0003574465
-0.0007751851 -0.0011754278 -0.0010970084 -0.00057959714 -0.0006840966 -0.0009013231 -0.00018825242 -0.00034934792
0.0003048042 0.00083920505 0.0010281462 0.0016494994 0.00058054534 0.00047433894 0.0014251557 0.0010890053
9.963028e-05 -0.0017860234 -0.0014730258 -0.0009026863 -0.0006491838 -0.0008322215 -0.0007000753 -0.0004277398
-0.00017945727 -0.00035653383 -0.0004899022 -0.0005980767 -0.00079024956 -0.00046064422 -0.00081335835 0.0002982258
0.00092829537 0.0014361386 0.0011066124 0.00044799005 0.0018183589 0.0012439509 0.0013797065 0.0011874731
0.001386816 0.0012808375 0.00038721698 -0.002293028 -0.0014019677 -0.0012623215 -0.0012880659 -0.001105534
-0.00079813064 -0.001089215 -0.0015128304 -0.00097275025 -0.00018658419 -0.0003082267 -0.00040271814 -0.00092410314
0.0005035758 0.0007804098 0.00078126235 0.0012153198 0.0016206647 0.0018768022 0.000683345 0.00037727153
0.0007338862 0.0009081611 0.00028345553 0.0006779175 0.00032137835 -0.00025533623 -0.0016892544 -0.001865519
-0.0020507013 -0.0018948189 -0.0017712332 0.0031726982 -0.0035434773 -0.0012963411 -0.0007514893 -0.0007041
-0.0009778899 0.0005080502 0.00059804664 0.0008592053 0.0011810183 0.00078911876 0.00018960844 0.0052212933
0.0012117295 0.0014030373 0.0020654087 0.00025954342 0.0015985125 0.001536718 0.0009188489 0.00034088964
-0.00015821187 -0.0015860014 -0.0020901721 0.0010769762 0.001880594 0.0013339183 -0.00053588196 -0.0017862809
-0.0020195101 -0.0026150343 0.00053798425 0.00071459234 0.0003991416 0.0014820561 0.0012972867 0.0011188207
0.0014153817 0.00032527902 0.00043823605 0.001111544 0.00045965723 0.0015931838 0.0010318442 0.00069975166
0.0008077315 0.001652709 0.0009721028 0.0015547271 0.0028503365 0.002738001 0.0052363314 0.0021420468
-0.00050026807 -0.0028938332 -0.0038823944 6.980287e-05 -7.8456236e-05 0.00026016255 0.0010380904 0.00039360978
0.0013619278 0.00049953884 0.0008985202 0.00030997276 0.002221589 0.0012454441 0.0013108165 0.0009417506
0.00064914365 0.0009557091 0.001687391 0.0008629405 0.0018692905 0.0019377565 0.0023676122 0.0021085027
0.0025600076 0.0016047454 -0.0010013566 -0.00010790966 0.00020116812 -8.251259e-05 0.00018382324 0.000812239
00000000: c842 a6bb 8e42 e73d e48a cfb9 fd8b 9eba
00000010: 2704 a7ba d403 a5ba db19 c1ba 6e1c a1ba
00000020: 7941 0fbb 5b8f 17bb 0e0d 0dbb cbaf d5ba
00000030: 5903 e2ba 69f8 1ebb 7f81 30bb 493c 3ebb
00000040: df66 33bb 9d2a 49bb 5783 48bb edca 35bb
00000050: 6ab2 37bb 9f67 3abb 4291 46bb fd3c 64bb
00000060: 0d00 7fbb eed0 78bb 2e18 59bb 9338 e7b9
00000070: 0340 c6ba 3376 bfba 5bc8 94ba be75 a2ba
00000080: 6060 bbba e358 cdba e58a bfba 8e1c b5ba
00000090: a55a a1ba b4d0 aeba f889 fbba 5b13 e3ba
000000a0: 4f32 01bb 856a fcba 7427 fdba 8cbf fbba
000000b0: e547 eaba b38c e9ba 23b9 fcba 97d0 fbba
000000c0: 5be2 ebba b60c 04bb 8373 04bb bd0e cbba
000000d0: 1783 5aba 6cf9 a1ba 993a b3ba 306a a7ba
000000e0: c52b bdba d368 06ba beea d7b9 55a2 9039
000000f0: 1b45 36b9 5bcb a4ba ffc3 73ba 3d5e a6ba
00000100: 9592 93ba 5b75 4bba cf2e 35ba 4099 6cba
00000110: 31a4 98ba ab18 93ba 9145 b3ba 59eb afba
00000120: 89f8 c6ba 4c47 7aba e84e 75ba cac9 b4ba
00000130: 55d8 8dba 94a7 ebb9 847a 83ba d0a9 bdba
00000140: 3716 d739 b00f 333a eb11 ba39 6bc3 083a
00000150: 2848 0b3a 89ae ce39 cfb1 4f3a 14eb 7ab9
00000160: 2376 bfba 3747 8dba 79f0 28ba 9021 efb9
00000170: 48e9 06ba fb84 14ba 38fb 73ba a867 bbb9
00000180: cb35 4bba d010 9aba 7ec9 8fba 1bf0 17ba
00000190: f254 33ba c546 6cba a065 45b9 af28 b7b9
000001a0: 21ce 9f39 19fe 5b3a ddc2 863a 0434 d83a
000001b0: bd2f 183a b2b0 f839 4acc ba3a f4bc 8e3a
000001c0: 99f0 d038 0019 eaba 8b12 c1ba 41a2 6cba
000001d0: fd2d 2aba 7129 5aba 4285 37ba 4442 e0b9
000001e0: b22c 3cb9 29ed bab9 c86c 00ba 3fc8 1cba
000001f0: c028 4fba 9f82 f1b9 8e37 55ba 305b 9c39
00000200: d958 733a d13c bc3a c00b 913a 35e0 ea39
00000210: 0056 ee3a 110c a33a 45d7 b43a fca4 9b3a
00000220: d3c5 b53a c6e1 a73a 6203 cb39 a046 16bb
00000230: 3bc2 b7ba 7b74 a5ba 52d4 a8ba 91e7 90ba
00000240: a439 51ba fec3 8eba 2a4a c6ba 2a00 7fba
00000250: d0a5 43b9 7d99 a1b9 ea23 d3b9 833f 72ba
00000260: 6602 043a 6a94 4c3a a1cd 4c3a 5e4b 9f3a
00000270: 7c6c d43a 08ff f53a 8222 333a 87cc c539
00000280: 4562 403a a911 6e3a c29c 9439 46b6 313a
00000290: ac7e a839 a6de 85b9 f969 ddba 6e84 f4ba
000002a0: 0f65 06bb 925b f8ba b928 e8ba 0bed 4f3b
000002b0: af39 68bb fde9 a9ba 98ff 44ba 5a93 38ba
000002c0: 8a2c 80ba ac2e 053a 3bc6 1c3a 4b3c 613a
000002d0: 66cc 9a3a dddc 4e3a a1d1 4639 6217 ab3b
000002e0: e5d2 9e3a 1fe6 b73a cf5b 073b 5413 8839
000002f0: 2e85 d13a b36b c93a e8de 703a 6fb9 b239
00000300: ade5 25b9 60e1 cfba 45fb 08bb 5329 8d3a
00000310: 437e f63a dfd6 ae3a 6e7a 0cba a421 eaba
00000320: c259 04bb ff60 2bbb 8307 0d3a 7b53 3b3a
00000330: e143 d139 8d41 c23a b809 aa3a 65a5 923a
00000340: 5484 b93a 368a aa39 0cc3 e539 3ab1 913a
00000350: 26fe f039 61d2 d03a f23e 873a 8a6f 373a
00000360: f2bd 533a b69f d83a b7d4 7e3a fcc7 cb3a
00000370: b6cc 3a3b 0970 333b 8895 ab3b 9561 0c3b
00000380: 6c24 03ba 77a6 3dbb c56f 7ebb 2163 9238
00000390: df88 a4b8 6d66 8839 8910 883a 695d ce39
000003a0: b782 b23a 7cf3 023a ab8a 6b3a d783 a239
000003b0: 1498 113b 2b3e a33a b4cf ab3a d0df 763a
000003c0: 4b2b 2a3a 8d88 7a3a 722b dd3a f536 623a
000003d0: fb02 f53a 52fc fd3a f129 1b3b ce2e 0a3b
000003e0: cdc5 273b 5256 d23a f43f 83ba 8f4d e2b8
000003f0: a8f0 5239 9c0a adb8 adc0 4039 70ec 543a

bias f4 [256]
-0.022061523 -0.00016052573 -1.9670555e-05 -0.010003405 0.023207061 -0.025063772 -0.012815044 0.035924096
-0.027231498 0.02697958 -0.04664014 -0.019567154 0.017428618 -0.010990102 -7.085639e-08 -0.0019704201
0.003082744 -0.016847143 0.015153929 -0.0146319745 -3.1008778e-12 -7.1658306e-08 -0.013603441 -0.0034020795
-3.6422858e-07 -0.009347829 -0.02872023 0.021329995 5.8864757e-06 -0.0020607782 0.021966062 -7.494696e-06
-0.0030423205 -0.00038139138 0.037481472 0.0008768245 -0.0013325564 0.010242968 0.024960153 0.0029961057
0.011085337 -0.011601017 -0.02802497 0.007526621 0.0117438175 -0.00085634284 -0.012617192 0.009342132
-0.018785639 0.024361946 0.01855126 -0.00044136765 0.0028954204 -2.0373318e-06 -4.856839e-13 -0.019313127
-0.020238662 0.01412281 -1.0705489e-05 -0.00031341895 -0.0020400654 -0.013711253 0.015914878 0.0010631391
0.00060990185 0.015095411 -0.0042779986 -0.016943997 -0.0029225 0.024251815 -0.0047688433 0.00853361
-0.001358439 0.00060503505 -0.0018557155 -0.00458704 0.01984091 -0.016543377 -0.019822063 -0.003429835
-0.0071240477 -0.00083957653 -0.00028590948 0.0075429175 0.03391216 -0.010079484 -0.0054698447 0.0144610265
0.0095581375 0.033451065 -8.785751e-10 -0.01309604 0.025862096 -0.016638001 -0.00027432665 -8.514036e-05
-0.00027973144 0.008007038 0.01502123 -0.0073226746 -0.0112071615 -6.1779683e-06 -0.0002839443 0.002666148
0.007239296 0.037216067 -0.007997954 -0.015074592 -0.016275486 0.017254185 -8.403357e-07 -0.000145504
-0.019020393 -0.018852351 0.006279129 0.01727017 0.011524699 0.021572992 -2.4464363e-11 -0.0024043682
-1.4121465e-05 0.043291092 -0.011845987 0.015494871 -0.010810327 0.002619661 0.026314829 0.012829158
-0.007725685 -1.02156676e-07 -0.00014871274 -0.001730171 -2.4580326e-05 0.029375387 -0.027223187 -0.0049082753
-3.1892768e-08 -2.2424865e-05 -3.4016587e-06 0.011791643 -0.041879114 0.01094963 0.03905103 0.014190445
0.006285177 0.0039088107 0.05012859 -0.0033164073 -0.0147749195 -0.011202363 0.010188916 -2.7211312e-05
0.0006928479 0.0031088125 0.009151598 0.01579942 0.0022008885 0.0006444858 -6.946117e-09 0.0017762812
-1.6362272e-07 0.0040896754 0.02551298 -0.023333816 -5.6828107e-08 -0.00012081617 -0.012841795 0.03339029
0.022943355 -0.034089997 5.439686e-09 -0.019546429 -0.0033803438 0.0033856435 0.00029432506 -0.022740254
0.008441341 -0.014057673 -2.1723744e-10 0.0207785 0.0440132 -0.0075476384 -0.0026737081 0.008815067
0.016684169 0.0053884555 0.0065241028 0.005665343 0.0020088102 0.05094442 -0.010270618 -0.0024507213
0.02031321 0.0031012818 -0.021533668 -0.0024843842 -0.00040216531 -0.019585757 -0.0019288155 -0.0068514473
0.01946214 -0.009453832 -0.01673958 0.02639277 0.0072410977 0.06407027 0.009118937 -8.685425e-07
-0.01007068 0.0039378125 -5.144951e-09 0.028560778 -0.009097346 -0.00033971842 -0.00023003713 1.2610017e-08
-0.012095293 -0.023892729 -0.003530694 0.01406748 0.017367067 0.0001010648 -0.019223804 -0.02466375
0.004580759 -0.010191475 -2.511533e-10 -0.00687159 -0.0056612734 -0.003225554 -0.0013826573 -0.01360558
-0.0015827407 0.00036465586 0.022480482 -5.3143445e-09 -0.0026881755 0.005105091 0.050204523 0.015922187
-0.033068877 -0.010196135 -0.012190121 0.0007437175 -0.006507219 -2.4132403e-08 0.0128949 -0.00015810812
-2.2047411e-10 -0.013267025 -0.0066603045 0.069184676 0.0026096415 0.048402067 -0.013980003 0.011565456
00000000: 5eba b4bc cc52 28b9 3202 a5b7 52e5 23bc
00000010: bc1c be3c 8a52 cdbc 31f6 51bc 2525 133d
00000020: 9714 dfbc 4804 dd3c bb09 3fbd 4c4b a0bc
00000030: 76c6 8e3c d40f 34bc b629 98b3 2a22 01bb
00000040: dd07 4a3b 0503 8abc 2f48 783c f3ba 6fbc
00000050: 7334 5aac 92e2 99b3 f8e0 5ebc 6cf5 5ebb
00000060: 328b c3b4 a327 19bc b046 ebbc 3ebc ae3c
00000070: 7184 c536 1f0e 07bb 2cf2 b33c f37a fbb6
00000080: ab61 47bb 7cf5 c7b9 2c86 193d b2da 653a
00000090: 2ca9 aeba 1fd2 273c 3c79 cc3c 505a 443b
000000a0: 469f 353c 3112 3ebc 9f94 e5bc e0a1 f63b
000000b0: 2469 403c 327c 60ba 57b8 4ebc be0f 193c
000000c0: 57e4 99bc b492 c73c d0f8 973c 5d67 e7b9
000000d0: 18c1 3d3b 18b9 08b6 37b5 08ab 9036 9ebc
000000e0: 8dcb a5bc 5c63 673c ba9b 33b7 6152 a4b9
000000f0: 9eb2 05bb 2aa5 60bc eb5f 823c 0759 8b3a
00000100: d2e1 1f3a be52 773c 742e 8cbb 23ce 8abc
00000110: 6a87 3fbb beab c63c f543 9cbb 8ed0 0b3c
00000120: a60d b2ba 379b 1e3a 7b3b f3ba e14e 96bb
00000130: 6789 a23c fa85 87bc e161 a2bc 15c7 60bb
00000140: d870 e9bb 0717 5cba 1fe6 95b9 942a f73b
00000150: 7ae7 0a3d 6c24 25bc 623c b3bb f1ed 6c3c
00000160: bc99 1c3c fc03 093d 3a80 71b0 c690 56bc
00000170: bfdc d33c 6b4c 88bc 80d3 8fb9 628d b2b8
00000180: eba8 92b9 f42f 033c 9b1b 763c 0cf3 efbb
00000190: 3e9e 37bc 584c cfb6 5cde 94b9 8aba 2e3b
000001a0: 9e37 ed3b e06f 183d da09 03bc 6cfb 76bc
000001b0: 2b54 85bc a658 8d3c 6e93 61b5 6f92 18b9
000001c0: a8d0 9bbc 3f70 9abc 27c1 cd3b 2c7a 8d3c
000001d0: 17d2 3c3c d8b9 b03c d930 d7ad 9b92 1dbb
000001e0: 3beb 6cb7 0052 313d ac15 42bc 33de 7d3c
000001f0: cc1d 31bc 9eae 2b3b 3292 d73c 6431 523c
00000200: be27 fdbb 3a61 dbb3 c6ef 1bb9 e8c6 e2ba
00000210: d931 ceb7 a7a4 f03c 2903 dfbc 99d5 a0bb
00000220: 78fa 08b3 081d bcb7 0d48 64b6 bc31 413c
00000230: 6f89 2bbd 1466 333c f9f3 1f3d 0a7f 683c
00000240: e3f3 cd3b 7b15 803b a353 4d3d 1558 59bb
00000250: 8112 72bc 1e8a 37bc 69ef 263c d943 e4b7
00000260: 3ca0 353a 38bd 4b3b 96f0 153c c96d 813c
00000270: c83c 103b b6f2 283a b1aa eeb1 1bd2 e83a
00000280: 45b0 2fb4 af02 863b 9900 d13c 8f26 bfbc
00000290: 2a13 74b3 b05e fdb8 6466 52bc 42c4 083d
000002a0: b4f3 bb3c f4a1 0bbd fce7 ba31 d51f a0bc
000002b0: c288 5dbb ace1 5d3b a44f 9a39 c549 babc
000002c0: 8d4d 0a3c 2752 66bc e7da 6eaf ac37 aa3c
000002d0: 2f47 343d 2e52 f7bb 6139 2fbb 126d 103c
000002e0: 3dad 883c a491 b03b 24c8 d53b 57a4 b93b
000002f0: 3ea6 033b 19ab 503d 1846 28bc 489c 20bb
00000300: e467 a63c e03e 4b3b 6067 b0bc 0dd1 22bb
00000310: b7d9 d2b9 4f72 a0bc 4fd0 fcba 1b82 e0bb
00000320: 116f 9f3c 3fe4 1abc 7221 89bc a735 d83c
00000330: bb46 ed3b 4637 833d 9867 153c c925 69b5
00000340: 7eff 24bc c408 813b 78c7 b0b1 4bf8 e93c
00000350: 090d 15bc 3c1c b2b9 1f36 71b9 71a3 5832
00000360: 562b 46bc afba c3bc 3763 67bb 4a7b 663c
00000370: 6145 8e3c c0f2 d338 3d7b 9dbc a20b cabc
00000380: 311a 963b 25fa 26bc af12 8aaf 132b e1bb
00000390: 3482 b9bb d163 53bb 483a b5ba f0e9 5ebc
000003a0: f773 cfba 482f bf39 fd28 b83c 7899 b6b1
000003b0: 1a2c 30bb 9b48 a73b 42a3 4d3d 3f6f 823c
000003c0: 3b73 07bd b10d 27bc 13b9 47bc 09f6 423a
000003d0: 823a d5bb b74b cfb2 2145 533c d3c9 25b9
000003e0: f269 72af f05d 59bc af3e dabb b2b0 8d3d
000003f0: 8506 2b3b 3f41 463d 620c 65bc 0a7d 3d3c

weight f4 [256, 256]
-1.9508593e-06 -1.3754526e-07 5.2226477e-11 6.8811273e-06 2.5414073e-07 2.4524566e-06 -2.6044665e-06 3.3094483e-07
-6.803524e-07 -1.9908896e-07 -1.840003e-06 -2.7110902e-06 -5.348683e-07 -4.479501e-07 -9.765596e-14 -1.121377e-08
5.745501e-06 -2.1802425e-06 3.4496233e-07 -6.49787e-07 1.3270724e-17 -2.924318e-13 2.4050511e-08 -2.0840143e-06
1.0970642e-12 9.311237e-07 -2.1568692e-06 -8.2466485e-08 1.6764029e-10 3.1775602e-07 -3.122181e-07 9.504526e-12
-2.4724031e-06 4.7453824e-10 3.261775e-06 -2.9744186e-08 6.5518813e-09 -6.541628e-07 4.0418918e-08 -1.2362722e-07
5.0379816e-07 -2.49384e-06 -3.2300605e-07 -4.773737e-08 -6.1120545e-06 5.4300863e-06 -7.0483666e-06 5.8910578e-06
5.2334394e-06 1.421805e-07 8.5830074e-08 1.3769957e-07 7.0840656e-07 1.6655888e-11 -3.7156058e-20 -8.120702e-08
-3.5934481e-06 -4.8819027e-07 -1.5668578e-11 1.2875448e-10 4.6582264e-07 -1.8264919e-06 -3.2928682e-07 -9.00136e-07
-1.4085909e-07 -7.940717e-08 -2.0603157e-07 1.0721877e-06 2.6600904e-07 -7.3773215e-08 1.854865e-07 -3.6030755e-07
1.5445397e-09 7.291188e-06 -2.3245164e-07 3.3164265e-06 2.3144166e-07 -2.2357394e-06 -3.1452428e-06 -4.5030902e-07
7.203792e-07 3.2242415e-06 -1.0152914e-06 -2.1202109e-06 -5.357129e-07 -1.8540376e-06 -1.4122734e-06 -1.9724988e-07
7.088654e-06 3.9425625e-08 -1.2326058e-14 -1.303089e-06 -5.507832e-07 -1.6407732e-06 7.2135504e-07 -2.197459e-11
3.9604117e-10 6.4679607e-06 -2.7762084e-07 -1.6657943e-06 9.688081e-07 -8.9733527e-13 8.7239266e-07 -1.2948784e-06
-6.4637857e-06 -1.5669217e-07 -1.1169637e-06 -4.263411e-06 3.806282e-06 -8.060366e-08 6.280389e-11 1.9341417e-10
4.2891684e-06 -3.3952683e-06 -6.974748e-06 6.414464e-08 -8.463468e-08 -1.5150218e-06 5.210402e-16 5.8899486e-06
-4.9896216e-11 5.7259285e-07 3.2721712e-07 3.763295e-06 7.908583e-07 -2.032316e-06 1.4554931e-06 -1.9777437e-07
-1.5074724e-07 5.0131187e-11 2.2528355e-09 3.8263343e-06 5.9528445e-11 -5.5741947e-07 2.1310886e-06 1.9954236e-07
-1.026228e-15 -9.244957e-13 7.5889885e-12 -1.5499539e-07 6.44986e-06 -4.43683e-07 -1.3847566e-07 1.6507374e-06
-4.926883e-07 2.0351536e-06 1.8799569e-09 2.7929266e-08 -8.415343e-07 -1.0968453e-06 3.082812e-07 -2.6456873e-11
-1.1443295e-06 2.167403e-06 8.304875e-08 -1.6582923e-07 5.627583e-06 -1.5119626e-07 4.5442755e-14 -1.6931517e-06
-2.0410484e-14 6.200466e-06 4.7368912e-06 -2.0365578e-06 7.3701294e-13 5.306576e-07 -3.2922183e-06 2.2081503e-08
-7.5751996e-07 1.2871092e-07 5.2232215e-13 -2.4660499e-06 6.5639847e-07 -8.663996e-07 -1.4404756e-06 -4.9261996e-07
-2.3237021e-07 1.1056369e-06 -1.5516685e-16 2.5621932e-06 -8.679398e-08 3.4696561e-06 -4.592677e-07 -1.4070105e-06
-6.219751e-06 -8.723933e-07 -1.7214635e-06 9.780932e-07 1.8656436e-07 -2.6774367e-07 -2.3059224e-06 -2.6163493e-06
1.4463883e-07 -2.475498e-08 4.920669e-06 5.4265035e-07 6.7034256e-07 -4.4560848e-06 -1.4326265e-07 -2.4251008e-06
3.035347e-06 6.990524e-06 -2.9552202e-06 -1.056804e-08 -7.9848256e-08 -3.3296967e-08 2.5007607e-06 1.2628016e-11
4.4670223e-06 -2.5131333e-06 -1.222567e-13 3.9276833e-06 5.974292e-06 5.9843e-06 2.0969561e-07 -6.8382165e-13
-3.2695084e-06 -3.7519046e-06 -1.1063635e-06 -1.8117369e-06 5.2460894e-08 -1.475797e-06 -2.4031956e-06 -3.1801295e-07
-1.1900174e-07 -1.6516207e-08 1.2969138e-17 1.3977072e-07 -2.838465e-07 4.8116874e-07 7.0855833e-07 3.3193496e-07
2.386846e-09 -2.2267627e-06 -2.5967352e-06 -1.1661131e-15 4.835229e-06 -2.7871242e-06 -2.4177433e-07 -1.1720667e-08
-4.2326528e-07 4.9834207e-06 -6.6816538e-06 6.407301e-06 7.354975e-06 4.4658003e-13 7.1049534e-08 2.345757e-09
4.8704474e-16 -2.559235e-06 -3.2639932e-06 -1.1842524e-07 1.605323e-07 3.6603004e-07 -8.3926e-07 5.350862e-06
00000000: 82eb 02b6 27b0 13b4 c9b1 652e 6fe4 e636
00000010: d670 8834 e294 2436 65c8 2eb6 b6ac b134
00000020: 76a1 36b5 28c5 55b4 06f6 f6b5 2df0 35b6
00000030: df93 0fb5 cb7d f0b4 d4e6 dba9 afa6 40b2
00000040: 7ac9 c036 4850 12b6 4333 b934 066d 2eb5
00000050: 39cd 7423 dd9f a4aa a297 ce32 18db 0bb6
00000060: e765 9a2b 55f2 7935 bbbe 10b6 6e18 b1b3
00000070: 8c52 382f 0e98 aa34 ee9e a7b4 9434 272d
00000080: 90eb 25b6 a970 0230 dee4 5a36 2880 ffb2
00000090: f51e e131 ba99 2fb5 1299 2d33 64be 04b4
000000a0: bf3c 0735 d85b 27b6 9d69 adb4 cb07 4db3
000000b0: 2616 cdb6 1634 b636 0281 ecb6 cdab c536
000000c0: e79a af36 47aa 1834 9551 b833 92da 1334
000000d0: 5429 3e35 ba81 922d eb76 2f9f 0864 aeb3
000000e0: f826 71b6 2e0c 03b5 80d2 89ad 2a91 0d2f
000000f0: 2d16 fa34 c925 f5b5 d6c8 b0b4 e0a0 71b5
00000100: 0d3f 17b4 8e86 aab3 8739 5db4 17e8 8f35
00000110: 01d0 8e34 416d 9eb3 242a 4734 4b70 c1b4
00000120: a947 d430 d4a6 f436 d297 79b4 c68f 5e36
00000130: 3382 7834 b609 16b6 dc12 53b6 00c2 f1b4
00000140: 1560 4135 0c60 5836 2645 88b5 f248 0eb6
00000150: e9cd 0fb5 3fd8 f8b5 588d bdb5 a2cb 53b4
00000160: 13db ed36 ef54 2933 e90b 5ea8 cce5 aeb5
00000170: 89d9 13b5 8a38 dcb5 24a3 4135 614a c1ad
00000180: d7b9 d92f 5c07 d936 eb0b 95b4 4294 dfb5
00000190: fe07 8235 d293 7cab 5e2e 6a35 afcb adb5
000001a0: 7fe3 d8b6 373f 28b4 95ea 95b5 6c0e 8fb6
000001b0: 6d6f 7f36 5518 adb3 721b 8a2e 40a9 542f
000001c0: adeb 8f36 44da 63b6 a108 eab6 e4bf 8933
000001d0: 68c0 b5b3 c157 cbb5 fb2d 1626 46a2 c536
000001e0: 2572 5bae 48b4 1935 61ac af34 ea8c 7c36
000001f0: 5e4b 5435 ec62 08b6 5d5a c335 ce5b 54b4
00000200: 16dd 21b4 b37a 5c2e 4dd0 1a31 f663 8036
00000210: 89e7 822e 93a1 15b5 d303 0f36 c941 5634
00000220: 21e5 93a6 781c 82ab c481 052d cf6c 26b4
00000230: e06b d836 5433 eeb4 e6af 14b4 e88e dd35
00000240: 4841 04b5 ac93 0836 8d30 0131 1be9 ef32
00000250: cce5 61b5 5137 93b5 d881 a534 95b7 e8ad
00000260: dd96 99b5 b373 1136 8858 b233 cb0e 32b4
00000270: 92d4 bc36 8358 22b4 eea7 4c29 4040 e3b5
00000280: 5fd7 b7a8 990d d036 96f1 9e36 ccab 08b6
00000290: 6173 4f2b 8372 0e35 e1ef 5cb6 bdad bd32
000002a0: 6058 4bb5 ca33 0a34 4705 132b 6a7e 25b6
000002b0: 5c33 3035 8792 68b5 5d56 c1b5 963c 04b5
000002c0: 7081 79b4 6565 9435 2ce5 32a5 25f2 2b36
000002d0: 7f63 bab3 3dd8 6836 4691 f6b4 83d8 bcb5
000002e0: 41b3 d0b6 692e 6ab5 090d e7b5 0747 8335
000002f0: 6c52 4834 69be 8fb4 72bf 1ab6 8a94 2fb6
00000300: 054e 1b34 c7a4 d4b2 3a1c a536 a6aa 1135
00000310: 97f1 3335 7a85 95b6 bdd3 19b4 eabe 22b6
00000320: ddb2 4b36 2590 ea36 4c52 46b6 bb8e 35b2
00000330: 0b79 abb3 6702 0fb3 bed2 2736 8727 5e2d
00000340: 6ee3 9536 4da7 28b6 18a6 09aa 8bca 8336
00000350: c776 c836 bfcc c836 b128 6134 8b7a 40ab
00000360: ba69 5bb6 3bc9 7bb6 5c7e 94b5 ce2a f3b5
00000370: 5d51 6133 0014 c6b5 9646 21b6 5ebb aab4
00000380: e68d ffb3 86df 8db2 063d 6f23 e213 1634
00000390: 9163 98b4 aa29 0135 c233 3e35 cb34 b234
000003a0: d705 2431 7e6f 15b6 9243 2eb6 fb0d a8a6
000003b0: 4d3e a236 6e0a 3bb6 36cd 81b4 0a5c 49b2
000003c0: 233d e3b4 4237 a736 f832 e0b6 4cfe d636
000003d0: c1ca f636 f766 fb2a e593 9833 fe32 2131
000003e0: 8f61 0c26 53bf 2bb6 fa0a 5bb6 f750 feb3
000003f0: c85e 2c34 c982 c434 8249 61b5 8e8b b336

bias f4 [256]
-3.9541683e-05 0.0006044338 -3.826792e-10 -0.017365577 0.0029565843 -0.00074871915 -0.021620918 -6.249816e-19
0.0011821834 0.003394583 -0.023255907 -3.2129784e-29 0.00062534225 -0.00016572846 0.00147174 -0.0014608939
0.025356593 0.048296977 0.01594649 -0.0029129274 0.0021517791 -5.2842195e-05 -0.007722046 0.0035460584
0.023957172 -0.007121223 -0.00061611785 0.005080974 -0.052909736 0.012863785 0.0011207038 -0.004880744
-0.013280923 0.008835496 -0.0009449562 -0.025954321 -0.0056199376 0.012647229 -5.851528e-12 -0.009829186
0.033627786 -0.0072309272 0.0003145245 -0.0036546402 0.017772552 -0.0009656341 0.0020779779 0.009280191
-0.006467395 -0.0027403233 0.0016281668 0.0022214768 -8.2857665e-11 -0.00034040597 -1.6921678e-15 0.01190938
-0.0010444731 0.0011607938 -0.0012261835 -0.00018954577 -0.001932032 0.003201793 -2.0421572e-08 -0.0056251227
0.0016434626 0.0015012168 -0.0014430878 -0.00026606256 -0.0051702056 -3.773901e-05 0.0032905512 0.007067684
-1.586157e-11 0.0029801878 -2.1122672e-05 -0.0054150224 -0.008748878 0.011299852 -3.2320147e-11 0.02240871
-9.8329256e-24 -1.2686693e-05 0.01701371 -0.0023782065 -3.3737054e-27 0.008190132 0.0035707378 -0.0601835
-7.809715e-05 0.0024332171 -0.00055750064 0.00051773293 0.00019070918 -0.008663024 0.0031692637 -0.0034417778
-8.455124e-05 -6.772176e-07 -0.026906192 -2.918661e-08 0.0004438269 -0.010474616 -1.0682821e-05 -8.2681355e-09
0.002618141 0.003439871 -0.00084788405 0.0063594556 -0.00050843245 0.005766307 0.001967227 0.001992238
0.024438884 -0.007431465 0.0036357788 -0.004606089 -0.0032531957 0.0009434237 -0.023418102 0.017935034
-0.004446449 -0.0013636211 0.010301747 0.00626847 -2.3543738e-20 0.003086037 -0.0038566636 0.004583809
0.012388235 0.023616346 -0.0050376104 -2.2980557e-05 -0.0031705983 0.011776587 0.025553966 0.001422666
-0.017262943 -0.0067943847 -3.0482591e-12 -0.023965904 0.004807007 0.014102408 0.02654913 -4.435556e-05
-0.016666953 -0.0018669537 -1.6768784e-06 -0.024463119 0.012369199 0.011631676 0.009615845 0.00124555
0.0069259447 -1.926254e-06 0.014221277 -4.11134e-05 -0.0030636596 0.00068118563 0.00012277596 -0.040617142
0.0017355357 0.00062044687 -0.01457046 0.014453491 0.029948683 0.0070473272 -2.425437e-12 -0.010635528
-3.706262e-05 -0.007612852 -0.00044329395 -0.005723961 -0.0028158345 0.00086209795 -0.003994875 -8.253712e-06
-6.5717155e-05 0.00501808 0.025005221 0.0041360077 -0.0030173971 -2.2596563e-05 -0.0072407406 4.443771e-05
-0.002347179 -3.0870968e-09 -0.0062811617 0.013796647 0.007721463 -4.5594643e-05 -0.0014898353 -5.339177e-05
-0.0011196289 0.0017126341 -0.007231134 0.008955791 -0.00065660913 0.03440524 -0.0028080312 -6.9379603e-23
-0.0013622784 0.01513116 0.0033724932 0.017715164 0.0066650175 -0.0023123184 -0.00016675556 -1.3878757e-11
0.0016994824 -9.842682e-06 -0.014785975 0.002166321 -0.005714431 -2.2808626e-06 -0.011311324 0.009065407
-0.0035123508 0.002044774 -0.0018844492 -1.0527701e-05 -3.5305457e-06 0.008022339 -0.031744324 0.00302502
-0.002262227 0.006840375 -0.0053991177 0.024491819 0.010518949 0.024974447 -0.016512543 0.0021121227
-0.0004554549 -2.4327706e-05 0.0008907777 0.008475461 -0.009811957 0.017777434 -1.2301817e-10 0.0012885554
0.005455682 0.0016580141 -0.0007368599 0.0013182935 -0.0004678199 0.003257762 0.02466454 -7.868151e-06
0.00043231584 0.015453798 0.005216232 0.012922434 0.007445464 -0.00061138964 -0.0065113953 -0.0014677525
00000000: 8fd9 25b8 de72 1e3a 4f61 d2af 4142 8ebc
00000010: 41c3 413b b145 44ba 5a1e b1bc 4676 38a1
00000020: 7ef3 9a3a a777 5e3b 2c83 bebc d8ea 2290
00000030: 02ee 233a 65c7 2db9 66e7 c03a 777b bfba
00000040: a1b8 cf3c 0dd3 453d 37a2 823c d0e6 3ebb
00000050: dd04 0d3b e0a2 5db8 3809 fdbb fd64 683b
00000060: d541 c43c 2659 e9bb f882 21ba 4d7e a63b
00000070: e1b7 58bd a0c2 523c 94e4 923a a6ee 9fbb
00000080: 3a98 59bc c2c2 103c f0b6 77ba 289e d4bc
00000090: 7427 b8bb 5336 4f3c e1e1 cdac 980a 21bc
000000a0: 4abd 093d 6af1 ecbb c4e6 a439 b082 6fbb
000000b0: be97 913c 9c22 7dba af2e 083b f10b 183c
000000c0: 71ec d3bb ff96 33bb 3668 d53a 3296 113b
000000d0: b834 b6ae 8478 b2b9 f9dd f3a6 8f1f 433c
000000e0: b4e6 88ba c725 983a e4b7 a0ba cec0 46b9
000000f0: 3d3c fdba 2cd5 513b 836b afb2 f352 b8bb
00000100: 7469 d73a 7ac4 c43a fe25 bdba 507e 8bb9
00000110: d46a a9bb f449 1eb8 4aa6 573b 0898 e73b
00000120: 1585 8bad 414f 433b 9830 b1b7 8070 b1bb
00000130: 7457 0fbc 0423 393c 4025 0eae 7992 b73c
00000140: 4a32 3e99 eed8 54b7 5660 8b3c afdb 1bbb
00000150: 70a5 8593 e72f 063c 0a03 6a3b f982 76bd
00000160: 17c8 a3b8 9c76 1f3b 3c25 12ba 78b8 073a
00000170: 1bf9 4739 5bef 0dbc 6cb3 4f3b 738f 61bb
00000180: 1a51 b1b8 0aca 35b5 606a dcbc 09b6 fab2
00000190: 70b1 e839 b99d 2bbc 5e3a 33b7 a50b 0eb2
000001a0: 1e95 2b3b 756f 613b 8944 5eba fb62 d03b
000001b0: 5348 05ba 4af3 bc3b 98ec 003b 3590 023b
000001c0: 0e34 c83c a683 f3bb 3f46 6e3b adee 96bb
000001d0: 9133 55bb 1850 773a 52d7 bfbc 7eec 923c
000001e0: 85b3 91bb 88bb b2ba a9c8 283c bd67 cd3b
000001f0: 445d de9e 1c3f 4a3b 14c0 7cbb c733 963b
00000200: 06f8 4a3c 1177 c13c 8a12 a5bb 5fc6 c0b7
00000210: d0c9 4fbb 96f2 403c 8d56 d13c c078 ba3a
00000220: 046b 8dbc 6ea3 debb 8e80 56ac 2554 c4bc
00000230: 1984 9d3b c90d 673c 907d d93c 6b0a 3ab8
00000240: 2289 88bc 92b4 f4ba 1a11 e1b5 e166 c8bc
00000250: 2ea8 4a3c c992 3e3c c78b 1d3c b941 a33a
00000260: 09f3 e23b cb44 01b6 5c00 693c 2d71 2cb8
00000270: aec7 48bb 9891 323a 6cbd 0039 295e 26bd
00000280: ea7a e33a 7ca5 223a f0b8 6ebc 56ce 6c3c
00000290: f156 f53c 44ed e63b caac 2aac a340 2ebc
000002a0: af73 1bb8 3b75 f9bb e869 e8b9 1190 bbbb
000002b0: dd89 38bb 6afe 613a 71e7 82bb 6c79 0ab7
000002c0: a1d1 89b8 b56e a43b c0d7 cc3c 5987 873b
000002d0: 86bf 45bb c08d bdb7 bc43 edbb a162 3a38
000002e0: 21d3 19bb c824 54b1 34d2 cdbb 550b 623c
000002f0: 5404 fd3b e03c 3fb8 9446 c3ba faf0 5fb8
00000300: 83c0 92ba 777a e03a 26f3 ecbb 4fbb 123c
00000310: 4b20 2cba 82ec 0c3d f206 38bb e5bf a79a
00000320: 7a8e b2ba afe8 773c 0c05 5d3b 641f 913c
00000330: 3866 da3b 448a 17bb 1bdb 2eb9 5d28 74ad
00000340: 2bc1 de3a ff21 25b7 e040 72bc d6f8 0d3b
00000350: 1f40 bbbb ec10 19b6 2253 39bc 1387 143c
00000360: 782f 66bb 9d01 063b 9fff f6ba 22a0 30b7
00000370: 50ee 6cb6 2170 033c 5606 02bd 6a3f 463b
00000380: df41 14bb 3925 e03b 15eb b0bb 11a3 c83c
00000390: ab57 2c3c 3697 cc3c 5045 87bc 8a6b 0a3b
000003a0: 1fca eeb9 5a13 ccb7 1483 693a a9dc 0a3c
000003b0: 55c2 20bc fba1 913c 8942 07af bfe4 a83a
000003c0: 94c5 b23b b951 d93a d529 41ba 97ca ac3a
000003d0: b945 f5b9 2d80 553b 4a0d ca3c 7401 04b7
000003e0: 73a8 e239 ed31 7d3c edec aa3b 9eb8 533c
000003f0: 14f9 f33b aa45 20ba 8b5d d5bb 9a61 c0ba

weight f4 [2, 256]
5.9267413e-06 -0.16395725 -8.589452e-12 -0.01929926 -0.037531357 -0.0011920788 0.12831761 -1.778155e-20
-0.03364214 0.05005526 -0.11160584 -4.671265e-30 -0.13193735 -2.2326854e-05 -0.21379168 0.112198435
0.29986826 -0.1470636 -0.068597436 0.108191684 -0.18183064 5.9958234e-06 -0.06252189 0.076845974
0.32685378 -0.20884483 -0.15995426 -0.24972484 -0.2633181 0.04402395 -0.093603946 -0.047285587
0.029521799 -0.17682955 -0.14496507 0.14909178 0.076522246 -0.07608055 3.8021763e-11 0.16144504
0.20646593 0.16167839 -0.028564174 0.19925033 0.042882472 -0.16325489 -0.07335534 0.01224054
0.014182964 -0.13197553 -0.13329315 0.07102178 -4.2724723e-11 0.21501292 3.8094166e-16 -0.272834
0.21743067 -0.017680299 -0.22022788 -9.10481e-06 -0.06025233 -0.068401776 1.0050906e-08 0.09209152
-0.012197619 -0.11251464 -0.22244635 -0.000938878 0.024580877 0.00010773516 0.17129676 0.12691489
8.337171e-11 0.20469081 -0.0059151608 -0.021930207 0.013025776 -0.087910384 7.677284e-11 0.20948792
1.03999785e-23 4.011575e-05 0.21059075 0.22278339 -7.7391226e-29 -0.1798706 0.15496063 -0.037811
-0.0008222812 0.15512867 0.09163546 0.1950283 -0.20921409 -0.012555607 0.17113179 0.06904927
-0.00086128863 -4.6488813e-09 -0.20651582 7.0496425e-10 0.00021462914 -0.05007036 -1.5010861e-05 -8.097188e-11
-0.17515238 0.05481938 -0.21136637 -0.080097005 -0.0009671423 0.09410896 -0.1855605 0.122984044
-0.444496 -0.05509411 -0.17314796 -0.08433239 0.18931897 0.10224123 0.104868956 -0.3672967
-0.016517159 0.009181041 -0.14826073 0.07591437 -7.3605054e-22 0.15019025 -0.16723715 0.082500204
-0.042392172 -0.13333099 0.15503341 2.7020873e-05 0.06198245 -0.086213335 -0.06366837 -0.04991856
-0.07172831 0.09765254 -5.0506535e-14 -0.13555098 -0.17077534 -0.15440874 0.19638158 -0.0003989813
0.22026354 -0.07485163 -6.516347e-06 0.21696094 -0.1397333 0.047849238 0.12565038 0.20698923
-0.24657606 9.5207287e-07 0.11012277 0.00023756144 0.09223273 0.21550746 0.17627835 0.21217716
0.052305598 0.07361303 -0.040488064 -0.1627622 -0.23622455 -0.22472303 -1.0901827e-12 -0.33918184
-0.0002755166 0.16075937 0.00043283298 0.13091211 -0.13287412 0.00041537994 -0.10639541 -1.5627068e-06
-7.014763e-07 -0.11973018 -0.22171076 -0.15501486 0.09085834 3.313818e-05 0.14087872 0.21326655
-0.08591307 -6.390878e-11 0.1130986 0.2336918 -0.15971209 0.00029875556 -0.017505193 -3.826962e-05
-0.12190309 -0.07089702 -0.020217491 -0.12464159 -0.003330552 -0.2659742 0.0017802671 -5.9885224e-24
0.114472516 0.12604071 0.04410394 -0.09201411 0.09889451 -0.025510846 9.564505e-06 -2.0581582e-13
0.028424729 1.0139842e-06 -0.12010089 0.23157401 0.187055 1.8877479e-06 -0.13923562 0.16621163
-0.051685706 0.0932865 -0.13204077 -2.3167017e-07 -6.9583625e-06 -0.10849559 0.15101375 -0.14874406
-0.010050875 -0.14038113 0.06581687 0.03074999 -0.11975816 0.23924339 0.0067360722 0.0413762
3.4151883e-06 0.00016464482 -0.0106235435 -0.037695713 -0.14904903 -0.18330228 3.9766636e-12 -0.17278802
0.07900701 -0.1606607 -0.2174572 -0.07920693 0.033523615 -0.25845295 0.27276716 -4.923101e-06
0.17094807 -0.114565365 0.18078002 0.0849819 0.23178425 0.032191824 0.014768875 0.17691177
00000000: 52de c636 69e4 27be 741b 17ad 7b19 9ebc
00000010: 7bba 19bd 873f 9cba b165 033e 26f1 a79e
00000020: 57cc 09bd bf06 4d3d 9a91 e4bd 307d bd8e
00000030: 961a 07be 8e4a bbb7 35ec 5abe 4bc8 e53d
00000040: 5588 993e d797 16be d07c 8cbd 9a93 dd3d
00000050: d031 3abe bb2f c936 7a0b 80bd 6c61 9d3d
00000060: 6159 a73e 6bdb 55be 0dcb 23be deb7 7fbe
00000070: a1d1 86be 7552 343d 6db3 bfbd 88ae 41bd
00000080: b3d7 f13c ce12 35be b971 14be 84ab 183e
00000090: b2b7 9c3d 1fd0 9bbd b338 272e d951 253e
000000a0: ce6b 533e 058f 253e 6aff e9bc 4708 4c3e
000000b0: 88a5 2f3d 4a2c 27be 533b 96bd 8c8c 483c
000000c0: aa5f 683c 9824 07be 007e 08be de73 913d
000000d0: c3e7 3bae 592c 5c3e 1199 db25 e6b0 8bbe
000000e0: 25a6 5e3e 46d6 90bc 6b83 61be dcc0 18b7
000000f0: 26cb 76bd 3b16 8cbd 5aac 2c32 7b9a bc3d
00000100: 86d8 47bc 136e e6bd fac8 63be 091f 76ba
00000110: d65d c93c e0ef e138 6b68 2f3e faf5 013e
00000120: 1a56 b72e 789a 513e f7d3 c1bb faa6 b3bc
00000130: 106a 553c 5c0a b4bd 44d3 a82e 0084 563e
00000140: 332a 4919 f541 2838 1aa5 573e 5421 643e
00000150: c735 c490 0030 38be 00ae 1e3e b5df 1abd
00000160: 5b8e 57ba 0dda 1e3e 5fab bb3d 80b5 473e
00000170: 383c 56be 08b6 4dbc 2c3d 2f3e b469 8d3d
00000180: 1ac8 61ba febb 9fb1 e278 53be 73c7 4130
00000190: 120e 6139 9416 4dbd 28d7 7bb7 1e0f b2ae
000001a0: 255b 33be 498a 603d 6d70 58be e609 a4bd
000001b0: d287 7dba 33bc c03d 9203 3ebe 0fdf fb3d
000001c0: fb94 e3be 5daa 61bd b34d 31be 76b6 acbd
000001d0: d5dc 413e da63 d13d 89c5 d63d 500e bcbe
000001e0: fe4e 87bc 146c 163c a9d1 17be fe78 9b3d
000001f0: 2775 5e9c 79cb 193e 3740 2bbe def5 a83d
00000200: 6aa3 2dbd eb87 08be 14c1 1e3e e2aa e237
00000210: 4fe1 7d3d 9e90 b0bd 9064 82bd 6777 4cbd
00000220: 4be6 92bd 0efe c73d 1276 63a9 e0cd 0abe
00000230: bbdf 2ebe 531d 1ebe 4118 493e 5d2e d1b9
00000240: c48c 613e d04b 99bd ffa6 dab6 022b 5e3e
00000250: 3f16 0fbe 90fd 433d 7eaa 003e fcf4 533e
00000260: 6f7e 7cbe f391 7f35 0c88 e13d ea19 7939
00000270: 83e4 bc3d fdad 5c3e 5082 343e f844 593e
00000280: 653e 563d 6ec2 963d d0d6 25bd 22ab 26be
00000290: d9e4 71be cb1d 66be f96d 99ab 3ea9 adbe
000002a0: 3673 90b9 1b9e 243e dced e239 d30d 063e
000002b0: 2710 08be 5ac7 d939 d6e5 d9bd 32be d1b5
000002c0: 164d 3cb5 1935 f5bd 2508 63be 37bc 1ebe
000002d0: f013 ba3d dafd 0a38 8342 103e 8c62 5a3e
000002e0: 31f3 afbd 7289 8cae 3da0 e73d e74c 6f3e
000002f0: 918b 23be 4ba2 9c39 0d67 8fbc b183 20b8
00000300: 54a8 f9bd 7532 91bd 279f a5bc 1744 ffbd
00000310: 6445 5abb c52d 88be da57 e93a 74ab e798
00000320: 9170 ea3d d110 013e 55a6 343d e571 bcbd
00000330: 3489 ca3d 1ffc d0bc 3c77 2037 5fba 67aa
00000340: fada e83c 3b18 8835 75f7 f5bd bd21 6d3e
00000350: 598b 3f3e 865e fd35 c893 0ebe 6233 2a3e
00000360: 64b4 53bd fe0c bf3d b235 07be 03c1 78b4
00000370: e17b e9b6 f032 debd 59a3 1a3e 5d50 18be
00000380: 6dac 24bc 12c0 0fbe ffca 863d 67e7 fb3c
00000390: c443 f5bd 38fc 743e 45ba dc3b 177a 293d
000003a0: 7d30 6536 82a4 2c39 5f0e 2ebc d266 1abd
000003b0: 4fa0 18be 98b3 3bbe 9aea 8b2c 58ef 30be
000003c0: 6dce a13d 3d84 24be 1aad 5ebe 3e37 a2bd
000003d0: 0f50 093d f253 84be 23a8 8b3e 1e31 a5b6
000003e0: 030d 2f3e 3fa1 eabd 661e 393e fe0a ae3d
000003f0: da58 6d3e 93db 033d 27f9 713c 5c28 353e

bias f4 [2]
0.001965292 0.0030669286
00000000: 21cc 003b 86fe 483b
