checkpoints/swarm_1d/unknown/80pct-constraint/policy_final.pt (torch, 124255 bytes, 6 tensors)

weight f4 [64, 401]
00000000: c91c 0a3f a37a 42bd 3d01 47bd ea16 49bd
00000010: 83a1 4abd 2c34 49bd 1372 46bd 3d22 42bd
00000020: 3afe 3cbd ce2d 34bd 353e 2cbd f743 23bd
00000030: 5e86 15bd 63c3 0cbd de38 fcbc 4b8f f4bc
00000040: 727a ddbc 5375 d2bc 078f c3bc d48e b4bc
00000050: e6bf 9bbc 75fc 8fbc 76eb a6bc 639a 86bc
00000060: 2795 9bbc 5ca6 8bbc bddb ecbb e3aa cebc
00000070: cdc2 bcbc b7ec e8bc d673 e1bc e24a 75ba
00000080: 1cbb bebc 2b1e 1cbd 0ae7 36bd 5b08 e8bc
00000090: 9c4f 2bbd 2afe 4abd 43ba bebb 135f 00bd
000000a0: 446f c0bc 52f7 4cbd 1320 68bd 9f60 74bc
000000b0: bd81 b8bc c2a6 5abd 6f90 a1bd 4ad8 82bd
000000c0: 757d 3ebc 8f0c b4bd 134a 99bd db9f 2dbd
000000d0: 1d5b 2bbd 4864 1cbd f1e2 90bd 8229 b1bd
000000e0: ac13 42bd cbe4 57bd 7d07 45bd c8ed bdbd
000000f0: ab04 fdbc d761 96bd aa99 0cbd d26e afbd
00000100: 7c90 83bd 46bf 87bd fe8d 5fbd 550b 63bd
00000110: 4af2 86bd 3f38 27bd 0cd6 68bd 66ed a9bd
00000120: c72c aebd 06dd 25bd 77b1 d2bd 411b 1abd
00000130: 75d1 92bd 1df3 59bd b4e5 83bd f03f d2bc
00000140: 9a3b afbd 6efd 1abd 1838 a4bd fb49 78bd
00000150: 1810 c838 126c 573c 3b2e 793c 3a89 73bd
00000160: ae22 acbc c116 98bc 76ee 21bc 5b0f efbc
00000170: 722c 9c3c 2881 023d 3581 5abb 7adc 28bc
00000180: d0b8 adbc ebea e6bb 7fab 3c3d f0ba 373d
00000190: 4e13 f23c 4ed0 15bb a4f0 8d3d 4011 1e3d
000001a0: 17df 763d 4b21 923d 13c5 763d b22d e63d
000001b0: f99e 883c 0e69 b83d 2022 6b3d ba4d 6e3d
000001c0: 45d0 5f3d f2a2 ac3c 5238 d43d 1656 013d
000001d0: e7b3 1f3d 072c b63d 7ca0 163c 7497 803d
000001e0: 50ea ce3b b5fb f43c 8a8c 4abc 3877 2e3d
000001f0: b411 003d 7902 82bc 76c9 f63c e3a2 c83c
00000200: a5d9 cb3c 966a bdbb 4fc8 1c3d a791 71bb
00000210: 7b20 99bc 2d54 62bc 76e5 2ebd 7a39 2fbd
00000220: f42e 2fbd e2b1 3b3c f8e5 05bc 084b 823c
00000230: 622d 58ba 6177 403c 581e dfbc d992 70bd
00000240: d0aa 62bd 5565 6abc 6fbc 4fbc 44db 50bd
00000250: 9621 4abb 6943 853c ae84 3abd d0cb d7bb
00000260: 69db f93b 7b11 90bc 69f8 00bd a262 a23b
00000270: 98e9 0cbd bdb4 3dbb 34d4 9abc 19f0 1abc
00000280: 7e2a d3bc b1c9 23bd 1ae6 efbc e700 3239
00000290: 4ad7 c3bc 45ac 68bc 52c3 fa3b b05c 443c
000002a0: 7116 3ebd 7ba7 b5bb 9966 133b dcc6 15bc
000002b0: a3d0 843c 5953 ad3c 82c7 4abc 64b5 11bd
000002c0: 04de 1fbd 3a84 993b 6d83 c53b f4af 553c
000002d0: 98f5 953a 2389 0cbd c841 1bbd 901e 913c
000002e0: d20e a63b 7e75 d63b e793 933c bc02 e3bb
000002f0: 8d48 a8bb cae2 45bc c566 c3bc c1d4 983c
00000300: ac63 d7bb 4db7 b23c bb77 69bc 37b8 29bc
00000310: 680f 3a3c 820b 933c 0e20 313c 6ec0 10bc
00000320: 6fa0 07bc d6f9 413c 0c19 dfbb b7c3 123d
00000330: 2f41 483c bb72 f13c 2bda 7c3c 830c f33c
00000340: 886e 853c 434e 9e3c da5e b33b 367e 053d
00000350: 7825 8cbb 81c9 d03c fb34 eb3c 5090 5f3c
00000360: 6ed7 9a3c c435 073c 2804 0ebc 0b6e 883c
00000370: a42f 0f3b be06 a0ba 9ef9 293b 4a78 2fbc
00000380: 4623 bd3b 39e2 363c eb08 63bb f4a2 383c
00000390: 3b9e 57bc e25c 50bb b8d9 84bc 191d 51bc
000003a0: 6e84 b0bc 9678 39bc 401a 55bc 6a04 83bc
000003b0: f342 3abb 8840 32bc 8ff5 4cbb 4f70 e8bb
000003c0: 93ee 9b39 debd bfbc d7c6 a4bc 799d 57bc
000003d0: 9f14 89bc 0015 95bc dbc7 b6bb 4e8f b2bc
000003e0: c113 b33a 306e f13a 1277 85bc 2947 13bc
000003f0: f9b8 263a c2b4 e2bb 4256 f339 e729 c3bb
0.5395017 -0.047480237 -0.048585165 -0.04909412 -0.049470436 -0.04912202 -0.048448633 -0.047395933
-0.046140887 -0.043988995 -0.042051513 -0.03985974 -0.036505096 -0.034366023 -0.030788835 -0.029853484
-0.027035926 -0.02569071 -0.023871912 -0.022040762 -0.019012403 -0.017576436 -0.020375948 -0.01643104
-0.01899202 -0.0170471 -0.0072283433 -0.02522797 -0.023042107 -0.028433187 -0.027521055 -0.0009357167
-0.02328258 -0.038114708 -0.04465393 -0.028324297 -0.04182397 -0.049558796 -0.005820544 -0.03134067
-0.023490556 -0.05004055 -0.056671213 -0.014915614 -0.022522802 -0.05338169 -0.07888877 -0.0638891
-0.011626591 -0.08791458 -0.07484832 -0.04238878 -0.04183494 -0.038181573 -0.07074536 -0.08650495
-0.04738204 -0.05270843 -0.048102845 -0.09273869 -0.030886015 -0.0734288 -0.034326233 -0.08566059
-0.064240426 -0.066282794 -0.054578774 -0.05543073 -0.06589182 -0.040825125 -0.056844756 -0.08297233
-0.08504634 -0.040493988 -0.10287755 -0.037623648 -0.07168857 -0.053210367 -0.06440297 -0.025665253
-0.0855629 -0.037839346 -0.080185115 -0.06061743 9.539741e-05 0.013148325 0.015208776 -0.05945704
-0.02101263 -0.018565537 -0.009883514 -0.029182127 0.019064162 0.031861454 -0.0033341174 -0.010306472
-0.02120629 -0.0070470474 0.04606199 0.044856012 0.02955022 -0.0022859755 0.06930664 0.03859067
0.06027135 0.071352564 0.06024654 0.112391844 0.016677367 0.090044126 0.05740559 0.058179595
0.05464198 0.021073792 0.10362305 0.03157624 0.038989928 0.08895116 0.009193536 0.062788874
0.0063145533 0.02990518 -0.012362609 0.042594165 0.031266883 -0.01587032 0.030125361 0.024491733
0.024884054 -0.0057805283 0.038276967 -0.0036860497 -0.018692246 -0.013814014 -0.0426993 -0.042779423
-0.042769387 0.011455985 -0.008172505 0.015904918 -0.00082465087 0.011747212 -0.027236149 -0.058733795
-0.05533868 -0.014306386 -0.012679203 -0.050990358 -0.0030842773 0.016267495 -0.04553669 -0.0065855756
0.0076250327 -0.01758646 -0.031486902 0.0049556056 -0.03440246 -0.002894684 -0.018900014 -0.009456658
-0.025777098 -0.03998727 -0.029284526 0.00016975739 -0.023906369 -0.0142012285 0.0076526785 0.011984989
-0.04640812 -0.005543647 0.0022491573 -0.00914165 0.016212767 0.021157907 -0.012376668 -0.03557338
-0.03903009 0.004684952 0.00602763 0.013042439 0.001144099 -0.03431047 -0.03790453 0.017714769
0.0050676847 0.006544768 0.018014861 -0.006927816 -0.005135602 -0.0120779965 -0.023852715 0.018656136
-0.006573161 0.02181592 -0.014249737 -0.010358862 0.011356212 0.017949823 0.010810865 -0.008834941
-0.008277996 0.011839351 -0.0068084057 0.03583118 0.012222572 0.029473653 0.015432875 0.029669052
0.016288057 0.019324427 0.0054739537 0.032591067 -0.0042769276 0.02548671 0.028711786 0.013645247
0.018901553 0.008252565 -0.008667983 0.016654035 0.0021848464 -0.001220904 0.0025936137 -0.0107098315
0.005772027 0.011162334 -0.0034642767 0.01126932 -0.013160284 -0.0031793644 -0.016217098 -0.012763285
-0.021547522 -0.011320254 -0.013006747 -0.015993316 -0.0028421253 -0.010879643 -0.0031274294 -0.0070934664
0.00029741655 -0.023405965 -0.020114345 -0.013160103 -0.016733466 -0.01819849 -0.005578024 -0.021796849
0.0013662503 0.0018419679 -0.016292129 -0.008989134 0.00063599605 -0.0069185207 0.0004641284 -0.005955923

bias f4 [64]
00000000: db96 95bd 7030 05be fcb4 a83e 35ca 8c3e
00000010: 3e2f 9c9b 1806 6a3d f8a4 13be 2f43 873e
00000020: a5a3 01be 232d 8c3e 3d2a 9da8 60a5 76a9
00000030: ae5e 95bd e52e 4738 1578 8a3e 906f 8c3e
00000040: 457c 7e3e 4987 b13c 2f93 b03e 86eb 953e
00000050: 217b 403e 6b69 b83b 608e 403e 87f0 f8bd
00000060: 9752 a13e 3578 a13e 8de3 383e 7f46 9c3c
00000070: d0ed af3e a8b6 6bbd a814 1ba2 9fc2 453e
00000080: 6a56 ffbd fe10 8b3e 6d27 91bd 4a20 0e3c
00000090: 8c29 85bd 1da6 f43b f269 41be c652 513e
000000a0: a03a a73e 878a dcbd e3ba 61bd d0de e33d
000000b0: 7325 933d 1755 18be cb38 80bd 615a 8c3e
000000c0: 29e3 313b 1a70 44be 669b b93d 1239 893e
000000d0: d4e1 7dbd 1f25 449c cd61 27be a704 953b
000000e0: 0ce7 a93d 75a7 8f3e a34c 973e 279f 4bb2
000000f0: c689 8bbd fd8a bd3d 649f a03e 29f2 253e
-0.07304164 -0.13006759 0.3295058 0.27498022 -2.5838565e-22 0.057134718 -0.144184 0.26418445
-0.12660082 0.27378187 -1.744882e-14 -5.4766413e-14 -0.07293449 4.748897e-05 0.2704474 0.27428865
0.24852093 0.021670954 0.34487292 0.29281253 0.1879697 0.005627801 0.18804312 -0.12155252
0.31508324 0.31537023 0.18055554 0.019076584 0.34361124 -0.05754724 -2.1017352e-18 0.19312523
-0.12467654 0.27161402 -0.07087598 0.0086746905 -0.06502065 0.0074660913 -0.18888071 0.20441732
0.32661915 -0.107686095 -0.05510987 0.111264825 0.07184877 -0.14876209 -0.062608324 0.27412704
0.0027143455 -0.19183388 0.09062843 0.26801354 -0.061982945 -6.489894e-22 -0.16345902 0.0045476737
0.08296022 0.28057447 0.29550657 -1.1852342e-08 -0.068133876 0.092550255 0.31371605 0.16205658

weight f4 [64, 64]
00000000: 0ff5 c4bd 583d 153e a29a 8b3e 167b e53d
00000010: 7045 0398 20b2 693e 77c0 883e b557 ccbe
00000020: f41a af3e aa35 023e 543d fda4 bea9 fba5
00000030: cdfd d2be aa35 81bd 7319 d1be 6263 5d3c
00000040: 1661 933d f18c 4a3e 5a50 3b3e bbcb 13be
00000050: c9b1 aebe 454c c23e 41d2 753d 75f1 343e
00000060: 9a9d 06be 3bda 43bc 3ba3 5b3e 866d 153e
00000070: 1765 8d3e fd9e a53c f7aa 9a9e 9c75 de3e
00000080: 74d5 113e 6f83 49be 2d7a 11bd 836e 1d3d
00000090: 59d6 cdbe 8934 a93e 87e0 f93d 7c25 bbbe
000000a0: 518f 3c3e e85c 693e d320 093d 6e5d 20bf
000000b0: fca2 923e d0f5 d13d 0fc6 463d 687a 61be
000000c0: dcb7 ca3e 280e 113e 22c2 1dbf 7ddd 683d
000000d0: 5c7f debe 07f2 0618 26b5 b83e cbea ad3e
000000e0: b7eb 213e fc0b 993d a176 9b3e 01eb 00af
000000f0: 2366 d9be 3b68 7ebe f8ae 9bbd 611c 583e
00000100: 5990 783e 3ba7 f93e f7d4 59be 0977 26be
00000110: 9eaf 1719 59c3 16bd 1d4d e63e 8aed c4be
00000120: 4310 093e 7986 babd 1613 c825 7096 9726
00000130: d102 7c3e 4268 9d3e 3810 c5be 20dd fabd
00000140: 6971 55be 56ab c4bc 4505 35be f024 5f3d
00000150: 5266 bfbe 0966 393b af61 02bd 6550 923e
00000160: a7f3 43be 05e9 22be fdf5 623e e97e 0bbd
00000170: 037e 50bc fb00 f93e 143d 651f fb25 833d
00000180: dbc1 9a3d 2b1d ecbc 390d 743d 9165 c73e
00000190: 4bb7 403c 5b5e 373a c802 df3d d009 99be
000001a0: 5698 383e d23f e73d 1fa2 8b3e 1456 cbbd
000001b0: 61b9 303e 7013 f63e f8f1 9a3e dedf b5be
000001c0: e354 643b 41b5 0f3e 8d67 8fbd a142 6cbe
000001d0: 33f9 f53e 17c5 e719 f634 9e3e f118 2b3a
000001e0: 82b7 493e 7f7f 54be 22da 5ebe ce96 192f
000001f0: e326 f73e aad7 cebb 1a6e 0bbe 50d4 dd3d
00000200: 7a65 7bbc 7b76 ebbc 3de5 e43d ac35 d93c
00000210: 5d2c 0d18 c02a cabe 4d27 51bd 3977 3b3e
00000220: 6966 d7bc 6c5c bc3d aa98 ee24 db45 2a26
00000230: ce01 a3bd c1f9 afbe a37a 823d 4b89 333e
00000240: ce07 343e cc76 09bf 5e6d 043e fb8b f53d
00000250: a24b eb3d 8351 74be c9e4 03bf 717d b7bc
00000260: 1c5b 493d cbdf 29bb 22d0 8d3e c8f8 21bf
00000270: 1415 deba 7a51 89bd a671 481f c51d c03e
00000280: 6aef 88bc 2761 223e a947 93bc f5bf 00bf
00000290: 6228 8abd 484e 76be 9e10 27bc a2c4 a33e
000002a0: a219 3fbc 0a78 65bc 05d7 8bbd bcf0 9f3e
000002b0: be2b cfbd d166 c1bc 4fb6 81bd 2dc8 833e
000002c0: 970b 5fbe d20f f5bc 73fc de3e e00d 153e
000002d0: 0505 96bd a89c a89a bc3f cfbc a855 83be
000002e0: 2839 edbe 0eef 433e a5b4 1d3e 1e54 aa30
000002f0: 6a65 a2bd df59 003f a2b6 34be 2f91 c7be
00000300: 0115 c8bc d56b f23a 7215 c5b9 bab6 86bb
00000310: 4411 ce13 77f5 d7b8 7c96 383d cb83 0ebb
00000320: f673 a23b 0e87 8239 d47d d120 145f a321
00000330: efd1 063c 406b 7e3b 0847 0bbb 589f 2db8
00000340: 54f0 cdb9 ca26 41bb 81f4 6eb9 d550 a7b9
00000350: 0856 dbba 4031 0e3a 0417 51bb e8ac 85bc
00000360: cef4 bdb9 eaa7 1bbb 8863 2c3b 3109 42bc
00000370: 942f a6ba 11c0 9fbb d8ab 5e1a 5443 cb39
00000380: 2c47 503b 168f b0bb 4984 ea3b 81e9 323b
00000390: 966c ffbb 3230 0d3a 634a bc3b d9a4 2bba
000003a0: 8ad0 4dba d624 723a 4f24 e0ba ed4e b5ba
000003b0: 24f6 7b39 af8a a03c 3281 d2ba 1f0f 0abb
000003c0: 4421 f339 6121 a63c 87b4 beba 33fb efb9
000003d0: 5996 fb3b 409d 8595 ec90 b1bb e3d6 0c3a
000003e0: 5d79 94ba dc2e f2b9 54f5 ebb9 e17e d52a
000003f0: 836e 663c 2b3e 67b9 3b1a aa3a bbdb 773c
-0.09617054 0.14574182 0.27266413 0.112051174 -1.696641e-24 0.22821856 0.2670934 -0.39910665
0.3420025 0.12715784 -1.09825154e-16 -4.365658e-16 -0.4120926 -0.06309064 -0.4083973 0.013512464
0.07196252 0.19780327 0.1829237 -0.14433186 -0.34120014 0.37948814 0.060014967 0.17670234
-0.13146058 -0.011953886 0.21448986 0.14592561 0.27616188 0.020217413 -1.6376094e-20 0.43449104
0.14241582 -0.19679044 -0.035516907 0.03843547 -0.40202597 0.33047894 0.12201028 -0.36552036
0.18414046 0.22789347 0.03347857 -0.6264256 0.28639972 0.10251963 0.048528727 -0.2201935
0.395934 0.14165556 -0.6162435 0.056851853 -0.43456542 1.7441287e-24 0.36075705 0.33968195
0.15812574 0.07472989 0.30363944 -1.1725022e-10 -0.42460737 -0.24844448 -0.07601732 0.21104576
0.24273814 0.487604 -0.21272646 -0.16256346 7.841983e-24 -0.03680739 0.44980708 -0.38462478
0.1338511 -0.0910768 3.4707403e-16 1.0518506e-15 0.2461045 0.30743605 -0.38488936 -0.122492075
-0.20844044 -0.02400748 -0.17677791 0.054478586 -0.37382752 0.0028289577 -0.03183144 0.2857696
-0.19135915 -0.15909202 0.2216415 -0.034056578 -0.012725356 0.4863356 4.854316e-20 0.064037286
0.07556506 -0.028822502 0.059582923 0.38944677 0.01176245 0.0006994956 0.10889202 -0.298903
0.18026862 0.1129147 0.27272126 -0.099285275 0.17258216 0.48061705 0.30262733 -0.3552236
0.0034840635 0.14033987 -0.070021726 -0.23072292 0.48041686 2.3964444e-23 0.3089978 0.0006526849
0.19698909 -0.20751761 -0.21762899 1.3968846e-10 0.48271856 -0.0063123303 -0.13616219 0.10831511
-0.015344018 -0.02874302 0.11176536 0.02651485 1.824622e-24 -0.3948574 -0.05106287 0.18307199
-0.02629395 0.091973156 1.0347467e-16 5.907527e-16 -0.079593286 -0.34370235 0.06371047 0.17532842
0.17581102 -0.53696895 0.12932345 0.1198959 0.11489035 -0.23859219 -0.51520973 -0.022398682
0.049159154 -0.0025920745 0.27697855 -0.63270235 -0.0016943538 -0.067049935 4.2445655e-20 0.37522712
-0.016715724 0.15857373 -0.017978506 -0.50292903 -0.06745984 -0.240533 -0.010196833 0.31985956
-0.011663826 -0.01400567 -0.06828121 0.31238353 -0.10115765 -0.023608597 -0.06333601 0.2573866
-0.21781765 -0.02991477 0.43551978 0.14556074 -0.07325176 -6.9736263e-23 -0.025298946 -0.25651288
-0.4633267 0.19134161 0.15400942 1.2393035e-09 -0.079294994 0.5013713 -0.17647794 -0.38977954
-0.024424078 0.0018495271 -0.00037590746 -0.004111138 5.2018736e-27 -0.0001029772 0.045065388 -0.0021746035
0.0049576713 0.00024896156 3.5489243e-19 1.1070477e-18 0.008228763 0.003882125 -0.0021252055 -4.1394815e-05
-0.00039279705 -0.0029472583 -0.00022788534 -0.00031912947 -0.0016734013 0.0005424209 -0.0031904588 -0.0163178
-0.00036231283 -0.0023751208 0.0026304442 -0.011843012 -0.0012678974 -0.004875191 4.6047338e-23 0.0003876934
0.0031780703 -0.005388151 0.007156883 0.0027299824 -0.007794927 0.0005385905 0.0057461723 -0.00065476965
-0.0007851204 0.00092370564 -0.0017100665 -0.0013832726 0.0002402892 0.01959738 -0.0016060232 -0.0021066142
0.00046373357 0.020279588 -0.0014549651 -0.0004577279 0.007677835 -5.396637e-26 -0.0054188874 0.0005372597
-0.0011327673 -0.0004619275 -0.00045005477 3.792444e-13 0.014064434 -0.00022053036 0.0012977788 0.015128071

bias f4 [64]
00000000: b8cd be3c 4b8b 20bc fbb6 47be a162 fabc
00000010: 2143 093d 1c89 2bbb 7d1f 45be 2ebd ecbc
00000020: 7a51 a23d 6d1a 90ba 135a 42bd 96b6 92bc
00000030: 3542 0dbe 22e2 17be 957e f73b cb40 27bc
00000040: 8009 143e a668 163e b2ab a23d af88 873d
00000050: f49b 3fbd 6e22 ba3d b97d 823d 8d00 5e3d
00000060: 017b 6cbe 65c3 95bb 0138 233d c6cc c43d
00000070: b37c 373d d823 433d 13de 18be 9366 223d
00000080: 1611 853d 1147 1d3b 7354 203e 6a8c ee3d
00000090: 677e d93d 4bf4 a9bc d619 32be 11ce 023d
000000a0: a3a5 1ebe 1bff 1f3d 38a8 143e 8e49 463e
000000b0: 82d6 17be 06e6 5ebd f461 133d fd72 b23c
000000c0: 7399 dd3d 4086 6f3d a761 acbc 3766 8b3c
000000d0: 4424 3e3c 7190 92bb 617d d4bd 7580 eb3d
000000e0: 4d2a 5e3e 5351 a33d b2a3 26bd 8a7c f0bc
000000f0: 9924 1d3d 6976 b63d 9a35 b9bd 10c6 573e
0.023291454 -0.009798835 -0.19503395 -0.030564608 0.033511285 -0.0026174253 -0.19250293 -0.028898802
0.07925697 -0.0010994204 -0.047449183 -0.01790933 -0.13794787 -0.14832357 0.0075529316 -0.010208319
0.14456749 0.14688358 0.079429045 0.06617867 -0.046779588 0.09088598 0.06371636 0.054199744
-0.23093797 -0.004570412 0.03984833 0.0960937 0.044796657 0.047641605 -0.14928465 0.039648604
0.064973995 0.0023998658 0.15657215 0.116478756 0.106198125 -0.02074637 -0.17392668 0.0319348
-0.15492873 0.039061647 0.14517295 0.19363996 -0.14827922 -0.054418586 0.035982087 0.021783346
0.10820284 0.05847764 -0.021042658 0.017016513 0.011605326 -0.004472785 -0.10375477 0.114991106
0.21695824 0.07974496 -0.040683456 -0.02935626 0.03836498 0.08909304 -0.09043427 0.21071649

weight f4 [2, 64]
00000000: 1c07 343f adc0 313f 54b3 27bf 26b5 c93d
00000010: 9503 43bf e5aa d93c 59fe 253f 2803 423f
00000020: 9721 813f d6a2 c13e 99ca 2d3d 35fc 27bf
00000030: de4f bcbe 0cd3 373f 8bef bbbe bc04 083f
00000040: c0eb 683f ae3f 713f b9ff 6fbf e459 1bbf
00000050: bf05 3a3f 19fb 3dbf c788 913f 8dd8 833f
00000060: 4f98 2e3f 481e 903e ebc2 c03e 00a6 44bf
00000070: 191f 39bf 3bd9 56bf dbd8 b6be a8b1 c13e
00000080: f8d9 8b3f f28c 6abf 2dc0 6c3f 20f2 533f
00000090: 68aa 363f 7387 903d 4b43 243f d46e 2dbf
000000a0: d68b 18bf 8eb4 923f 8ce6 463f 7544 d6be
000000b0: 4539 12bf 780e d63c b542 783f 84d3 5fbf
000000c0: cdfc 483f 722b 873f 01c7 a63d 8fbe 45bf
000000d0: 9f4c 34bf 0a9a 0bbf 9ecf 3dbe e282 633f
000000e0: 5a0e 223f 44d7 2c3f e438 24bf f7b5 15bf
000000f0: e057 5fbf aeae 20bf 36dd d1be 56dd 2a3f
00000100: b87e a43d 0af9 e73e 5dfe d13a 0991 cd3d
00000110: 205f 71be 3e17 75bb cc36 813b c7b1 9e3e
00000120: 5f5c 4fbe 3755 c83d c43a 413e 5372 313d
00000130: 87a5 d73e 58f8 663b ead4 60bc b6d0 c63e
00000140: 5def 01bf 1976 8abe 7b09 a2be e2e8 fbbe
00000150: f8d0 813e 67e9 3c3e 0471 2bbe 64d2 0abe
00000160: c31c 5c3b aba6 5b3e 5486 ee3d b40f a4be
00000170: ad06 d4be b6c2 95be f7ea af3e 5979 203e
00000180: a73e b53d f50c 623d 9301 f5bd bf89 50be
00000190: 248f e23b bca2 203c 9b48 4b3b c35c 42be
000001a0: f911 d03e 8745 173e d7b5 a2be d88c d23e
000001b0: a2bc cd3e eec3 f23d da50 2d3d fe40 b8be
000001c0: c7b2 d7be c161 20be 777f bd3a 69bd ccbd
000001d0: 177a 6fbe 9bf3 d13e 3c73 ac3e fef8 c0be
000001e0: af5b 13bf 0e97 333b 7985 c8bd e412 723e
000001f0: cdc9 f0bd 1f4b 0bbf 1db5 ad3e 037d 1ebf
0.7032335 0.69434625 -0.6550801 0.098490044 -0.7617734 0.026570747 0.6484123 0.75786066
1.0088376 0.37819546 0.04242954 -0.6561921 -0.36779684 0.71806407 -0.36706194 0.53132224
0.90984726 0.9423779 -0.93749577 -0.6068404 0.7266502 -0.7421127 1.1369866 1.0300461
0.68201154 0.28148103 0.3764871 -0.76815796 -0.72313076 -0.8392522 -0.35712323 0.37830853
1.0925894 -0.91621315 0.92480737 0.8279133 0.7135377 0.07057085 0.6416518 -0.67747235
-0.5958837 1.1461351 0.77695537 -0.41849104 -0.57118636 0.026129946 0.96976787 -0.8743212
0.78510743 1.0560133 0.08143426 -0.77243894 -0.70429415 -0.5453192 -0.18536231 0.88871586
0.6330315 0.6751597 -0.6414931 -0.5848078 -0.8724346 -0.6276654 -0.40989083 0.6674398
0.08031982 0.4530719 0.0016021241 0.10037429 -0.23571444 -0.0037397887 0.0039433 0.30995008
-0.2025008 0.097818784 0.18870074 0.04332192 0.42118475 0.003524324 -0.013722638 0.3883111
-0.50755864 -0.27043226 -0.31647858 -0.49201113 0.25354743 0.18448411 -0.16742331 -0.1355682
0.003358648 0.21450298 0.11646715 -0.3204323 -0.41411343 -0.29250115 0.3435895 0.1567129
0.088498406 0.055188138 -0.11963191 -0.20365046 0.0069140363 0.009804424 0.0031018618 -0.18980698
0.40638712 0.14772616 -0.31779358 0.4112308 0.40182978 0.11853777 0.042313434 -0.35987085
-0.42128584 -0.1566229 0.0014457543 -0.099970646 -0.23386417 0.4100617 0.33681667 -0.37689966
-0.57561773 0.0027403268 -0.09791083 0.23640019 -0.117572404 -0.544115 0.3392724 -0.619095

bias f4 [2]
00000000: 454f b83a 4ddd 61be
0.001406171 -0.22057076
