checkpoints/swarm_1d/unknown/no-constraint/policy_final.pt (torch, 124255 bytes, 6 tensors)

weight f4 [64, 401]
00000000: 3285 e4bc 5816 80b5 b4bd 80b5 da97 a7b5
00000010: 7c30 87b5 2283 a1b5 87ae abb5 2141 acb5
00000020: dbf8 a7b5 62bf afb5 877f 84b5 5924 99b5
00000030: e180 a5b5 27ce 01b6 42cc bcb5 30c5 a3b5
00000040: 4965 88b5 793f 9fb5 4148 c4b5 879c 0ab6
00000050: 2f11 82b5 0df1 b3b5 13bc a8b5 d8cc 6db5
00000060: ee09 80b5 4da6 a4b5 5fe5 02b6 c083 b2b5
00000070: 5004 30b5 ab1a 2db5 30cf 29b5 28b1 03b5
00000080: 08fe dab4 5023 e9b4 2420 a4b5 9597 9fb3
00000090: f591 e7b4 3c8b 55b5 4123 3cb5 41f0 0ab5
000000a0: 621a e8b4 d3c4 c8b4 a759 4735 f872 1535
000000b0: b631 abb3 a00f 6635 8eb1 5935 deeb 0135
000000c0: d405 9835 41c7 c235 8a08 a735 513b 1a36
000000d0: 53ab 2736 7356 3036 75b1 0536 f78b 1d36
000000e0: 2803 5836 db4d 8936 173e 5036 8ca1 6036
000000f0: 4b52 5136 3846 a736 af34 9236 ac00 9d36
00000100: 1a26 a036 0d2d b536 d007 b236 ba80 b636
00000110: a087 c136 8b69 ae36 0fc8 d236 866a da36
00000120: 6c69 db36 28fb d336 0de2 f236 4b4d 3737
00000130: 8cc8 0c37 c4d3 5937 feb4 3037 3b83 1937
00000140: 98a0 3937 9a77 2037 448b 7637 e6e3 6137
00000150: 7bfb 7c37 c880 6137 2818 7137 cd9a 4c37
00000160: f73f 4b37 5e8a 5d37 fa26 8937 8108 4d37
00000170: fd10 4e37 e7f0 3e37 0d1a 6f37 8dec 3137
00000180: 50d9 7237 1d20 1937 931e ec36 dbc4 b936
00000190: 3d8f 7136 bef9 0e37 f499 9a32 bd32 9ab5
000001a0: da1c 2fb6 b85d 3836 e395 bfb6 40a5 6fb5
000001b0: 53b6 dab6 dd2a bcb6 2a63 cfb6 cdb2 e0b6
000001c0: 0c91 91b6 77f4 0db7 5d4d 08b7 fffa ffb6
000001d0: d307 1bb7 e5ae 1bb7 2f75 07b7 8905 bfb6
000001e0: 6ad3 5bb6 8521 70b6 ebd1 a2b6 ed4a 75b6
000001f0: e7e3 b5b6 d2d6 3bb6 fbcc deb5 765f 16b6
00000200: b9b0 a8b5 2c97 ccb5 3825 36b5 5cda a734
00000210: bcb3 0e36 5a5a 9a35 d96e 9835 7727 d435
00000220: c90c 2b36 4246 5b36 f967 5436 5342 8a36
00000230: df0c 9336 b868 a036 3767 9c36 bb9a ac36
00000240: 586a a236 33b3 c436 3a34 be36 5c86 c436
00000250: 265d c736 638f ca36 6b58 ca36 3301 da36
00000260: 0db3 e136 ff6d 9036 9961 6d36 e197 8136
00000270: 065e cc36 068d c536 2b01 ca36 9544 6136
00000280: 9e1c c336 461c 9d36 89ec bb36 0963 6236
00000290: 1a94 9e36 b48b 8e36 d705 9536 6c97 8c36
000002a0: 7239 9836 5940 a436 e276 9a36 d827 8736
000002b0: 152b 8536 3d60 8136 c355 4736 c474 6836
000002c0: a514 6c36 eb87 2736 f5ec 0f36 693e 2236
000002d0: aa44 3c36 aa50 1f36 a342 1236 5117 e735
000002e0: 184f b335 1dd5 f835 2f56 4a35 2559 aa35
000002f0: d172 a935 be24 8535 62d8 9535 b9bc 36b4
00000300: 5c47 1835 e203 4834 d945 1c34 5f1a 9233
00000310: 6f6e fdb3 4463 69b5 53b4 40b5 84e3 7fb5
00000320: 48a8 55b5 09ab 92b5 d37e cab5 f850 ccb5
00000330: 3a11 ecb5 ad92 fdb5 ec9d 09b6 06cb 25b6
00000340: 9102 2bb6 9c8c 20b6 253b 0eb6 3ba7 4bb6
00000350: d222 1db6 a657 42b6 46e2 59b6 3554 67b6
00000360: 643f 47b6 c65b 36b6 b70e 59b6 965d 5eb6
00000370: ac36 67b6 8ae4 8bb6 43f3 7db6 2093 83b6
00000380: 7047 91b6 990c 85b6 a5eb 8ab6 4d78 52b6
00000390: c310 88b6 8e38 89b6 7d74 98b6 2798 73b6
000003a0: 6d48 7ab6 5d75 6bb6 c457 8eb6 d01f aab6
000003b0: 3840 88b6 db5a 69b6 9c84 8ab6 6fbc 8cb6
000003c0: fd34 74b6 2fd4 b3b6 371f b5b6 04b1 b1b6
000003d0: 2ac5 86b6 448e b6b6 f082 a0b6 a24e 75b6
000003e0: 92c7 8bb6 0869 b8b6 2997 86b6 9e3d 83b6
000003f0: bf72 acb6 0ed6 aab6 9336 8eb6 259f b2b6
-0.027895544 -9.543246e-07 -9.591954e-07 -1.2486664e-06 -1.0072395e-06 -1.20336e-06 -1.2791287e-06 -1.2833954e-06
-1.2514896e-06 -1.3094216e-06 -9.871882e-07 -1.1409967e-06 -1.2330967e-06 -1.9342494e-06 -1.4066538e-06 -1.2201835e-06
-1.0162267e-06 -1.1864896e-06 -1.4624167e-06 -2.0654713e-06 -9.690756e-07 -1.3406694e-06 -1.2571712e-06 -8.8587467e-07
-9.539633e-07 -1.2267352e-06 -1.950502e-06 -1.3300378e-06 -6.5571385e-07 -6.448633e-07 -6.3258904e-07 -4.90591e-07
-4.0790496e-07 -4.3425325e-07 -1.2228306e-06 -7.431587e-08 -4.31333e-07 -7.9551296e-07 -7.008676e-07 -5.175862e-07
-4.3232563e-07 -3.7396111e-07 7.426374e-07 5.5674127e-07 -7.9718504e-08 8.5704414e-07 8.1097176e-07 4.8399477e-07
1.1326579e-06 1.4512117e-06 1.2444955e-06 2.2982315e-06 2.4984663e-06 2.6276364e-06 1.9921838e-06 2.3476293e-06
3.2188345e-06 4.0919817e-06 3.1030556e-06 3.3472634e-06 3.1191328e-06 4.9851624e-06 4.3572722e-06 4.679043e-06
4.772807e-06 5.399465e-06 5.305723e-06 5.4390084e-06 5.767637e-06 5.197891e-06 6.2817776e-06 6.5093072e-06
6.5389813e-06 6.3175285e-06 7.238478e-06 1.0925646e-05 8.391344e-06 1.2983513e-05 1.0532558e-05 9.150065e-06
1.106425e-05 9.56459e-06 1.4695168e-05 1.3464107e-05 1.5078923e-05 1.3441029e-05 1.4370344e-05 1.219539e-05
1.2114636e-05 1.3204843e-05 1.6349823e-05 1.2220932e-05 1.2282512e-05 1.1380972e-05 1.42515755e-05 1.0605098e-05
1.4474921e-05 9.126988e-06 7.0369074e-06 5.5363466e-06 3.5995174e-06 8.522007e-06 1.799797e-08 -1.1488661e-06
-2.6093826e-06 2.7472688e-06 -5.7096927e-06 -8.927491e-07 -6.5181316e-06 -5.6078266e-06 -6.180625e-06 -6.6965354e-06
-4.3382224e-06 -8.461174e-06 -8.124244e-06 -7.628812e-06 -9.240542e-06 -9.279441e-06 -8.073911e-06 -5.692888e-06
-3.2756602e-06 -3.5782298e-06 -4.852414e-06 -3.6551457e-06 -5.4207517e-06 -2.7990213e-06 -1.6599946e-06 -2.2407307e-06
-1.2568408e-06 -1.5243181e-06 -6.7854444e-07 3.126505e-07 2.1264268e-06 1.150019e-06 1.1357143e-06 1.5806717e-06
2.5488428e-06 3.2674438e-06 3.1650982e-06 4.1204416e-06 4.38244e-06 4.7805624e-06 4.661178e-06 5.1440124e-06
4.8403563e-06 5.8621167e-06 5.668521e-06 5.8568967e-06 5.941506e-06 6.0367615e-06 6.0303623e-06 6.497046e-06
6.726367e-06 4.3043397e-06 3.5372561e-06 3.8621806e-06 6.0906195e-06 5.887475e-06 6.020205e-06 3.3567533e-06
5.8147843e-06 4.682256e-06 5.6005706e-06 3.373427e-06 4.7260082e-06 4.2481934e-06 4.441226e-06 4.189953e-06
4.5366405e-06 4.895072e-06 4.6033974e-06 4.027952e-06 3.9687243e-06 3.855703e-06 2.970323e-06 3.463866e-06
3.5178757e-06 2.4964054e-06 2.1446588e-06 2.4176209e-06 2.805415e-06 2.37398e-06 2.1794483e-06 1.7217627e-06
1.3359559e-06 1.8539464e-06 7.537628e-07 1.2691931e-06 1.2624897e-06 9.919966e-07 1.1164341e-06 -1.7018728e-07
5.6728254e-07 1.8627864e-07 1.4554043e-07 6.803452e-08 -1.1801318e-07 -8.6943714e-07 -7.178798e-07 -9.532598e-07
-7.9593565e-07 -1.0927625e-06 -1.5087084e-06 -1.5222749e-06 -1.7588384e-06 -1.8892657e-06 -2.0506513e-06 -2.4705091e-06
-2.548248e-06 -2.3923703e-06 -2.1194076e-06 -3.0346698e-06 -2.3415091e-06 -2.895927e-06 -3.2467228e-06 -3.4470697e-06
-2.969021e-06 -2.7173533e-06 -3.2344085e-06 -3.3135052e-06 -3.4453506e-06 -4.1691283e-06 -3.7841535e-06 -3.921232e-06
-4.329653e-06 -3.9651754e-06 -4.140153e-06 -3.1362463e-06 -4.055067e-06 -4.089502e-06 -4.543514e-06 -3.6298386e-06
-3.729506e-06 -3.5086043e-06 -4.242147e-06 -5.0700983e-06 -4.060592e-06 -3.477259e-06 -4.1281583e-06 -4.1942617e-06
-3.6389677e-06 -5.359317e-06 -5.3978542e-06 -5.2956184e-06 -4.016464e-06 -5.4405846e-06 -4.7836147e-06 -3.6553615e-06
-4.165756e-06 -5.4958546e-06 -4.0111086e-06 -3.9112774e-06 -5.1393577e-06 -5.091314e-06 -4.238283e-06 -5.3233402e-06

bias f4 [64]
00000000: 57d2 b4bb 358f d2bb 12b9 173d 125e ea3d
00000010: 1e13 7ebb 7422 1abc fa37 a63d 7cde 963d
00000020: e0bc 2f3e f335 9cbb 99ab 043e 4ddd 333e
00000030: fcc7 15bd 46c0 1abd bf50 10bd e730 dd3c
00000040: 377f 71bc 5e60 d53d de5d 7a3c df28 97bc
00000050: a746 c23d 8cfd ab3d fc73 e1bc 0051 7ebb
00000060: 5c5a a83d fb48 25bd 1625 db3d 851c cb3d
00000070: 8594 febc d49e bb3d 78c4 9cb9 cf99 033e
00000080: 7135 eb3d e581 cd3d 4843 6a3d f6d6 1ebd
00000090: a58d c73a d478 11bd 6199 dd3d bea0 d4bc
000000a0: 385f fc3d 59ba e13d 12bb c03d 872f e1bc
000000b0: cb87 2d3e ec40 e13d ae43 2b3c 53ec 37bd
000000c0: 31f6 f6bc 06d4 e43d af5e 9fbc 8bb2 36ba
000000d0: 9d63 81bb 0240 f93d ae4f 08bc 1c4d 01bc
000000e0: 5061 0f3e 0a02 ff3d 7856 293e d2c4 f83c
000000f0: 475b 0abd e2c7 ba3c 5ba0 9abb d474 a8bc
-0.0055182385 -0.006425763 0.03704173 0.11443724 -0.003876872 -0.009407628 0.081161454 0.07366654
0.17161894 -0.0047671734 0.12956084 0.17564888 -0.036567673 -0.037781022 -0.035233255 0.027000858
-0.014739803 0.10418771 0.015281169 -0.018452106 0.09486132 0.083979696 -0.027521126 -0.0038805604
0.0822036 -0.040352803 0.10700433 0.09917549 -0.031076679 0.091611534 -0.0002990102 0.12851642
0.114848025 0.10034541 0.05719307 -0.03877922 0.0015224708 -0.03551562 0.1082027 -0.025955554
0.12322849 0.11021871 0.09410681 -0.027488483 0.16946332 0.10998711 0.010453148 -0.04490311
-0.03014669 0.11173253 -0.019454328 -0.0006969354 -0.0039486424 0.12170412 -0.008319778 -0.007891919
0.14001966 0.12451561 0.16536891 0.030367289 -0.033778455 0.02280039 -0.004718823 -0.02056352

weight f4 [64, 64]
00000000: aadd 37ba 13e0 b0ba d4ea 90be 875a bd3e
00000010: feb2 04bb 5283 803b f0ba 07be cc25 143e
00000020: 5604 e03e c3b9 50ba 6514 7ebd 8d0a 123e
00000030: 1baa 36be 2ccd 5d3d 2d8c a2be 1389 18bd
00000040: 762a 82be 4319 6e3d 7713 883c f587 20bd
00000050: 89b0 8a3e 832b 3c3d 373c 8bbd 167c 1735
00000060: d3c2 753d fa7c 51be b4ad 083e 1ae5 433e
00000070: a737 8dbe 1a17 e5bd 9d5b bbb7 b061 a23e
00000080: 3be1 673e f3df 7a3e 9cea 6ebe 491c 82bd
00000090: d202 dabe 117b 253d dc47 cf3e 3aa9 0abe
000000a0: 8678 c83e d45b eb3e 5a6d cb3e 3c2e a5be
000000b0: 3c6d b13e 0d93 373e 0e59 0b3c 2eb0 813d
000000c0: 4309 0ebe 43ae 883d 9699 b6be 0028 6038
000000d0: 0ee1 f0b9 be09 d7bd 37b6 26be 6731 00bb
000000e0: f8ab 943d 2391 1fbd d582 723e 0b3d 0ebd
000000f0: 2fbd aebd 86b5 a2be c142 81ba 3506 89be
00000100: 1d10 ac39 7d57 3a3a 32c8 263d 5f6d 22be
00000110: a0b5 c73a 6e78 513a 71dd bf3d de78 4fbe
00000120: 61ab 22be cdb8 9f39 60ad 08bc ccd4 133d
00000130: 75db 0e3b 7f16 8a3e 0675 cb3e e8e8 873e
00000140: bb0e 383e e9f3 e63d 6644 933d b408 9eb9
00000150: f26d bbbe 8313 b53d e3de 873e 3ac7 a539
00000160: 6e9b 93be 4c85 073d af07 8fbe d36a 36be
00000170: 5c34 2d3e cd3e 1b3d e78a eeb7 7c12 80be
00000180: 9cf7 05be c6f6 89be 4dbf 823e 0a22 f43e
00000190: b1a5 bb3e cf9c 653e cd87 89be 65df 003a
000001a0: 4cab 07be 1e22 bbbe fb4b cdbe dfb4 0f3e
000001b0: ccc8 84be 8f4b b3be 6bae 9d3b bbd3 39bd
000001c0: 82ed 883e cd82 c8be e091 383d c7c1 a0b7
000001d0: a335 1338 e9d1 b03d 3af1 ed3e 69ee b23a
000001e0: a721 35be 8b35 003e e901 2abd 18f7 c83e
000001f0: 1a4e 513d d3fb d63e 295f 0b3a 0886 c03e
00000200: 7698 ae39 4074 843a 25cb c23e 3cbf a0be
00000210: c10f 8c3a c39d 153a f92a a53e b184 b3be
00000220: 8709 a1be 2ca0 4cb9 0f1a 933d 2a1f 6cbe
00000230: 8bb5 163d 966f c3bd da7a 023e fe41 aa3e
00000240: 984c 9b3e 0403 803e c273 4e3e d436 b4bc
00000250: 2557 2cbe edaa e33e 6fc1 d73e d081 173a
00000260: 2c54 f8bd 9273 c53e b449 e4be 6924 2e3d
00000270: 00db 613e bca4 c33e f058 4137 2fe0 16be
00000280: e7b9 c5be 485d c7be 7d87 1a3e bc08 233e
00000290: b17b ac3e 08a5 b63e 862e d6be a3d2 633d
000002a0: 9ad8 4abe 73d2 e9bd 3465 883d 0b41 693d
000002b0: 13f3 e8bd b0f8 4abe 04a6 c33e e537 d23e
000002c0: 1326 2a3e cbcb 9cbe 6e6b b63e 9d4c 4b39
000002d0: 60a2 7a37 060b ca3d 1ac9 393e 1758 1f3b
000002e0: 5b58 9bbe 2fb3 b0be de8f ce3c 7971 be3e
000002f0: 01a3 913e 2be8 843e afe2 7f3a 3746 a7bd
00000300: 260a ebb9 f60a 96ba df5e 99bd 2d90 633e
00000310: f62c 09bb 0817 a6ba d675 523d 35c1 993d
00000320: 0879 013e 1d2c 9eba 03b5 5cbd 80ca 543d
00000330: c8a7 da3d a578 7abe f72c 15be 57c0 15bd
00000340: d9cb 9cbe 67a5 f13c 4fdd 343e 10d5 67bc
00000350: 4673 d13d 45f0 8cbd 7040 aabe 314a 0aba
00000360: f00c 713e 04f9 0c3e c223 863e c60f 613e
00000370: e98d 21be 4141 b03c 111b 0a37 730d 443e
00000380: 7bd8 463e 3657 c83c 8b76 cdbd 147f 86bd
00000390: 7178 70bc 9c25 40bc 04a7 933e 7526 97bb
000003a0: 9b19 363e 1058 3c3e 0cd4 ac3e 7e8a 40be
000003b0: cf6d 6b3d 0934 97bb 4721 81be df4b 133e
000003c0: 884b 86bd 8b39 7b3e af5f 233c 21c6 1738
000003d0: ac97 2738 0473 273e c0df 16be c830 beba
000003e0: 0fa3 263e fac2 4ebd 12d1 dd3c 6c77 4ebe
000003f0: 3ba1 753d 8706 3cbe 2985 4aba 5099 5cbc
-0.00070139265 -0.0013494514 -0.2830416 0.3698313 -0.002024829 0.0039219046 -0.13254905 0.14467543
0.43753308 -0.0007962251 -0.06203117 0.14261837 -0.17838328 0.054150745 -0.3174757 -0.0372401
-0.2542302 0.05812956 0.016610844 -0.03919216 0.2708781 0.045939934 -0.067985944 5.643245e-07
0.060000252 -0.20457831 0.13347512 0.19130364 -0.27581522 -0.11186047 -2.2334798e-05 0.31715155
0.22644512 0.24499492 -0.23331684 -0.06353051 -0.42580277 0.04040057 0.40484512 -0.13541117
0.39154452 0.45968497 0.39731866 -0.32261837 0.34653652 0.17927189 0.008505119 0.06332432
-0.1387072 0.06673863 -0.35664052 5.3443015e-05 -0.00045944046 -0.10499905 -0.16280447 -0.0019560696
0.07259363 -0.038956773 0.23682721 -0.034726184 -0.08532178 -0.31779116 -0.0009861813 -0.26762548
0.00032818402 0.00071083737 0.040718265 -0.15862034 0.0015236624 0.00079906627 0.093684085 -0.20260951
-0.15885688 0.0003046453 -0.008342117 0.03609161 0.0021798287 0.26970288 0.3973772 0.2654488
0.17974369 0.11276991 0.0719078 -0.00030142593 -0.3660732 0.08841612 0.26537237 0.00031619688
-0.2882952 0.033086106 -0.2793555 -0.17814188 0.16914505 0.03790169 -2.8436492e-05 -0.25014102
-0.13082737 -0.26946086 0.25536576 0.4768222 0.3664985 0.22423099 -0.2686142 0.0004916101
-0.13248938 -0.36549467 -0.4009703 0.1403384 -0.25934446 -0.35018584 0.004812052 -0.045367938
0.26743704 -0.39162293 0.045060992 -1.9163721e-05 3.5097484e-05 0.08633787 0.46473104 0.0013651374
-0.17688619 0.12520425 -0.041505728 0.39251018 0.051099874 0.41989002 0.0005316609 0.37602258
0.00033301458 0.0010105446 0.38045612 -0.313959 0.0010685847 0.0005707407 0.32259348 -0.35062173
-0.3145258 -0.00019514625 0.07182705 -0.23058763 0.036794227 -0.09542768 0.12742177 0.33253473
0.30331874 0.250023 0.20161346 -0.0219988 -0.16830118 0.44466344 0.42139766 0.00057795364
-0.121254295 0.38564736 -0.4458748 0.042515192 0.22056198 0.3821162 1.1524404e-05 -0.14733957
-0.38618395 -0.38938355 0.15090747 0.159213 0.3368812 0.35672784 -0.4183237 0.0556208
-0.1980919 -0.11417093 0.06659928 0.056946795 -0.11374488 -0.19821429 0.38212597 0.4105827
0.16616087 -0.30624232 0.35628837 0.0001938813 1.4938967e-05 0.09865384 0.1814312 0.002431398
-0.30340847 -0.34511706 0.025215086 0.37195948 0.28444675 0.2595838 0.00097612565 -0.08167689
-0.00044830254 -0.0011447358 -0.07488798 0.22222967 -0.002093134 -0.0012671659 0.05138191 0.075075544
0.12643826 -0.001206759 -0.053883564 0.05195093 0.10676533 -0.24460085 -0.14567934 -0.036560383
-0.30624273 0.029497815 0.17662548 -0.014149919 0.10227065 -0.06881765 -0.33252287 -0.00052753376
0.23540092 0.13766867 0.26199156 0.21978673 -0.1577679 0.02151549 8.231743e-06 0.19145755
0.19418518 0.024455648 -0.10032376 -0.06567207 -0.014677153 -0.011727717 0.2883836 -0.0046127387
0.17783205 0.18392968 0.3375553 -0.1880283 0.05747777 -0.0046143574 -0.252207 0.14384411
-0.06557375 0.2453367 0.009971543 3.6185727e-05 3.9957158e-05 0.16352469 -0.14733791 -0.0014510388
0.1627314 -0.050478913 0.027077232 -0.20162743 0.059968214 -0.18361865 -0.0007725531 -0.013464287

bias f4 [64]
00000000: 021a 433d 685e 303e 36b0 663c abde 363c
00000010: 2102 e6ba 1177 073e 316b 7ab9 57cf b83d
00000020: 4527 50bb cb0b 69bc 5347 8a3d 18ac d63c
00000030: ba01 193e aa54 2cb9 a97d 0e3e 81d3 ad3c
00000040: e6e5 97bc 6287 2f3e eefc dd3d d16f d6bb
00000050: 5ef6 383d a059 4eb5 5da4 c93d 5961 bb3d
00000060: 4c73 e03d 023f e93d 3025 e23d 9a65 aa3d
00000070: 55e8 d93d 05c0 793e 6315 d03d fda5 9a3d
00000080: ac66 25bc 4aca 9c3d ecf4 d33d a449 c43d
00000090: 5441 683d cd58 113e f4fe 953b 0541 f33d
000000a0: 6178 4e3d 8682 b13d 834b cc3d 3e67 b53d
000000b0: 41ab 45bd 80f0 9a36 f6be 333d f787 71ba
000000c0: cae9 453e 0ba7 9f3d 42c7 023e eeba 643d
000000d0: 3f78 0cb9 f8e9 bbbb 98fa 4a3d dfc1 28b9
000000e0: 0f62 acb7 a9c7 703d 4eb4 95ba 63c5 913d
000000f0: 1505 9d37 eb4f 84bb 6f4a e73c e6ae 99bb
0.047632225 0.17223513 0.014080098 0.011161487 -0.0017548242 0.13229014 -0.0002388179 0.09023922
-0.0031761688 -0.014224003 0.06751885 0.026205108 0.14942065 -0.00016434738 0.13915123 0.021219017
-0.018542241 0.17141488 0.10839258 -0.0065440913 0.04515683 -7.68714e-07 0.09845803 0.09149427
0.10959491 0.11388971 0.11042249 0.0832016 0.10640017 0.24389656 0.10160329 0.07551191
-0.01009528 0.07655771 0.103494495 0.09584358 0.056702927 0.14194031 0.004577512 0.11877636
0.05040777 0.086674735 0.0997534 0.088575825 -0.048259024 4.6175555e-06 0.043883286 -0.0009213681
0.19327465 0.07795533 0.12771323 0.055842333 -0.00013396236 -0.0057346784 0.04955539 -0.00016093951
-2.054966e-05 0.05878416 -0.0011421533 0.07117727 1.8718225e-05 -0.0040378473 0.028233735 -0.004690039

weight f4 [2, 64]
00000000: 3c7d 1f3f 338f 8dbe 06a0 f0be eaee ea3e
00000010: 6162 8e3b 5ba8 1c3f 6bda 46ba 4ee6 383f
00000020: c9d9 453d 4cb6 993d 408a 22bf f373 d0be
00000030: 41fd 8fbe b62a 11bb 4440 4c3e 3573 0ebf
00000040: 4176 ca3d e4cb 8d3e bb47 123f 655c 20bf
00000050: a467 bc3e 8dc2 a6b6 bdcc 14bf 1dab 2e3f
00000060: 5c8f 1b3f c886 173f bdd4 04bf 1370 20bf
00000070: 3233 663e 8b24 8d3e 42ce 083f 2dd6 f6be
00000080: 5cdf 413d 56d1 debe 8fe4 06bf c2f4 abbe
00000090: 4818 30bd 0a16 f13e a005 89be 7260 dbbe
000000a0: 8c9b f53e 150f 05bf 5b6c 0f3f 7e02 1e3f
000000b0: bebf f1be b8f0 c439 2bad f1be 94dc 863c
000000c0: b85e a23e fe94 193f f76a d7be 587a 05bf
000000d0: f61d d0b7 0720 3ebd bdb4 1bbf d394 d938
000000e0: c639 82b9 25dd ecbe 5528 99b9 d7ac 93be
000000f0: 5053 8aba 63b9 6dbd 1dd2 15bf 9ee3 5dbd
00000100: b7aa a43e 9e31 b9be dcc8 88bc 7f0b ec3e
00000110: 8918 d4b8 e215 a7bd 5f7b 0637 8b63 ae3e
00000120: 5f09 86b8 19b8 55ba 2eb2 06bf 3033 c0bc
00000130: 5ede 733d 209e d438 b410 a83e 17fc 97bd
00000140: cfa5 8dba 25bc f33e 7c57 773e fe3f 4ebe
00000150: 7cc7 ff3e 2821 5db7 c030 29bf d1db 433e
00000160: f6d5 f7bd d984 d53d 4197 22bf cc2b 0ebf
00000170: a808 963e 6754 273f cb3e d63e d376 09bd
00000180: 8183 78bd a390 c0bd cbb1 b1be 29ba 8abe
00000190: 2835 873e dbe0 043e d665 a6bd 9d9e d6be
000001a0: 3e34 113f 5353 debe 1cb7 063e f1c9 e63e
000001b0: 8316 95be 5ecc abb5 6b60 7dbe ed7f 1db9
000001c0: dafc 223d 48f3 b0bd 714e 00bf 0305 0bbc
000001d0: 61c1 6137 0a7c 8e3c f3c1 22bf 9a10 01b8
000001e0: 04dd f5b6 f2d7 0dbe cd34 33b8 6d04 8cbe
000001f0: 517f 24b9 a7f6 163b 31bd f33c 131d f6b7
0.6230047 -0.27648315 -0.46997088 0.45885402 0.004345224 0.6119439 -0.00075856474 0.7222642
0.0483034 0.075054735 -0.634922 -0.40713462 -0.28122905 -0.0022150702 0.1994639 -0.5564454
0.098858364 0.2769462 0.571407 -0.6264098 0.36797822 -4.969834e-06 -0.58124906 0.6822985
0.60765624 0.59190035 -0.5188711 -0.6267101 0.22480467 0.27566943 0.53439724 -0.48210278
0.047332153 -0.43519086 -0.526925 -0.33585173 -0.042991906 0.47087127 -0.26762104 -0.4284702
0.47970235 -0.5197614 0.5602471 0.6172255 -0.472166 0.00037563383 -0.4720243 0.016462602
0.3171289 0.5999297 -0.42073795 -0.52139807 -2.4809484e-05 -0.046417262 -0.6082266 0.00010375087
-0.00024838577 -0.4626247 -0.00029212484 -0.28842804 -0.0010553394 -0.058038127 -0.5852373 -0.05417215
0.32161495 -0.36170667 -0.01669734 0.4610252 -0.00010113518 -0.08158471 8.015747e-06 0.3406032
-6.3913634e-05 -0.0008152738 -0.5261563 -0.023461908 0.059538238 0.00010138401 0.32825243 -0.07421129
-0.0010806861 0.4760448 0.24154466 -0.20141599 0.49956882 -1.3180346e-05 -0.6609001 0.19126822
-0.12101357 0.10425729 -0.63512045 -0.5553558 0.2930348 0.6536316 0.41844782 -0.033560585
-0.060672287 -0.09402587 -0.34705958 -0.27095154 0.26407743 0.129764 -0.081248924 -0.41917887
0.5672034 -0.43422946 0.13155788 0.45075944 -0.29118738 -1.2799972e-06 -0.24743812 -0.00015020343
0.03979192 -0.08640152 -0.5011969 -0.008485082 1.345607e-05 0.01739313 -0.63577193 -3.0771458e-05
-7.3272986e-06 -0.13851908 -4.27261e-05 -0.27347127 -0.00015687688 0.00230352 0.0297533 -2.9339024e-05

bias f4 [2]
00000000: f15f 2f3c a3bc dabd
0.010704027 -0.10680511
