checkpoints/swarm_1d/known/no-constraint/policy_final.pt (torch, 124031 bytes, 5 tensors)

weight f4 [64, 401]
0.22585669 -0.0027277232 -0.022788616 -0.022313016 -0.021003854 -0.021830112 -0.00061786355 -0.021235086
-0.005142902 -0.030373236 -0.020055996 -0.023092099 -0.017741263 -0.03153627 -0.023919191 -0.023001283
-0.038770407 -0.025723286 -0.00051856117 -0.033394795 -0.04355278 -0.0296815 -0.008678331 -0.029550366
-0.030197894 0.0062016426 -0.032943185 -0.033251286 -0.03575818 -0.0479542 -0.029330444 -0.030987289
-0.026859725 -0.02945893 -0.0264194 -0.016338548 -0.02400112 -0.030599145 -0.026299288 -0.020956168
-0.025592845 -0.01076096 -0.033382718 -0.038620036 -0.0053383755 -0.024594484 -0.019180434 -0.010964122
-0.031470533 0.0033505827 -0.03354256 -0.059996296 -0.005723328 0.010531311 -0.0101710325 -0.04615366
-0.023397807 -0.0058508404 -0.026949573 -0.054942396 0.023560978 -0.021473574 -0.033910632 0.008825314
-0.00646864 0.03591063 0.0021008293 0.020801442 -0.017959127 0.0017430063 -0.04781566 -0.018613402
-0.063968286 -0.046995014 0.0117625 0.021498477 -0.074164435 -0.04535901 -0.051286437 -0.02623763
0.046884395 0.0112739 -0.008521171 -0.06653295 -0.032682344 -0.07776843 0.07393144 -0.013763052
-0.009476527 -0.081220396 0.062291328 0.047026597 0.011157419 -0.08200766 0.035113852 -0.032674477
0.010465556 -0.023993379 -0.06988752 0.035175253 -0.04500404 -0.008577223 0.08102631 0.08377994
0.0069810273 0.08133334 0.08004897 -0.07595183 -0.057470202 0.046450444 0.024639118 0.047817215
0.083385795 -0.028084092 -0.06912782 -0.016759418 -0.006361376 -0.04334768 0.035502344 0.04428607
0.019658677 0.0502084 -0.0022971986 0.036864147 0.04427367 -0.03531201 0.0016550639 -0.0280256
-0.0618357 0.053072464 0.002167055 -0.016542561 -0.025704015 0.059912283 0.023021206 -0.06804762
0.021237623 -0.030261153 -0.021691537 0.015431276 0.042941716 -0.027276147 -0.058908373 0.018851975
0.023932792 0.01307578 -0.007989196 0.040768746 0.023655338 0.02162433 -0.009622162 -0.065042086
-0.055199888 0.009065583 0.01929891 0.013000017 -0.06486051 -0.015693104 -0.036356065 -0.020709546
-0.018786367 -0.037457418 0.0025036116 -0.049020365 0.016743498 -0.01934598 -0.04005542 0.030011466
-0.020569116 -0.03955402 0.028737841 -0.009698284 0.013496592 0.021620264 -0.010607689 -0.020034743
-0.04607942 -0.0103132455 -0.050153453 -0.0072874986 -0.057512753 0.00020283552 -0.036182653 -0.040281676
-0.02683895 -0.029547285 0.02849889 -0.025042573 0.021093857 -0.0055906493 -0.007494173 0.025085501
0.0041714082 -0.0093107 -0.0029984927 0.023552772 -0.019396555 0.0065876227 -0.010469052 -0.03694258
-0.010794169 -0.046903137 -0.028049156 0.005322391 -0.0043374402 0.017115552 -0.011065711 -0.021234747
-0.029593617 -0.0076899836 0.013677157 0.022552421 -0.046565514 0.01233652 -0.016694961 0.003306387
-0.0165413 -0.052682556 0.00925903 0.0005160309 -0.022953143 0.0030582377 -0.021914555 0.012756612
-0.030867219 -0.057239305 -0.003702133 -0.008401752 -0.031054644 -0.01926979 -0.0563969 -0.008701118
0.0008779162 -0.02711378 -0.0125164 -0.035020117 -0.0028617543 -0.02702635 -0.0040802727 -0.0067862337
-0.015483382 0.0063511096 0.003991188 -0.037737124 -0.015731812 -0.0397096 -0.018101044 -0.050342523
-0.022936122 -0.0140147805 -0.050999917 0.006573894 -0.034055673 -0.024570942 0.005569234 -0.050432824
00000000: fa46 673e 9ac3 32bb 31af babc c9c9 b6bc
00000010: 4610 acbc 10d5 b2bc 1ff8 21ba 34f5 adbc
00000020: ca85 a8bb 4bd1 f8bc 794c a4bc a42b bdbc
00000030: 2056 91bc 2d2c 01bd 2ef2 c3bc 306d bcbc
00000040: b8cd 1ebd a4b9 d2bc 0df0 07ba fbc8 08bd
00000050: 6664 32bd 9e26 f3bc 8f2f 0ebc 9c13 f2bc
00000060: 9361 f7bc 2637 cb3b 6fef 06bd 8032 08bd
00000070: 2b77 12bd a06b 44bd 6646 f0bc 0ed9 fdbc
00000080: ed08 dcbc db53 f1bc 7f6d d8bc 6bd8 85bc
00000090: ff9d c4bc 0fab fabc 9b71 d7bc 45ac abbc
000000a0: 16a8 d1bc bd4e 30bc 51bc 08bd 0b30 1ebd
000000b0: 8aed aebb 5f7a c9bc 4920 9dbc dca2 33bc
000000c0: 3fe7 00bd 7395 5b3b ec63 09bd adbe 75bd
000000d0: c18a bbbb 858b 2c3c 67a4 26bc 9f0b 3dbd
000000e0: c2ac bfbc 68b8 bfbb 5ac5 dcbc 470b 61bd
000000f0: f402 c13c 59e9 afbc e0e5 0abd 0d98 103c
00000100: e3f6 d3bb 0617 133d 11ae 093b c967 aa3c
00000110: 051f 93bc 9675 e43a 5ada 43bd 227b 98bc
00000120: ce01 83bd d87d 40bd 80b7 403c 931d b03c
00000130: 86e3 97bd 5fca 39bd ba11 52bd 4cf0 d6bc
00000140: da09 403d 2ab6 383c 629c 0bbc 6d42 88bd
00000150: ecdd 05bd 0e45 9fbd 5e69 973d 6d7e 61bc
00000160: 6f43 1bbc e156 a6bd 3125 7f3d f69e 403d
00000170: 9bcd 363c a2f3 a7bd 8bd3 0f3d acd5 05bd
00000180: b977 2b3c c38d c4bc 3021 8fbd ed13 103d
00000190: 2856 38bd 7b87 0cbc 1ff1 a53d d194 ab3d
000001a0: 1ac1 e43b 1892 a63d b7f0 a33d a28c 9bbd
000001b0: e065 6bbd d242 3e3d fad7 c93c fcdb 433d
000001c0: 2cc6 aa3d 9c10 e6bc e392 8dbd 0c4b 89bc
000001d0: 1773 d0bb 568d 31bd e86a 113d 4f65 353d
000001e0: 3c0b a13c 53a7 4d3d 998c 16bb dcfe 163d
000001f0: 4f58 353d 54a3 10bd bbee d83a f195 e5bc
00000200: 6e47 7dbd 8362 593d 2605 0e3b 4484 87bc
00000210: 3a91 d2bc 9566 753d f896 bc3c 8d5c 8bbd
00000220: 86fa ad3c 3de6 f7bc 73b2 b1bc 76d3 7c3c
00000230: a7e3 2f3d 3a72 dfbc e849 71bd 756f 9a3c
00000240: b40e c43c cc3b 563c 1ee5 02bc 21fd 263d
00000250: d7c8 c13c 8225 b13c 46a6 1dbc c934 85bd
00000260: 4719 62bd d087 143c bf18 9e3c 06fe 543c
00000270: 96d5 84bd d38e 80bc 19ea 14bd 11a7 a9bc
00000280: dee5 99bc f36c 19bd a213 243b 94c9 48bd
00000290: a929 893c 767b 9ebc 2711 24bd 9bda f53c
000002a0: 9080 a8bc 6503 22bd 9f6b eb3c 8de5 1ebc
000002b0: cf20 5d3c fb1c b13c dfcb 2dbc e71f a4bc
000002c0: c6bd 3cbd e3f8 28bc b56d 4dbd f8cb eebb
000002d0: 7e92 6bbd 3fb0 5439 4334 14bd 66fe 24bd
000002e0: 5cdd dbbc 260d f2bc 8176 e93c 1526 cdbc
000002f0: 06cd ac3c c431 b7bb ae91 f5bb 1c80 cd3c
00000300: 4fb0 883b e88b 18bc 5c82 44bb bef1 c03c
00000310: 86e5 9ebc fcdc d73b 6386 2bbc 1a51 17bd
00000320: 07da 30bc 811d 40bd 58c7 e5bc 7467 ae3b
00000330: 1621 8ebb ea35 8c3c f54c 35bc 7ef4 adbc
00000340: 506e f2bc 42fc fbbb 2816 603c dbbf b83c
00000350: 7bbb 3ebd 1d1f 4a3c dfc3 88bc f8af 583b
00000360: 9f81 87bc aac9 57bd 30b3 173c 3f46 073a
00000370: 3b08 bcbc b76c 483b 2786 b3bc 1c01 513c
00000380: 40dd fcbc c373 6abd 7c9f 72bb 81a7 09bc
00000390: 4f66 febc aedb 9dbc 7000 67bd 228f 0ebc
000003a0: f523 663a b81d debc 9611 4dbc 4171 0fbd
000003b0: 458c 3bbb 5d66 ddbc cfb3 85bb 0e5f debb
000003c0: 03ae 7dbc f81c d03b 83c8 823b 3e92 1abd
000003d0: 00e0 80bc 89a6 22bd a448 94bc f633 4ebd
000003e0: 89e4 bbbc 409e 65bc 4ae5 50bd d269 d73b
000003f0: f67d 0bbd 0049 c9bc 1f7e b63b a692 4ebd

bias f4 [64]
-0.029916612 -0.04123514 -0.012822264 -0.026046475 -0.03831061 0.08838048 0.04313142 -0.041352104
0.11067168 0.15853567 -0.03373711 0.09351811 -0.012853728 -0.0033162308 0.10713431 0.057515103
-0.033353996 0.032666713 -0.03383523 0.07026126 0.07846912 -0.027491177 0.012465771 -0.009431683
0.047306947 0.067981176 -0.03768503 0.09384473 -0.008929205 -0.03184087 0.08488661 -0.024587914
0.13599472 0.14278486 0.09142705 -0.03238124 0.09313669 -0.026608584 -0.04386136 -0.038062718
0.011170411 -0.02389661 0.016554566 0.06663982 0.09812009 -0.005122234 0.137013 0.0731034
-0.017349426 -0.003960795 -0.014586881 0.09234127 0.0777684 0.103308745 -0.013733614 0.10502068
0.07799232 -0.03111184 0.07342954 0.066762514 0.08886051 0.08945091 0.07262767 0.00972006
00000000: af13 f5bc 2ee6 28bd 7914 52bc 6b5f d5bc
00000010: 96eb 1cbd d300 b53d 92aa 303d d360 29bd
00000020: d5a7 e23d 2d57 223e ed2f 0abd 6c86 bf3d
00000030: 7198 52bc 1f55 59bb 3c69 db3d f594 6b3d
00000040: 339e 08bd 88cd 053d cf96 0abd 23e5 8f3d
00000050: 6bb4 a03d 2d35 e1bc 3c3d 4c3c 5987 1abc
00000060: eec4 413d b739 8b3d 9e5b 1abd aa31 c03d
00000070: cd4b 12bc 926b 02bd 08d9 ad3d 986c c9bc
00000080: 3342 0b3e 3236 123e 1b3e bb3d 31a2 04bd
00000090: 73be be3d 3ffa d9bc f8a7 33bd a7e7 1bbd
000000a0: 1904 373c d3c2 c3bc 719d 873c 757a 883d
000000b0: 30f3 c83d 6ad8 a7bb 234d 0c3e 3cb7 953d
000000c0: 6220 8ebc 8ec9 81bb d0fd 6ebc 6b1d bd3d
000000d0: 0a45 9f3d 8993 d33d f402 61bc 1515 d73d
000000e0: 70ba 9f3d 42de febc 3a62 963d c9ba 883d
000000f0: 80fc b53d 0a32 b73d d1bd 943d e340 1f3c

weight f4 [64, 64]
-0.02225882 0.25268024 -0.11206711 0.029336052 0.45454094 -0.38129428 0.44932437 0.26990533
0.10183844 -0.12595107 0.44250286 -0.018646527 -0.011925528 0.09779059 -0.32119244 -0.49198958
0.33662373 0.19527648 0.11500248 0.03654907 -0.16571115 0.2155442 0.07023089 0.24317026
0.46390092 -0.2733299 0.27360144 -0.45467567 0.10192585 0.16088286 -0.48139486 -0.051492106
0.01077296 -0.30270123 -0.2227863 0.21786168 -0.04805415 0.030667175 -0.024302615 0.4406024
0.020836681 0.28420454 0.19065277 -0.06122677 -0.4012789 0.34785762 0.31973463 0.036429517
-0.04630292 -0.01793139 -0.0017861432 -0.4487168 0.0253573 -0.24226555 0.0725957 -0.12538227
0.3860198 -0.2395863 0.19295591 -0.18698947 -0.33171615 -0.022853099 -0.21349654 0.34510216
0.00716476 -0.018253794 0.00062065024 0.0072115087 -0.08314073 -0.03269826 -0.12262049 -0.0031812163
-0.014493803 0.104956284 -0.015715715 0.04831727 0.01578442 -3.7731936e-06 -0.062350545 -0.020221911
0.008415881 0.020323496 -0.09598712 -0.0031286783 0.030735426 0.0038854978 0.01605036 0.018752972
0.011082377 -0.0045044683 0.0195771 -0.006814248 0.097921245 0.05087681 -0.009613648 0.030556649
-0.075549416 -0.006719235 -0.016255148 0.008333474 0.0037316626 0.06373398 -0.00927291 -0.025568578
-0.053828277 0.019147944 0.023359723 0.0054999725 -0.036977474 -0.088175565 0.010110646 0.008315476
-0.002310826 -0.097542174 -7.7152134e-07 -0.03182084 0.06528795 -0.005327145 -0.00011388721 0.101618275
-0.0369766 -0.048948247 -0.10674278 -0.0072156047 -0.0047119353 -0.0064565246 0.04277964 -0.020693317
-0.14005837 -0.43394688 0.074515715 -0.49721277 -0.4173595 0.15624307 -0.2799796 -0.29314196
0.37786764 0.24514364 -0.17122404 0.24199426 0.056708883 0.047618467 0.2907111 0.42704043
-0.5097764 -0.2696433 -0.29256812 0.5029442 0.393802 -0.2723532 -0.3231269 -0.2966935
-0.12188663 0.15691887 -0.3711899 -0.03879292 -0.062302887 -0.33029994 0.13155982 -0.002145274
0.2215418 -0.029608054 0.21060652 -0.47566447 -0.11993471 0.0018954827 -0.015172064 0.11040639
0.06565491 -0.38518903 -0.18460447 0.14099862 0.43492484 -0.05422367 0.035543792 -0.08651699
0.011862585 0.025587426 0.0556248 0.42321607 0.046336513 0.12715597 -0.07952677 0.32531598
-0.2010568 0.03950404 -0.02852339 0.3734551 0.3077436 0.26379848 0.28832415 -0.21948996
-0.24035785 0.1976859 0.22446762 -0.05892391 -0.04038666 -0.041765165 0.05450904 -0.12866785
-0.102544636 0.041852485 -0.014366156 0.028290153 -0.016674107 0.011652851 0.052805357 -0.003296284
-0.077768445 0.18252642 0.20120318 -0.069825314 0.021472408 0.08032119 -0.12929824 0.12457351
-0.053050596 -0.12544508 0.13683423 0.029376402 0.05329196 0.04751512 -0.062289238 -0.18976858
0.092530504 0.018332267 0.0026888454 0.2122521 -0.23279846 0.00011113514 0.07429666 0.20273164
0.114259474 0.23961674 -0.28839415 -0.1849915 0.049945798 0.10960436 -0.02193932 0.081670746
-0.09863573 0.00016936954 -0.04149814 0.024946516 -0.07712015 0.088173434 -0.16062626 0.020088123
-0.18288837 0.06360808 0.019965025 0.06346876 -0.07276146 0.027037872 0.023995055 0.011781283
00000000: 2158 b6bc 4e5f 813e 7183 e5bd 2952 f03c
00000010: 97b9 e83e 0139 c3be d80d e63e 0831 8a3e
00000020: ac90 d03d 51f9 00be bc8f e23e 9ac0 98bc
00000030: 4a63 43bc 6f46 c83d 5673 a4be 0fe6 fbbe
00000040: f259 ac3e 8ff6 473e 6c86 eb3d 7ab4 153d
00000050: 2fb0 29be 9eb7 5c3e 36d5 8f3d a001 793e
00000060: 6c84 ed3e e6f1 8bbe 7d15 8c3e 40cb e8be
00000070: 80be d03d 7abe 243e 6379 f6be 63e9 52bd
00000080: 1281 303c a8fb 9abe 1822 64be 2217 5f3e
00000090: 6ed4 44bd ba39 fb3c 4716 c7bc a396 e13e
000000a0: b0b1 aa3c 4283 913e 7b3a 433e ecc8 7abd
000000b0: 6e74 cdbe 651a b23e 42b4 a33e 1e37 153d
000000c0: 21a8 3dbd dae4 92bc 051d eaba 35be e5be
000000d0: 1dba cf3c 7614 78be 0ead 943d 3664 00be
000000e0: 63a4 c53e 1c56 75be 3c96 453e 2b7a 3fbe
000000f0: b3d6 a9be 6c36 bbbc d69e 5abe 3bb1 b03e
00000100: 5dc6 ea3b fb88 95bc 22b3 223a 854e ec3b
00000110: b045 aabd 9cee 05bd 7420 fbbd f47b 50bb
00000120: 6a77 6dbc 52f3 d63d 3ebe 80bc 54e8 453d
00000130: 544e 813c f936 7db6 4963 7fbd 6ca8 a5bc
00000140: c3e2 093c 767d a63c e594 c4bd 830a 4dbb
00000150: dcc8 fb3c d6a3 7e3b 0b7c 833c d59f 993c
00000160: dc92 353c 389a 93bb 2860 a03c 0e4a dfbb
00000170: ef8a c83d 3464 503d 9082 1dbc f051 fa3c
00000180: a7b9 9abd 072d dcbb 8429 85bc 2089 083c
00000190: e98e 743b f686 823d 67ed 17bc 3275 d1bc
000001a0: 0a7b 5cbd 26dc 9c3c e45c bf3c 1d39 b43b
000001b0: b175 17bd 6495 b4bd 1fa7 253c a23d 083c
000001c0: 3a71 17bb 31c4 c7bd 8b1a 4fb5 9256 02bd
000001d0: b0b5 853d 558f aebb bbd6 eeb8 3e1d d03d
000001e0: c674 17bd f57d 48bd f59b dabd e170 ecbb
000001f0: 9466 9abb 4191 d3bb b439 2f3d 0885 a9bc
00000200: 766b 0fbe 492e debe b29b 983d ac92 febe
00000210: 25b0 d5be 2ffe 1f3e 7c59 8fbe b416 96be
00000220: de77 c13e ef06 7b3e 5b55 2fbe 58cd 773e
00000230: 9347 683d 950b 433d 16d8 943e 0ba5 da3e
00000240: b580 02bf b00e 8abe 7dcb 95be f3c0 003f
00000250: 6aa0 c93e e171 8bbe e470 a5be 36e8 97be
00000260: b39f f9bd 57af 203e 9a0c bebe 53e5 1ebd
00000270: 5031 7fbd 131d a9be 9eb7 063e ba97 0cbb
00000280: dbdb 623e 978c f2bc 3ca9 573e 4b8a f3be
00000290: 54a0 f5bd d871 f83a 4094 78bc bf1c e23d
000002a0: 1576 863d 7f37 c5be f408 3dbe f161 103e
000002b0: 78ae de3e a419 5ebd 5e96 113d d22f b1bd
000002c0: 4a5b 423c b99c d13c d5d6 633d c7af d83e
000002d0: 5bcb 3d3d 2d35 023e eede a2bd d18f a63e
000002e0: d5e1 4dbe fdce 213d e2a9 e9bc 8235 bf3e
000002f0: 9290 9d3e 9810 873e 399f 933e fac1 60be
00000300: 5e20 76be 2c6e 4a3e d7da 653e 335a 71bd
00000310: 7b6c 25bd f311 2bbd df44 5f3d 81c1 03be
00000320: ec02 d2bd 836d 2b3d 0760 6bbc c0c0 e73c
00000330: 2398 88bc 99eb 3e3c 6e4a 583d 7806 58bb
00000340: 1045 9fbd 35e8 3a3e 3508 4e3e 9300 8fbd
00000350: e7e6 af3c 707f a43d c266 04be 6520 ff3d
00000360: 954b 59bd ad74 00be 461e 0c3e c8a6 f03c
00000370: ac48 5a3d 379f 423d 0023 7fbd b252 42be
00000380: a280 bd3d 8d2d 963c 5737 303b 9d58 593e
00000390: b862 6ebe 3911 e938 d928 983d e298 4f3e
000003a0: df00 ea3d 175e 753e 66a8 93be 696e 3dbe
000003b0: f793 4c3d 4078 e03d 17ba b3bc fe42 a73d
000003c0: 8801 cabd ca98 3139 f4f9 29bd a35c cc3c
000003d0: 2bf1 9dbd 4694 b43d 367b 24be d98f a43c
000003e0: 1747 3bbe f444 823d b18d a33c e9fb 813d
000003f0: f603 95bd 877e dd3c 4791 c43c 4806 413c

bias f4 [64]
0.08350072 0.027385237 0.08277584 -0.013868856 0.028646383 0.06803474 -0.016188525 -0.034303617
0.07628805 0.058707185 0.074609056 0.057576146 0.100650765 0.08983707 0.083711706 0.07384564
0.07450486 0.059053496 0.06690428 0.05347289 -0.03891909 0.106240466 0.07647391 0.03608614
-0.010080633 0.07194967 -0.00326115 -0.01991234 -0.035138898 0.09804252 0.08734785 0.14004977
-0.030001929 0.059847225 -0.007932256 0.19495235 0.13406028 0.14500324 0.10568714 0.09017639
0.1069067 0.13620847 0.0929232 0.08302275 0.064905554 -0.03220257 0.06858926 0.07255082
0.02792142 0.10174483 -0.016706737 0.034151234 0.06406474 0.048329446 0.103411645 0.14825869
0.078506805 0.0884408 -0.02079008 0.10182107 -0.002133624 0.094360836 0.08622017 0.023168983
00000000: 6d02 ab3d 0157 e03c 6186 a93d 333a 63bc
00000010: d2ab ea3c cc55 8b3d cc9d 84bc f381 0cbd
00000020: e93c 9c3d f276 703d a2cc 983d f7d4 6b3d
00000030: fd21 ce3d 7ffc b73d 0b71 ab3d 623c 973d
00000040: 0196 983d 14e2 713d 1c05 893d 6406 5b3d
00000050: a069 1fbd 9a94 d93d 5a9e 9c3d 0fcf 133d
00000060: 3d29 25bc 595a 933d 05b9 55bb 341f a3bc
00000070: ceed 0fbd 84ca c83d 6ee3 b23d 3569 0f3e
00000080: 9bc6 f5bc 5d22 753d 4bf6 01bc 97a1 473e
00000090: 1947 093e bb7b 143e 8072 d83d 66ae b83d
000000a0: e6f1 da3d 3c7a 0b3e 854e be3d d507 aa3d
000000b0: 34ed 843d d8e6 03bd 8778 8c3d 8695 943d
000000c0: 76bb e43c 985f d03d 91dc 88bc 2ae2 0b3d
000000d0: 6034 833d 19f5 453d 7cc9 d33d 20d1 173e
000000e0: 2dc8 a03d 7320 b53d f54f aabc 9187 d03d
000000f0: 45d4 0bbb 4140 c13d 3394 b03d e1cc bd3c

weight f4 [1, 64]
-0.38270593 -0.17316924 0.5143529 0.36165786 -0.13777474 0.55471236 0.29498014 -0.12503804
0.5869209 0.57956696 0.53986955 0.44987202 -0.6096404 -0.2604367 0.4813358 0.5260511
-0.3172538 0.39363706 0.4241892 0.42267513 0.31676066 -0.29520306 -0.53826046 0.6202648
0.27641454 -0.34484097 0.090392105 -0.11921591 0.17227985 -0.54292417 0.46976995 -0.2144099
0.1348522 -0.56511295 -0.035710707 0.26161826 0.28140956 0.2647147 -0.4599675 0.37227723
-0.42743036 -0.22918282 -0.5763712 0.34921402 0.5911508 0.25979975 -0.33810565 0.6121418
-0.1325801 0.38678655 -0.06881073 0.3129072 -0.5868564 -0.34089184 -0.56051594 0.26907417
-0.6128896 -0.5027509 0.40482956 0.3536364 0.004096606 -0.46859968 -0.31369048 -0.21122831
00000000: 08f2 c3be 4753 31be a2ac 033f 382b b93e
00000010: d214 0dbe a101 0e3f a307 973e f909 00be
00000020: 7340 163f 805e 143f e434 0a3f a055 e63e
00000030: 6511 1cbf f657 85be a571 f63e 49ab 063f
00000040: 176f a2be cc8a c93e 542f d93e e068 d83e
00000050: 742e a23e db24 97be 70cb 09bf adc9 1e3f
00000060: 3586 8d3e ff8e b0be 7f1f b93d 7927 f4bd
00000070: 216a 303e 14fd 0abf b085 f03e 458e 5bbe
00000080: b216 0a3e 3eab 10bf 6445 12bd d4f2 853e
00000090: ea14 903e af88 873e dc80 ebbe 1f9b be3e
000000a0: 27d8 dabe e7ae 6abe 108d 13bf 2ecc b23e
000000b0: a955 173f 7904 853e 2f1c adbe 53b5 1c3f
000000c0: 14c3 07be e308 c63e a4ec 8cbd 5f35 a03e
000000d0: 393c 16bf 6089 aebe f97d 0fbf 17c4 893e
000000e0: 55e6 1cbf 48b4 00bf d245 cf3e d50f b53e
000000f0: d23c 863b 4cec efbe 0a9c a0be 3c4c 58be
