checkpoints/swarm_1d/unknown/70pct-constraint/policy_final.pt (torch, 124255 bytes, 6 tensors)

weight f4 [64, 401]
-0.006865405 -7.430226e-08 -1.4565897e-08 -3.736012e-08 -3.4273064e-08 -1.3235343e-07 -1.7524118e-07 -1.5330436e-07
-9.191383e-08 -1.5144073e-07 -3.0930113e-07 -1.417302e-07 -1.5771695e-07 -1.9114115e-07 -3.7740688e-07 -5.029873e-07
-2.5335993e-07 -6.046167e-07 -3.0022292e-07 -3.7008573e-07 -3.4771156e-07 -4.2489e-07 -4.5162622e-07 -5.2103087e-07
-8.649312e-07 -9.761034e-07 -5.697281e-07 -6.071551e-07 -6.6163307e-07 -1.3538996e-06 -1.3991192e-06 -7.529753e-07
-1.157699e-06 -8.8451566e-07 -1.7635178e-06 -9.576394e-07 -1.50992e-06 -3.010558e-06 -2.28507e-06 -2.1665949e-06
-2.5030174e-06 -1.7048789e-06 -1.9252002e-06 -2.097061e-06 -3.7014088e-06 -1.5979361e-06 -1.7603267e-06 -2.7162698e-06
-1.9640338e-06 -1.9707056e-06 -3.2044613e-06 -2.2593624e-06 -2.4047868e-06 -3.487182e-06 -4.574751e-06 -7.5784997e-06
-2.7971198e-06 -4.1797875e-06 -4.9511827e-06 -5.108574e-06 -3.435656e-06 -3.4852164e-06 -7.785501e-06 -3.9637066e-06
-8.884966e-06 -5.715401e-06 -4.891686e-06 -4.4590215e-06 -5.295114e-06 -7.033221e-06 -8.025002e-06 -8.006779e-06
-5.278975e-06 -5.4535158e-06 -9.53581e-06 -7.382574e-06 -8.684495e-06 -9.080513e-06 -6.293928e-06 -9.744031e-06
-8.834237e-06 -7.433469e-06 -6.9817183e-06 -1.0832045e-05 -1.0126219e-05 -7.1778754e-06 -9.243674e-06 -8.731578e-06
-7.582804e-06 -7.7026025e-06 -9.179645e-06 -1.040604e-05 -9.622836e-06 -1.2015353e-05 -9.86844e-06 -8.711223e-06
-1.2942105e-05 -9.800483e-06 -1.4250395e-05 -9.406766e-06 -1.0132081e-05 -1.010756e-05 -9.56495e-06 -8.824649e-06
-9.873941e-06 -9.315671e-06 -9.839897e-06 -1.1896386e-05 -9.829908e-06 -1.11439795e-05 -9.254231e-06 -1.0156808e-05
-1.2746752e-05 -9.357821e-06 -8.565266e-06 -8.563129e-06 -1.2403279e-05 -1.0771576e-05 -8.94317e-06 -7.6041188e-06
-7.250905e-06 -6.596016e-06 -9.249263e-06 -9.491001e-06 -6.3818998e-06 -6.1530204e-06 -8.612848e-06 -7.364751e-06
-9.511247e-06 -5.2908194e-06 -5.8549595e-06 -4.6090595e-06 -4.2524957e-06 -4.219527e-06 -7.110957e-06 -3.6765605e-06
-5.610996e-06 -5.6431722e-06 -3.569732e-06 -4.954012e-06 -3.0310796e-06 -4.427264e-06 -4.5639795e-06 -5.848089e-06
-2.276584e-06 -4.179658e-06 -5.7381753e-06 -2.087527e-06 -1.8078949e-06 -3.4328589e-06 -2.6721546e-06 -1.4805823e-06
-1.5046372e-06 -2.3638374e-06 -1.2593641e-06 -2.3476157e-06 -1.5640262e-06 -1.0706152e-06 -2.0852956e-06 -1.5383199e-06
-8.988231e-07 -8.252265e-07 -7.999747e-07 -2.2033125e-06 -7.65291e-07 -7.148883e-07 -6.324372e-07 -6.2294737e-07
-7.848803e-07 -4.71216e-07 -5.3642503e-07 -6.712486e-07 -3.9193316e-07 -2.3502436e-07 -5.7328737e-07 -1.8150445e-06
-8.238917e-07 -3.1416167e-07 -5.045509e-07 -2.1276662e-06 -4.8877183e-07 7.556725e-08 -1.6690734e-07 -2.0041277e-06
-5.115365e-07 7.8593125e-08 4.7856105e-08 6.8652923e-09 -4.286905e-07 -4.381496e-07 -2.2118875e-06 -3.035078e-07
-6.5630456e-07 1.864429e-07 -6.7111955e-07 1.8349493e-07 2.1882846e-07 -6.975328e-07 -1.049881e-06 -1.2950004e-07
-4.5047113e-07 -2.186386e-06 -5.1372086e-07 -5.349268e-07 9.38904e-08 -5.085687e-07 -2.0258053e-06 -7.4501406e-07
1.3113613e-07 -4.124107e-07 -5.650648e-07 -7.12223e-07 -5.2201176e-07 8.7639265e-08 -5.543438e-07 -2.68591e-06
-6.795704e-07 -4.4576058e-07 -7.9498244e-07 -9.538223e-07 -2.719624e-07 -2.4714298e-06 -3.4404528e-07 -1.347864e-07
-1.2865387e-07 -5.5859573e-07 -4.0501885e-07 -1.4855719e-07 -8.878465e-07 -2.042347e-06 -8.6206506e-07 -6.1339273e-07
-8.3392996e-07 -8.890719e-07 -1.6451817e-06 -3.897405e-07 -6.260744e-07 -3.190461e-06 -1.2933019e-06 -1.0331634e-06
-5.5505734e-07 -7.877657e-07 -2.3005211e-06 -2.3207383e-06 -6.282604e-07 -7.563021e-07 -1.8491048e-06 -6.395168e-07
-7.672974e-07 -9.538368e-07 -9.696698e-07 -6.8573024e-07 -2.0143787e-06 -1.869626e-06 -3.6832355e-06 -3.612109e-06
00000000: 31f7 e0bb 1990 9fb3 7e3d 7ab2 e375 20b3
00000010: a233 13b3 091d 0eb4 ee29 3cb4 fb9b 24b4
00000020: 2a62 c5b3 b69b 22b4 060e a6b4 802e 18b4
00000030: e858 29b4 7b3c 4db4 689e cab4 0605 07b5
00000040: 8605 88b4 f14c 22b5 532e a1b4 32b0 c6b4
00000050: 1dad bab4 701c e4b4 0977 f2b4 f8dc 0bb5
00000060: 9f2d 68b5 a802 83b5 6bef 18b5 61fb 22b5
00000070: 149b 31b5 a3b7 b5b5 5fc9 bbb5 1220 4ab5
00000080: 3c62 9bb5 746f 6db5 03b2 ecb5 3d88 80b5
00000090: 75a8 cab5 fe08 4ab6 3459 19b6 d165 11b6
000000a0: 83f9 27b6 31d3 e4b5 b032 01b6 3cbb 0cb6
000000b0: b865 78b6 ab78 d6b5 5d44 ecb5 2949 36b6
000000c0: d8cd 03b6 7740 04b6 3a0c 57b6 8d9f 17b6
000000d0: ec61 21b6 5505 6ab6 d080 99b6 d14a feb6
000000e0: 27b6 3bb6 1a40 8cb6 5622 a6b6 516a abb6
000000f0: 1f90 66b6 90e3 69b6 799e 02b7 fbff 84b6
00000100: a310 15b7 ecc6 bfb6 4323 a4b6 b49e 95b6
00000110: afac b1b6 e9fe ebb6 1fa3 06b7 db54 06b7
00000120: 0d22 b1b6 58fd b6b6 fefb 1fb7 d4b7 f7b6
00000130: 9fb3 11b7 8258 18b7 6e30 d3b6 4b7a 23b7
00000140: c236 14b7 036d f9b6 8144 eab6 47bb 35b7
00000150: c8e3 29b7 7bd9 f0b6 4715 1bb7 d87d 12b7
00000160: ca6f feb6 6d3a 01b7 4602 1ab7 9a95 2eb7
00000170: c471 21b7 8c95 49b7 a190 25b7 6b26 12b7
00000180: eb21 59b7 c16c 24b7 fb14 6fb7 c1d1 1db7
00000190: f5fc 29b7 a493 29b7 2679 20b7 940d 14b7
000001a0: 41a8 25b7 814a 1cb7 0916 25b7 9796 47b7
000001b0: 22eb 24b7 07f7 3ab7 9f42 1bb7 2867 2ab7
000001c0: e2da 55b7 89ff 1cb7 8ab3 0fb7 5caa 0fb7
000001d0: ad17 50b7 91b7 34b7 9f0a 16b7 e226 ffb6
000001e0: cd4c f3b6 5953 ddb6 482d 1bb7 8a3b 1fb7
000001f0: 1a24 d6b6 0b76 ceb6 e77f 10b7 bb1e f7b6
00000200: 7f92 1fb7 cb87 b1b6 b875 c4b6 85a7 9ab6
00000210: a9b0 8eb6 7695 8db6 a89a eeb6 d4ba 76b6
00000220: 1746 bcb6 7b5a bdb6 878f 6fb6 a43a a6b6
00000230: 8d69 4bb6 e88d 94b6 4924 99b6 b43a c4b6
00000240: 6ac7 18b6 fd3e 8cb6 8d8a c0b6 7117 0cb6
00000250: cca6 f2b5 1160 66b6 4453 33b6 6cb8 c6b5
00000260: f1f2 c9b5 6ba2 1eb6 6c07 a9b5 bb8b 1db6
00000270: 88eb d1b5 0fb2 8fb5 1bf1 0bb6 4578 ceb5
00000280: a746 71b5 2285 5db5 d8bd 56b5 9fdc 13b6
00000290: 666e 4db5 c0e6 3fb5 c1c4 29b5 9e38 27b5
000002a0: 90b0 52b5 6ffb fcb4 d9fe 0fb5 da2f 34b5
000002b0: e26a d2b4 015b 7cb4 02e4 19b5 749c f3b5
000002c0: 6829 5db5 0daa a8b4 7970 07b5 07c9 0eb6
000002d0: 2534 03b5 8947 a233 2437 33b4 a77e 06b6
000002e0: 8550 09b5 07c7 a833 588a 4d33 c0e3 eb31
000002f0: c626 e6b4 d33a ebb4 f06f 14b6 cbf1 a2b4
00000300: e82c 30b5 0931 4834 fc26 34b5 b406 4534
00000310: 1cf7 6a34 173e 3bb5 a3e9 8cb5 b30c 0bb4
00000320: 48d8 f1b4 d3b9 12b6 a1e6 09b5 e497 0fb5
00000330: cba0 c933 9384 08b5 12f3 07b6 fafc 47b5
00000340: 6dce 0c34 4c69 ddb4 f5ae 17b5 982f 3fb5
00000350: 6020 0cb5 3234 bc33 37ce 14b5 953f 34b6
00000360: b96b 36b5 de50 efb4 c766 55b5 1605 80b5
00000370: 3a02 92b4 d7da 25b6 39b5 b8b4 ceb9 10b4
00000380: 1b24 0ab4 68f2 15b5 5e71 d9b4 1783 1fb4
00000390: 5954 6eb5 410f 09b6 a968 67b5 07a8 24b5
000003a0: 3bdb 5fb5 8ea8 6eb5 03d0 dcb5 873d d1b4
000003b0: 810f 28b5 b41b 56b6 8495 adb5 39ab 8ab5
000003c0: 40ff 14b5 d976 53b5 a762 1ab6 fbbd 1bb6
000003d0: baa5 28b5 af04 4bb5 c22e f8b5 43ab 2bb5
000003e0: 47f8 4db5 9505 80b5 9a25 82b5 0613 38b5
000003f0: c32e 07b6 dcef fab5 812d 77b6 8f67 72b6

bias f4 [64]
-0.01381711 0.11081201 0.12301607 0.11001086 0.12818123 -0.06396187 0.03582919 0.10458178
-0.001691621 -0.0068518054 -0.011842179 0.11335617 -0.052297413 0.13454567 -0.060312554 0.13567545
0.11792492 -0.024506373 0.09434349 0.09380062 -0.08292453 -0.07426095 0.13478662 0.09963921
0.11424934 -0.0030318284 0.04957776 0.11038752 0.14233577 -0.011194122 0.07618457 -0.0036976275
0.025982413 0.12849689 0.12300805 -0.047478054 0.09120057 -0.012059295 0.14456037 -0.046499364
0.1406623 -0.059402302 -0.004317027 -0.066749714 0.10200005 0.029692471 -0.0059479843 -0.013653169
0.110998794 0.11792226 0.06842623 0.19721332 0.040192306 -0.00571729 0.062032655 0.124965705
0.15033108 -0.0509346 0.09043583 0.13613048 -0.007699439 -0.0034056704 0.104603544 -0.015193881
00000000: 2961 62bc 68f1 e23d d9ef fb3d 604d e13d
00000010: f141 033e 71fe 82bd a1c1 123d f92e d63d
00000020: 62b9 ddba 1c85 e0bb b305 42bc 4827 e83d
00000030: d035 56bd 57c6 093e 4c0a 77bd 81ee 0a3e
00000040: 9f82 f13d 97c1 c8bc 2937 c13d 8a1a c03d
00000050: 56d4 a9bd 2016 98bd 8105 0a3e a40f cc3d
00000060: 8ffb e93d a4b1 46bb 0d12 4b3d da12 e23d
00000070: 78c0 113e 8d67 37bc a806 9c3d e553 72bb
00000080: 12d9 d43c b094 033e a5eb fb3d 5978 42bd
00000090: 5dc7 ba3d 5994 45bc a207 143e 1e76 3ebd
000000a0: c709 103e d44f 73bd d975 8dbb 13b4 88bd
000000b0: 67e5 d03d a03d f33c 4fe7 c2bb 8bb1 5fbc
000000c0: 5653 e33d 3a81 f13d 0d23 8c3d 4af2 493e
000000d0: b0a0 243d 1b58 bbbb f415 7e3d 05ee ff3d
000000e0: 64f0 193e cda0 50bd 6c36 b93d ca65 0b3e
000000f0: 934b fcbb ab31 5fbb 623a d63d c1ef 78bc

weight f4 [64, 64]
-0.0006862506 -0.27190876 -0.30077696 0.27008343 -0.109533675 0.4731228 0.07746738 -0.30037954
4.0071154e-05 0.0011070813 0.00022049637 0.17506789 -0.09558327 0.17700098 0.17490734 -0.29805258
0.13019443 -0.26782164 0.052356146 -0.26465467 0.2591976 -0.34145904 -0.021464726 -0.392947
0.28404284 0.0016383276 0.15363708 -0.11317966 0.071618415 0.00026672278 0.34401435 0.0007832187
0.25597036 -0.3009308 -0.40048614 0.16922049 0.36863047 0.00074751815 -0.4965792 0.31108737
-0.42756844 0.349855 -0.00015922084 -0.05794862 0.022104269 -0.013579248 0.0003613691 0.34135905
0.30872768 -0.45495173 0.39337033 -0.08143576 0.008407451 0.0003717284 0.35783213 0.3680942
0.22164981 0.41861364 0.012804446 0.4400957 0.0007444834 0.0016877707 -0.32930097 0.23553607
-0.0014038506 0.011802956 0.21583474 0.44591728 0.10160488 -0.3428596 -0.12843712 -0.25981593
-3.251345e-05 -0.0024712728 -0.004312123 -0.013894423 0.29019758 -0.09600449 -0.37155968 0.114170246
-0.05901493 0.30627194 0.42081627 -0.06480435 -0.32527032 0.3966255 0.17768966 0.045554414
0.40222326 -0.0024755162 -0.37632337 0.08395673 0.17252788 -0.002131865 0.2782543 -0.0014142982
-0.13760775 -0.27478907 -0.2381049 -0.31819353 0.02029343 -0.0035655505 0.10167527 -0.2691116
0.13527617 -0.23125358 -0.0003762257 0.38985348 0.22778927 -0.09819789 -0.0017757157 -0.3506457
0.37153888 0.0877324 0.2740313 0.2377494 -0.08467523 -0.0011224542 0.19318496 -0.21163821
0.38619578 -0.3680882 -0.08407252 -0.06697909 -0.002142664 -0.0026235897 -0.2751203 -0.32693714
0.0031968656 0.14955182 0.09956831 -0.2628626 0.11287031 0.022256376 -0.042391717 0.07332315
0.0006030593 0.00704863 0.009878301 -0.08295838 -0.16147316 0.01502112 0.013594558 0.13637653
0.13374582 -0.3469582 -0.20621338 0.18641227 0.011434263 -0.26765954 0.1060146 -0.089803465
-0.3294127 0.0074171294 0.25621954 0.14231187 0.07692134 0.005620547 -0.2750982 0.003936103
0.0352149 0.21530503 0.19763355 0.012431147 0.1274344 0.008618455 0.26506206 0.021548398
0.14493325 0.03728118 0.0013739849 -0.11315678 -0.29521734 -0.092159405 0.0048912717 -0.036761332
-0.35217133 0.12104726 -0.21382841 -0.0942652 0.0342733 0.0029700014 -0.16028415 0.14167108
-0.3505013 -0.0032812 0.108117566 -0.071873516 0.0057808775 0.006497673 0.07712138 0.013194299
0.000111474335 0.083628066 0.13864076 0.0637233 0.05571547 -0.40759036 0.08625746 0.04504267
-5.036881e-05 -0.0016949448 -0.0024443073 0.0381832 0.34321147 0.091501474 -0.40244097 0.07592228
-0.029967126 0.3172288 0.14954498 -0.065875806 -0.42046213 0.37263367 0.056697734 0.23119512
0.13308199 -0.0021186771 -0.28434274 -0.015950758 -0.07191817 -0.00090826245 0.14076126 -0.00093273236
0.050355047 -0.1342449 -0.011376933 -0.3883097 0.031823155 -0.0019282277 0.04138558 -0.2400376
0.21000724 -0.3732955 -2.9785962e-05 0.29698646 0.022401799 0.039205186 -0.0010633679 -0.35272604
0.17637001 -0.05336471 0.12459848 0.010430063 0.023104602 -0.00045903266 0.046036843 0.009253628
0.15601541 -0.3787194 0.056558218 0.05513428 -0.0011958465 -0.0019552866 -0.059038397 -0.38438436
00000000: 80e5 33ba a037 8bbe 70ff 99be 6048 8a3e
00000010: 3153 e0bd 273d f23e 38a7 9e3d 59cb 99be
00000020: 1312 2838 7c1b 913a 0b35 6739 ff44 333e
00000030: 29c1 c3bd bf3f 353e e91a 333e 599a 98be
00000040: b051 053e eb1f 89be 6673 563d d180 87be
00000050: 8cb5 843e b8d3 aebe cbd6 afbc 5930 c9be
00000060: 106e 913e 27bd d63a 0a53 1d3e bdca e7bd
00000070: adac 923d edd6 8b39 a622 b03e eb50 4d3a
00000080: 8c0e 833e 9a13 9abe 850c cdbe 2348 2d3e
00000090: 22bd bc3e 18f5 433a a13f febe d846 9f3e
000000a0: 40ea dabe 3220 b33e 85f4 26b9 885b 6dbd
000000b0: 0314 b53c 7f7b 5ebc 2476 bd39 9dc6 ae3e
000000c0: 8e11 9e3e 6fef e8be d667 c93e cbc7 a6bd
000000d0: 68bf 093c 8be4 c239 c635 b73e d876 bc3e
000000e0: 2bf8 623e 8754 d63e bdc9 513c 3954 e13e
000000f0: 6f29 433a 3038 dd3a 239a a8be 5e30 713e
00000100: 6901 b8ba 3061 413c c803 5d3e 454f e43e
00000110: 3816 d03d 4b8b afbe 0585 03be 9806 85be
00000120: 0d5f 08b8 14f5 21bb b64c 8dbb 6fa5 63bc
00000130: c794 943e 019e c4bd 123d bebe 17d2 e93d
00000140: a4b9 71bd adcf 9c3e 3b75 d73e 25b8 84bd
00000150: d589 a6be 7f12 cb3e 47f4 353e 4497 3a3d
00000160: 35f0 cd3e 453c 22bb 75ad c0be 82f1 ab3d
00000170: 26ab 303e c2b6 0bbb 5977 8e3e f95f b9ba
00000180: 0ce9 0cbe 27b1 8cbe c5d1 73be 43ea a2be
00000190: 683e a63c 03ac 69bb 203b d03d ffc8 89be
000001a0: d685 0a3e bdcd 6cbe 2940 c5b9 e09a c73e
000001b0: 9741 693e fa1b c9bd 22bf e8ba d587 b3be
000001c0: 583a be3e 0bad b33d d54d 8c3e 9474 733e
000001d0: 356a adbd 501f 93ba 47d2 453e b0b7 58be
000001e0: 74bb c53e 0e76 bcbe 372e acbd 552c 89bd
000001f0: f06b 0cbb 88f0 2bbb 91dc 8cbe 4e64 a7be
00000200: 8182 513b 1d24 193e 78ea cb3d ed95 86be
00000210: 8d28 e73d 0153 b63c f0a2 2dbd 732a 963d
00000220: a016 1e3a 32f8 e63b 99d8 213c 15e6 a9bd
00000230: 3859 25be 251b 763c b6bb 5e3c 4aa6 0b3e
00000240: aaf4 083e 81a4 b1be 9a29 53be dce2 3e3e
00000250: c656 3b3c ac0a 89be 2f1e d93d e1ea b7bd
00000260: c8a8 a8be 640b f33b 352f 833e 34ba 113e
00000270: ef88 9d3d 912c b83b acd9 8cbe 6dfa 803b
00000280: 803d 103d ec78 5c3e 7360 4a3e 02ac 4b3c
00000290: 2a7e 023e 6c34 0d3c 37b6 873e 4486 b03c
000002a0: 6269 143e 27b4 183d 4817 b43a bebe e7bd
000002b0: ba26 97be 12be bcbd f646 a03b 0d93 16bd
000002c0: cd4f b4be a0e7 f73d d6f5 5abe 1d0e c1bd
000002d0: 2962 0c3d 5ba4 423b 8721 24be 3912 113e
000002e0: e874 b3be 6709 57bb be6c dd3d 6c32 93bd
000002f0: 846d bd3b 6fea d43b d0f1 9d3d e72c 583c
00000300: 54c7 e938 3145 ab3d d8f7 0d3e 5d81 823d
00000310: e835 643d afaf d0be c0a7 b03d aa7e 383d
00000320: 1943 53b8 e928 deba ac30 20bb fd65 1c3d
00000330: 6ab9 af3e 2065 bb3d be0c cebe 247d 9b3d
00000340: 9e7d f5bc d06b a23e 5222 193e e5e9 86bd
00000350: d046 d7be d7c9 be3e e23b 683d 6abe 6c3e
00000360: a546 083e 81d9 0abb 5f95 91be 2aab 82bc
00000370: d549 93bd 7618 6eba b823 103e 9c82 74ba
00000380: 1841 4e3d 7f77 09be 5166 3abc 87d0 c6be
00000390: ff58 023d 96bc fcba ed83 293d 6bcc 75be
000003a0: 230c 573e 9620 bfbe dedc f9b7 9c0e 983e
000003b0: fa83 b73c 9e95 203d b560 8bba 8298 b4be
000003c0: 579a 343e f494 5abd 7d2d ff3d dbe2 2a3c
000003d0: dd45 bd3c 52aa f0b9 2191 3c3d 879c 173c
000003e0: 81c2 1f3e 82e7 c1be 97a9 673d 7cd4 613d
000003f0: f3bd 9cba 4424 00bb 3fd2 71bd 07ce c4be

bias f4 [64]
0.103265576 0.059823763 0.06997873 -0.015180257 0.115440376 0.056915116 -0.047681488 0.092307515
-0.008545437 -0.004457135 0.067061484 0.008434307 -0.02919009 0.047460753 0.07020935 0.099770084
-0.025081394 0.13149396 0.07265807 0.118179165 0.061942257 -0.07013326 -0.005563609 0.07298841
-0.093197614 0.10214228 0.061071146 0.10653018 -0.031314567 0.15592 0.11780734 0.07092424
0.0432557 -0.0005881891 0.0037657274 -0.03037594 0.0964275 0.061914083 0.07184746 0.09444745
0.16260158 0.039022498 -0.014761206 0.06889382 0.09869982 0.050912756 -0.0021301033 0.09940772
0.0005435486 -0.10365726 0.08109308 0.07881366 0.043561637 0.046671703 0.05343343 -0.023663549
-0.016521955 0.07214537 0.06420901 0.08391804 0.066379905 -0.009187924 -0.05393647 -0.0627162
00000000: e77c d33d c309 753d 0251 8f3d 9db6 78bc
00000010: 016c ec3d d31f 693d aa4d 43bd b90b bd3d
00000020: 2902 0cbc 290d 92bb 8857 893d 0c30 0a3c
00000030: 0e20 efbc 3566 423d ebc9 8f3d 4254 cc3d
00000040: 7f77 cdbc 5aa6 063e c1cd 943d eb07 f23d
00000050: 2ab7 7d3d 07a2 8fbd ef4e b6bb f37a 953d
00000060: 64de bebd f92f d13d bd25 7a3d 7f2c da3d
00000070: b443 00bd 7ea9 1f3e fa44 f13d ba40 913d
00000080: e42c 313d b430 1aba 6cca 763b f7d6 f8bc
00000090: c87b c53d 9f99 7d3d c324 933d aa6d c13d
000000a0: 0781 263e 0ed6 1f3d fcd8 71bc 3418 8d3d
000000b0: 2223 ca3d e589 503d 3499 0bbb 4696 cb3d
000000c0: ee7c 0e3a 424a d4bd 2114 a63d 0e69 a13d
000000d0: b06d 323d d42a 3f3d 03dd 5a3d 0fda c1bc
000000e0: 0d59 87bc f4c0 933d 0380 833d 39dd ab3d
000000f0: 30f2 873d f288 16bc 7dec 5cbd 5a71 80bd

weight f4 [2, 64]
-0.5907522 0.42928523 -0.58134276 0.59603107 -0.0024166966 -0.49589732 0.67461675 0.7103668
0.2725018 -0.3650307 0.3357877 0.42522773 -0.50542337 0.3826101 -0.70217854 -0.40427914
0.5935828 -0.24878696 -0.5962742 -0.2401326 -0.4842213 -0.58751565 0.42319763 0.5884364
0.6617025 -0.4036736 0.26206473 -0.35384482 0.63238436 -0.3100546 -0.56236666 -0.46001709
-0.71031445 0.0017077414 0.41744286 -0.33665916 -0.6892372 -0.33271584 0.60829073 0.22691423
-0.6882712 -0.5432599 -0.36584932 0.3728324 -0.40242693 0.6558217 -0.43495807 -0.34119624
0.37311223 0.47595164 0.32211366 -0.584859 0.38582605 -0.47682592 -0.72973126 -0.65546465
0.091524765 -0.4619158 -0.48588458 -0.4643911 -0.35800517 0.390853 0.74709964 0.48029047
-0.51188684 0.1982866 -0.42613697 0.010858853 -0.5655944 -0.14840838 -0.32867977 0.5640186
0.31695846 -0.117578745 0.0037408697 0.36450532 -0.02017619 0.25915122 0.18681203 -0.35388488
-0.077856705 -0.24962649 -0.45543143 -0.22787423 -0.4241327 -0.51046723 0.13560547 -0.01836361
-0.24472797 -0.11232701 0.33137625 -0.6355891 -0.23317054 -0.43398505 -0.38000193 -0.2311881
-0.40822917 5.9833765e-06 0.39390385 -0.17884752 -0.30524024 -0.3096753 0.008521761 0.19229472
0.19224189 -0.3965429 -0.045711372 -0.05101671 -0.48427844 0.5074045 -0.06321087 -0.52184314
0.05194173 -0.079924814 -0.098566115 -0.29867995 0.4768961 -0.04313357 -0.015652684 -0.19962853
0.0015684997 0.11349758 -0.07097002 -0.45989683 -0.3603692 0.25715014 -0.2924852 -0.03307112
00000000: 893b 17bf 46cb db3e e1d2 14bf 7e95 183f
00000010: 7161 1ebb 41e6 fdbe afb3 2c3f 99da 353f
00000020: 5b85 8b3e 4ee5 babe 5eec ab3e 73b7 d93e
00000030: 6d63 01bf 79e5 c33e f9c1 33bf adfd cebe
00000040: 0bf5 173f 02c2 7ebe 6da5 18bf 52e5 75be
00000050: dbeb f7be 6d67 16bf 5cad d83e c5a3 163f
00000060: 5665 293f 4eae cebe 592d 863e 262b b5be
00000070: f1e3 213f 7abf 9ebe 43f7 0fbf 5c87 ebbe
00000080: 2bd7 35bf 4bd6 df3a 12bb d53e 975e acbe
00000090: d971 30bf bb59 aabe f1b8 1b3f 345c 683e
000000a0: 8b32 30bf 1513 0bbf 9a50 bbbe e3e3 be3e
000000b0: e70a cebe eee3 273f d3b2 debe 46b1 aebe
000000c0: 9108 bf3e efaf f33e 15ec a43e 52b9 15bf
000000d0: fe8a c53e 8722 f4be abcf 3abf 88cc 27bf
000000e0: 5671 bb3d 3a80 ecbe ddc5 f8be acc4 edbe
000000f0: 744c b7be e21d c83e ec41 3f3f a2e8 f53e
00000100: 040b 03bf a40b 4b3e a02e dabe 55e9 313c
00000110: cbca 10bf 5ef8 17be b748 a8be 8663 103f
00000120: 6148 a23e 20cd f0bd 6129 753b 71a0 ba3e
00000130: 8a48 a5bc 78af 843e a74b 3f3e 6630 b5be
00000140: 5673 9fbd 169e 7fbe 4f2e e9be dd57 69be
00000150: ec27 d9be fbad 02bf 29dc 0a3e 486f 96bc
00000160: f899 7abe b40b e6bd 26aa a93e f8b5 22bf
00000170: 42c4 6ebe 4a33 debe 9d8f c2be 93bc 6cbe
00000180: 6a03 d1be d0c4 c836 c4ad c93e ce23 37be
00000190: 7348 9cbe c38d 9ebe db9e 0b3c e8e8 443e
000001a0: 0fdb 443e ac07 cbbe d93b 3bbd e6f6 50bd
000001b0: 58f3 f7be 43e5 013f b374 81bd 8397 05bf
000001c0: dac0 543d 9faf a3bd 08dd c9bd 94ec 98be
000001d0: ba2b f43e d4ac 30bd 0f3a 80bc 6c6b 4cbe
000001e0: 1e96 cd3a 6b71 e83d bb58 91bd 9977 ebbe
000001f0: 5082 b8be 2fa9 833e 9fc0 95be 9575 07bd

bias f4 [2]
-0.035143994 -0.07402419
00000000: 26f3 0fbd ff99 97bd
