checkpoints/swarm_1d/known/90pct-constraint/policy_final.pt (torch, 124031 bytes, 5 tensors)

weight f4 [64, 401]
-0.050641354 0.0001243864 1.9503863e-05 1.7131102e-05 6.8286834e-05 1.571164e-05 1.4711775e-05 1.5586713e-05
0.00082915736 1.3306005e-05 1.035449e-05 -0.0012526534 9.381003e-06 6.4832725e-06 0.0007711358 -0.0003079038
0.0007375726 1.3741806e-06 2.2321185e-06 0.0018883601 -3.5523274e-06 -3.8338785e-06 -1.9666265e-07 0.0014516595
-6.9172333e-06 -7.918318e-06 -3.73165e-06 -1.2138891e-05 -6.0293805e-06 -0.0027077321 -6.8987015e-06 -0.0001229116
0.001907728 -1.3438492e-05 0.002158272 -1.9689123e-05 -3.6032827e-05 -2.4900875e-05 -2.0096633e-05 -2.058509e-05
-3.5439036e-05 -3.3196593e-05 -2.6589112e-05 -2.6643831e-05 -2.3912191e-05 -4.2363856e-05 -4.142699e-05 -3.602492e-05
-3.2417105e-05 -0.0033297346 -0.00011419566 -0.000114702365 0.002526809 -5.8292295e-05 -6.1322346e-05 -7.878665e-05
-0.0010035301 -0.0010790513 0.0015280787 -0.00057424855 0.00078780355 -6.310668e-05 -0.00018874313 -0.00019142238
-8.344812e-05 -6.5387634e-05 -0.00012764383 -0.00012657631 0.00056522747 -0.00025952177 -8.018077e-05 -8.80209e-05
-9.920265e-05 -0.00010659795 -7.734039e-05 0.002075308 0.0021894362 -8.200639e-05 -7.404461e-05 -0.0016041715
0.001074711 0.0015113208 -0.0036030766 -0.00014814075 -6.429596e-05 -7.42711e-05 -6.4617074e-05 0.0005542171
-0.0009030522 -6.8895155e-05 -5.432323e-05 -5.448715e-05 -0.0026585108 -5.0185994e-05 -5.002359e-05 0.0028092682
-0.00011353643 -6.2850144e-05 -0.00011975855 0.00069642474 -6.615257e-05 0.0017943413 -4.739258e-05 -8.153987e-05
-6.8948204e-05 -0.00013713272 -7.453212e-05 -8.958477e-05 -5.216908e-05 -0.0020384144 -8.7473345e-05 -0.00011640201
0.0017815343 -6.9448244e-05 -0.0006412779 -0.001472695 -6.9044814e-05 -8.390975e-05 -7.934669e-05 -0.00010705297
-8.447434e-05 -0.00012453836 -0.00011959528 -0.00012958811 -9.0555724e-05 -9.953171e-05 -8.951398e-05 -0.00016668056
-8.956017e-05 -8.8750756e-05 -0.0014747304 2.061812e-05 -0.00010123527 -0.0024666297 -9.998585e-05 -9.5200325e-05
0.00011391327 -6.48316e-05 -0.000466871 0.00035135038 -8.7985725e-05 -0.00010732217 -0.0002288068 -7.668921e-05
-8.136224e-05 -0.00013496591 -0.00012876376 -6.1133345e-05 -7.029372e-05 0.0020520922 -9.83494e-05 1.0573762e-06
-4.794437e-05 -6.882212e-05 -3.9139988e-05 -5.3958283e-05 -3.538522e-05 -1.0168806e-05 0.0023711333 -3.596393e-05
0.00010461686 -2.2679482e-05 -2.756778e-05 -0.00063127687 -0.0005642917 8.724491e-05 -1.4410289e-05 -1.1185407e-05
-5.121361e-06 -6.641339e-05 -6.642264e-06 -3.4723257e-06 -2.1934407e-06 3.0279402e-06 5.442468e-07 -0.0001675886
2.5951117e-06 -6.236348e-05 3.4700668e-05 8.687024e-06 6.853458e-06 1.0064486e-05 1.1008228e-05 1.1273165e-05
1.1749575e-05 1.101252e-05 1.1160773e-05 6.3552085e-05 1.2505415e-05 0.00098252 -0.0031074088 9.67051e-05
3.2057767e-05 1.4892219e-05 -0.0017318109 0.0003886322 7.9880105e-05 1.9212093e-05 2.1034175e-06 1.5943062e-05
2.0240159e-05 1.728026e-05 -0.0002043008 -0.0031753576 1.7514529e-05 1.7552096e-05 2.5659067e-05 1.6887248e-05
2.085142e-05 2.421091e-05 1.6425245e-05 2.247824e-05 2.071005e-05 1.7305614e-05 1.935087e-05 0.00011266023
0.0036985197 2.1074908e-05 2.2896109e-05 1.4139692e-05 -0.0030370494 1.9502953e-05 2.2247514e-05 1.2736422e-05
2.403898e-05 2.1937294e-05 1.1924277e-05 1.1251055e-05 -1.4624406e-05 1.0054343e-05 9.840631e-06 1.7404709e-05
0.002940379 8.800607e-06 0.0007768464 2.487269e-05 0.0013207354 7.210824e-06 0.0006022619 0.0003421891
5.1298866e-06 0.0006692089 7.765703e-06 4.543746e-06 3.4338036e-06 0.0022555143 3.9965607e-06 7.677042e-06
4.979913e-06 -0.0014815751 5.9798917e-06 1.6777055e-06 -0.00021503783 6.1514413e-07 1.0216577e-05 -0.0002563114
00000000: 4f6d 4fbd b86d 0239 3a9c a337 c3b4 8f37
00000010: 3735 8f38 7dcc 8337 98d2 7637 36c0 8237
00000020: cf5b 593a db3c 5f37 32b8 2d37 1330 a4ba
00000030: 1a63 1d37 e38a d936 0c26 4a3a 266e a1b9
00000040: a959 413a 7c70 b835 81cb 1536 da82 f73a
00000050: 8564 6eb6 c4a4 80b6 382a 53b4 9c45 be3a
00000060: 951a e8b6 ebd8 04b7 426d 7ab6 24a8 4bb7
00000070: fc4f cab6 3574 31bb 657b e7b6 d5e1 00b9
00000080: bb0c fa3a e275 61b7 cc71 0d3b 122a a5b7
00000090: f421 17b8 39e2 d0b7 3195 a8b7 25ae acb7
000000a0: 60a4 14b8 923c 0bb8 af0b dfb7 3181 dfb7
000000b0: 0a97 c8b7 d8af 31b8 e4c1 2db8 7719 17b8
000000c0: 9af7 07b8 ad37 5abb 547c efb8 5d8c f0b8
000000d0: d298 253b e07e 74b8 2f9a 80b8 433a a5b8
000000e0: e288 83ba f46e 8dba d049 c83a 2b89 16ba
000000f0: 9a84 4e3a 2458 84b8 59e9 45b9 8eb8 48b9
00000100: de00 afb8 b820 89b8 21d8 05b9 92b9 04b9
00000110: c62b 143a 6c10 88b9 b926 a8b8 dc97 b8b8
00000120: 040b d0b8 578d dfb8 ce31 a2b8 e401 083b
00000130: a57c 0f3b d8fa abb8 6648 9bb8 1043 d2ba
00000140: 51dd 8c3a 8317 c63a 9821 6cbb 3b56 1bb9
00000150: a1d6 86b8 fec1 9bb8 0783 87b8 e148 113a
00000160: cfba 6cba ce7b 90b8 20d9 63b8 2289 64b8
00000170: 693a 2ebb cd7e 52b8 6cd0 51b8 b31b 383b
00000180: 681a eeb8 6ace 83b8 e226 fbb8 4690 363a
00000190: 64bb 8ab8 1a30 eb3a 65c7 46b8 6200 abb8
000001a0: 4998 90b8 49cb 0fb9 214e 9cb8 75df bbb8
000001b0: 20d0 5ab8 eb96 05bb e571 b7b8 da1c f4b8
000001c0: 5f82 e93a bea4 91b8 6e1b 28ba 7207 c1ba
000001d0: 27cc 90b8 b4f8 afb8 ee66 a6b8 a081 e0b8
000001e0: d127 b1b8 8396 02b9 3acf fab8 0be2 07b9
000001f0: bce8 bdb8 aebb d0b8 74b9 bbb8 f9c6 2eb9
00000200: 40d2 bbb8 b31f bab8 be4b c1ba 13f5 ac37
00000210: 464e d4b8 2ea7 21bb 7faf d1b8 49a6 c7b8
00000220: b9e4 ee38 33f6 87b8 5dc6 f4b9 7335 b839
00000230: fa84 b8b8 2712 e1b8 dceb 6fb9 35d4 a0b8
00000240: 05a1 aab8 a385 0db9 c204 07b9 b734 80b8
00000250: a76a 93b8 657c 063b ef40 ceb8 2beb 8d35
00000260: e017 49b8 9854 90b8 3e2a 24b8 4451 62b8
00000270: 976a 14b8 b09a 2ab7 0465 1b3b fad7 16b8
00000280: c065 db38 d13f beb7 5b41 e7b7 467c 25ba
00000290: faec 13ba 41f7 b638 b8c3 71b7 f5a8 3bb7
000002a0: 28d8 abb6 6b47 8bb8 9de0 deb6 1a06 69b6
000002b0: 0633 13b6 9e33 4b36 5b18 1235 b9ba 2fb9
000002c0: ae27 2e36 23c9 82b8 8f8b 1138 7cbe 1137
000002d0: c2f6 e536 a3da 2837 fbaf 3837 e021 3d37
000002e0: 0a20 4537 6ac2 3837 283f 3b37 4447 8538
000002f0: 59ce 5137 e7c7 803a aba5 4bbb 28ce ca38
00000300: c475 0638 98d9 7937 eefd e2ba 55c1 cb39
00000310: 4e85 a738 a829 a137 7028 0d36 77bd 8537
00000320: 69c9 a937 13f5 9037 9439 56b9 a919 50bb
00000330: 2aec 9237 d73c 9337 6d3e d737 17a9 8d37
00000340: 15ea ae37 8918 cb37 f2c8 8937 a78f bc37
00000350: 7eba ad37 862b 9137 ad53 a237 0044 ec38
00000360: dd62 723b 05ca b037 0511 c037 8439 6d37
00000370: 3c09 47bb 469a a337 2ca0 ba37 84ae 5537
00000380: 51a7 c937 fb05 b837 610e 4837 eac2 3c37
00000390: 585b 75b7 13af 2837 3019 2537 5400 9237
000003a0: 60b3 403b 52a6 1337 48a5 4b3a b2a5 d037
000003b0: 871c ad3a 82f4 f136 1de1 1d3a d867 b339
000003c0: 6421 ac36 d96d 2f3a 7149 0237 7b76 9836
000003d0: 4c70 6636 40d1 133b 321a 8636 a5cc 0037
000003e0: 2019 a736 6931 c2ba e1a6 c836 862d e135
000003f0: c77b 61b9 6220 2535 dd67 2b37 8961 86b9

bias f4 [64]
-0.06103609 -0.10437313 0.021066539 -0.043412894 0.08131419 -0.07171192 -0.0405334 -0.11291269
-0.07195035 0.07816704 -0.042596307 -0.009150398 -0.10211648 0.04953519 -0.04738178 0.019209603
-0.05001229 0.028871639 0.06603221 -0.03134231 -0.049319163 -0.06812778 0.08404129 0.17133126
-0.05712638 -0.07031856 -0.0017256979 0.020008465 -0.058182534 0.054823536 0.09261529 0.19914638
0.0868478 0.10418094 0.13812184 0.036837228 -0.06827795 -0.05569844 0.06930821 0.094675824
0.09674176 0.08295769 -0.072739735 -0.10311883 0.068589404 0.15518312 0.08115619 -0.08140554
0.091558054 -0.06609456 0.087606266 -0.058445137 0.07078757 0.071003094 0.06661037 0.21884021
-0.11575231 0.090337805 0.11605196 -0.07001802 -0.14246212 0.066075854 0.03623862 0.060412306
00000000: fb00 7abd 94c1 d5bd bc93 ac3c b8d1 31bd
00000010: 0e88 a63d b3dd 92bd 5a06 26bd c53e e7bd
00000020: b55a 93bd 0b16 a03d 7779 2ebd 8deb 15bc
00000030: 7222 d1bd 69e5 4a3d 6613 42bd 755d 9d3c
00000040: b0d9 4cbd 3784 ec3c e53b 873d cb60 00bd
00000050: e402 4abd 9486 8bbd d71d ac3d 7671 2f3e
00000060: 5afd 69bd 2d03 90bd d030 e2ba cbe8 a33c
00000070: cf50 6ebd a58e 603d 16ad bd3d 07ed 4b3e
00000080: 42dd b13d d15c d53d d06f 0d3e a2e2 163d
00000090: 4fd5 8bbd 0c24 64bd 76f1 8d3d 66e5 c13d
000000a0: 8b20 c63d b9e5 a93d 92f8 94bd f72f d3bd
000000b0: 9a78 8c3d 53e8 1e3e 3735 a63d f3b7 a6bd
000000c0: ca82 bb3d 965c 87bd ea6a b33d 2b64 6fbd
000000d0: 13f9 903d 126a 913d 056b 883d a617 603e
000000e0: 8c0f edbd 0703 b93d a6ac ed3d 9c65 8fbd
000000f0: 97e1 11be c752 873d f26e 143d e572 773d

weight f4 [64, 64]
0.003934959 0.13948077 -0.33176392 -0.12232212 0.3434352 -0.0061760233 -0.19582829 0.34335816
0.02346559 -0.10945059 0.055323977 -0.048711307 -0.0035988416 0.2842199 0.055785548 -0.22088179
0.19955206 -0.36287156 -0.1592149 0.0010074952 -0.029012911 0.007733718 0.42352164 -0.026296828
0.08046147 0.025617028 0.043250322 -0.21138541 0.13568489 0.12965389 0.41229588 0.0392203
0.18158764 0.1639643 0.23507555 -0.14504059 0.2703873 0.055738572 0.45355007 0.3798342
0.15242274 -0.027741304 -0.073952794 -0.0010752637 0.113034226 -0.2140717 0.43277222 0.30938217
0.12319639 -0.16956207 0.04642481 0.011867224 0.32643119 0.12721352 0.36447933 0.10969231
0.4592373 0.034028035 0.20457657 0.061659217 0.33294907 0.4606652 -0.25072888 0.47359478
-0.0029749898 -0.25806066 0.07478431 -0.23704517 -0.45903134 0.2464854 0.26123297 -0.10023139
0.11467192 -0.032719582 -0.049182244 -0.00018576764 0.046400715 0.17707942 -0.3641992 0.0069653043
-0.14935647 -0.080568746 -0.5049926 -0.0033473957 0.04023425 0.0005165056 -0.2128395 0.25945878
-0.29088488 -0.28617045 -0.34607115 -0.1576365 -0.11028577 -0.33707434 -0.43342596 -0.03206114
0.28822872 -0.4269939 0.27802694 0.081267476 -0.34149998 -0.4391771 -0.46183512 -0.15181972
0.02620258 -0.23175165 -0.4217059 0.00042551107 0.07683248 0.013242126 -0.13025399 -0.3269498
-0.25959688 -0.07277919 -0.3529476 -0.0057809334 -0.46409157 -0.19373031 0.065035105 0.50482184
-0.18561476 0.35287452 -0.12741207 -0.0042518703 -0.13128951 0.028507885 -0.07066542 -0.31420544
0.06647798 -0.4833341 0.33249608 -0.00544192 -0.11614998 0.35648432 0.43888247 -0.50603974
-0.022233648 -0.1797427 -0.3762264 0.0008946559 0.004628851 -0.09679553 -0.082663596 0.053658344
-0.18378596 0.15891185 0.062978834 0.001190574 -0.023647122 -0.007283016 -0.38258287 0.39003173
-0.33195925 -0.26405394 -0.1441571 0.18176396 -0.3362075 -0.37072212 -0.23672694 0.5130202
0.06140706 0.079389244 0.119252816 0.1406465 0.16654289 -0.45299333 -0.045181748 -0.18146455
-0.0036335757 -0.14539003 -0.09315617 -0.018414319 -0.11984066 0.19391456 -0.25033468 0.016468171
-0.4364258 -0.15912074 -0.30059385 -0.0012290839 -0.24961601 -0.24788126 -0.33412254 0.0151783265
-0.32237428 0.0047741123 0.060510542 -0.002429614 -0.1402698 -0.018960916 0.29687092 -0.35537294
0.010182688 -0.35339215 0.35914508 0.22914147 -0.10383504 0.26955253 0.2494774 -0.20597503
-0.17496099 -0.35730502 -0.46052378 0.05460474 -0.042894438 -0.11082918 -0.108392745 0.30706924
-0.34807283 0.45343542 -0.32759157 -0.016600152 0.09634083 -0.01686927 -0.4544803 0.36899045
0.04662133 -0.20070432 -0.3410782 0.0066604586 -0.48863712 -0.20961124 -0.14652452 0.41368005
0.14674912 -0.028617252 -0.0322308 0.41825393 -0.1731647 -0.20127527 -0.15718363 -0.09942681
0.28163436 -0.191267 -0.5005516 -0.027090665 -0.0763071 0.47782084 -0.442978 -0.22865151
-0.057313327 -0.35921472 0.01325493 -0.0083817765 -0.2509058 0.029147113 0.035653554 0.49314302
0.028005283 0.12045128 0.21706393 0.00937063 -0.16265206 -0.19538338 0.050969798 0.031161647
00000000: d4f0 803b 0cd4 0e3e f6dc a9be 0584 fabd
00000010: bdd6 af3e 3d60 cabb 3687 48be a4cc af3e
00000020: e93a c03c a227 e0bd 659b 623d 8285 47bd
00000030: 8bda 6bbb 4585 913e 637f 643d d62e 62be
00000040: 6057 4c3e 4dca b9be 3b09 23be ee0d 843a
00000050: 7cac edbc 216b fd3b d4d7 d83e 726c d7bc
00000060: fcc8 a43d cdda d13c 4027 313d 6b75 58be
00000070: fbf0 0a3e fdc3 043e 7218 d33e 77a5 203d
00000080: 1cf2 393e 42e6 273e a5b7 703e 8585 14be
00000090: 3470 8a3e 214e 643d b737 e83e a179 c23e
000000a0: b514 1c3e bb41 e3bc 9074 97bd ddef 8cba
000000b0: 7d7e e73d 9d35 5bbe 5294 dd3e 5767 9e3e
000000c0: 644e fc3d aea1 2dbe f127 3e3d bf6e 423c
000000d0: fd21 a73e 4344 023e 099d ba3e 5da6 e03d
000000e0: 2721 eb3e fb60 0b3d 857c 513e 608e 7c3d
000000f0: 4d78 aa3e 4fdc eb3e 895f 80be 047b f23e
00000100: 0cf8 42bb 8720 84be 8428 993d f8bb 72be
00000110: 2806 ebbe ab66 7c3e 54c0 853e 1d46 cdbd
00000120: 1dd9 ea3d f804 06bd 5273 49bd 9fca 42b9
00000130: ad0e 3e3d 4f54 353e 5178 babe 353d e43b
00000140: e7f0 18be 3a01 a5bd 3247 01bf fb5f 5bbb
00000150: abcc 243d 1b66 073a 99f2 59be c8d7 843e
00000160: ddee 94be ef84 92be 3d30 b1be 766b 21be
00000170: 81dd e1bd 0295 acbe 02ea ddbe 8b52 03bd
00000180: b792 933e f29e dabe 8c59 8e3e 906f a63d
00000190: 16d9 aebe d2db e0be a775 ecbe a176 1bbe
000001a0: cba6 d63c 4e50 6dbe d6e9 d7be 2117 df39
000001b0: 595a 9d3d 81f5 583c 4d61 05be f765 a7be
000001c0: e2e9 84be 420d 95bd 8cb5 b4be fc6d bdbb
000001d0: 699d edbe 3d61 46be 2031 853d 013c 013f
000001e0: cc11 3ebe f8ab b43e 4f78 02be 4653 8bbb
000001f0: c270 06be 5e89 e93c 08b9 90bd 89df a0be
00000200: 9b25 883d 9177 f7be ed3c aa3e 2252 b2bb
00000210: 0ae0 edbd 1d85 b63e 34b5 e03e d28b 01bf
00000220: 5723 b6bc 780e 38be bfa0 c0be 5787 6a3a
00000230: 9ead 973b bc3c c6bd 884b a9bd dac8 5b3d
00000240: 6332 3cbe cab9 223e 0cfb 803d 090d 9c3a
00000250: 9cb7 c1bc 5ea6 eebb e7e1 c3be 3db2 c73e
00000260: 90f6 a9be 1432 87be eb9d 13be 5520 3a3e
00000270: 6423 acbe 4acf bdbe 8c68 72be 4b55 033f
00000280: f885 7b3d d496 a23d d23a f43d a305 103e
00000290: 388a 2a3e beee e7be 7f10 39bd d8d1 39be
000002a0: 4921 6ebb 20e1 14be a9c8 bebd a0d9 96bc
000002b0: 056f f5bd 8a91 463e de2b 80be 42e8 863c
000002c0: 3473 dfbe 8cf0 22be 70e7 99be 3619 a1ba
000002d0: 579b 7fbe 96d4 7dbe 1c12 abbe 84ae 783c
000002e0: 3e0e a5be 2870 9c3b e7d9 773d 293a 1fbb
000002f0: e3a2 0fbe ec53 9bbc 77ff 973e 71f3 b5be
00000300: 4ad5 263c d1ef b4be dde1 b73e 10a4 6a3e
00000310: 77a7 d4bd ca02 8a3e 0177 7f3e 1eeb 52be
00000320: f928 33be aff0 b6be c6c9 ebbe 38a9 5f3d
00000330: 14b2 2fbd 69fa e2bd 04fd ddbd 2e38 9d3e
00000340: 9a36 b2be b028 e83e 15ba a7be 0bfd 87bc
00000350: 574e c53d 6c31 8abc a4b1 e8be 51ec bc3e
00000360: 02f6 3e3d 6f85 4dbe cda1 aebe fa3f da3b
00000370: a52e fabe 54a4 56be 860a 16be dfcd d33e
00000380: 6745 163e ba6e eabc 7104 04bd 6125 d63e
00000390: 1652 31be 1b1b 4ebe bff4 20be 49a0 cbbd
000003a0: 6132 903e 7fdb 43be 2624 00bf 3eed ddbc
000003b0: e646 9cbd efa4 f43e 03ce e2be 9f23 6abe
000003c0: 61c1 6abd feea b7be 352b 593c b853 09bc
000003d0: ba76 80be edc5 ee3c 7609 123d 3e7d fc3e
000003e0: 566b e53c 29af f63d 0246 5e3e 4587 193c
000003f0: 438e 26be 9512 48be b5c5 503d b646 ff3c

bias f4 [64]
-0.08470877 0.10580344 0.15678154 0.08570739 -0.084556796 0.1085149 -0.072426915 0.07180972
0.12253829 0.17301181 -0.013298906 0.13504253 0.07282812 0.03186644 0.13188122 0.015988369
0.14594696 -0.054437812 0.17945798 0.03705207 0.023745455 -0.013980738 0.11451361 0.087123245
0.030973608 -0.11537968 0.13835368 0.017088132 -0.0006575262 0.15016784 -0.034594234 0.0686893
-0.026204584 0.14877874 -0.1326723 0.07319292 -0.09123857 -0.10503965 0.0688091 0.15985554
0.11971528 -0.11286518 -0.10251404 0.16003372 0.02704004 0.052838583 -0.08739394 -0.12534186
0.07098005 0.08814443 0.16969614 -0.10584018 0.14338452 0.042895515 -0.11226038 -0.057594117
-0.009275266 0.028998366 0.0873199 0.15558721 -0.05167197 0.03660803 0.12951523 0.12275452
00000000: cb7b adbd 79af d83d 578b 203e 5b87 af3d
00000010: 1d2c adbd 0f3d de3d 9054 94bd f910 933d
00000020: 5bf5 fa3d 022a 313e a8e3 59bc 9748 0a3e
00000030: e926 953d 6286 023d df0b 073e 0afa 823c
00000040: 1f73 153e 2ffa 5ebd d5c3 373e e9c3 173d
00000050: d485 c23c 770f 65bc 1d86 ea3d ac6d b23d
00000060: 5dbc fd3c 2f4c ecbd 96ac 0d3e 69fc 8b3c
00000070: d65d 2cba 99c5 193e afb2 0dbd faac 8c3d
00000080: ffaa d6bc 7459 183e 3fdb 07be 2be6 953d
00000090: 4adb babd 071f d7bd c9eb 8c3d 2cb1 233e
000000a0: 492d f53d dc25 e7bd e2f2 d1bd e1df 233e
000000b0: 1383 dd3c 456d 583d 98fb b2bd 9e59 00be
000000c0: fd5d 913d 1185 b43d d3c4 2d3e bcc2 d8bd
000000d0: 64d3 123e 35b3 2f3d c5e8 e5bd cfe7 6bbd
000000e0: 49f7 17bc fb8d ed3c c7d4 b23d 4152 1f3e
000000f0: fda5 53bd 4df2 153d a49f 043e b966 fb3d

weight f4 [1, 64]
0.5780833 -0.28917295 -0.2965766 -0.65908396 0.3892153 -0.2810592 0.27707162 0.2936055
-0.39223945 0.35245922 0.0023072527 -0.69337946 -0.47532076 -0.28607032 -0.5598401 -0.04960204
-0.36410403 0.22437893 -0.38421154 0.49018392 0.4403612 -0.0041718325 -0.55408657 -0.45112285
-0.18504313 0.35699764 -0.18331073 0.37593058 0.57227516 0.34806 0.09069106 0.34038913
-0.43637368 -0.2992808 0.3870258 -0.64679784 0.41814825 -0.4550316 0.4177632 -0.6244396
-0.5507659 0.5419582 0.48792937 -0.3915653 -0.11577309 -0.21051823 0.61808467 0.2952687
0.6206927 -0.42041236 -0.39490423 0.28821805 -0.22140652 0.67693925 0.4934715 0.2195895
0.023519794 -0.3978011 -0.38784593 -0.46711472 0.18920197 0.5852161 0.6976022 -0.5868962
00000000: 44fd 133f 7a0e 94be e3d8 97be bab9 28bf
00000010: 3a47 c73e fee6 8fbe 55dc 8d3e 7653 963e
00000020: 9cd3 c8be 8975 b43e 4735 173b 5181 31bf
00000030: 3e5d f3be cf77 92be ae51 0fbf 822b 4bbd
00000040: d86b babe 97c3 653e 60b7 c4be 63f9 fa3e
00000050: 0677 e13e deb3 88bb 9ed8 0dbf 93f9 e6be
00000060: f27b 3dbe 65c8 b63e cfb5 3bbe f979 c03e
00000070: a080 123f ec34 b23e 3cbc b93d 7c47 ae3e
00000080: 5f6c dfbe 553b 99be 3f28 c63e 8b94 25bf
00000090: 8717 d63e e7f9 e8be 0fe5 d53e 46db 1fbf
000000a0: fefe 0cbf c6bd 0a3f e1d1 f93e 3f7b c8be
000000b0: 711a edbd 1792 57be cc3a 1e3f 762d 973e
000000c0: b7e5 1e3f 4a40 d7be e330 cabe 5191 933e
000000d0: 64b8 62be e44b 2d3f 4ca8 fc3e 12dc 603e
000000e0: 95ac c03c 96ac cbbe be93 c6be a929 efbe
000000f0: 29be 413e b9d0 153f 0f96 323f d43e 16bf
