checkpoints/vehicle_repositioning/known/no-constraint/run-1/policy_final.pt (torch, 911767 bytes, 6 tensors)

weight f4 [256, 627]
00000000: d11a 37bc b187 89bd 6c0a 19ba 6d0a 19ba
00000010: 6c0a 19ba 6a0a 19ba c108 19ba 87ee 17ba
00000020: 0d9a 14ba 0e75 15ba 4d7b 16ba 2309 19ba
00000030: 6c0a 19ba 6d0a 19ba 6d0a 19ba 6d0a 19ba
00000040: 6d0a 19ba 6d0a 19ba 6c0a 19ba 6c0a 19ba
00000050: 6d0a 19ba 6d0a 19ba 6c0a 19ba 6d0a 19ba
00000060: 6d0a 19ba 6d0a 19ba 6d0a 19ba 6c0a 19ba
00000070: 6d0a 19ba 4609 19ba b8cb 18ba 9a2c 0cba
00000080: e9d2 cfb9 e56f 4cb9 7552 f538 de62 a0b9
00000090: 3c13 17ba fe07 19ba 6b0a 19ba 6d0a 19ba
000000a0: 6c0a 19ba 6d0a 19ba 6c0a 19ba 6d0a 19ba
000000b0: 6d0a 19ba 6d0a 19ba 6d0a 19ba 6c0a 19ba
000000c0: 6c0a 19ba 6d0a 19ba 6d0a 19ba 6c0a 19ba
000000d0: 770a 19ba 8018 19ba f989 13ba 1837 a4b9
000000e0: e22b 613a c15d 973b 21b4 ec3b 0565 af3b
000000f0: 1d5a 3d3b b73a 9539 625b 0cba 9509 19ba
00000100: 6c0a 19ba 6c0a 19ba 6d0a 19ba 6d0a 19ba
00000110: 6c0a 19ba 6c0a 19ba 6d0a 19ba 6d0a 19ba
00000120: 6d0a 19ba 6c0a 19ba 6c0a 19ba 6c0a 19ba
00000130: 6c0a 19ba f7be 18ba ced9 16ba f697 0b3a
00000140: bb3e c63b bf8e ea3b 7869 d83b 96e7 003c
00000150: c5a9 143c 5e15 aa3c 8ab9 243c 5c1b 8e3b
00000160: 10e5 1cba 1011 19ba 6d0a 19ba 6d0a 19ba
00000170: 6c0a 19ba 6d0a 19ba 6c0a 19ba 6c0a 19ba
00000180: 6c0a 19ba 6d0a 19ba 6d0a 19ba 6c0a 19ba
00000190: 6d0a 19ba 6d0a 19ba 8924 c8b9 c7f1 b53a
000001a0: b7d9 d83b a89d 5c3c 0edc 3d3c 1836 5c3c
000001b0: 686f ef3b 5acf 503c 048d df3c 1c6e cd3c
000001c0: 586d cd3a 4315 22bb 11ce 20ba cb26 17ba
000001d0: 820a 19ba 690a 19ba 6b0a 19ba 6c0a 19ba
000001e0: 6c0a 19ba 6c0a 19ba 6d0a 19ba 6c0a 19ba
000001f0: 6c0a 19ba 6d0a 19ba 6c0a 19ba b584 ae3b
00000200: 8d85 163c 3d83 b63b fbc6 89ba 5d49 383b
00000210: 41ee 803c 460e 4e3c c757 903c a793 a53c
00000220: 488b 013a 03ba a0bc 8b54 4bbb 5489 dbba
00000230: b694 3dba 72c3 1aba 657c 18ba 50d5 18ba
00000240: 667c 18ba 667c 18ba 667c 18ba 667c 18ba
00000250: 8610 19ba 8e0a 19ba 6c0a 19ba 6d0a 19ba
00000260: b47b 643c 8ba1 de3b f804 c4ba c9f8 c2ba
00000270: f086 813b 4029 203c 5ef0 6e3c afd6 073c
00000280: 7e06 d93b 9225 9bbb bee3 8fbc 92bd 0cbc
00000290: fd6b 63bb d766 753a dea2 d3ba d5d6 4cba
000002a0: 0777 1bba 11c5 b3b9 dda6 70b4 f1fe 9e3b
000002b0: e261 bb39 1a83 43ba 9281 18ba de08 19ba
000002c0: 660a 19ba d3cb 3a3c 383a 9b3a 6306 01bb
000002d0: 5989 5dba 517a 8d3a 3aa1 4c3b 37f1 743c
000002e0: 322b cd3b add5 aaba fc95 6a3b 8f83 86bc
000002f0: a30a d0bb 5c7c 863c 5c81 6c3c 47ab 7cbb
00000300: 17c7 bebb f99e bdbb dcd1 b0bb eb7b c63a
00000310: 4f59 d03a ae9c a83b 0cdd 6ebb 30ac 9aba
00000320: 0997 0dba 39a4 18ba 9934 6e3b 6b89 43bb
00000330: 00e2 2cbb 0134 833a 6613 703b 2258 803b
00000340: ec83 823b 0225 bcba a0a5 5fbb f12e 28bb
00000350: 3a07 29bc 851d 36bc 1f0b bd39 1c69 993c
00000360: cfdf 3f3c 36ba 2c3c 5b63 4a3b 4146 d03b
00000370: ca8c 00bc 7329 1f3b b56f cfbb e4fc 5abb
00000380: 0a54 273b a602 1a3b 929a 4eb9 d4e5 09ba
00000390: a5f4 4cbb afa3 2dbb 4ce8 1f3a 34c4 993a
000003a0: e338 853b 8ae3 833a d815 00bb e7d7 5abb
000003b0: 4dc4 6cb8 b39e 54bb 856a 5dbb 0895 7b3b
000003c0: 7cdf da3b 9e48 863b 09d9 0c3a 545b 6f3b
000003d0: 5000 113c 6e08 003c 88c1 593c 3b0f a43c
000003e0: 3f1f 013d a27c ba3c 3010 d13b 3ff0 c33a
000003f0: 3ab1 0c3a de09 1ebb 9a09 d0ba d8c0 013b
-0.011175827 -0.06715334 -0.000583804 -0.00058380404 -0.000583804 -0.00058380386 -0.0005837791 -0.0005795736
-0.00056687073 -0.00057013414 -0.0005740419 -0.00058378483 -0.000583804 -0.00058380404 -0.00058380404 -0.00058380404
-0.00058380404 -0.00058380404 -0.000583804 -0.000583804 -0.00058380404 -0.00058380404 -0.000583804 -0.00058380404
-0.00058380404 -0.00058380404 -0.00058380404 -0.000583804 -0.00058380404 -0.00058378687 -0.00058286963 -0.00053472223
-0.00039639257 -0.0001949664 0.00011697869 -0.0003059124 -0.0005763059 -0.0005837678 -0.0005838039 -0.00058380404
-0.000583804 -0.00058380404 -0.000583804 -0.00058380404 -0.00058380404 -0.00058380404 -0.00058380404 -0.000583804
-0.000583804 -0.00058380404 -0.00058380404 -0.000583804 -0.0005838046 -0.00058401376 -0.00056281645 -0.00031321566
0.0008589608 0.0046193306 0.0072236215 0.0053526186 0.0028892823 0.0002846324 -0.0005354193 -0.00058379147
-0.000583804 -0.000583804 -0.00058380404 -0.00058380404 -0.000583804 -0.000583804 -0.00058380404 -0.00058380404
-0.00058380404 -0.000583804 -0.000583804 -0.000583804 -0.000583804 -0.0005826796 -0.00057545013 0.0005325073
0.0060499585 0.00715813 0.0066043697 0.007867714 0.009073679 0.020762142 0.010054002 0.0043367576
-0.00059850607 -0.00058390293 -0.00058380404 -0.00058380404 -0.000583804 -0.00058380404 -0.000583804 -0.000583804
-0.000583804 -0.00058380404 -0.00058380404 -0.000583804 -0.00058380404 -0.00058380404 -0.00038174193 0.0013881259
0.0066177505 0.013465323 0.01158811 0.013440631 0.007306982 0.012744749 0.027288921 0.025076918
0.0015672846 -0.0024731911 -0.0006134222 -0.00057659735 -0.00058380526 -0.0005838038 -0.0005838039 -0.000583804
-0.000583804 -0.000583804 -0.00058380404 -0.000583804 -0.000583804 -0.00058380404 -0.000583804 0.0053258785
0.009187114 0.005569844 -0.0010511571 0.00281199 0.015738608 0.012576645 0.01761998 0.020212008
0.0004941714 -0.019619947 -0.0031025733 -0.0016749301 -0.00072319375 -0.00059037574 -0.0005816876 -0.0005830126
-0.00058168767 -0.00058168767 -0.00058168767 -0.00058168767 -0.0005838949 -0.00058380596 -0.000583804 -0.00058380404
0.013945509 0.0067941598 -0.0014955094 -0.0014875169 0.0039528534 0.00977546 0.014583675 0.008290931
0.0066230884 -0.0047347033 -0.01756465 -0.008590119 -0.0034701817 0.00093613326 -0.0016146561 -0.0007813995
-0.0005930517 -0.00034288366 -2.2412446e-07 0.0048521687 0.00035740348 -0.00074581953 -0.00058176473 -0.0005837808
-0.00058380363 0.011401135 0.0011842912 -0.0019687645 -0.00084509474 0.00107939 0.0031224028 0.014950088
0.006261253 -0.0013033651 0.0035794964 -0.016420154 -0.0063489242 0.016416721 0.014435139 -0.0038554238
-0.005822073 -0.0057867733 -0.005396111 0.0015143132 0.0015895757 0.005145631 -0.0036447672 -0.0011800583
-0.0005401229 -0.0005822811 0.0036347269 -0.0029836546 -0.0026379824 0.0010010005 0.0036632656 0.0039167562
0.0039830115 -0.0014354291 -0.003412582 -0.0025662745 -0.010316664 -0.011115436 0.00036057175 0.018726878
0.011711075 0.010542443 0.0030881974 0.006356031 -0.007846067 0.002428618 -0.006330455 -0.0033414895
0.002553227 0.0023500114 -0.00019703273 -0.00052603823 -0.003127375 -0.0026495268 0.00060999836 0.0011731447
0.0040656193 0.0010062319 -0.001954427 -0.0033392848 -5.6449604e-05 -0.0032443225 -0.0033785414 0.003838839
0.0066794734 0.004098012 0.0005372917 0.0036522942 0.008850172 0.00781451 0.01329077 0.020026794
0.03152394 0.022764508 0.0063801035 0.0014948918 0.0005366985 -0.0024114768 -0.0015872002 0.0019798782

bias f4 [256]
00000000: 9a54 e03c adc2 873d 4a07 b1bd 25ba 47b7
00000010: d95c 19bb 1ddc 1c3d 36e0 9f3c 3ecf d83c
00000020: 3388 533b 9824 c2bc 4916 6ebd c5aa a63c
00000030: 1038 913c 0724 48bc cc10 a1b8 c183 103d
00000040: 1ca8 7b3c 5051 24bd a0ec a4bc be3a 88bc
00000050: 96fd 3b3c bf97 b3b3 0029 c5bd a23c d6bc
00000060: 281b 63bb 7f7c 83bc 5bbe b93c 3a68 763d
00000070: 82f4 4fbc 0972 523d 4285 33bb 7f61 f7b3
00000080: 0338 113d 38f5 38bc 3eea f3b5 f1f2 423d
00000090: 65fa 08bd 4cc1 5437 56fa 513d aa81 a23d
000000a0: ca39 da3d e496 b1bb a57d 97bc 2e2f 94bd
000000b0: 9b57 8cb7 1109 4eb0 23aa 923c 7947 c2bc
000000c0: cd64 84bd 8ddf b8ba 16cd 1bbb 8ca5 2cbc
000000d0: ec50 6abd 16c4 fb3c 9003 0e3d 667f f1b5
000000e0: 2e16 39bd 4acf d1b7 6dba a83c 37b9 fb3c
000000f0: a54a 0e3d 5d7a 013d a944 d7bc dff4 96bc
00000100: c001 263d 4756 cf3b 8245 85ba 495d a13c
00000110: 48f7 943b 4b46 593d 7948 ccbc c443 e53c
00000120: f57a f4b8 6a4f 2dbc d39a ce3d b18f 3b3b
00000130: 56ec a83d dd2e 43bd d18e ddbc e648 fc3c
00000140: f727 30bd 535e b0bc b915 d6bd 4a60 6cbd
00000150: 451b 3cbd 0f4c 043c 47fb 553c e2c9 f3bc
00000160: c242 82ba fe78 babb 10a9 8c3c a843 163c
00000170: 1232 cf3b cfcb 5cb8 4bba d33d 366d b33c
00000180: 1467 923b 6092 f038 92a1 84b8 275d aeb9
00000190: 6a67 42bd da0c c23c 6988 a63d e370 92bb
000001a0: 18cf 25b0 59a7 0ebc 3b2b a63c c068 acbd
000001b0: cacb 0bbd 0ada 8eb4 80eb f83c b8f9 573d
000001c0: a635 67bc 0054 32bc 1c7d 233d 760d 5abd
000001d0: 09df 86bd cf38 bf3c e238 13bb 3c20 49bd
000001e0: 558f 5cb0 2341 dabc c98e 10b8 f8f9 8dbc
000001f0: 2be9 f43c ab16 9e3c 7987 b4bc 179d 69bd
00000200: ca27 d7b9 387e 9ebc 5556 1b3b 9d38 143c
00000210: 32d3 4cbc ff52 83bd 1b45 1b3d e0d7 aa3c
00000220: c8e9 a43c 973b 09bd 6492 1ab5 6376 53bd
00000230: 1ac3 533c bde7 0cb7 ef4a f23c d258 923c
00000240: bc54 eb3c 86cc 06ba 10db 08bc 09ab 403d
00000250: 0695 a33d 621f ae3c b49b 8fba 7cf7 04bd
00000260: 74aa 8f3b 6eaf deb6 a920 5a3d 1777 1dbc
00000270: a162 453c 1574 74bd 7551 1fbd 2be7 593c
00000280: c480 26bd c6e0 823d b5a0 18b3 fb09 943d
00000290: 53c7 263c 2753 ab3c c6b7 8abc 4f67 c1bc
000002a0: bafb 66b6 e960 3a3c e832 a13b 8903 b1bd
000002b0: 1da9 e9bc 29e0 93bc 8a32 0ebd def2 6a3d
000002c0: adf0 1f3c c23d ca3c 5885 4cbc 761c 7ebb
000002d0: 39d7 96bc c1ac 5d3c 11ad 163d 5e26 f0bb
000002e0: 0ede 923c 9aaa b8bb 522d f0b5 5839 703c
000002f0: c7c2 8cbd 78ef 443d c864 b8bc 6705 8bb3
00000300: 79e8 2d3c 4c9c 3dbb 3972 883d e2a1 723b
00000310: 1919 463c d2c8 b63c f757 25bd bd59 b4bc
00000320: f596 92bb a96a 05bd ac83 bd39 53d6 d03c
00000330: 3f08 cd3c 5699 053d ec3b b73c 7723 9fb9
00000340: 1c4b 66bc d8ac 23bd 8a46 adbc b674 1abd
00000350: 9040 013d 532d f83c 2687 a23c 9517 a03b
00000360: de91 853c ae2d c6bc a52b 9abc dbca 9a3c
00000370: c2c9 023d 7cf2 83bd 9a9a b23b 75f2 afb7
00000380: 1fae d1bc 198a 1fbd 6fa2 8a3b 917a 15bd
00000390: bbaf 883d 1501 263d 8e97 06bd d589 753d
000003a0: 5b6c 7db7 6f4c 963c 792f 963c ad1e b93c
000003b0: ba65 da3a ed2a 103d a623 d03c 76b3 1bbd
000003c0: 8e7b 433b 1707 80b9 c07f 16bc 95dd 573d
000003d0: 157b 7fbc 82dc cab9 ae02 7fbd 971d debb
000003e0: dc98 243d 6e0f b237 3d5e f53b 7878 fd3c
000003f0: 6054 4ebb 5b9a 823d f6ba 48bd 9893 b2bc
0.027384091 0.06628928 -0.086439684 -1.19046645e-05 -0.0023401289 0.038295854 0.019516092 0.026466008
0.0032277226 -0.02369909 -0.05812672 0.020345101 0.017726928 -0.012215621 -7.680207e-05 0.0352819
0.015359905 -0.04011661 -0.020132363 -0.016629573 0.011474034 -8.3629395e-08 -0.09626961 -0.026151959
-0.0034653638 -0.016050575 0.022673776 0.060157992 -0.012692573 0.051378284 -0.002739266 -1.1519568e-07
0.035453808 -0.011288933 -1.8173084e-06 0.04759497 -0.03344192 1.268119e-05 0.05126413 0.07934888
0.10655554 -0.005419599 -0.01849253 -0.07235561 -1.6730095e-05 -7.495525e-10 0.017903393 -0.023715721
-0.06464539 -0.0014104709 -0.0023773364 -0.010537516 -0.05720608 0.03073315 0.034671366 -1.7992977e-06
-0.045187168 -2.5011268e-05 0.020596707 0.030727966 0.034739155 0.031610835 -0.026277857 -0.01842731
0.040529013 0.0063274237 -0.001016781 0.019697802 0.00454608 0.053045552 -0.024936901 0.027986415
-0.00011657729 -0.010578016 0.10088124 0.0028619582 0.082482025 -0.047652114 -0.02704564 0.03079648
-0.043006863 -0.021529352 -0.10453362 -0.057709016 -0.045924444 0.008074774 0.0130603975 -0.029759351
-0.0009938108 -0.005690693 0.017170459 0.009171404 0.0063231075 -5.26419e-05 0.10338267 0.021902662
0.0044678543 0.00011471356 -6.324345e-05 -0.0003325727 -0.047461905 0.023687769 0.08131487 -0.0044690236
-6.032095e-10 -0.008706891 0.020284286 -0.08418417 -0.034129895 -2.6608205e-07 0.030385733 0.052728385
-0.014111912 -0.010884285 0.039914235 -0.053235494 -0.06585509 0.023342518 -0.0022464325 -0.049103007
-8.023922e-10 -0.026642388 -3.4465254e-05 -0.017331108 0.02989634 0.019297918 -0.022037255 -0.05703458
-0.0004103764 -0.019347295 0.002370258 0.009046701 -0.012501525 -0.064123146 0.0379077 0.02085489
0.020131007 -0.033504095 -5.7582497e-07 -0.051626574 0.012924934 -8.398606e-06 0.029576747 0.017864618
0.028726928 -0.00051421707 -0.00835301 0.04703811 0.07987408 0.021255199 -0.0010956437 -0.032462582
0.0043843333 -6.6365383e-06 0.053253803 -0.009610913 0.012047441 -0.059681017 -0.038896043 0.013299744
-0.040650144 0.063905284 -3.553642e-08 0.07228466 0.010179359 0.020913674 -0.016933333 -0.023608832
-3.4419195e-06 0.011375644 0.0049193986 -0.086432524 -0.028523022 -0.018051224 -0.034716167 0.057360522
0.009761971 0.024687652 -0.0124829635 -0.0038774288 -0.018413173 0.013529957 0.036786143 -0.0073287925
0.01792815 -0.0056355717 -1.7894583e-06 0.014662109 -0.06873088 0.048079938 -0.022508994 -6.4736746e-08
0.010614508 -0.0028932272 0.06662411 0.003702276 0.012090945 0.022312555 -0.040367093 -0.022015447
-0.004473562 -0.032572422 0.00036146992 0.025492823 0.025028346 0.032616936 0.02236744 -0.00030353267
-0.014055993 -0.03995976 -0.0211518 -0.03770896 0.031555712 0.03029505 0.019839834 0.0048856237
0.016304906 -0.024191704 -0.01881964 0.018895557 0.031930692 -0.064427346 0.005450559 -2.0974529e-05
-0.025595723 -0.03895006 0.0042307894 -0.03649384 0.06674143 0.040528376 -0.032859378 0.0599459
-1.5105204e-05 0.018346993 0.018333184 0.022597635 0.0016662397 0.035197187 0.025407623 -0.038012944
0.0029828283 -0.00024419345 -0.009185731 0.05270155 -0.01559331 -0.00038692734 -0.062258415 -0.0067784297
0.04018484 2.1226439e-05 0.0074880407 0.030941233 -0.0031483397 0.06377097 -0.049006425 -0.021798894

weight f4 [256, 256]
00000000: 8ffd 673c 378b 953d 737e cabd 2b51 e3b2
00000010: c88a a137 6be4 bf3d fa26 84ba bd8b 0ebc
00000020: 7bc2 01bd 7c5f 813c f751 87bd da69 2cbc
00000030: 53a6 91bd 8c23 7dbb bee3 86b4 14a6 6c3d
00000040: 58eb a3bd 6a7a 01bd ea81 3bbd 02ff 2c3d
00000050: 4e10 4ebd 10bd c8ad 8d16 913d 122b c2bc
00000060: 7e16 93b6 3a35 5dbd 4589 f638 9b5d 4abd
00000070: 98ca a8bc 48f2 be3d dbec b43a c9e1 c6b2
00000080: 1e3b 703d 0c5f eb3c 5e20 c2b0 2d88 283d
00000090: e613 98bd 775d a434 2525 d43d bc5f 883d
000000a0: 8154 d23d cf46 dc3d 9150 8abd 9c81 c73c
000000b0: 68ef b035 930e 3a2b 2beb 48bc e89c c8bc
000000c0: dae9 85bd cc33 96b6 967c d2b6 b2a7 e3bc
000000d0: 86e1 9bbd b2fb e8bc c6e2 debc be9c a1b1
000000e0: ee4e 013d bd75 5eb3 8c17 26b9 a96c 0dbd
000000f0: 448d 423d 57af 62ba c256 e63a 9230 bf3c
00000100: 0059 53bc f997 a93d 838c a6bc 73a3 bab8
00000110: 1d94 2c3c f4aa d53c 836b 393d 793c 533c
00000120: afb0 41b5 3a81 263c b3b4 f23d f165 bcbd
00000130: 595d 25bd 2835 70bd b74c f83c 716d 51ba
00000140: 0b84 5ebd 3417 3a3d f960 edbd 33bd 2d3d
00000150: 0b2b 47bd 8c4b 233d d287 fb3c 8f01 6dbc
00000160: c48d 52bd bcb3 19bd 7f91 58bd 3745 363c
00000170: 7838 37bd 1078 afb4 903e 8fbc e01f 8db9
00000180: 59da 193d 6d64 18bd 5678 8eb4 cb04 bcbd
00000190: 08b3 d23d 9fe6 09bc 96aa 8e3c f8db cbbc
000001a0: f299 0130 5eed 4dbd 66c0 c43c 8efb 25bd
000001b0: b0d0 97bd 8ba7 81b0 86ef 993c 1948 0cbb
000001c0: 883d 51bd 21f1 673c 566f 223c fe9c 38ba
000001d0: 9ab0 e7bd b20c bebc a49f 1fb7 0638 78bd
000001e0: 16ae b3ae 3c53 973c abad 04b5 0723 583d
000001f0: 5cb8 a63b c3dc 9ebc 72dd 9c3b c036 1f3b
00000200: 95e7 c0b5 8bd1 ccbb 3391 21bc 37a6 a63d
00000210: 10f3 91bd c1e2 a2bd 3ce8 3e3d 1838 b4bc
00000220: 1c59 00b9 7d6a 1e3d 7407 dfb1 c871 123c
00000230: bc28 683d 9f3d 6bb1 856a e9bc 2263 b53b
00000240: b10e ae3c ddfd 21b6 745b 6a3d 2e34 1e3d
00000250: 9d70 dd3d bf09 cdbb 6e54 aab6 ab4e 14bd
00000260: e59c c2bd c536 b8b2 a378 2c3d 0293 87bd
00000270: c4c2 803c 7b29 56bd 4c78 e2bb bef6 1cbd
00000280: 5bbf 8abd 4fd2 3f3d 1764 8eb0 8638 813c
00000290: d7cb cf3c 8d8e f4bc ba19 2bba 545f 023c
000002a0: 9a28 c9b2 033b fe3c 39be 303d 6f6e 69bd
000002b0: 5cd6 213c 7365 bd3d 8e2a 5a3d 0ee1 513d
000002c0: b7d1 2dbc 63da 603a 32f5 29bd 7a30 4dbc
000002d0: 70e9 06bd 33c8 d8bb 4067 873d 3487 143c
000002e0: b1b7 223c b977 0f3d cfab 2bb1 5446 733d
000002f0: ef9e c9bd 3acd fbba e11c 6ab9 6f07 9a2f
00000300: 90f8 8dbd dd39 11bd 47d6 30bd aaa1 82bc
00000310: 722a 72bd eac5 9cb9 1574 20bd 5cf8 aebc
00000320: 3f3a af3d 61ba 94bd ddfa 4e3d cfc0 1cbc
00000330: 99ea d1bc 4130 8aba d6ff 56bc cbce 7abd
00000340: 8233 20bd a11a 833d e530 323d 4d83 3f3c
00000350: f2f7 a0bc 38ba acbc b8fc b33a c99c 34bd
00000360: edbd a3bc 265f d43b 0a67 743c b8c9 9f3c
00000370: ef0e 31bd 09a0 80bd e7fc bfbc 71f2 8e34
00000380: 7761 b2bd c216 66bd 3202 a2bd 3403 e43c
00000390: 481d 5f3d 08dc 57bc ae26 debd 3517 b73d
000003a0: 110d 0eb3 431c c0bb 68d8 633a 915e 76bc
000003b0: 02d2 98bd 14d8 96bb 4fe4 8cbc 2e0d 37bd
000003c0: dfaa de3c 99bd a0b5 2151 d53b b76c 86bc
000003d0: 4d59 713c 23a4 22b5 68af 53ba bfdc 6dbb
000003e0: f207 81bd e0c7 03b7 b7fe f53c c939 8a3c
000003f0: 0430 50b7 0ba5 50bc 0190 55bd 301d 933d
0.014159574 0.07301944 -0.098873995 -2.6463189e-08 1.925732e-05 0.09369739 -0.0010082417 -0.008700308
-0.03167961 0.0157926 -0.066074304 -0.010523284 -0.07111802 -0.0038625924 -2.512515e-07 0.057775572
-0.08003873 -0.031610884 -0.045778193 0.042235382 -0.050308518 -2.2821328e-11 0.07084379 -0.023702178
-4.38356e-06 -0.05400584 0.000117557625 -0.049405675 -0.020604417 0.09323555 0.0013803499 -2.3152909e-08
0.05865013 0.028731845 -1.4124557e-09 0.041145492 -0.0742567 3.0615385e-07 0.10358647 0.06658885
0.10270024 0.10755693 -0.06753648 0.024353795 1.3182698e-06 6.61007e-13 -0.0122631 -0.024488881
-0.06538744 -4.4763783e-06 -6.2729914e-06 -0.027789924 -0.076113746 -0.02844033 -0.027207743 -4.7035362e-09
0.031569414 -5.1795485e-08 -0.00015839766 -0.034527455 0.047498003 -0.00086473435 0.0017573463 0.02333859
-0.012899637 0.082809396 -0.020330673 -8.899616e-05 0.01053336 0.026082493 0.045268547 0.012892836
-7.215521e-07 0.010162646 0.11850872 -0.09199131 -0.040372226 -0.058644444 0.030310018 -0.00079890253
-0.054325145 0.045432284 -0.11590762 0.042416763 -0.048625033 0.03986697 0.030704413 -0.014465704
-0.05140473 -0.037524924 -0.05287313 0.011124901 -0.044731587 -3.2683647e-07 -0.017485887 -0.00026917364
0.03756175 -0.03720515 -2.6537117e-07 -0.09180602 0.10288054 -0.008416801 0.017415326 -0.024885163
4.7148696e-10 -0.0502752 0.024017524 -0.040523104 -0.07412851 -9.433604e-10 0.018790971 -0.0021405278
-0.05108407 0.014156611 0.00991424 -0.00070424366 -0.11312981 -0.023199413 -9.514308e-06 -0.060600303
-8.1709015e-11 0.018472306 -4.942655e-07 0.05276778 0.0050878953 -0.019392377 0.0047871405 0.0024294108
-1.4372514e-06 -0.0062505654 -0.009861278 0.08137172 -0.071264386 -0.07953406 0.046608195 -0.021999404
-0.00012240227 0.038675774 -6.4910015e-09 0.00893826 0.056679472 -3.4232028e-09 -0.028493175 0.005535499
0.02124724 -2.4138637e-06 0.057216123 0.03862398 0.10812495 -0.0062572653 -5.0762237e-06 -0.036207836
-0.095025815 -2.1445326e-08 0.042107236 -0.066198364 0.015717871 -0.052285653 -0.006911313 -0.03832125
-0.067747794 0.046831425 -1.0360307e-09 0.015774023 0.025365753 -0.02985313 -0.0006526966 0.007957298
-2.3417943e-08 0.031033998 0.04315016 -0.056990083 0.009877767 0.092478655 0.05326324 0.05124002
-0.010609082 0.0008577464 -0.041493602 -0.012523765 -0.032937467 -0.0066156625 0.0661149 0.009065438
0.009931491 0.035026286 -2.4981437e-09 0.059393242 -0.09844767 -0.0019210943 -0.00022326737 2.801772e-10
-0.06932175 -0.035455573 -0.0431731 -0.015946228 -0.05912251 -0.00029902096 -0.039173204 -0.021358661
0.085560314 -0.072621115 0.05053221 -0.0095674535 -0.02562456 -0.0010542945 -0.0131225195 -0.06123237
-0.03911162 0.064015634 0.04350366 0.011689019 -0.01964948 -0.02108489 0.0013731932 -0.044094834
-0.019988025 0.006481069 0.014917145 0.019505367 -0.043227132 -0.06280524 -0.023436023 2.662596e-07
-0.08709996 -0.056174047 -0.07910575 0.027833559 0.054471284 -0.013175018 -0.10847221 0.08939973
-3.3073835e-08 -0.005862744 0.000869161 -0.015037195 -0.07461931 -0.0046033952 -0.01719871 -0.044690304
0.027181087 -1.1976109e-06 0.0065099155 -0.016409261 0.014730764 -6.0588553e-07 -0.0008075149 -0.0036294905
-0.063003436 -7.8547455e-06 0.030028684 0.016873257 -1.2408946e-05 -0.012734662 -0.052139286 0.071833014

bias f4 [256]
00000000: 5ad0 7d3c 42e1 fabb d4bf 3c39 b187 b1b2
00000010: 73cc e83b a9ff 05bb 352b 32bc 24ef 5a3d
00000020: af06 7e3b c7ed 8f3c 0f3e c9b7 8c12 8bba
00000030: 632b 14bc 11e4 72bd e6b3 2fbb 82e0 bcbb
00000040: ff67 843c 272d 283a 4692 ca3c 7ff4 55bc
00000050: 59fb 7eb7 9560 97b4 e9d3 5eb4 db30 863b
00000060: 697a 9eb9 5cbf b9b9 7bf7 693c 1c63 efad
00000070: f801 5bbc 7a59 e63c 844d cbbd e4df 13b9
00000080: 74a9 a73c 2a9f 8d3c 4277 003c 6204 2fbc
00000090: 96d4 91ad 50db 063c 6534 04bc 7da5 4d3b
000000a0: 48d4 b23a 7865 c2b8 f777 cbb8 b8d7 8bbd
000000b0: b334 0495 09cc a5b6 c11b a339 df88 e0ba
000000c0: ac2b 9aae e03f 443b 3b85 61bd 85af 823a
000000d0: af0d 66a8 eed3 ef3c 3e8b 81b2 6a48 0b3d
000000e0: 23e0 323b 95b3 3eaa b54e f5bc ee6a 5abc
000000f0: 6994 adaa 1bba da3c 1a61 823c 2e66 f9bb
00000100: 866f cf39 878d 07b7 a24f b7bc 1199 d7b7
00000110: 8f19 793c b36d f73c 733a d8b9 8182 953b
00000120: fc74 aca9 6fa7 1ebc 852d 99bc 0bc5 e0ba
00000130: 8b8f f43b 74cc e4bb 9064 16bb 4081 a63c
00000140: f5fd feba f41c 12b2 e19c 103b ddd6 113d
00000150: ecd6 e93c 63c3 12bd f5a7 be3b 4758 78bb
00000160: 0bab 39b7 935e 233d 6da5 209e 70fa 813b
00000170: 2014 d33c 80eb a8bb 91af 6cbb c2f6 22bb
00000180: b7ab c0bc bee2 a3b8 cf38 aebc 03e0 f2ba
00000190: 5d29 96ba bff4 023d 2148 90ad 8085 2dbb
000001a0: 3f70 6ebd 3049 013b 3b4f ad3a 43e1 6cbd
000001b0: e418 24bc 4d6f 91b5 233d 41bb d6a8 a9b8
000001c0: 48c1 a5ba ea3b c6bc 16e0 3e3a fb74 b03a
000001d0: e379 10b3 08ec 1b3b b7ff 63bd c49d f83a
000001e0: 9a5c 4dbd 2905 6e39 ac75 95ac c9a7 b2bd
000001f0: 866d 983c ed55 d8ba a925 b6b1 2e8d 073b
00000200: 8d73 143c 831d b5b5 a41d 14bc 3ae9 beba
00000210: 06d4 f5ae b8c3 f63b a44e e3b1 4287 50bb
00000220: ae9f 2e3d 9d0e a1bc 94f7 aeba 9105 d53c
00000230: a536 8c3a 6138 fc3a 678d e8b5 9544 1c3d
00000240: f63e 66b3 17e3 4cb8 dc94 ad38 f6a7 9b38
00000250: aa66 73ba 67ef 54ba 330d f33a caae b0bb
00000260: 8584 ccbd 59d3 b9ba 3445 293c 4c68 0ebb
00000270: 5994 75bc dc0f 703b c1b1 a6b1 8c50 96bb
00000280: f54b c93c da3b 033d 7dd9 db3b a5bd f8bc
00000290: e4af 9fba 91a7 32b4 c5a9 0abd ae9e 433c
000002a0: 6215 8bab f85c a3bb 8d71 4b3b d673 883c
000002b0: 43cf ecbb 9246 daba 1775 173b f5f2 0a3a
000002c0: 10ea 843c feb4 bcbb 2f36 103b dbf2 c2b8
000002d0: 0ab1 2c3c fd43 7bb8 d62e 69bb 882c 94bc
000002e0: c2f2 c83c 5673 063b 59c4 9238 0a0f 0cba
000002f0: 5cd7 0b3b 3830 fe34 a582 91bd e586 c23c
00000300: 85b9 453b 699d 11bc 83a4 1a3c e9a1 f33a
00000310: ccbb 183c e43f b83b ca65 e53b db41 97b9
00000320: adb3 283b 7e82 b0b9 6208 bfbc 3db1 313d
00000330: 98c7 fbba 90b5 053b a789 043c 4c1d 353b
00000340: 90bb 8db7 6cd9 be3a 0736 55a5 963c dd3b
00000350: 7236 65b4 abdb 943a c888 6d3c 6369 023c
00000360: 6c84 cabb 246f a83a 01ba 3cbb 002a 99bd
00000370: 0129 899f 60ca 52ba be52 183d e148 973b
00000380: fc0e d2bb 9ac0 903a c63a be8f b3b8 783c
00000390: 8008 023d 3953 44bd edb4 c1b6 83c5 60bd
000003a0: 2417 e5bc 1d16 9dbd f054 f7ba 9bf5 7e3b
000003b0: 42cd 963d 0495 60bc 9f3a 9f3b c4f2 efba
000003c0: f8c1 f5bb 0be1 53b9 b89d afbb 1cba e3ba
000003d0: cbd9 75b8 97f0 223b 214b 35ba 9338 55bb
000003e0: 7465 003c 7a9f 979c aefd 85bb 7779 55b2
000003f0: aed5 75bb 8fe1 b8bb d1c7 3b3b cc58 853c
0.015491569 -0.0076562474 0.00018000539 -2.0667217e-08 0.0071044504 -0.0020446575 -0.010874559 0.05345072
0.0038761308 0.017569436 -2.3989965e-05 -0.0010610386 -0.009043547 -0.059299532 -0.0026810109 -0.005764068
0.01616287 0.00064154196 0.024727952 -0.013058781 -1.5198101e-05 -2.8196214e-07 -2.0752454e-07 0.0040951795
-0.0003022731 -0.00035428524 0.014280195 -2.7215168e-11 -0.013367169 0.028118838 -0.09926894 -0.00014102418
0.020466544 0.01728781 0.007840933 -0.010682197 -1.6578999e-11 0.008230999 -0.008069132 0.0031379156
0.0013643587 -9.269541e-05 -9.7021395e-05 -0.068282545 -2.669876e-26 -4.941136e-06 0.0003111046 -0.0017130635
-7.010867e-11 0.00299453 -0.0550587 0.0009970522 -1.2770532e-14 0.02927586 -1.5080897e-08 0.034004606
0.002729424 -1.6937695e-13 -0.029944757 -0.013331158 -3.0833954e-13 0.02670007 0.015915442 -0.0076110577
0.00039565208 -8.079579e-06 -0.02237684 -2.5701274e-05 0.015203848 0.030203676 -0.00041242279 0.0045626764
-7.658628e-14 -0.009683474 -0.018698463 -0.0017148567 0.0074634007 -0.0069823805 -0.0022948124 0.020325303
-0.0019454347 -8.504902e-09 0.0022066163 0.0356053 0.028544866 -0.035830867 0.005818362 -0.0037894414
-1.1066683e-05 0.039885115 -8.504539e-21 0.003966622 0.025766432 -0.005155027 -0.0036115388 -0.0024866317
-0.02351938 -7.81468e-05 -0.021267323 -0.0018529895 -0.0011456419 0.03197169 -1.6402936e-11 -0.0026477277
-0.058212515 0.001972746 0.0013222465 -0.057832014 -0.0100157 -1.0835735e-06 -0.0029485903 -8.089996e-05
-0.0012646103 -0.024198491 0.0007281316 0.0013462597 -3.3638468e-08 0.0023791809 -0.05566379 0.0018967916
-0.05013714 0.00022699371 -4.247899e-12 -0.08723409 0.018606912 -0.00165051 -5.3011786e-09 0.0020683515
0.009060753 -1.349414e-06 -0.00904027 -0.0014565357 -1.1178973e-10 0.0075306557 -6.61551e-09 -0.0031818901
0.04263275 -0.019660288 -0.001334893 0.02600363 0.0010697438 0.0019242876 -1.73265e-06 0.038151342
-5.360831e-08 -4.8848884e-05 8.27701e-05 7.422261e-05 -0.00092850125 -0.0008122832 0.0018543362 -0.00539193
-0.099862136 -0.0014177366 0.010331441 -0.0021729646 -0.014988982 0.0036630547 -4.851444e-09 -0.0045872387
0.024572352 0.0320395 0.0067092762 -0.030363867 -0.0012183157 -1.6638502e-07 -0.03385331 0.011939688
-9.882479e-13 -0.004985448 0.0031043023 0.016656797 -0.007226856 -0.0016653112 0.0023110562 0.00053004856
0.016224891 -0.0057588806 0.0022004952 -9.295876e-05 0.010540256 -5.9906382e-05 -0.0035580895 -0.01808764
0.024529818 0.0020515523 6.998395e-05 -0.0005342817 0.002133808 4.734627e-07 -0.071049966 0.023745963
0.0030170393 -0.008887627 0.009438637 0.0018587682 0.009322118 0.0056228507 0.0070006596 -0.0002885003
0.002574186 -0.0003366656 -0.023319427 0.04338192 -0.0019209264 0.002040241 0.0080894595 0.002763587
-1.689585e-05 0.0014560646 -1.849311e-16 0.006751607 -2.1347094e-07 0.001135697 0.014497943 0.007959696
-0.0061803367 0.0012850505 -0.002879739 -0.07478714 -5.808959e-20 -0.00080410205 0.037188284 0.004616842
-0.0064104777 0.0011043728 -1.8758085e-29 0.0151807545 0.031746387 -0.04793093 -5.7729108e-06 -0.05487586
-0.027965136 -0.076702334 -0.0018869918 0.0038903716 0.073633686 -0.013707403 0.004859283 -0.0018306603
-0.0074999295 -0.00020206363 -0.0053593777 -0.001737419 -5.8615387e-05 0.002486264 -0.0006915797 -0.0032534942
0.007836688 -1.0033566e-21 -0.004089079 -1.242585e-08 -0.0037511396 -0.005642123 0.0028653035 0.016277693

weight f4 [2, 256]
00000000: db2e 5cbe 8458 343e 2219 0a36 ec43 1fb1
00000010: c96d 813e 8353 f1bd 86ee c63c f159 9a3e
00000020: 5fd5 e83d 1179 bb3e a17b 1fba ebfd 01be
00000030: 40a4 9c3e b492 cb3e 1376 0bbe f045 46bd
00000040: af75 443e 8df2 fc3d 66c7 da3d ad48 aa3e
00000050: cf93 ed37 572d 2c30 f085 55b5 a1aa 5fbd
00000060: 701c 473d c711 8abd 9b91 b8be 48fa f32e
00000070: 9100 e53e 37cf 7f3e 33b0 41bf 4d4b b5bd
00000080: dbd9 5b3e 8950 153e dfe9 673e 8614 0bbe
00000090: acb3 d4ab 45c0 01be f41a 45be 8eb5 593e
000000a0: ed60 623e 63ff 9e3d 4d48 723d 2daf 6dbe
000000b0: 66b9 5712 17a3 8838 e143 efbc 37f0 7fbe
000000c0: d497 1a2a c40b 10be 3dec e33e ef7c 873e
000000d0: 0c14 72a8 30ba d83d 8cc8 67b1 741b 5bbe
000000e0: f931 583e eaf0 0b2a 628a c93e 05e3 b13e
000000f0: 29bd 2aaa 5760 ff3d b4ca c53e bb81 3abe
00000100: 670f 3cbb 65ed a5b8 f212 9dbe 19f9 30b6
00000110: 6601 fcb9 cbc8 69be e90c 2d3a 5fac 153e
00000120: 9d27 68aa 7b8d 38bd f290 bbbe 3248 ebbd
00000130: 9470 3cbc 1391 6f3e b5d1 0d3d 95ac aabe
00000140: 797b 85be 5fa1 b6b2 1c60 223e c1a1 a5be
00000150: 5a0b 7b3e 2007 e5bc 444c da3d 1c12 dc3d
00000160: 3e00 b338 0051 33be 5a0d 9e9d 370c 4b3e
00000170: 1c10 153e 2c21 e0bd bb5f 453e 83ee 76bd
00000180: 6915 7e3e 112f 95b7 ac07 33be 298e 4abd
00000190: 4964 c8ba 5336 b1be 34be 0629 0313 1bbe
000001a0: fc2c bb3e 947a b83d 71ec cb3b 9201 383e
000001b0: 0c79 8cbd 76b4 02b4 4c11 e4bd 1f13 4539
000001c0: 6036 34be 4ac2 8dbe c8b2 e7bb e274 f23c
000001d0: 31ef 6434 27cc 593e e4e4 843e 2951 b0bd
000001e0: ad1f 35be 2993 38be 0110 f62b d94b 02bf
000001f0: 11cb f5bd 6459 51be 28e3 302c 4b6d 443e
00000200: c55e 6dbe 5884 98b3 1b08 69be 1392 b4bc
00000210: fbf6 d12e 8fc0 053d f0ff bb32 f8be c7bd
00000220: ed2e 4cbe 10d3 8b3e ceff 59be 0b6b 993d
00000230: 9f49 0639 ac10 473e 3d40 ccb5 9505 933e
00000240: 1626 b0ad ab3d 5a33 dea1 3638 7a7a 25bd
00000250: ad09 dd3a be69 1cbe 1f89 513e f87c 36bc
00000260: 758f 3b3f 3bb2 d5bd 80c7 49be 8d42 0cbd
00000270: b089 5b3e 0f8b 4dbe 9305 202d ae93 a6bc
00000280: 76f5 97be 5470 463e eb4f f8bc 99c8 683e
00000290: a6eb 883d 0bd0 3133 2fb5 8abe 821e 233e
000002a0: a0c5 5f2b 7d06 04be 4bc9 563e 5aaf 543e
000002b0: ff7d 03bc 5480 85be 0020 803e c8ce f6bc
000002c0: 175a 803e 4d06 923d 2258 4f3e 37ae 0b3a
000002d0: 514f e13d 7500 dfbd 5c59 83be 944a 7a3e
000002e0: 3b39 7a3e 4b5f 1dbc e357 22be 8ca5 0539
000002f0: f230 853e 61ac 2332 f90f d9be 207e 87be
00000300: c37d 1e3e a685 80bd 85b5 793c 77bd 7e3e
00000310: 88ce 58bd 396e 253c 31d3 2fbe 2fb6 63be
00000320: bd6b 39bc 5ca4 0138 3cce 9e3e 3d81 883e
00000330: 9b2a 3bbe 6eae 433e bbd0 593e 95c2 4a3e
00000340: 03c9 2db8 d42a 8b3d 941f 2825 3f9f 70bc
00000350: 5fad ed33 4cc8 0a3e 6dab a63e a524 e03d
00000360: d88b f93b dd46 17be 2ca7 4d3e 6e7a b5bd
00000370: 8c5b a61f 6fc4 e9bd ee07 10be b5fd 5bbe
00000380: 6d4a 09be a8fc 5bbc bcb6 390d 6b3e edbd
00000390: be82 a83e 8e90 d33e c219 f3b6 f2e4 a93e
000003a0: 4be4 783e 043b f1be ffe8 4c3e 2747 153e
000003b0: a892 f6bd 0e0c 4bbe 68ad ea3d 27e4 29bd
000003c0: 0690 313e be50 2037 c362 67be 30ff 23be
000003d0: f407 6938 bf3b e03d cf5d 383c 6b00 8b3d
000003e0: ba9f 9f3e 7264 9e9a 5da1 a1bd 8047 b32f
000003f0: f4a6 9e3d 159b f03d 05f0 00be 7292 b4bd
-0.21502249 0.17611891 2.0578232e-06 -2.3176154e-09 0.25279072 -0.11783507 0.024283659 0.30146745
0.11368822 0.36615804 -0.0006083791 -0.12694518 0.30594063 0.39760363 -0.1361926 -0.04840654
0.19185518 0.123509504 0.106825635 0.33258572 2.832143e-05 6.263767e-10 -7.954359e-07 -0.054606084
0.048611104 -0.06741672 -0.36048588 1.10948195e-10 0.44726995 0.2498139 -0.75659484 -0.08852253
0.21469824 0.14581503 0.22647808 -0.13582048 -1.5113375e-12 -0.12671001 -0.19248563 0.21260664
0.22107287 0.07763555 0.059150983 -0.23211356 6.807056e-28 6.515363e-05 -0.029207172 -0.24993978
1.3730624e-13 -0.14066988 0.44516173 0.26462504 -1.34380456e-14 0.105823874 -3.3728922e-09 -0.21397191
0.21112813 1.2429264e-13 0.3936339 0.34743515 -1.5164661e-13 0.12469547 0.38631213 -0.18213551
-0.0028695704 -7.912031e-05 -0.30678517 -2.6371038e-06 -0.00048066227 -0.22830503 0.000660135 0.14616536
-2.0619483e-13 -0.0450568 -0.36634022 -0.114883795 -0.01150145 0.23395185 0.03462382 -0.33334795
-0.26070765 -2.1260972e-08 0.15856975 -0.3234997 0.24516049 -0.027957499 0.10659078 0.107456416
8.53543e-05 -0.17511368 -4.1836057e-21 0.19828878 0.14556926 -0.10943827 0.192748 -0.060286056
0.24812855 -1.7784101e-05 -0.17483395 -0.04945198 -0.0015288676 -0.3461176 2.9918952e-14 -0.15143971
0.36557758 0.09007755 0.0062232544 0.17969349 -0.06859025 -1.2172845e-07 -0.111361116 0.00018794507
-0.17598867 -0.27687293 -0.007070873 0.02959675 2.1321172e-07 0.21269284 0.2595588 -0.0860923
-0.17687865 -0.18024887 1.7483793e-12 -0.50896984 -0.120016225 -0.20444256 2.5137201e-12 0.19182317
-0.23180683 -7.102125e-08 -0.22756998 -0.02204231 9.548092e-11 0.03265434 2.1886052e-08 -0.09753221
-0.19939776 0.27309465 -0.21288988 0.0749112 0.00012806662 0.19439954 -1.521788e-06 0.28715196
-2.0025797e-11 5.0813167e-08 4.3542932e-05 -0.040400006 0.0016863846 -0.15274712 0.20462464 -0.011138193
0.73265773 -0.104343854 -0.1970501 -0.034243155 0.21439242 -0.20072578 9.096185e-12 -0.020334091
-0.2967946 0.19378787 -0.030311545 0.22732772 0.06685571 4.1400238e-08 -0.27091357 0.15929607
7.9499775e-13 -0.128931 0.20975225 0.20770016 -0.008025645 -0.2607447 0.25024414 -0.030127898
0.25068733 0.07130108 0.20248464 0.0005328389 0.110014565 -0.10888759 -0.25654113 0.24442512
0.24435894 -0.009605239 -0.15853839 0.0001274554 0.26013905 9.527043e-09 -0.42395 -0.26463413
0.15477662 -0.062754914 0.015241032 0.24876963 -0.05293134 0.01009708 -0.17170407 -0.22237466
-0.011317191 3.090907e-05 0.3101672 0.266611 -0.18277971 0.19109508 0.2127103 0.1980079
-4.143362e-05 0.06795278 1.4582376e-16 -0.014686405 1.10677085e-07 0.1355297 0.32552662 0.109444894
0.0076155476 -0.14773126 0.20083302 -0.08861242 7.0455186e-20 -0.1141442 -0.14065525 -0.214835
-0.13407297 -0.013426937 5.7227485e-31 -0.11584171 0.32912248 0.41321224 -7.244963e-06 0.33182484
0.24305837 -0.47115338 0.20010756 0.14577924 -0.12039691 -0.19828817 0.11458856 -0.04147735
0.17340097 9.555542e-06 -0.22596268 -0.16015315 5.5558936e-05 0.10948896 0.011252834 0.06787189
0.3117655 -6.5509547e-23 -0.07892106 3.2610714e-10 0.077466875 0.117483296 -0.1259156 -0.08816995

bias f4 [2]
00000000: b5e6 f13a 350a 85ba
0.0018455597 -0.0010150137
