checkpoints/swarm_1d/known/50pct-constraint/policy_final.pt (torch, 124031 bytes, 5 tensors)

weight f4 [64, 401]
00000000: dc79 47be 2175 303d 03d2 853c 35cb 303d
00000010: 6af3 65bb 3b54 363d 2b63 553d 1b1c 153d
00000020: 95a2 6e3c b293 99bb d057 2a3c fa21 ad3c
00000030: c52a 4f3d 52d0 643d 131e 8f3d 0df3 593d
00000040: 4b4d 09bc 20b7 123d 4d98 8a3d 7826 d23c
00000050: 9dd4 913d 4f63 6a3d a6de bd3d fdec 7e3d
00000060: e381 cb3d 7eb6 703d ee0b c73d 6a1f 743d
00000070: 29f8 733d 0605 c43d 452a 403c c6b7 c13a
00000080: 280b d63d ded0 b03b 6c47 b43d 5204 993d
00000090: 1e09 773d 6c33 db3d 42bf 823d 7347 f63d
000000a0: 4968 703d 83d2 8c3d 8055 673d 51e3 253d
000000b0: 6b60 aabc 0238 daba 229d 95bc 41f3 dd3b
000000c0: aec0 98bc 849b 3d3d 63fa 513d f978 8f3d
000000d0: 9fec 2cbc 671c 3ebc 3e3f d13d eb7d ef3d
000000e0: e39b 763d 5d68 0c3d 9247 c83c 94f6 513d
000000f0: dadc bf3d 7a54 073e 3346 bfbc c311 573a
00000100: c862 993d 77ea 153e 433a 6b3d 11a5 4e3d
00000110: 7acc 4d3d fb6e 543c 3e43 ca3c 0ff7 0c3e
00000120: 10a7 ea3d 6972 c43d 7c6b 333d f744 503d
00000130: e757 c33d ddfb 553d da8e 853d 01e8 af3d
00000140: babb 073e 119b 573d 95c4 7abd 845e e9bc
00000150: b42b 8abd 3334 063e 8d58 d0bc c61c fdbc
00000160: 360f 973c 2885 063d 66d2 163e 0085 6f3d
00000170: 2e1a 063d 9eeb 6b3d f140 21bd c543 74bd
00000180: cdfc 09bd df88 c8bb c3d5 62bd 6d6d 5d3c
00000190: 9082 1a3e bcd2 1d3e 73fc 4cbd 5da6 d63d
000001a0: ae65 103e 9aff 07bd 928b 063d a07e 873d
000001b0: 19f3 c93d f4c4 783d 8ab0 12bd a307 1d3e
000001c0: ccf9 153e 2d01 533d 93e3 133d 39c9 d63d
000001d0: 40ac 0f3e faa1 ff3c 8210 683c ad0c 9a3d
000001e0: 7b01 653d e518 d93c 483b 803d ec79 0c3e
000001f0: 71cf 1c3e 843d 783d 5368 46bd c1c4 d63d
00000200: 2327 25bd 1664 35bd b12d 553d 6fad 6a3d
00000210: 7187 6e3d 25a1 073d f845 8f3c 00c7 d5bc
00000220: 2055 313b 7438 333d 1a1a b2bc 760c 2b3d
00000230: 0809 2c3d f911 643d b4a9 0ebd 408b e33c
00000240: f91e 33bd f128 1c3d 52c9 5bbd c240 7cbc
00000250: 8987 3c3d 0145 173d 94ae 90bc 94b5 893c
00000260: 5d3c 083d d93d 4c3d 2417 1fbc 1948 123d
00000270: 0eea 86bc 19a1 5bbb e496 223c 77ed 133d
00000280: 7f7d 4a3c 8bcc fabc 2030 433d 4166 153d
00000290: b651 8b3d 8d2f a13d ce28 4abd 7bc2 00bc
000002a0: 2eca b63d bdf8 bb3d 80a0 2f3c 723d a23b
000002b0: 2ec0 653d 4ddd 983d 12d6 263d 483c c43d
000002c0: c94d c8bc bc1d c03d f16a 103d 3907 4ebd
000002d0: 11a8 a63d 6326 7c3d 7de2 abbb 9ac8 f03d
000002e0: 53bf 503d 30ea 3a3d 73e5 16bd 1bfe 8b3c
000002f0: 2ec5 c63d 58cf 2dbd 2b10 a53d ad31 d43d
00000300: f421 23bd e355 8b3d 11ef e3bb 32b1 503d
00000310: 8883 803c a7e3 583d 526b b43d 8771 c83c
00000320: 4cb2 31ba c40f 01bd 8783 133d 4407 e53d
00000330: cd21 a73d c7d7 423d 40b1 9d3b fddd 9c3d
00000340: 3273 833c 18a8 c63d e902 ed3d 2f7e e03d
00000350: f3d5 dd3d 1f09 733d 4452 e03d 49b4 803b
00000360: f827 ee3c ac4d b53d b81a 793d eb05 313d
00000370: b2b2 d93d 7b80 7f3d 8530 e03a 322c 1b3d
00000380: e664 a53d 9a2b e63d 2df9 f03d 6028 bc3d
00000390: a8a3 053e f83e c83d 5978 013d e65d 063e
000003a0: 6487 633d aaec c7bc abe1 533c 5e8e 853d
000003b0: 8a4c 5f3d 6205 043d fd19 a53c b6ad 703d
000003c0: ef74 feb9 4f33 bc3d a6d9 903d d40a 84bc
000003d0: 5375 acbb f343 923d 9144 e13c 7d2a d13d
000003e0: dc0d a93d ef4a de3d b427 96bc c3ec b03d
000003f0: edb2 043e b124 8fbc af75 663c 185b b23d
-0.1948008 0.043080453 0.016335493 0.043162543 -0.0035087713 0.044513922 0.052096527 0.036403757
0.01456513 -0.004686796 0.010396913 0.021134365 0.050577898 0.055862732 0.06988158 0.053210307
-0.0083802445 0.035819173 0.0676733 0.025653109 0.07120631 0.057223614 0.092709824 0.06223773
0.09936883 0.058767788 0.09719072 0.05960027 0.059562836 0.09571271 0.011728828 0.00147795
0.10451347 0.0053959927 0.08802685 0.07471527 0.06031143 0.10703167 0.06384136 0.120253466
0.058693204 0.068760894 0.056478024 0.04049999 -0.020797929 -0.0016648772 -0.018263403 0.006773383
-0.018646564 0.04629089 0.051264178 0.070054956 -0.010554462 -0.011603451 0.102171406 0.11693939
0.06020726 0.034279216 0.02444819 0.051260546 0.09368296 0.13215819 -0.023348903 0.0008204246
0.07489544 0.14640222 0.05742861 0.05045039 0.050243832 0.012965913 0.024690267 0.1376612
0.11457646 0.095921345 0.043803677 0.05084702 0.095382504 0.05224215 0.065213874 0.08589173
0.13255206 0.052638117 -0.06122263 -0.028487451 -0.06746617 0.1310585 -0.02543285 -0.03089751
0.01843987 0.03284183 0.14728698 0.058476448 0.03273981 0.05759775 -0.039368574 -0.059634943
-0.033688355 -0.006119832 -0.05537964 0.013514859 0.15088868 0.1541242 -0.05004544 0.1048095
0.14101288 -0.033202745 0.03284795 0.06615949 0.0986082 0.060734704 -0.035812892 0.15334944
0.14646071 0.051514793 0.036105704 0.10487599 0.14030552 0.031205166 0.014164092 0.07521949
0.055909615 0.026501128 0.06261307 0.13718385 0.15313508 0.06060554 -0.048439335 0.104867466
-0.040320527 -0.044284903 0.052045528 0.057294305 0.058234636 0.033112664 0.017489418 -0.026095867
0.0027058795 0.04375501 -0.021740962 0.04175993 0.0420008 0.055681203 -0.03482981 0.02777636
-0.04373071 0.038124982 -0.05365879 -0.015396299 0.046027694 0.03693104 -0.01766137 0.016810216
0.033260692 0.04986367 -0.009710107 0.03571329 -0.016469028 -0.003351277 0.00992367 0.036115136
0.012359022 -0.030615112 0.047653317 0.03647447 0.068026945 0.07870398 -0.04935532 -0.007858868
0.089252815 0.091783024 0.0107194185 0.0049511725 0.05609148 0.07464085 0.040731497 0.0958181
-0.024451153 0.093806714 0.035258237 -0.050299857 0.08137525 0.061560046 -0.0052455054 0.11757012
0.05096371 0.045633495 -0.036839914 0.01708894 0.09705578 -0.042434067 0.080597244 0.103610374
-0.039827302 0.06803491 -0.006955989 0.050950237 0.015687719 0.05295148 0.08809532 0.024468197
-0.00067785825 -0.031509176 0.036014106 0.111830264 0.08160744 0.047569063 0.0048123896 0.076595284
0.01604614 0.0970003 0.11572821 0.109615676 0.10831823 0.05933487 0.10953191 0.0039277417
0.029071793 0.08852705 0.060816497 0.043218534 0.106297866 0.062378388 0.0017104304 0.037883945
0.080758855 0.11238785 0.117662765 0.091873884 0.13050711 0.09777635 0.031608913 0.13121757
0.05554904 -0.024404842 0.012932221 0.06521295 0.054516353 0.032231696 0.020153994 0.058759414
-0.00048533778 0.09189474 0.07072763 -0.016118445 -0.0052630096 0.071418665 0.027498515 0.10213182
0.082545966 0.10854136 -0.018329479 0.08638909 0.1295888 -0.01747355 0.014066144 0.08708781

bias f4 [64]
00000000: 5cec 923d 56e7 983d e45b ce3d 5645 d5bc
00000010: f123 36bd d03b 59bc 7d95 6cba 5b4e cabd
00000020: ed41 e7bb 598d 39bd e1f8 473d 515c 5bbd
00000030: 49bd 10bc ac94 bc3d 491f ae3d 6d4a 973d
00000040: 9c84 f3bb ef97 c93d 9745 78bb f071 0b3e
00000050: 4d29 28bc e76a 863d f732 07bc ba47 31bc
00000060: aefd 7b3c 361a b43b dcb8 27bc 5afd 933d
00000070: 3fce b83d 6052 8dbd 65fb be3d fef1 753d
00000080: 453a 923d dd68 2cbb 0217 4bbc 549d 283e
00000090: 6661 8b3d 610a 80bc dd7d 78bd 3401 3a3d
000000a0: dd72 c03d 5cf5 1bbc 6f30 15bb 57d7 933d
000000b0: fc2d c0b9 c87f 8ebb 3bc5 33bc cb64 dc3b
000000c0: 689a 503d 6a0f 593d 808c a7bb 3247 893d
000000d0: dae7 03bc 8e14 8d3c 6c8e 963d 30ac a8bb
000000e0: fa95 16bc f88f b53d 83d9 8a39 ca74 c8bb
000000f0: 50d9 543d 95cf 9bbb 6278 8f3d c4d2 ad3d
0.07173988 0.07465999 0.100761205 -0.026034039 -0.04446787 -0.013258889 -0.0009024961 -0.09878226
-0.0070574195 -0.045300815 0.048821334 -0.053554837 -0.008834192 0.092080444 0.08502061 0.073872425
-0.0074315798 0.09843432 -0.0037883276 0.13617682 -0.010263753 0.06563359 -0.008251897 -0.010820324
0.015380306 0.0054962886 -0.010236945 0.07226057 0.09023713 -0.069004774 0.093252935 0.060045235
0.0714002 -0.002630762 -0.012395622 0.16466266 0.06805687 -0.015629949 -0.060666908 0.045411304
0.093969084 -0.009518947 -0.0022764464 0.07218807 -0.00036655355 -0.004348729 -0.010972316 0.0067258826
0.050928503 0.052993216 -0.0051131845 0.067030326 -0.008050883 0.017221715 0.073513836 -0.0051474795
-0.009191031 0.088653505 0.0002648347 -0.006117438 0.051965058 -0.0047549703 0.07005383 0.08487466

weight f4 [64, 64]
00000000: 91f3 4cbe ebb3 42be 7903 31be 19df 823d
00000010: afef 163c efe7 1c3e 5c40 afbd 85df 79bc
00000020: 0e2b 1a3d c248 a33d 78ab 5cbd 6c80 80bb
00000030: 0e71 503e 0ccb 9e3e 5b39 50be e89c 37be
00000040: ff00 19bd a224 ae3d aa8b a9bc 680f 7cbe
00000050: 15cf cebd 780d ee3d 9121 ef3d b1b5 87bd
00000060: b756 cdbd 565c f23d ba39 08be 8193 00be
00000070: db17 633e 755e 6abc 1b2e 4dbe 94f0 23bd
00000080: 0abc 033e 86a9 fd3d c664 293c 568c e73d
00000090: 4803 11be 37eb 023a d740 b9bb 7414 19be
000000a0: a4ea eebd ce3e a23c 1f64 5e3e 41ff 283e
000000b0: 719e 583e 14eb 0abe 33b6 623e 9968 44bd
000000c0: df37 043e 9b7b 27be ce6d 17bc 253d 5e3d
000000d0: 36fd 873e 82c0 783e 1e03 6f3e 51d4 e4bd
000000e0: 257f 8cbd 498b 2a3d cb72 1cb9 227c 08be
000000f0: 5529 903e 352e 503d 07b6 953d 8670 90be
00000100: 1769 a7bb 500c 19bd 6640 963d 4be8 64bc
00000110: f176 053d 1209 40bc 5082 3939 e822 d93a
00000120: 12f8 88bd 3f5f e43b 33db 99bb adc4 af37
00000130: 0e83 d63d 0150 abbc 1b43 ffbd 6018 053e
00000140: d6b1 093d f62f 28bd fadc 603b e2d2 48bb
00000150: 2985 b43c 1eb2 ba3c c414 abbc bde6 893a
00000160: 46a2 0fbe 7b83 8d3b 2e2e 8b3a d049 25bb
00000170: 4296 09bd 6fb4 8b3d 1d44 82bd ed1d bdbc
00000180: a683 b3bd cabe d53c 1f92 fc3c 1444 b83d
00000190: 94d3 2cbc d58c e63b 376b 06bc 9dfb 26bb
000001a0: 9ac4 cbbb d40b e53d a5ca ea3c 0475 c5bd
000001b0: df42 6939 919b 923c 5a6a f5bd 8297 07be
000001c0: 2784 b1b9 6d3d ff3c d5be d8b6 509b 213e
000001d0: bb77 bbbd 3436 4d3b 9517 d3bd cf26 55bd
000001e0: 6c54 f83d 0853 bd3c 1f63 9239 0f95 753d
000001f0: 3cc2 bc3b 029a 01be ad18 fa3d fb18 de3c
00000200: 7568 6cba 07dd 863d 33e8 28bc 0eee e23c
00000210: d6ff ca3d ce84 e5bd dc6c fabc 80cd aa3d
00000220: 9aad 7d39 b6b3 fdbc cc1e 89ba fe06 4cba
00000230: ca3c 9a3b 1be2 533c ae9e f1b9 d5d2 a739
00000240: bee1 d9bd 3b0d 0a3c 748d 043a 3437 b9bc
00000250: bc58 d034 03e8 01bc 2fa6 ff38 d68b a5bc
00000260: ba88 db3b 360a 65bd 89d3 d3bb fd70 acbd
00000270: 16fc f03d d68c bd3d 8d20 e0bd f2d0 ab3c
00000280: 5843 a63d e438 e6bd e577 4ab9 2c63 a139
00000290: bca0 8e3d 9119 d2bd 6871 003e 0650 2fbd
000002a0: 8c7d d8bd a56e 653d a222 293c 39f8 0e3c
000002b0: 240f 2039 5714 9ebd 88f6 68bd 5ebc 24bc
000002c0: be1a 7cbd 17f7 00bd 0054 d53b 9bd9 b4bd
000002d0: 4833 fb3a 2ec1 57bd c402 a43a 9a02 713d
000002e0: 6cb9 98ba 8b95 0cba da0e b73d 5455 09be
000002f0: 5597 e63c 7f48 483c c0fb b43d 4c37 863d
00000300: efb6 b6be 4a3f 67be c10d 2bbe 76dd f0bc
00000310: 890a 7aba d385 293d 66f3 25be 9815 a3bc
00000320: 3f76 8c3e 32e8 6e3d 1de6 61be 3ac7 b1bc
00000330: b43e 773e a404 123e 4a23 bfbe 0daa 71be
00000340: 18dd ab3d 9ee6 9cbe 5450 99bd 31ed e5bd
00000350: a957 503c 26df 353d db2c 2b3e fdb8 733e
00000360: adaf f23d 0f14 cf3d e24f 9f3e 5afe 9a3e
00000370: c323 41bc d744 b93d d931 7b3d bfb7 133e
00000380: 94c5 e2bd 015d 29bd 587d 5f3d 1846 8b3e
00000390: c67b e3bd 3fd1 eabc 24be 92bc f0e4 ebbd
000003a0: cfaf 99be 616f 693e 59db 2e3e 1364 713c
000003b0: 5136 333e 05ba 5e3e f368 dabd 2f28 debd
000003c0: c9a9 a93e 36f1 023e 27db 07bd a2bd 873c
000003d0: 35e0 9e3e 94c9 a83e 1365 343e 43cd 253d
000003e0: 4667 443e 4a16 f5bd dcb7 57bb 31f6 0f3d
000003f0: 88ce 32be e6f6 07be 2b97 9fbd e72d 9c3d
-0.20014788 -0.19013946 -0.17286481 0.06390209 0.009212418 0.1532285 -0.085571975 -0.015251045
0.037638716 0.07972862 -0.053874463 -0.003921559 0.20355627 0.31014287 -0.2033438 -0.17930949
-0.037354466 0.08503081 -0.02069648 -0.24615252 -0.100980915 0.11623663 0.11676324 -0.06626452
-0.10026305 0.11834018 -0.13303271 -0.12556268 0.22177069 -0.014304747 -0.20037119 -0.040024355
0.128647 0.1238585 0.010338968 0.11306064 -0.14161408 0.0004994156 -0.0056534815 -0.14949208
-0.11665848 0.019805338 0.2171788 0.16503622 0.2115419 -0.13566238 0.22139816 -0.047951315
0.12911938 -0.16355745 -0.009242488 0.05425753 0.26560372 0.24292186 0.23341033 -0.11173309
-0.068601884 0.04163674 -0.00014920083 -0.13328603 0.28156534 0.050825316 0.073101096 -0.2821085
-0.005108963 -0.037365258 0.07336502 -0.013971399 0.032584134 -0.0117209125 0.0001769152 0.0016566189
-0.06687941 0.006969362 -0.00469532 2.095321e-05 0.104742154 -0.020912172 -0.12463971 0.1299758
0.033616863 -0.041061364 0.00343114 -0.0030643274 0.022036152 0.022790011 -0.020883925 0.0010521036
-0.14026746 0.004318652 0.0010618621 -0.0025220998 -0.033590563 0.06821524 -0.06360648 -0.023085559
-0.08765344 0.026091952 0.030831395 0.0899736 -0.010548491 0.0070358315 -0.008204273 -0.0025479563
-0.006218505 0.11183897 0.028661082 -0.096414596 0.00022245523 0.017896445 -0.119831756 -0.1324139
-0.00033858532 0.03115722 -6.4595174e-06 0.15781903 -0.09153696 0.0031312825 -0.10307232 -0.052038964
0.12125477 0.023110881 0.0002792114 0.059956606 0.005760459 -0.12656406 0.12211738 0.027111521
-0.0009018251 0.06585126 -0.010309267 0.027701404 0.09912078 -0.11206971 -0.030569486 0.08339977
0.00024192632 -0.030969482 -0.0010461449 -0.00077830243 0.0047069537 0.012932326 -0.00046085328 0.00032009804
-0.1063876 0.008426006 0.00050564785 -0.02260933 3.8807582e-07 -0.007928851 0.00012190302 -0.02020828
0.0066996487 -0.05591794 -0.006464426 -0.08419988 0.117668316 0.09255378 -0.109437086 0.020973656
0.081183136 -0.1124132 -0.00019308885 0.00030782202 0.069642514 -0.10258783 0.12543261 -0.042800926
-0.10570821 0.056013722 0.0103231985 0.008726173 0.0001526443 -0.07718723 -0.056875736 -0.010054676
-0.06154894 -0.031485643 0.0065102577 -0.088305674 0.0019165063 -0.052674465 0.0012513031 0.05884037
-0.001165194 -0.000536286 0.089383796 -0.13411456 0.028148333 0.012224316 0.0883708 0.06553516
-0.35686442 -0.22582737 -0.16704465 -0.029402476 -0.0009538313 0.04138739 -0.1620613 -0.019907758
0.27433965 0.058326907 -0.22060438 -0.021701444 0.24145013 0.14259583 -0.3733161 -0.23600025
0.0839178 -0.30644697 -0.074860245 -0.11226881 0.012716212 0.044402264 0.1671633 0.23801036
0.11849914 0.10111248 0.31115633 0.3027218 -0.011788311 0.09046333 0.061326835 0.14425562
-0.11072841 -0.04134846 0.054562896 0.27201915 -0.11107592 -0.02866423 -0.017912932 -0.11518276
-0.30016944 0.22796394 0.17075862 0.014733332 0.17501189 0.21750648 -0.10664549 -0.10847508
0.33137348 0.12787327 -0.033167984 0.016569916 0.3103043 0.32966292 0.17616682 0.040478956
0.1918002 -0.11967142 -0.0032915985 0.035146896 -0.17461598 -0.13277778 -0.07792505 0.07625943

bias f4 [64]
00000000: d188 c53c 0506 f5bb 56b7 08bc 41f0 ba3d
00000010: 89fb b83d 2801 9b3d 861f 8c3d 6641 21bd
00000020: d148 4bbd c69f e33b 45c2 003e 6169 303d
00000030: f2da 103d ce94 2d3c 423d 8b3d da68 a73d
00000040: d750 833d 064b b4bc 4b4b d7bc 952a b33d
00000050: 4be0 8f3d 2ad8 b23d 1db0 9c3d f37e a43d
00000060: 3c40 623d f35b b5bc bee0 073d 26bb 913d
00000070: b4bf bc3d e5d3 963d c131 bc3c 3cbe f43d
00000080: 6f2b e23d 0cc1 2b3d ea1b 963d 9c93 30bb
00000090: cc55 a13d 14c0 ad3d 443c b23d 56f7 3f3d
000000a0: 0c56 3b3d 8d0c 9fbc 9a1b 073d 2b5c 983d
000000b0: fad2 86bb 0441 503d a50c a1bb 3770 f93d
000000c0: c87e 653d 30f9 cb3d 6832 9ebc dda4 813d
000000d0: 2260 9e3d 6a43 db3b cc46 8b3d 8cc2 6dbd
000000e0: 9673 373d 1f89 823d 877a a5bc a5f4 a63d
000000f0: 1658 b43d ba49 233a 3e00 493d 61a3 5d3d
0.02411309 -0.007477524 -0.008344492 0.09127856 0.090323515 0.0756858 0.0684195 -0.03936901
-0.04962999 0.0069465367 0.12574108 0.043069247 0.035365053 0.01059456 0.067987934 0.08174296
0.06411903 -0.02200843 -0.02628102 0.08748356 0.07025202 0.08732636 0.076507784 0.08032026
0.05523704 -0.022138571 0.033173315 0.07115774 0.09216252 0.073646344 0.022972943 0.11950347
0.110434406 0.04193215 0.07329543 -0.002694345 0.078776926 0.084839016 0.08702901 0.046866737
0.045736358 -0.019415164 0.032985307 0.07439455 -0.004114506 0.050843254 -0.0049148374 0.121796064
0.05602911 0.09959638 -0.019311145 0.06330273 0.0773318 0.006691386 0.06800613 -0.058046862
0.044787966 0.0637381 -0.020200027 0.08152131 0.088058636 0.00062289427 0.049072497 0.05411089

weight f4 [1, 64]
00000000: 3edd dabe 04f5 b5bd 3db9 21bd 8ed9 c1be
00000010: d9f9 0dbf a1cb 82be 1957 b23e 8d65 eebe
00000020: 467e 86be 068a 04bf a039 293e f64c f5be
00000030: 411a c3be 9e6f 82be 1499 f8be 7dcc 923e
00000040: 54cb d73e b1dc a0be 9c90 8e3d d18e e93e
00000050: f8b8 d7be 7a95 e43e 9cd0 4abe 043a 163f
00000060: bb92 003f 53a8 443e b23f c2be 2d9a 04bf
00000070: 2b8f 0e3f 4579 b13e 81f9 273e 7a0a 553e
00000080: ed81 87be e4eb e13e 18e9 e2be 4b28 8dbc
00000090: 1cdf 873e 6146 963e d799 ff3e 332a e83e
000000a0: 050e bcbe f2ef 28be 8544 a73e b52c 873e
000000b0: 77be fc3b a4a3 ae3e 2ba9 a1be 8843 293e
000000c0: 49e2 583e bcfa 433e 7273 b8bd 55ee f83e
000000d0: c2f5 06bf accf fabe bed7 c73e 9491 0ebe
000000e0: 2ab7 2bbe d071 023f d388 33be 5966 f0be
000000f0: 1d87 a5be cd91 0abf c1fb cebe 8ea0 cdbe
-0.4274692 -0.08884624 -0.039483298 -0.37861294 -0.5545936 -0.25545982 0.34832075 -0.46561852
-0.26268214 -0.5177311 0.16525888 -0.4791028 -0.38105968 -0.25475782 -0.4855429 0.28671637
0.42147315 -0.31418374 0.06961176 0.45616773 -0.42133307 0.44645292 -0.1980614 0.58682275
0.5022389 0.19204836 -0.3793922 -0.51797754 0.55687207 0.34662834 0.16403772 0.20804778
-0.26466313 0.44125283 -0.4431846 -0.017231127 0.26537406 0.2935057 0.49922058 0.45344695
-0.36729446 -0.16497782 0.32669464 0.26401296 0.007713135 0.34109223 -0.31574377 0.16529667
0.21180071 0.19138616 -0.090063944 0.48619333 -0.52718747 -0.48986566 0.39031786 -0.13922721
-0.1676909 0.50954914 -0.17532663 -0.46953085 -0.32329646 -0.54128724 -0.40426448 -0.40161556
