checkpoints/swarm_1d/known/80pct-constraint/policy_final.pt (torch, 124031 bytes, 5 tensors)

weight f4 [64, 401]
-0.22254165 -0.15669444 -0.11151798 -0.13448334 -0.14711948 -0.11434189 -0.14367269 -0.10268697
-0.15272711 -0.1567213 -0.1497317 -0.09212337 -0.14876752 -0.13335508 -0.11729225 -0.1411368
-0.108845696 -0.12747066 -0.11827985 -0.12253228 -0.072535396 -0.1064923 -0.08319179 -0.09025269
-0.099101916 -0.044026274 -0.055965465 -0.09038329 -0.064475775 -0.071900755 -0.06737615 -0.023148688
-0.04914828 -0.031121492 -0.008290378 -0.012698898 0.038365886 -0.024380198 0.062892936 0.054500423
-0.017862374 0.082017176 0.024333758 -0.001570599 0.05373334 0.06896866 0.08542035 0.08494545
0.12050873 0.02141911 0.1259338 0.022754697 0.13689163 0.08705992 0.1369732 0.13665791
0.10877113 0.16459632 0.05858187 0.07267326 0.14145766 0.15754682 0.18055765 0.10374143
0.13671802 0.11209452 0.024939403 0.17429392 0.044987224 0.0699734 0.101583645 0.109449096
0.07677879 0.16381323 0.17386183 0.085178584 0.1317741 0.13463438 0.05238983 0.11819548
0.16019018 0.09537257 0.11357464 0.047881566 0.028078383 0.12582988 0.09017393 0.077574916
-0.011480102 -0.01239117 0.13910897 0.0827244 0.078493685 0.023892751 0.12403103 0.105875455
0.07244366 0.07100829 -0.020960366 0.045162536 0.12644376 0.14103565 0.05752396 0.03758957
-0.02841796 0.02249836 0.018433416 0.02490053 0.033839155 -0.0027470202 0.047805697 0.1015265
-0.024397086 0.12870741 0.07237357 0.13918917 0.08131473 0.068331234 0.02310897 0.090340056
0.046314187 0.09928557 0.06009048 0.16281939 0.054573666 0.12483379 0.15901534 0.07173858
0.026917616 0.10661255 0.025582287 0.110369496 0.12233495 0.12969814 0.08422335 0.05782661
0.031698387 0.06400142 0.12716858 0.07663706 0.075508155 0.06696502 0.073348306 0.071093
0.020440686 0.083719335 0.1280453 0.0701048 0.11119851 0.08602707 0.11622402 0.119520836
0.09243953 0.0887358 0.068577714 0.071588255 0.062293507 0.07649119 0.03627088 -0.0026566891
0.05989271 0.037539992 0.026692461 -0.010848304 0.05163617 0.04326572 0.009584845 -9.2724214e-05
-0.015211237 -0.016117778 -0.037190653 -0.023709817 -0.028004663 -0.021202922 0.010016409 -0.020933397
-0.01430565 -0.039710958 -0.0029587417 -0.02560668 0.0024352616 -0.036062494 -0.065784395 -0.037351564
-0.06363925 -0.07861906 -0.012340213 -0.007549301 -0.064251564 -0.066759214 -0.054597802 -0.0054915245
-0.035915874 -0.03181805 -0.05452369 -0.07730063 -0.046918537 -0.021099335 -0.024393262 -0.04983294
-0.04956063 -0.0065067615 -0.06471247 -0.05261849 -0.027709424 -0.08791426 -0.044104405 -0.07018546
-0.080152065 -0.044103894 -0.039127402 -0.08595377 -0.042534083 -0.034967095 -0.0016978763 -0.02705506
-0.06326539 -0.02012238 -0.0025738755 -0.026415236 -0.0421737 -0.030494664 -0.07313226 -0.07541317
-0.050447874 -0.0059604184 -0.076330476 -0.0062775966 -0.014291377 -0.059698325 -0.05426102 -0.058904424
-0.045153674 -0.047969643 -0.044627678 -0.043522865 -0.0074571865 -0.041388575 -0.016150463 -0.03478931
-0.0698403 -0.062471226 -0.02892236 -0.059524532 -0.0154419765 0.013021134 -0.0192862 -0.044075757
-0.07915621 -0.03396925 -0.06810812 -0.016098784 -0.04104973 -0.052096058 -0.066809975 -0.03570873
00000000: f5e1 63be 8274 20be 8a63 e4bd 00b6 09be
00000010: 7da6 16be 152c eabd ef1e 13be 8c4d d2bd
00000020: 7f64 1cbe 8c7b 20be 4453 19be 2dab bcbd
00000030: 8356 18be 3c8e 08be eb36 f0bd 2a86 10be
00000040: 7eea debd ab87 02be b53c f2bd 34f2 fabd
00000050: 708d 94bd a318 dabd 7560 aabd 67d6 b8bd
00000060: f2f5 cabd e554 34bd 0b3c 65bd e01a b9bd
00000070: e00b 84bd b440 93bd 82fc 89bd 51a2 bdbc
00000080: b54f 49bd 80f2 febc 5ed4 07bc 0a0f 50bc
00000090: 8c25 1d3d fbb8 c7bc 03ce 803d d63b 5f3d
000000a0: 1d54 92bc 9ff8 a73d 9757 c73c 8fdc cdba
000000b0: 7e17 5c3d 713f 8d3d ddf0 ae3d e1f7 ad3d
000000c0: 48cd f63d 2177 af3c caf4 003e 0f68 ba3c
000000d0: 522d 0c3e 794c b23d b442 0c3e 0df0 0b3e
000000e0: 66c3 de3d f08b 283e 8bf3 6f3d b8d5 943d
000000f0: 47da 103e f453 213e 1be4 383e 6376 d43d
00000100: cfff 0b3e d091 e53d b84d cc3c 1b7a 323e
00000110: 8644 383d 374e 8f3d 160b d03d d926 e03d
00000120: 333e 9d3d a8be 273e d608 323e 1c72 ae3d
00000130: caef 063e 98dd 093e b896 563d 7910 f23d
00000140: e508 243e b252 c33d d299 e83d 761f 443d
00000150: a304 e63c 8cd9 003e 1cad b83d 99df 9e3d
00000160: 0a17 3cbc 5504 4bbc 9572 0e3e 696b a93d
00000170: 4cc1 a03d bbba c33c fb03 fe3d 3bd5 d83d
00000180: 575d 943d cb6c 913d 13b5 abbc 5afc 383d
00000190: 797a 013e a66b 103e 3e9e 6b3d 85f7 193d
000001a0: c8cc e8bc 7b4e b83c ad01 973c 32fc cb3c
000001b0: ed9a 0a3d 5a07 34bb e8cf 433d 20ed cf3d
000001c0: 66dc c7bc e0cb 033e 9838 943d 9b87 0e3e
000001d0: 5688 a63d 3ff1 8b3d 064f bd3c 3504 b93d
000001e0: f2b3 3d3d 3c56 cb3d 6f21 763d 20ba 263e
000001f0: a388 5f3d dca8 ff3d ebd4 223e adeb 923d
00000200: 5582 dc3c ae57 da3d f291 d13c 6709 e23d
00000210: bf8a fa3d 97cf 043e 4b7d ac3d 98db 6c3d
00000220: 2bd6 013d 2d13 833d 7b38 023e e4f3 9c3d
00000230: 05a4 9a3d f524 893d a337 963d 3599 913d
00000240: 3a73 a73c 0b75 ab3d 4f1e 033e 1b93 8f3d
00000250: 0bbc e33d f62e b03d dc06 ee3d 57c7 f43d
00000260: f050 bd3d 1dbb b53d 7972 8c3d dd9c 923d
00000270: 7a27 7f3d 6aa7 9c3d c690 143d d91b 2ebb
00000280: 0f52 753d 89c3 193d 26aa da3c 16bd 31bc
00000290: 7380 533d 6537 313d c109 1d3c ef74 c2b8
000002a0: 8d38 79bc 6e09 84bc 3a55 18bd 173b c2bc
000002b0: 096a e5bc c0b1 adbc dd1b 243c 847c abbc
000002c0: 3f62 6abc f5a7 22bd 73e7 41bb 1ac5 d1bc
000002d0: e998 1f3b 44b6 13bd f8b9 86bd f4fd 18bd
000002e0: 4c55 82bd 0803 a1bd 9b2e 4abc 2060 f7bb
000002f0: 5396 83bd 0eb9 88bd f2a1 5fbd 3ff2 b3bb
00000300: 861c 13bd a553 02bd 3c54 5fbd cb4f 9ebd
00000310: a72d 40bd 83d8 acbc 61d4 c7bc a01d 4cbd
00000320: 1600 4bbd ac36 d5bb f987 84bd 7c86 57bd
00000330: e0fe e2bc 640c b4bd d2a6 34bd 65bd 8fbd
00000340: c426 a4bd 49a6 34bd 0e44 20bd 8808 b0bd
00000350: 3838 2ebd a839 0fbd 468b deba 93a2 ddbc
00000360: 4991 81bd b1d7 a4bc 77ae 28bb c464 d8bc
00000370: 54be 2cbd f2cf f9bc 5ec6 95bd 3872 9abd
00000380: 6ea2 4ebd 9d4f c3bb 2753 9cbd 4cb4 cdbb
00000390: 6126 6abc 3b86 74bd ce40 5ebd c445 71bd
000003a0: 0ff3 38bd d17b 44bd 83cb 36bd 0845 32bd
000003b0: 6a5b f4bb 1187 29bd fa4d 84bc 3c7f 0ebd
000003c0: 6e08 8fbd d4e1 7fbd 96ee ecbc ffcf 73bd
000003d0: 5800 7dbc 9856 553c 18fe 9dbc c888 34bd
000003e0: a71c a2bd 5723 0bbd 457c 8bbd 99e1 83bc
000003f0: c323 28bd ad62 55bd abd3 88bd 5143 12bd

bias f4 [64]
-0.0032587526 0.118677184 -0.03140208 -0.057957463 -0.10969344 0.028135255 0.10054729 0.17372213
-0.077358775 -0.10860303 -0.0915741 0.06518325 -0.12594269 0.05422438 0.1441029 -0.020173233
-0.09700831 0.072050564 0.13939159 0.075889274 0.008117617 -0.0420215 -0.006100058 0.07438654
0.09245953 0.06798253 -0.008687628 0.09814516 0.2476571 -0.07856132 0.014177408 -0.047528226
0.15007368 0.06043202 0.09239381 0.0982058 0.14561239 0.09202897 0.09274635 -0.016571065
0.09141021 0.05413335 0.18206578 -0.10175493 0.23297349 -0.025542004 -0.00010573484 0.07867141
-0.028619926 0.015472225 0.07833213 -0.06503098 0.1436756 0.0914616 0.070939586 0.049288083
-0.015075066 -0.11319637 0.080059096 -0.041388728 0.078967586 0.070498146 0.07404835 0.1038131
00000000: cc90 55bb 060d f33d 789f 00bd ce64 6dbd
00000010: f4a6 e0bd e87b e63c bdeb cd3d 37e4 313e
00000020: 476e 9ebd 446b debd 348b bbbd cc7e 853d
00000030: 1ff7 00be 621a 5e3d b68f 133e 5642 a5bc
00000040: 4bac c6bd 3f8f 933d abbc 0e3e d66b 9b3d
00000050: c1ff 043c bd1e 2cbd ffe2 c7bb f857 983d
00000060: 6c5b bd3d 6d3a 8b3d 8e56 0ebc 5400 c93d
00000070: d399 7d3e c2e4 a0bd 5c48 683c f5ac 42bd
00000080: eaac 193e 9187 773d f738 bd3d 1f20 c93d
00000090: 6a1b 153e af79 bc3d ccf1 bd3d 0bc0 87bc
000000a0: 4735 bb3d eeba 5d3d 746f 3a3e e464 d0bd
000000b0: 9a90 6e3e 773d d1bc f6bd ddb8 7a1e a13d
000000c0: 5674 eabc 377f 7d3c 996c a03d f62e 85bd
000000d0: b21f 133e 3850 bb3d c648 913d 4de2 493d
000000e0: 69fd 76bc 80d3 e7bd 06f6 a33d 3a87 29bd
000000f0: c2b9 a13d 5561 903d a9a6 973d f69b d43d

weight f4 [64, 64]
0.12010594 0.31939572 -0.07326599 0.057649758 0.020695241 0.066329464 0.25082445 0.2528833
-0.13115253 -0.023961617 -0.19998908 -0.37946564 -0.3685795 -0.34883827 0.075171776 0.2921353
-0.44837672 -0.05708343 0.06647773 -0.41717583 0.055154473 -0.057333916 0.31644955 -0.028183691
-0.27682438 -0.4219914 0.21953788 0.20491992 0.078173295 -0.20955949 0.21091859 -0.0009851739
0.13542463 -0.07484773 -0.19581087 -0.064828314 0.10307938 -0.092697814 0.37649417 0.29596385
-0.104284845 -0.46912014 0.36378276 -0.5346394 0.16216382 -0.074038506 -0.12953544 -0.03967389
0.32397065 0.0062527154 0.034251444 -0.0016988647 0.3032263 0.2751018 -0.09053445 -0.20899794
0.006484051 -0.17286563 0.038265646 -0.11515212 -0.29480943 -0.4244062 -0.34167367 -0.1655163
-0.019024534 0.22247641 -0.38217375 0.2620557 0.33117443 0.029788397 -0.22109438 0.14523947
0.21648704 0.12301819 0.049049698 0.31890044 -0.0693298 0.30754727 0.19839013 -0.373656
0.32676253 0.052334722 0.13560212 0.34337637 -0.14135583 -0.12056152 -0.19722825 0.11546542
0.24011838 0.15796438 -0.17276974 0.30096683 0.16907062 0.06727842 -0.14883956 9.701134e-05
0.24493764 0.42565614 -0.22700846 -0.10554455 0.25818023 0.30046055 -0.11442224 -0.070322484
0.036762062 0.14941767 0.08999486 -0.005869405 0.1902299 0.055360645 -0.15206705 -0.045840356
-0.11964957 -0.12599242 0.24769163 -0.024193557 0.110773414 -0.32121125 0.42831683 -0.3477758
-0.005373411 -0.010029937 0.1509698 -0.28924933 0.36400345 0.036686275 0.4084611 0.25856018
-0.30627048 0.00716025 0.007812744 0.10717505 -0.06688456 0.139832 -0.21934767 0.28114462
0.3135817 -0.12316833 -0.089844406 0.3982295 0.010397758 0.24883747 0.20427766 -0.41257885
0.106138624 0.37065816 -0.1938588 0.21884245 -0.16971084 -0.14340931 -0.22748135 0.17230165
0.075208485 0.30718744 -0.24581318 0.31934988 0.31243256 0.07910499 -0.14110032 -0.0010855942
0.11628442 -0.0872446 -0.01546042 -0.2708651 0.14839077 -0.04093805 -0.023489496 -0.09947002
-0.053629357 0.037678983 0.25719616 0.08346896 0.3358211 -0.2905953 -0.40777946 0.31655475
-0.31003574 -0.12529302 0.3705214 -0.0020498773 -0.05057022 0.082640596 -0.008564136 -0.06789881
-0.00036792844 -0.0041622403 0.35489324 -0.3717043 0.33268598 -0.028981702 -0.04622326 0.41565776
-0.23341884 0.24657777 0.12273425 0.18287039 0.034459468 0.36419877 0.2654489 -0.20764571
0.31738627 0.39554673 0.042257875 0.42376578 0.36903194 0.44702947 0.23040612 -0.20994025
0.46030512 0.34550932 -0.39081454 0.28557965 -0.18926312 0.1381057 0.20793404 -0.16014662
0.0033028887 0.4477286 -0.35565338 0.046611343 -0.34820822 0.5229404 -0.24309427 0.029459625
0.18270859 0.33226115 0.01389871 -0.19614391 0.02732903 0.29272625 0.06508482 -0.29590306
-0.13525932 0.34405634 -0.15203674 0.5233959 -0.053119577 -0.26921734 0.0065464927 0.068680115
0.0018382163 -0.2108348 0.3899099 -0.005887953 0.1377727 0.11204009 -0.052398697 -0.12556557
0.00870089 0.22997896 0.42720148 0.10982674 0.28721854 -0.09552478 0.28266656 0.27758625
00000000: 1afa f53d d687 a33e 7b0c 96bd 2722 6c3d
00000010: 1189 a93c bed7 873d 106c 803e eb79 813e
00000020: d94c 06be 274b c4bc f0c9 4cbe 5249 c2be
00000030: 74b6 bcbe ee9a b2be a9f3 993d c292 953e
00000040: a291 e5be 51d0 69bd 7a25 883d 1298 d5be
00000050: a8e9 613d f8d6 6abd ad05 a23e 7ce1 e6bc
00000060: edbb 8dbe 420f d8be 8ace 603e 87d6 513e
00000070: 5219 a03d c396 56be 0bfb 573e f320 81ba
00000080: c1ac 0a3e c449 99bd a582 48be b5c4 84bd
00000090: 481b d33d 5ad8 bdbd d8c3 c03e 9388 973e
000000a0: 4b93 d5bd 8430 f0be bc41 ba3e 21de 08bf
000000b0: 460e 263e 80a1 97bd f0a4 04be 1781 22bd
000000c0: 7bdf a53e 94e3 cc3b 3e4b 0c3d 71ac deba
000000d0: 7a40 9b3e 25da 8c3e 206a b9bd 8e03 56be
000000e0: 2978 d43b b003 31be 70bc 1c3d e0d4 ebbd
000000f0: 43f1 96be c54b d9be daef aebe 1b7d 29be
00000100: 57d9 9bbc dbd0 633e 47ac c3be 2a2c 863e
00000110: b28f a93e cc06 f43c 9166 62be a8b9 143e
00000120: c7ae 5d3e f6f0 fb3d 56e8 483d eb46 a33e
00000130: c8fc 8dbd d676 9d3e c826 4b3e d74f bfbe
00000140: 6b4d a73e ef5c 563d 48db 0a3e 07cf af3e
00000150: 95bf 10be f5e8 f6bd 34f6 49be 2279 ec3d
00000160: 98e1 753e 6ac1 213e 8dea 30be 5318 9a3e
00000170: d920 2d3e 45c9 893d 6669 18be 9172 cb38
00000180: efd0 7a3e 9aef d93e e874 68be be27 d8bd
00000190: 3330 843e f7d5 993e 3556 eabd 3c05 90bd
000001a0: d193 163d f200 193e 3a4f b83d 2354 c0bb
000001b0: a0cb 423e d8c1 623d 77b7 1bbe 19c3 3bbd
000001c0: d50a f5bd 2804 01be e0a2 7d3e 9131 c6bc
000001d0: 2cdd e23d cd75 a4be 584c db3e ab0f b2be
000001e0: 7013 b0bb 9b54 24bc d497 1a3e 7d18 94be
000001f0: a95e ba3e 5944 163d d021 d13e 0062 843e
00000200: 7ccf 9cbe 88a0 ea3b 0601 003c 987e db3d
00000210: c6fa 88bd 1f30 0f3e ad9c 60be 30f2 8f3e
00000220: c88d a03e ad3f fcbd 5800 b8bd bde4 cb3e
00000230: 5c5b 2a3c 40cf 7e3e 2a2e 513e 893d d3be
00000240: 355f d93d e8c6 bd3e ec82 46be 3c18 603e
00000250: aec8 2dbe e4d9 12be dff0 68be d86f 303e
00000260: e806 9a3d ac47 9d3e 73b6 7bbe d481 a33e
00000270: 29f7 9f3e cc01 a23d 9a7c 10be 7f4a 8eba
00000280: 8726 ee3d 4cad b2bd b44d 7dbc d5ae 8abe
00000290: c0f3 173e a8ae 27bd 0b6d c0bc f0b6 cbbd
000002a0: 75aa 5bbd 4755 1a3d 37af 833e c6f1 aa3d
000002b0: bef0 ab3e e8c8 94be 78c8 d0be 7713 a23e
000002c0: 01bd 9ebe d04c 00be fbb4 bd3e 3c57 06bb
000002d0: b822 4fbd 793f a93d 9750 0cbc 880e 8bbd
000002e0: 85e6 c0b9 6763 88bb 91b4 b53e 0750 bebe
000002f0: d155 aa3e 096b edbc 9a54 3dbd 18d1 d43e
00000300: 5905 6fbe e27e 7c3e 185c fb3d 6042 3b3e
00000310: 5f25 0d3d 4378 ba3e ebe8 873e 14a1 54be
00000320: 7480 a23e 1a85 ca3e 9816 2d3d d4f7 d83e
00000330: c1f1 bc3e 0ce1 e43e 95ef 6b3e 94fa 56be
00000340: 1dad eb3e 99e6 b03e d818 c8be 7f37 923e
00000350: 31ce 41be 956b 0d3e a9ec 543e 7afd 23be
00000360: 4775 583b af3c e53e 3318 b6be 89eb 3e3d
00000370: 5948 b2be 6cdf 053f b4ed 78be 5055 f13c
00000380: f617 3b3e 221e aa3e 6ab7 633c f3d9 48be
00000390: 21e1 df3c 37e0 953e 314b 853d 9b80 97be
000003a0: 6b81 0abe 2728 b03e 85af 1bbe 46fd 053f
000003b0: ea93 59bd dbd6 89be f683 d63b 29a8 8c3d
000003c0: 4ef0 f03a 14e5 57be 45a2 c73e bbef c0bb
000003d0: 4914 0d3e 4675 e53d 04a0 56bd 4394 00be
000003e0: 2d8e 0e3c 9b7f 6b3e 27ba da3e d8ec e03d
000003f0: 4f0e 933e 7fa2 c3bd acb9 903e c91f 8e3e

bias f4 [64]
0.097472645 0.046723627 0.04602211 -0.04783225 0.056857232 -0.052072726 0.046443444 -0.039239172
0.0964094 -0.042297386 0.025727842 0.024733912 0.061745886 -0.030307159 -0.048728283 -0.041042924
-0.011597675 0.07973832 0.050227474 -0.031053942 -0.023646234 -0.038331617 -0.030580202 0.1476266
0.043244723 0.07744944 0.06122786 0.04359283 0.11424056 0.08500584 0.08545511 -0.0348845
-0.029712688 0.0017008617 0.0931096 0.091592945 0.0021919836 0.085993424 0.0689663 0.0754667
-0.023089748 0.11762258 0.050344028 0.08908386 0.07390772 -0.0055914302 0.038493868 0.033351615
0.12830281 -0.00090543204 0.08462824 0.07189388 0.07454035 0.03637215 0.08127282 0.016210983
0.092969306 0.08191875 0.10471281 0.06577363 0.028461382 0.04858086 -0.051998276 0.00809331
00000000: bd9f c73d 4661 3f3d ae81 3c3d c0eb 43bd
00000010: 21e3 683d 364a 55bd 7b3b 3e3d 41b9 20bd
00000020: 4b72 c53d 0640 2dbd 32c3 d23c c69e ca3c
00000030: 41e9 7c3d b846 f8bc 4f97 47bd a01c 28bd
00000040: 2d04 3ebc d84d a33d 53bb 4d3d d664 febc
00000050: bfb5 c1bc 9d01 1dbd 5583 fabc 6d2b 173e
00000060: 6121 313d d09d 9e3d 11ca 7a3d 658e 323d
00000070: f4f6 e93d 8b17 ae3d 1703 af3d 0de3 0ebd
00000080: 0668 f3bc 73ef de3a 3fb0 be3d 1595 bb3d
00000090: 62a7 0f3b 521d b03d 343e 8d3d 498e 9a3d
000000a0: b626 bdbc 1be4 f03d 8a35 4e3d 9971 b63d
000000b0: ee5c 973d 5138 b7bb bfab 1d3d b49b 083d
000000c0: d061 033e 845a 6dba 9251 ad3d 193d 933d
000000d0: 9ca8 983d f7fa 143d 5d72 a63d e5cc 843c
000000e0: b166 be3d 05c5 a73d ab73 d63d 53b4 863d
000000f0: d827 e93c b9fc 463d 25fc 54bd cd99 043c

weight f4 [1, 64]
-0.29229915 0.3103445 0.4473209 0.6002862 0.49821055 0.30339387 -0.18473575 0.5464454
-0.48772717 0.57683045 0.29935527 -0.0329126 0.36050612 -0.3323625 0.33502746 -0.36654532
0.042354565 -0.57938087 0.5672732 0.36106208 0.5588819 0.45001268 -0.4156431 -0.5067915
0.605496 -0.43216395 -0.58291996 0.29010466 -0.23226936 0.29473072 0.36374703 0.4451455
-0.4687462 -0.007657988 -0.5151417 0.324143 0.37353155 0.55435985 0.40015414 -0.54962426
0.5590998 -0.4518407 0.5095178 -0.34700698 0.55471486 0.45175594 0.5257102 0.3058274
-0.5494265 -0.034732815 -0.6166507 -0.5106226 0.4930442 0.50486755 -0.3994244 -0.15819435
-0.2871444 -0.4847625 -0.614723 -0.5986707 0.6013276 0.60882354 0.5073871 0.4837393
00000000: 3ca8 95be 79e5 9e3e 3f07 e53e 5bac 193f
00000010: 7415 ff3e 7156 9b3e 5e2b 3dbe d9e3 0b3f
00000020: 60b7 f9be 29ab 133f 1845 993e 5dcf 06bd
00000030: 4294 b83e 6b2b aabe b888 ab3e d4ab bbbe
00000040: fb7b 2d3d 4e52 14bf d138 113f 21dd b83e
00000050: e212 0f3f 1068 e63e 2ccf d4be 16bd 01bf
00000060: c901 1b3f 9844 ddbe 3e3a 15bf 9988 943e
00000070: 05d8 6dbe f2e6 963e 0d3d ba3e 1cea e33e
00000080: 80ff efbe dcef fabb 54e0 03bf 12f6 a53e
00000090: 873f bf3e 87ea 0d3f 01e1 cc3e 2db4 0cbf
000000a0: 2a21 0f3f aa57 e7be c26f 023f e6aa b1be
000000b0: cb01 0e3f 8e4c e73e f294 063f 6995 9c3e
000000c0: 37a7 0cbf ff43 0ebd d2dc 1dbf 2ab8 02bf
000000d0: 4a70 fc3e 003f 013f 5b81 ccbe b3fd 21be
000000e0: 9704 93be ca32 f8be 7d5e 1dbf 7c42 19bf
000000f0: 9bf0 193f dcdb 1b3f 1fe4 013f adac f73e
