checkpoints/swarm_1d/unknown/60pct-constraint/policy_final.pt (torch, 124255 bytes, 6 tensors)

weight f4 [64, 401]
-0.045623634 3.2895737e-06 3.1520678e-06 4.5532697e-06 3.4693958e-06 4.6831947e-06 2.7957574e-06 2.3575967e-06
4.1002827e-06 4.2404426e-06 4.5658603e-06 3.9869155e-06 5.126209e-06 5.346223e-06 4.7830713e-06 6.1465635e-06
6.3025855e-06 6.853369e-06 5.046641e-06 7.563096e-06 7.59936e-06 8.208713e-06 8.308802e-06 9.059346e-06
9.428277e-06 7.7640725e-06 8.888671e-06 1.0389945e-05 1.0803863e-05 1.1184641e-05 1.1100702e-05 1.1831154e-05
1.0826472e-05 1.2392893e-05 1.1818663e-05 1.2989685e-05 1.326425e-05 1.3927458e-05 1.4136388e-05 1.4664657e-05
1.4809707e-05 1.526743e-05 1.5303363e-05 1.5998967e-05 1.6183605e-05 1.626991e-05 1.7244234e-05 1.751325e-05
1.7951937e-05 1.8076777e-05 1.848714e-05 1.8693174e-05 1.839216e-05 2.0225298e-05 1.8484781e-05 2.070027e-05
2.1124619e-05 2.1362936e-05 2.2003422e-05 2.2251314e-05 1.9847274e-05 2.1943451e-05 2.3123846e-05 2.3602684e-05
2.472916e-05 2.4711055e-05 2.5462978e-05 2.5675865e-05 2.2773756e-05 2.6419237e-05 2.3493729e-05 2.5961901e-05
2.298267e-05 2.7068401e-05 2.7290796e-05 2.7814407e-05 2.1959091e-05 2.3140825e-05 2.9785133e-05 3.0699524e-05
3.1319898e-05 2.3939861e-05 3.0033138e-05 2.7794014e-05 3.5634923e-05 3.3219152e-05 4.0399587e-05 4.2307685e-05
4.238123e-05 4.5532557e-05 4.988192e-05 5.201276e-05 4.6180423e-05 5.6781584e-05 5.164098e-05 5.533425e-05
6.511642e-05 6.17721e-05 6.322374e-05 6.994647e-05 7.416478e-05 7.582262e-05 7.673991e-05 7.6871285e-05
7.942146e-05 7.839449e-05 8.012542e-05 7.925131e-05 7.838731e-05 7.978165e-05 7.82911e-05 7.806386e-05
7.742065e-05 7.484613e-05 7.396842e-05 7.198724e-05 6.99968e-05 6.700276e-05 6.572971e-05 6.150926e-05
5.8803293e-05 5.6097622e-05 5.3445638e-05 5.0546296e-05 4.763068e-05 4.276501e-05 4.0783863e-05 3.735774e-05
3.5805057e-05 3.28348e-05 2.8076085e-05 2.8515926e-05 2.5498668e-05 2.3849587e-05 1.879837e-05 1.9536032e-05
1.7840874e-05 1.6818318e-05 1.4722709e-05 1.450958e-05 9.960005e-06 1.21278445e-05 9.243212e-06 1.1368606e-05
1.0196621e-05 1.0740755e-05 9.259324e-06 7.942888e-06 8.287242e-06 8.387863e-06 9.3573235e-06 9.472123e-06
9.365929e-06 9.323394e-06 1.0032442e-05 9.023171e-06 8.317739e-06 8.879393e-06 6.5043455e-06 9.819544e-06
8.341999e-06 9.295145e-06 6.873108e-06 7.0427786e-06 8.105083e-06 8.245981e-06 6.3493067e-06 6.4730984e-06
4.0611453e-06 6.62498e-06 4.7134727e-06 6.1621113e-06 5.4896727e-06 2.4594365e-06 5.3453973e-06 3.485627e-06
3.6119407e-06 1.7691348e-06 3.0768435e-06 1.7297011e-06 1.8443964e-06 1.5909798e-06 1.1441331e-06 1.1870787e-07
-1.3541683e-06 -1.896633e-06 4.8308976e-07 -4.049735e-07 -6.089035e-07 -3.4697603e-06 -1.5885109e-06 -1.4667623e-06
-1.4069157e-06 -4.8475317e-06 -2.6412458e-06 -5.5742426e-06 -4.8505813e-06 -3.893634e-06 -3.8904896e-06 -4.873488e-06
-7.7871855e-06 -5.1608167e-06 -6.1008063e-06 -7.014039e-06 -8.8298775e-06 -9.466325e-06 -9.80497e-06 -9.960922e-06
-6.74147e-06 -7.270988e-06 -7.739146e-06 -7.2893004e-06 -1.0132259e-05 -7.5914363e-06 -7.723252e-06 -9.813136e-06
-1.1641472e-05 -8.752835e-06 -8.361155e-06 -9.365382e-06 -1.0789788e-05 -1.0506571e-05 -1.1413901e-05 -9.046973e-06
-9.507411e-06 -8.722437e-06 -1.1570795e-05 -1.0528437e-05 -8.849635e-06 -9.477704e-06 -9.142609e-06 -8.6310765e-06
-1.1132867e-05 -1.137344e-05 -1.1205254e-05 -9.3972985e-06 -8.9974355e-06 -1.0440354e-05 -8.8795305e-06 -8.722266e-06
-7.894914e-06 -7.5113876e-06 -9.473207e-06 -7.193851e-06 -9.101428e-06 -9.110485e-06 -8.073806e-06 -8.39351e-06
-6.6074244e-06 -6.558357e-06 -5.8521055e-06 -6.278567e-06 -5.356448e-06 -6.201253e-06 -5.3520075e-06 -4.795303e-06
00000000: d9df 3abd 72c2 5c36 1d88 5336 4ac8 9836
00000010: c4d3 6836 5624 9d36 bf9e 3b36 3437 1e36
00000020: 2995 8936 2049 8e36 7134 9936 58c7 8536
00000030: cd01 ac36 b563 b336 457e a036 943e ce36
00000040: cc7a d336 fef5 e536 5156 a936 80c6 fd36
00000050: 01fe fe36 27b8 0937 0866 0b37 98fd 1737
00000060: 242e 1e37 7042 0237 8d20 1537 7950 2e37
00000070: 3d42 3537 aba5 3b37 273d 3a37 6b7e 4637
00000080: 58a3 3537 12eb 4f37 c548 4637 46ee 5937
00000090: 8589 5e37 faa9 6937 532b 6d37 3908 7637
000000a0: 3577 7837 8e12 8037 b95f 8037 8535 8637
000000b0: 07c2 8737 5e7b 8837 b6a7 9037 6be9 9237
000000c0: 7e97 9637 95a3 9737 d514 9b37 49cf 9c37
000000d0: dd48 9a37 7fa9 a937 c40f 9b37 7ea5 ad37
000000e0: c634 b137 8e34 b337 fd93 b837 55a8 ba37
000000f0: b27d a637 3413 b837 15fa c137 61fe c537
00000100: 7771 cf37 964a cf37 5499 d537 8062 d737
00000110: 450a bf37 e19e dd37 6614 c537 c2c8 d937
00000120: e8ca c037 f310 e337 8aee e437 fc52 e937
00000130: ca34 b837 8b1e c237 16db f937 5dc3 0038
00000140: 7c5d 0338 76d2 c837 acef fb37 3127 e937
00000150: b576 1538 cb54 0b38 ba72 2938 8873 3138
00000160: 80c2 3138 36fa 3e38 4e38 5138 4728 5a38
00000170: dab1 4138 c328 6e38 1499 5838 b316 6838
00000180: 1d8f 8838 a58b 8138 fd96 8438 3ab0 9238
00000190: ea88 9b38 f602 9f38 6def a038 f535 a138
000001a0: 128f a638 b967 a438 0209 a838 b933 a638
000001b0: de63 a438 7250 a738 3730 a438 37b6 a338
000001c0: e55c a238 b6f6 9c38 7e1f 9b38 dbf7 9638
000001d0: 3fcb 9238 d583 8c38 5fd8 8938 88fe 8038
000001e0: 8ea3 7638 5d4a 6b38 d12a 6038 ac01 5438
000001f0: 0ec7 4738 945e 3338 570f 2b38 91b0 1c38
00000200: 632d 1638 19b8 0938 ef84 eb37 7c35 ef37
00000210: f9e5 d537 9910 c837 31b1 9d37 4fe1 a337
00000220: fca8 9537 1015 8d37 8e01 7737 2c6e 7337
00000230: e519 2737 b278 4b37 4b13 1b37 cabb 3e37
00000240: 2712 2b37 3133 3437 7e58 1b37 7242 0537
00000250: 6f09 0b37 99b9 0c37 66fd 1c37 75ea 1e37
00000260: 5c22 1d37 ac6b 1c37 0351 2837 3962 1737
00000270: 6b8c 0b37 b4f8 1437 e73f da36 9fbe 2437
00000280: 9df4 0b37 58f2 1b37 8c9f e636 0251 ec36
00000290: 11fb 0737 3858 0a37 210c d536 7e33 d936
000002a0: f944 8836 254c de36 6c28 9e36 22c4 ce36
000002b0: ee33 b836 cc0c 2536 9d5c b336 9eea 6936
000002c0: ab64 7236 0273 ed35 c57b 4e36 1428 e835
000002d0: fa8c f735 a689 d535 1d90 9935 57ec fe33
000002e0: dec0 b5b5 d08f feb5 adad 0135 226b d9b4
000002f0: 8873 23b5 07da 68b6 d234 d5b5 92dd c4b5
00000300: 41d5 bcb5 fba7 a2b6 4240 31b6 610a bbb6
00000310: 2dc2 a2b6 10a6 82b6 0d8b 82b6 f186 a3b6
00000320: b5a5 02b7 142b adb6 87b5 ccb6 235a ebb6
00000330: 0924 14b7 8ed1 1eb7 0780 24b7 d61d 27b7
00000340: c934 e2b6 50f9 f3b6 61d7 01b7 9d96 f4b6
00000350: b9fd 29b7 f1b9 feb6 1d93 01b7 19a3 24b7
00000360: be4f 43b7 24d9 12b7 e346 0cb7 0220 1db7
00000370: c905 35b7 6145 30b7 557e 3fb7 74c8 17b7
00000380: 0582 1fb7 9556 12b7 3020 42b7 4ba3 30b7
00000390: e578 14b7 6e02 1fb7 3563 19b7 31ce 10b7
000003a0: 4dc7 3ab7 8ed0 3eb7 33fe 3bb7 17a9 1db7
000003b0: b1f3 16b7 fb28 2fb7 4bf9 14b7 d955 12b7
000003c0: 6674 04b7 540a fcb6 1def 1eb7 b662 f1b6
000003d0: 56b2 18b7 3cd9 18b7 bc74 07b7 dad1 0cb7
000003e0: 58b5 ddb6 dc0f dcb6 345d c4b6 7bac d2b6
000003f0: 8abb b3b6 5c14 d0b6 6595 b3b6 57e7 a0b6

bias f4 [64]
-0.011247752 0.096226566 -0.010809494 0.0039780126 0.023082536 -0.0015024636 0.14892766 0.096036315
0.0013420959 0.13578288 0.026010295 0.05110927 -0.012367102 0.00046664538 0.06329816 0.048409723
-0.14739186 -0.018600328 0.012794354 -0.0071408935 -0.001647129 -0.0018580401 -0.0055326144 0.11092701
0.002498524 0.08566322 0.02621636 0.047152866 0.13021351 0.07455542 0.013843921 0.09533237
-0.018729812 -0.0001615472 0.02339535 0.09558334 0.008632468 -0.023350714 0.019341575 0.009970505
0.12374214 0.11771115 0.016823484 -0.0011528118 0.042999744 0.0030820735 -0.11337557 0.07819693
0.044502277 0.0065229274 -0.001468215 0.011774262 -0.0002500022 -0.00020205975 0.04035209 0.14457743
8.5092026e-05 0.09499378 -0.12455869 0.06220574 0.0021154939 0.020900222 0.020023452 0.0031050595
00000000: 7e48 38bc 6f12 c53d 4e1a 31bc fd59 823b
00000010: 9617 bd3c 50ee c4ba 7e80 183e b0ae c43d
00000020: 44e9 af3a ab0a 0b3e 8b13 d53c f457 513d
00000030: 639f 4abc 15a8 f439 77a2 813d 4649 463d
00000040: e4ed 16be b75f 98bc 699f 513c 28fe e9bb
00000050: 7ae4 d7ba 7b89 f3ba ef4a b5bb b32d e33d
00000060: 47be 233b 3370 af3d b1c3 d63c 5d23 413d
00000070: b156 053e 83b0 983d 9dd1 623c 9e3d c33d
00000080: 436f 99bc ff64 29b9 9ba7 bf3c 33c1 c33d
00000090: 326f 0d3c ff49 bfbc 3972 9e3c 545b 233c
000000a0: 856c fd3d 8b12 f13d 67d1 893c f219 97ba
000000b0: 8020 303d 9dfc 493b 7331 e8bd b625 a03d
000000c0: 0548 363d 48be d53b 1f71 c0ba d6e8 403c
000000d0: ba12 83b9 00e0 53b9 3c48 253d 1b0c 143e
000000e0: 6f73 b238 198c c23d a018 ffbd 72cb 7e3d
000000f0: 19a4 0a3b f136 ab3c 3908 a43c 417e 4b3b

weight f4 [64, 64]
0.0001332213 0.09614687 0.0015550501 -0.143491 0.25613365 -0.033380892 -0.16732498 0.28474858
-0.16609082 0.1572921 0.23720738 0.39527085 0.00012964408 -0.5484661 0.31722635 0.2985605
-0.5065129 -7.643938e-06 0.1944187 -6.90312e-05 -0.19493079 1.5882186e-05 -0.42830393 0.103329614
-0.13389292 0.37637532 -0.20638579 0.0844661 0.15673278 0.35716018 0.07400079 -0.03886798
0.0449705 0.00044025382 -0.21158594 -0.109268054 -0.46153465 -0.09571141 -0.4024335 -0.09629193
0.14453161 0.22256531 -0.11530303 3.6861045e-05 -0.18630065 -0.14006658 -0.120628916 0.4440142
0.19077821 0.39815405 6.3150487e-06 0.14109875 -0.16083454 -0.1587374 0.20204581 -0.12099133
-0.00015844761 0.16274516 -0.23844853 0.24249116 -0.16046329 0.06584011 0.066829175 -0.19591011
0.0063615367 -0.13326041 -0.003329061 -0.13208945 -0.29907215 -0.24120866 0.22918141 0.21530616
-0.15568984 0.10875031 -0.17928745 -0.25754058 -0.0035404912 -0.17791523 -0.098073885 0.034297876
-0.098984756 0.0015997102 -0.097144745 0.004131509 -0.1489392 -1.4926998e-05 -0.1579105 -0.0007727868
-0.15510097 0.08566178 0.036199234 0.096119046 0.13900962 0.062014595 -0.12666939 -0.07347313
-0.19285436 3.037678e-05 0.029119479 0.04777849 -0.21191058 -0.25016645 -0.094306305 -0.120726086
0.24145441 0.005956057 -0.0882786 -0.00020339784 -0.11315354 -0.14803036 0.04766602 -0.13848397
0.039190155 -0.053573057 0.00044953794 -0.124941416 -0.15901463 -0.14950079 -0.13200313 0.0030436565
0.01552396 0.1366001 -0.1271062 -0.20629975 -0.1571309 -0.07295141 -0.08882115 -0.16571696
0.00024359918 0.18152267 0.00011516544 0.15068582 0.22924118 0.16540131 0.16147673 -0.16319884
0.1703543 -0.054496057 -0.021155542 -0.19612902 0.00013722436 0.6613123 0.02254901 -0.22214748
0.43740943 0.00028750635 0.12745398 0.00010287206 0.24470983 -0.0006517575 0.23764014 -0.018721294
0.15337324 0.21096705 0.2043227 0.206683 0.08016593 -0.11329141 0.20822105 0.16300605
-0.07825078 2.462707e-06 0.21445876 0.24382788 0.4923457 0.18417096 0.21652283 0.11267617
0.036148123 0.022822903 0.00082533195 0.0002788295 0.24645554 0.15345186 0.16115665 -0.07435893
-0.007535321 -0.10083092 1.976864e-05 0.28220543 0.1632553 0.15131027 0.20573667 0.20069169
0.00053742714 0.03171412 0.45742774 0.18015428 0.16353056 0.20708804 0.24920145 0.19575866
0.00020487461 0.0009595607 0.00043668243 0.1498328 0.18165682 0.04497841 -0.035460826 0.19572751
0.16051488 -0.17212634 0.040841665 0.12335705 4.6074147e-05 0.47838652 0.1794867 0.060425233
0.32050544 0.0008049711 0.033768754 8.123513e-05 0.14517485 3.0153744e-05 0.40451184 -0.054000683
0.15517998 0.090630904 0.21186791 0.08478483 -0.099171385 -0.23678264 0.052481707 0.17396732
-0.16136731 1.4766077e-05 0.22572201 0.25573713 0.5069495 -0.15108007 0.20389532 -0.055327214
0.16412504 0.23357412 0.10049375 -4.038735e-05 0.05994127 0.15712851 0.43781218 -0.13771042
-0.05613996 -0.13424599 1.3374595e-05 -0.04835516 0.16456595 0.16462971 -0.17634748 0.14383845
0.00045834447 -0.14370185 0.33153608 0.21946268 0.1525166 0.24487963 0.19565281 0.19835782
00000000: 52b1 0b39 a6e8 c43d d3d2 cb3a 4eef 12be
00000010: f323 833e 67ba 08bd 3d57 2bbe 91ca 913e
00000020: b613 2abe 2e11 213e 7ee6 723e f160 ca3e
00000030: 11f1 0739 4668 0cbf 7e6b a23e ecdc 983e
00000040: d4aa 01bf 773e 00b7 b215 473e d8c4 90b8
00000050: f09b 47be bc3a 8537 a74a dbbe 7a9e d33d
00000060: 3a1b 09be 44b4 c03e cc56 53be 90fc ac3d
00000070: 8f7e 203e b3dd b63e ba8d 973d 0834 1fbd
00000080: fd32 383d ded1 e639 fca9 58be eec7 dfbd
00000090: 454e ecbe 5804 c4bd c40b cebe b434 c5bd
000000a0: 1800 143e 29e8 633e ff23 ecbd 3f9b 1a38
000000b0: 99c5 3ebe 9d6d 0fbe 4b0c f7bd d455 e33e
000000c0: 5d5b 433e d9da cb3e dbe5 d336 317c 103e
000000d0: cfb1 24be 0f8c 22be 19e5 4e3e 4dca f7bd
000000e0: f524 26b9 aba6 263e da2b 74be 9a4f 783e
000000f0: 7d50 24be 2ed7 863d bcdd 883d a99c 48be
00000100: 7074 d03b 6b75 08be 602c 5abb 7542 07be
00000110: fc1f 99be 67ff 76be 88ae 6a3e 3879 5c3e
00000120: 286d 1fbe 7cb8 de3d 2197 37be 5cdc 83be
00000130: 9607 68bb 692f 36be f6da c8bd ee7b 0c3d
00000140: 85b8 cabd 5ead d13a d3f3 c6bd 9c61 873b
00000150: 8583 18be f86e 7ab7 4ab3 21be d894 4aba
00000160: cad2 1ebe 716f af3d a645 143d 10da c43d
00000170: 8a58 0e3e 0403 7e3d 9fb5 01be 1579 96bd
00000180: 9d7b 45be a3d1 fe37 f98b ee3c 61b3 433d
00000190: 16ff 58be d115 80be aa23 c1bd 3d3f f7bd
000001a0: d33f 773e 072b c33b 69cb b4bd 3147 55b9
000001b0: 0bbd e7bd 4595 17be 723d 433d bece 0dbe
000001c0: db85 203d 6c6f 5bbd f6af eb39 49e1 ffbd
000001d0: bbd4 22be bc16 19be d42b 07be 1578 473b
000001e0: 3558 7e3c e6e0 0b3e 2128 02be 3e40 53be
000001f0: ece6 20be 8d67 95bd dde7 b5bd b5b1 29be
00000200: a86e 7f39 14e1 393e fa84 f138 624d 1a3e
00000210: 33be 6a3e f65e 293e 285a 253e 991d 27be
00000220: 5c71 2e3e 4237 5fbd 634e adbc 0cd6 48be
00000230: e2e3 0f39 c34b 293f b4b8 b83c a17a 63be
00000240: 21f4 df3e 73bc 9639 4c83 023e 04bd d738
00000250: 3795 7a3e b5da 2aba f057 733e 665d 99bc
00000260: e00d 1d3e bf07 583e f839 513e b5a4 533e
00000270: 092e a43d 5405 e8bd e637 553e 0feb 263e
00000280: f241 a0bd fc44 2536 149b 5b3e 04ae 793e
00000290: bc14 fc3e 5097 3c3e 29b8 5d3e c4c2 e63d
000002a0: 0e10 143d 19f7 ba3c 175b 583a dd2f 9239
000002b0: d75e 7c3e 7c22 1d3e 4006 253e 7f49 98bd
000002c0: dbea f6bb 7180 cebd d5d4 a537 3b7d 903e
000002d0: 662c 273e 14f1 1a3e a2ac 523e 1f82 4d3e
000002e0: 20e2 0c3a aae6 013d f833 ea3e 5d7a 383e
000002f0: 8e74 273e e30e 543e aa2e 7f3e f574 483e
00000300: 9cd3 5639 078b 7b3a 86f2 e439 c56d 193e
00000310: 3f04 3a3e 483b 383d 5f3f 11bd cb6c 483e
00000320: 035e 243e e341 30be 9749 273d 9fa2 fc3d
00000330: bd3f 4138 14ef f43e 5dcb 373e 7380 773d
00000340: 4a19 a43e b204 533a 1b51 0a3d c75c aa38
00000350: b7a8 143e acf2 fc37 2d1c cf3e d22f 5dbd
00000360: 80e7 1e3e b29c b93d e7f3 583e aba3 ad3d
00000370: 5e1a cbbd 2677 72be 0ff7 563d 7d24 323e
00000380: 793d 25be d1bb 7737 ac23 673e faef 823e
00000390: 71c7 013f bcb4 1abe efc9 503e ca9e 62bd
000003a0: 6510 283e 0e2e 6f3e abcf cd3d 9665 29b8
000003b0: fa84 753d 4ce6 203e eb28 e03e f603 0dbe
000003c0: 04f3 65bd c877 09be 7363 6037 0f10 46bd
000003d0: fa83 283e b194 283e 6f94 34be 634a 133e
000003e0: f44d f039 9426 13be 19bf a93e d3ba 603e
000003f0: 502d 1c3e bac1 7a3e 3659 483e 501e 4b3e

bias f4 [64]
0.070404686 0.11281599 0.059255466 0.013184368 -0.00165014 0.023431279 0.019550651 0.036093354
0.09953504 0.07807969 0.049758237 0.057681005 0.0023214745 -0.004518919 0.0335557 -0.0060943943
0.025650317 -0.023005066 0.0018707184 0.03323194 0.035879355 -0.01145778 3.4629606e-06 0.05424521
0.073494256 0.039171696 -0.002634144 0.0055541336 0.061810877 0.07688064 0.0074109035 -0.0048508756
-0.18612142 0.044610966 0.060594276 0.012610634 0.058346014 0.02831627 0.041076027 0.008753885
0.08675955 0.0014091217 0.0621438 -0.056124806 0.013169198 0.031964585 0.07502087 0.0029884512
0.06222372 -0.036341224 0.068615265 0.06954788 0.05706792 0.0067876806 0.07286654 0.07996468
0.0037416727 -0.008523741 0.04536211 -0.014755628 -0.001669327 0.14309771 0.102005616 0.03164618
00000000: 5530 903d 120c e73d dcb5 723d 3f03 583c
00000010: 8349 d8ba f4f2 bf3c b028 a03c a0d6 133d
00000020: 07d9 cb3d 3fe8 9f3d 4bcf 4b3d eb42 6c3d
00000030: e123 183b 7113 94bb b471 093d 7cb3 c7bb
00000040: 9d20 d23c 1f75 bcbc e532 f53a 371e 083d
00000050: 3bf6 123d 6ab9 3bbc 3665 6836 3a30 5e3d
00000060: 2884 963d 8072 203d 9aa1 2cbb 73ff b53b
00000070: 672d 7d3d 9973 9d3d 2ad7 f23b 18f4 9ebb
00000080: 9d96 3ebe fdb9 363d b431 783d d59c 4e3c
00000090: 3bfc 6e3d 86f7 e73c 563f 283d 746c 0f3c
000000a0: feae b13d 47b2 b83a 7f8a 7e3d 20e3 65bd
000000b0: 9fc3 573c 4ced 023d 8ba4 993d e4d9 433b
000000c0: 4dde 7e3d 89da 14bd 2986 8c3d 1e6f 8e3d
000000d0: 0dc0 693d 316b de3b 0d3b 953d 86c4 a33d
000000e0: da36 753b 29a7 0bbc 9fcd 393d 97c1 71bc
000000f0: 52cd daba 3588 123e 52e8 d03d 6d9f 013d

weight f4 [2, 64]
0.39611727 0.4323106 -0.61109495 -0.62956905 0.52254575 -0.7337529 -0.47264066 0.57496667
0.028622134 0.23873684 0.6743482 0.31894997 -0.64616936 -0.5065306 -0.7369612 -0.021520536
0.5555934 -0.39653763 0.10271738 0.6351583 0.7256685 0.537075 0.0023621335 0.5212096
0.39832267 -0.25113326 0.06043339 0.22875644 0.5333545 0.6593765 -0.5910545 -0.5327378
0.44963947 0.81971633 0.5261444 -0.61995214 -0.5099495 0.4956278 -0.5720705 -0.7781983
0.60582066 -0.6002153 0.7229935 -0.5497739 -0.6334387 -0.46746412 -0.23688407 -0.5751197
0.61488897 0.5429426 0.29205582 0.65280324 0.72792566 -0.66610515 0.73529756 0.4393545
-0.60503334 -0.69287187 0.66636795 -0.58027923 -0.5015765 -0.6133137 -0.3687253 0.6772513
-0.4281724 0.2084717 -0.40824246 -0.13045974 0.014084189 -0.40483263 -0.3796159 0.16498375
-0.5564188 -0.4655822 -0.31511796 -0.15367053 -0.13811623 0.17307581 -0.14640637 0.0043140785
0.07659127 0.029306386 0.19633417 -0.03746797 0.19940878 0.071818754 -4.129833e-06 0.17679013
-0.27863115 -0.23878111 0.12997203 0.23486778 -0.16153559 -0.041609447 -0.13046643 -0.30235043
0.14013694 -0.03381939 -0.46728915 0.0061234487 -0.040436614 0.037353296 -0.2963501 0.13287415
-0.29786196 0.14258601 -0.14320676 -0.12962611 0.09302834 0.029238785 -0.48494577 0.17565705
-0.3015126 0.0050988863 -0.15581824 0.09636717 -0.21245421 -0.13851206 -0.26997617 -0.21126111
-0.023062615 -0.13717416 -0.35786018 0.11833416 -0.020316508 0.2386887 -0.34578425 -0.08434214
00000000: e2cf ca3e d157 dd3e b870 1cbf 702b 21bf
00000010: 8fc5 053f 3bd7 3bbf f5fd f1be 0431 133f
00000020: f778 ea3c 6e77 743e 15a2 2c3f 694d a33e
00000030: 5b6b 25bf fdab 01bf 7da9 3cbf d64b b0bc
00000040: 5e3b 0e3f fb06 cbbe 7d5d d23d bc99 223f
00000050: 69c5 393f bf7d 093f 06ce 1a3b fe6d 053f
00000060: f3f0 cb3e 8a94 80be 0189 773d 213f 6a3e
00000070: ec89 083f e6cc 283f 594f 17bf 8161 08bf
00000080: 2537 e63e eed8 513f 66b1 063f 2fb5 1ebf
00000090: 0d8c 02bf edc2 fd3e 3673 12bf 0138 47bf
000000a0: 1017 1b3f b6a7 19bf 1a16 393f fbbd 0cbf
000000b0: 0a29 22bf 7557 efbe bd91 72be 0b3b 13bf
000000c0: 5d69 1d3f 49fe 0a3f 5788 953e 1d1e 273f
000000d0: 5659 3a3f de85 2abf 763c 3c3f 13f3 e03e
000000e0: 77e3 1abf 0d60 31bf 1797 2a3f 2e8d 14bf
000000f0: 5167 00bf 2002 1dbf 90c9 bcbe 5760 2d3f
00000100: 6a39 dbbe 9b79 553e 2805 d1be 3d97 05be
00000110: 5fc1 663c 3946 cfbe 045d c2be 80f1 283e
00000120: 7671 0ebf ca60 eebe 2457 a1be cf5b 1dbe
00000130: 576e 0dbe c93a 313e 8deb 15be 1d5d 8d3b
00000140: e2db 9c3d f213 f03c d30b 493e 0478 19bd
00000150: d131 4c3e b615 933d ff92 8ab6 7908 353e
00000160: bea8 8ebe 0983 74be 6317 053e 2e81 703e
00000170: 9669 25be ab6e 2abd fe98 05be adcd 9abe
00000180: 0f80 0f3e 3386 0abd 8640 efbe 36a7 c83b
00000190: dda0 25bd c5ff 183d 33bb 97be 2910 083e
000001a0: 5d81 98be 1102 123e cba4 12be b5bc 04be
000001b0: a485 be3d 2d86 ef3c d04a f8be 71df 333e
000001c0: dc5f 9abe 8f14 a73b d18e 1fbe 275c c53d
000001d0: 998d 59be 1bd6 0dbe 513a 8abe d554 58be
000001e0: cfed bcbc 6277 0cbe 7339 b7be 2e59 f23d
000001f0: ce6e a6bc d06a 743e a20a b1be 92bb acbd

bias f4 [2]
0.028818801 -0.09783423
00000000: 6815 ec3c 505d c8bd
