checkpoints/swarm_1d/unknown/90pct-constraint/policy_final.pt (torch, 124255 bytes, 6 tensors)

weight f4 [64, 401]
000000 91 82 99 3e a8 ae 93 bc ef d1 93 bc cc 7f 94 bc
       0.29982427 -0.018027619 -0.01804444 -0.018127345
000010 2a 57 94 bc 15 95 92 bc fa d2 90 bc 1a d0 8d bc
       -0.01810797 -0.017893353 -0.017678726 -0.017311145
000020 c3 22 8a bc e0 68 85 bc 63 4d 80 bc b2 08 76 bc
       -0.016862279 -0.01628536 -0.0156619 -0.015016722
000030 ef 74 6a bc 5f 80 5b bc 30 82 4e bc 17 25 46 bc
       -0.014310106 -0.013397305 -0.012604281 -0.012093804
000040 2e 67 46 bc b3 5e 36 bc 78 4e 23 bc e1 41 21 bc
       -0.012109561 -0.0111309765 -0.009967439 -0.009842367
000050 aa a7 16 bc 7c eb 38 bc bf 6a 19 bc a2 c5 58 bc
       -0.009195248 -0.011286613 -0.009363829 -0.013230713
000060 1e e5 2c bc 15 81 29 bc 43 f9 4e bc 94 d9 73 bc
       -0.010552673 -0.010345717 -0.012632671 -0.014883418
000070 f9 86 4e bc 9b cd 6e bc 30 db 82 bc 9f 93 87 bc
       -0.012605422 -0.014575387 -0.015973657 -0.016549883
000080 a3 5a c1 bc b3 0c ce bc 79 23 c3 bc 1d 2f f4 bc
       -0.02360279 -0.02515254 -0.023820626 -0.029807622
000090 79 c5 f4 bc 58 05 f9 bc f9 f3 08 bd 8d 48 02 bd
       -0.029879319 -0.030398056 -0.033435795 -0.03180747
0000a0 76 61 c6 bc 62 64 d6 bc 55 c3 20 bd 49 2a 1c bd
       -0.024216395 -0.026170913 -0.039248783 -0.038126264
0000b0 8b 95 06 bd 96 59 3a bd 5d 28 35 bd d6 67 49 bd
       -0.03285746 -0.045495592 -0.044227947 -0.04917129
0000c0 76 db 3d bd 53 e3 32 bd 80 97 42 bd 67 79 16 bd
       -0.046351872 -0.043673825 -0.047507763 -0.036736872
0000d0 e9 db 57 bd 69 14 56 bd 4d 8d 17 bd 2e 3c 30 bd
       -0.052699957 -0.05226556 -0.03699999 -0.04302614
0000e0 d1 dd 53 bd 9f 7d fb bc 25 3e d2 bc 1a db 08 bd
       -0.051725212 -0.03069955 -0.025664398 -0.033412077
0000f0 5c a7 31 bd e3 62 23 bd 4e 25 12 bd 9b 5e ed bc
       -0.043372497 -0.039889228 -0.035680108 -0.028975775
000100 d4 6a fe bc d1 0e 1c bd 49 e2 e4 bc 38 c8 8f bc
       -0.031056799 -0.038100068 -0.027939932 -0.017551526
000110 7e 3c 1f bd be 62 80 bc 82 51 e9 bc 64 81 27 bd
       -0.03887605 -0.015672084 -0.028481249 -0.04089488
000120 ed b5 95 bc e0 8d 1d bd 4f e5 c2 bb 96 07 58 bc
       -0.018275226 -0.03846538 -0.005947746 -0.013185402
000130 3a 91 0e bc 83 69 bb bb e2 d1 60 bc 88 dd 2e bd
       -0.008701617 -0.005719365 -0.013721915 -0.042691737
000140 af cc 69 3b d5 52 46 3b 9e b5 8f bc 16 35 ad bc
       0.003567498 0.0030261774 -0.017542657 -0.021143477
000150 75 55 ac bc 20 d1 c5 bb 21 92 b9 bc f2 27 03 bd
       -0.021036843 -0.0060368925 -0.022652688 -0.032020517
000160 43 d6 87 3c 9a 0f d0 bb 9d a7 28 bd e0 4f b8 bc
       0.01658166 -0.006349516 -0.041175473 -0.022499025
000170 23 39 31 bd 3b 38 0b 3c 63 e8 05 ba 18 59 94 bb
       -0.04326738 0.008497293 -0.00051081757 -0.0045272224
000180 0b e6 84 bc b1 44 c8 3a 2a 34 c5 3b 61 62 c3 bc
       -0.016222974 0.0015279261 0.0060181813 -0.023850622
000190 ab b8 32 bd e7 62 46 39 38 7e 1b 3b 82 bf 37 3c
       -0.043633144 0.00018919595 0.0023726355 0.011215093
0001a0 4a 62 2c bd 03 48 db b9 53 06 05 bd d2 71 8b bc
       -0.042085923 -0.00041824588 -0.032476734 -0.017022047
0001b0 58 55 fb 38 2c db f8 bc f2 eb d0 bc 31 d2 ac bc
       0.00011984509 -0.030377947 -0.025503132 -0.02109632
0001c0 a5 ec a3 bc 12 87 e6 3c 9c 01 11 bd 4a 40 14 3c
       -0.020010302 0.028140578 -0.035401925 0.009048531
0001d0 79 4d 38 3a 3e 13 65 bc a5 99 99 3b d4 ee b6 3c
       0.00070305873 -0.0139816385 0.0046875053 0.022330679
0001e0 9f f0 13 bd f2 5c 0c bd 32 82 16 bd a7 df d7 3a
       -0.036118146 -0.034268327 -0.036745258 0.0016469852
0001f0 90 b7 81 bc db f1 63 bc e0 74 b6 3c d2 6a 0b 3c
       -0.0158346 -0.013912643 0.022272527 0.008509355
000200 3a a8 57 bc 55 01 4a 3b 8a 64 8e bc 60 d6 93 3a
       -0.013162667 0.0030823548 -0.017381925 0.0011279099
000210 d0 98 23 bd c8 40 1c 3c 91 1f 02 bc c7 bd 22 bd
       -0.039940655 0.009536929 -0.007942096 -0.039731767
000220 9d f5 89 bc 3a 10 a8 bc 18 8d ce bc e7 0a 8a bb
       -0.01684075 -0.02051555 -0.025213763 -0.0042127254
000230 06 11 86 bc 54 c7 d9 bc 60 3c 4a bb 86 c1 3b bc
       -0.01636554 -0.026584305 -0.003085874 -0.011459714
000240 f2 3d 03 bd aa 5d dc 3a f9 e3 80 bb 5e a7 c4 bc
       -0.032041498 0.0016812582 -0.0039334265 -0.024005588
000250 b5 d8 41 bc 64 b5 0e bb 89 24 50 bc 9c 17 fd bb
       -0.011831452 -0.0021775598 -0.012704023 -0.0077237617
000260 0e 84 9e bb a1 72 13 bc e6 41 1f bc b5 30 cd bc
       -0.0048375195 -0.008999498 -0.009720301 -0.02504764
000270 a8 88 cb bb d4 39 88 bc 50 ce 08 bc 77 13 55 bc
       -0.006211359 -0.016629137 -0.00834997 -0.013005129
000280 fb 92 b1 bc ed b8 81 bc b4 09 1d bc 6f 8f 53 bc
       -0.021676531 -0.01583525 -0.009584833 -0.012912615
000290 e8 f1 23 bc 9f d6 72 bc 57 b9 2e bc cd ca 78 bc
       -0.010006405 -0.0148216775 -0.010664306 -0.01518507
0002a0 38 87 2f bc 23 fc 2e bc 85 0d 2a bc 51 ba 33 bc
       -0.010713391 -0.010680231 -0.0103792 -0.010969714
0002b0 f0 b8 1b bc 2a e6 50 bc 96 d2 57 bc 71 91 41 bc
       -0.009504542 -0.012750188 -0.013172766 -0.011814461
0002c0 7e 3d 36 bc 61 49 30 bc 2a 7f 35 bc 80 ef 3f bc
       -0.011123059 -0.010759682 -0.011077682 -0.011714816
0002d0 e0 cf 2a bc 03 e3 09 bc 40 f3 1f bc 57 8c 01 bc
       -0.010425538 -0.00841594 -0.009762585 -0.007906995
0002e0 cc 0e 0c bc ba 25 1a bc 6a 40 04 bc 8d 37 0d bc
       -0.00854845 -0.009408409 -0.008071998 -0.008619201
0002f0 5e 07 e7 bb c3 aa d9 bb 54 7c e6 bb f5 0e be bb
       -0.007050439 -0.006642671 -0.007033864 -0.005800123
000300 0e 5b b9 bb 56 d9 02 bc e9 50 b6 bb d7 ce f5 bb
       -0.0056566065 -0.007986387 -0.0055638445 -0.007501464
000310 85 48 bb bb a1 24 ad bb 5b 58 95 bb 3e c2 a3 bb
       -0.005715432 -0.0052839075 -0.004557652 -0.0049975207
000320 e0 da 94 bb 0a 1e bf bb eb 4c 9f bb c1 a5 db bb
       -0.0045426935 -0.0058324384 -0.0048614643 -0.006703109
000330 cf 8b 83 bb 2b cd 99 bb 2a fa da bb cb de 65 bb
       -0.004014469 -0.0046936474 -0.006682654 -0.0035075422
000340 28 3b a6 bb 97 e7 81 bb d9 43 01 bc 55 1b d2 bb
       -0.00507297 -0.0039643752 -0.007889711 -0.0064119496
000350 5c f9 ef bb 71 14 dc bb 02 f2 0e bc b4 81 eb bb
       -0.007323427 -0.006716304 -0.008724691 -0.0071870927
000360 7e 19 14 bc cb f9 04 bc 28 64 f5 bb 4b 14 36 bc
       -0.009039281 -0.008116196 -0.007488746 -0.011113237
000370 a3 c6 12 bc 88 83 e8 bb 89 7d 1d bc ac 4d 13 bc
       -0.0089584915 -0.007095758 -0.009612449 -0.008990686
000380 c0 f5 a0 bb 38 1d d1 bb 86 30 3f bc 57 a0 56 bc
       -0.004912108 -0.006381657 -0.011669284 -0.013099751
000390 d0 5f 04 bc fd b8 58 bc 86 09 30 bc ff 83 4d bc
       -0.008079484 -0.013227698 -0.010744458 -0.012543677
0003a0 b0 ef 5d bc 60 ba 38 bc 59 56 04 bc bd ff 34 bc
       -0.0135459155 -0.011274904 -0.0080772275 -0.011047301
0003b0 69 c7 0f bc fb 74 69 bc 51 d4 11 bc ad 19 67 bc
       -0.00877557 -0.014249082 -0.008900718 -0.014105243
0003c0 8f a3 1d bc 05 87 56 bc 80 33 2f bc 2d d4 36 bc
       -0.009621515 -0.013093715 -0.010693431 -0.011158985
0003d0 47 fd 3f bc ad 0d 62 bc 5f a1 84 bc b0 34 27 bc
       -0.011718101 -0.013797206 -0.016190229 -0.010205433
0003e0 07 e4 4c bc 43 bf 63 bc 78 3f 5d bc f4 27 69 bc
       -0.012505538 -0.013900581 -0.013503902 -0.014230717
0003f0 b2 73 68 bc 5f b6 69 bc 16 ea 5d bc 55 ad 82 bc
       -0.01418774 -0.014264672 -0.01354458 -0.015951792

bias f4 [64]
000000 7f 2e 82 be d4 82 3c 3e 6d a6 12 b6 91 8a 89 3e
       -0.254261 0.18409282 -2.1852568e-06 0.2686353
000010 1a 31 21 be a6 bd 95 3d 12 28 4e be 18 e1 b3 bd
       -0.15741387 0.07311563 -0.20132473 -0.087831676
000020 e4 e9 f6 3d 4b 01 18 be 5c 37 15 3e 15 3c d8 bc
       0.1205633 -0.14844243 0.14571899 -0.026395837
000030 1d bf 50 3e 7d b1 a1 bd 1f 6c 31 3e dd fc 95 3d
       0.20385404 -0.07895181 0.17326401 0.073236205
000040 8e 3e 0b 3c cb 48 39 3e d4 98 35 3e a6 7a 82 3e
       0.008498801 0.18094175 0.1773408 0.25484198
000050 49 f0 4b 3e 30 0c 4c be d8 70 5c 3e 79 7e d1 3d
       0.1991588 -0.19926524 0.21527421 0.10229201
000060 9e 92 0d 3e 70 ba 2c be 88 af fe 3d 78 19 27 bc
       0.13825461 -0.16867995 0.12435824 -0.010198943
000070 a0 cd f4 3d 69 4c 11 b7 d5 cd 0b 3d 82 17 1d be
       0.11953282 -8.660464e-06 0.034131844 -0.15340999
000080 86 0c 9d b7 a6 fe 42 be 7a 93 52 b8 d4 d6 99 3e
       -1.872169e-05 -0.19042453 -5.020525e-05 0.30046713
000090 73 b9 44 3e f4 ab 1a 3e 2e 27 41 be 7a b5 1b be
       0.19211368 0.15104657 -0.18862602 -0.15205947
0000a0 f9 3d 03 3e 6a 15 80 3e 01 a7 8f 3e 2d 25 21 be
       0.1281661 0.25016338 0.280571 -0.15736838
0000b0 a8 05 ee 3d 97 a9 83 bd 08 3b 94 3e 35 12 34 be
       0.116221726 -0.06428831 0.28951287 -0.1758507
0000c0 cd 1d 19 be 21 4f 86 3e 63 3b b1 bd 23 2e 02 3e
       -0.14952774 0.26232246 -0.08653905 0.12712912
0000d0 c8 f3 32 be 5b 90 d3 3d 4a c8 f8 3c b8 b7 db 3d
       -0.17475808 0.10330268 0.030368943 0.10728401
0000e0 4b fb 86 3e e8 a4 eb 3b 96 e8 1e 3e 58 08 60 3c
       0.26363596 0.007191289 0.15518412 0.013673864
0000f0 58 a1 31 be 40 59 f4 3c df 12 88 3e 1c 76 39 b9
       -0.17346704 0.029827714 0.26576898 -0.00017686974

weight f4 [64, 64]
000000 7c b2 a0 bb 15 6f 6a 3d 9c 47 6e b2 6e 8f 19 3e
       -0.0049040895 0.057234842 -1.3869705e-08 0.1499612
000010 a7 ca 15 bb 5b f8 d9 bd c8 1c 55 bb 84 e7 c0 3e
       -0.0022856386 -0.10643073 -0.0032518376 0.37676632
000020 be d7 06 bc 5c ec 02 bb 0e 20 90 bd 9f 82 1c be
       -0.008230148 -0.0019977307 -0.07037364 -0.15284203
000030 31 1b ec 3d 87 53 8d be 30 9f a6 3d 3e de 68 be
       0.11528624 -0.2760279 0.08135831 -0.22741029
000040 f0 ba 4a be 27 e5 9c 3d d5 2c f5 3d 2a be 28 3e
       -0.19797873 0.07660895 0.11971442 0.16478792
000050 f4 10 b1 3d a1 4b 69 bb 38 27 2d 3e 96 dd 70 be
       0.08645812 -0.0035598057 0.16909492 -0.23522028
000060 e5 68 f0 3c e6 c0 20 bb 40 2e e1 3d 31 e5 e3 bd
       0.029346893 -0.002452904 0.109951496 -0.11127699
000070 ab 95 20 3c 35 0f 79 32 bb 67 eb bd 17 06 0f bb
       0.009801309 1.4497165e-08 -0.114943944 -0.0021823698
000080 53 0b ce b3 88 45 4f bb 50 47 b6 b4 05 e2 15 3e
       -9.5946824e-08 -0.0031627137 -3.3952028e-07 0.14637001
000090 c3 b0 b6 3d 58 55 d5 3d 37 db 49 bb c1 ed 19 bc
       0.08920433 0.10416669 -0.0030800828 -0.009395064
0000a0 2c f6 6d be 11 36 26 3e 4e e7 20 3e 58 9a 1c bb
       -0.23238438 0.16231562 0.15713236 -0.0023895707
0000b0 33 5f 1a be 66 9b 9e be 4e 7c 27 3e 65 d3 96 be
       -0.15075378 -0.30977935 0.16356012 -0.29458156
0000c0 6e 71 0d bb e7 0e 1d 3e 2a d8 2e be 59 eb ce bc
       -0.0021582502 0.15337716 -0.17074648 -0.025258707
0000d0 93 94 a9 3c ce 44 8e bd f5 fd 48 be 60 e1 ef bc
       0.020700729 -0.06946717 -0.19628127 -0.029282272
0000e0 d8 64 20 3e de 17 43 be fa e6 be 3d 28 82 47 be
       0.15663469 -0.19052073 0.09321399 -0.19483244
0000f0 04 62 31 bb fa fa 48 be ca 0d 1d 3e 31 4a 27 35
       -0.0027066479 -0.1962699 0.15337291 6.232031e-07
000100 1d ee 96 be 36 72 a7 3e 35 88 d9 b3 fc 98 7d be
       -0.2947854 0.32704324 -1.0129626e-07 -0.2476539
000110 24 a4 61 be 06 a7 9a 3e 25 c2 3d bd 1c 96 1b bf
       -0.22035271 0.30205554 -0.04632773 -0.60775924
000120 2e 7c d0 3e 25 24 95 bd 4f 9a ce bd b4 bc d2 3e
       0.40719742 -0.07282285 -0.10088026 0.41159594
000130 5d 38 94 3e ba cb bc 3e 59 0c b8 3e b6 da 8a 3d
       0.28949252 0.3687418 0.3594692 0.06779997
000140 5a 24 2a 3e 15 08 de 3e b3 54 4f 3e 66 ad 97 be
       0.1661543 0.4336554 0.20247154 -0.2962448
000150 0a 05 80 bc fb 31 50 be 8b 00 a7 be 8d b6 2d 3d
       -0.015627403 -0.20331566 -0.32617602 0.042410422
000160 2a 3e 8b 3e b2 e2 5c be ae da ad 3d 74 7c ba 3c
       0.27195865 -0.21570852 0.084889755 0.022764422
000170 69 69 c2 3e de 97 af b4 25 e8 b2 3e fe 76 31 be
       0.37971047 -3.2706788e-07 0.34942737 -0.17330548
000180 c3 5e 15 b5 87 39 1b 3c de 95 b9 b5 ed ec 81 be
       -5.564472e-07 0.009474165 -1.3827191e-06 -0.25376073
000190 7d 6c 82 3a 8c 88 c3 bd dd d5 5e bc 18 55 3f be
       0.0009950545 -0.095475286 -0.013600794 -0.18684804
0001a0 79 7a 1d 3e 0a bf 93 be dc 0a be be 2e 08 58 be
       0.15378751 -0.2885669 -0.3711766 -0.2109687
0001b0 89 ba 46 3e 31 1e 85 3e aa e0 95 be 2d 78 21 3e
       0.19407095 0.25999597 -0.29272968 0.157685
0001c0 0e ac 2d be b7 b2 b1 be e4 72 99 3e 1c 10 37 bc
       -0.16960165 -0.3470666 0.29970467 -0.011173274
0001d0 de a6 96 be 3e 37 56 3c 9b bc 18 3e 64 ad 99 3e
       -0.29424185 0.013074694 0.14915697 0.300151
0001e0 69 93 14 be 1c a8 6f 3e d2 0e 07 bd 9a b0 8a 3e
       -0.14509358 0.23403972 -0.032973118 0.2708786
0001f0 ef ba c2 bd 63 52 88 3e 12 90 0d be a9 af fa b6
       -0.09508311 0.26625356 -0.1382449 -7.47103e-06
000200 bd fc 08 ac d0 cc 0e 2d bb 59 89 a1 fd f3 87 aa
       -1.946706e-12 8.117243e-12 -9.307233e-19 -2.4150118e-13
000210 51 fe 26 ab 63 62 b8 2d 71 ee 27 ac 26 f7 0a af
       -5.932798e-13 2.096207e-11 -2.386449e-12 -1.2638832e-10
000220 f5 e9 05 2d 55 b3 10 a9 8a 32 51 2e d5 49 3f 2d
       7.612124e-12 -3.212997e-14 4.7565986e-11 1.0873487e-11
000230 95 ec d6 ac ab 09 90 2d 12 24 42 ac d1 15 2c 2d
       -6.1085117e-12 1.6375198e-11 -2.7589081e-12 9.781912e-12
000240 c0 3b 0d aa 25 c5 95 ac fc 3a ce 2c 0b 3b e1 29
       -1.2544046e-13 -4.256722e-12 5.8614207e-12 1.00022495e-13
000250 3b 1f 21 2d 95 e6 11 ab e2 fd 16 ac 21 93 80 2d
       9.158725e-12 -5.1834345e-13 -2.1457215e-12 1.4617254e-11
000260 55 6b 64 2d 59 8d f5 ac 12 4a 96 2a 37 50 16 2d
       1.2984132e-11 -6.9790116e-12 2.669675e-13 8.544324e-12
000270 a9 72 07 2d 21 c5 c1 a2 f7 0e fc 2d c1 b5 7a ab
       7.699321e-12 -5.2521473e-18 2.8655729e-11 -8.9070076e-13
000280 99 1a 44 a3 0f 81 5e ab 50 25 d7 a3 02 c3 97 ac
       -1.06308136e-17 -7.904935e-13 -2.3326149e-17 -4.3133283e-12
000290 4e cb 2c 2d f2 5f 4a 2c a4 a7 83 ac c5 3d 19 2a
       9.822211e-12 2.8759187e-12 -3.741856e-12 1.361056e-13
0002a0 0e 96 19 2e 2d d3 54 2a 3a 0f e3 2b 57 de 88 ab
       3.4921448e-11 1.8902649e-13 1.6133546e-12 -9.725093e-13
0002b0 3c ea f9 2d 4b 6b 02 2e 52 3d 00 ac 60 d0 4d 2d
       2.8412044e-11 2.9653873e-11 -1.8223934e-12 1.1699169e-11
0002c0 fe 40 f4 ae 91 a0 99 2c d1 f1 69 2d 48 75 5e 2d
       -1.110738e-10 4.366348e-12 1.3298211e-11 1.2645281e-11
0002d0 c5 ef 22 ad ce 89 8b 2d 99 b8 5d ab 2a 67 d5 2c
       -9.261873e-12 1.5863668e-11 -7.8771153e-13 6.0652776e-12
0002e0 6f ed 8c 2b f4 a5 01 aa eb a9 88 2c d3 5e d1 a9
       1.0013499e-12 -1.1515078e-13 3.884217e-12 -9.297914e-14
0002f0 e2 d6 3a ab 92 1f 2e ab 12 76 3a ac 67 4d 16 a5
       -6.6378684e-13 -6.186103e-13 -2.6497732e-12 -1.3036651e-16
000300 e6 9e 95 bd 4d f4 f7 bd 0d 85 fb 33 23 a5 ab be
       -0.07305698 -0.121071436 1.17123e-07 -0.33524427
000310 af 31 09 be 73 19 91 3d 4f d4 30 bd da a4 41 3e
       -0.13397859 0.07084932 -0.043171223 0.18910542
000320 8a 5d 94 be 94 c0 0d bc d3 28 33 be 35 1a 18 bd
       -0.28977615 -0.008651871 -0.17496042 -0.037134368
000330 16 c6 d6 bb 97 7c 07 bd ba b5 8f be 8b db 2f 3c
       -0.0065543754 -0.033077803 -0.28068334 0.0107334955
000340 86 79 87 3b ec 20 23 bc 9b 63 2b bd bd 51 1c bf
       0.00413436 -0.00995658 -0.041843038 -0.6106222
000350 e8 53 fb 3d 3b 40 f1 bd a8 c6 9a be 31 7f 4f 3c
       0.12271863 -0.11779829 -0.30229688 0.012664602
000360 45 3f 9a bb 79 20 4e bd 20 26 7d bd 0e 01 65 bd
       -0.0047072493 -0.050323937 -0.061803937 -0.05590921
000370 a1 2c 65 bb 7f ed a2 34 42 dd 9e 3e 57 10 50 be
       -0.0034969228 3.0347653e-07 0.3102818 -0.20318733
000380 21 9b 0f 35 b3 42 76 be 25 69 cc 35 5e 8a 08 bf
       5.3497394e-07 -0.24048881 1.5229786e-06 -0.5333613
000390 df 4a 8a 3d ed 6f a9 3d 50 d9 4a be 30 74 4d be
       0.06752562 0.08273301 -0.1980946 -0.20063853
0003a0 f3 d7 29 3c 27 5f e5 be 1a 52 08 bf d1 cf 04 be
       0.010366428 -0.44799158 -0.5325028 -0.129699
0003b0 c6 05 e7 3b 64 76 70 3d 77 0d 91 be 8b e4 66 3e
       0.007050249 0.058706656 -0.28330585 0.2254812
0003c0 e6 8d fe bd 1a 90 c7 be fb 26 01 3e 55 ae 72 3e
       -0.12429409 -0.38977128 0.12612526 0.23699315
0003d0 45 af 18 3e 24 a8 80 3e 2d 51 81 3b 1f d4 f0 bd
       0.1491061 0.2512828 0.0039464445 -0.11759209
0003e0 9b df 18 bf 3a b4 89 3b f9 44 55 be eb c9 82 3b
       -0.59716195 0.004202393 -0.20827092 0.0039913557
0003f0 28 88 42 be 23 a5 7f 3b e9 da bd be 1d 5a ec 36
       -0.18997252 0.0039008341 -0.37081078 7.0438387e-06

bias f4 [64]
000000 2c 09 71 3c 12 05 0b 3e 14 85 89 b3 38 95 3c 3b
       0.014711659 0.13576153 -6.4037664e-08 0.0028775465
000010 15 7b 91 3d da 13 9f 3d e4 7b 8b bc c6 56 9c bd
       0.07103554 0.07767458 -0.01702685 -0.07633738
000020 b4 0f 3b 3e c4 ec 04 3e 7a 87 e3 3d 15 df 85 3d
       0.18267709 0.12980944 0.111098245 0.0653669
000030 35 98 56 3e 65 1a 0b be c8 ca aa 3d 6b 32 df bc
       0.209565 -0.13584287 0.08339459 -0.02724572
000040 d6 2f f5 b3 c7 7d 0a bd 78 d0 cb b4 b6 2c ba b5
       -1.1417403e-07 -0.033811357 -3.7963378e-07 -1.3871093e-06
000050 27 e4 d8 3d ba c1 2a 3d 06 8b f8 3d c4 17 81 38
       0.105903916 0.04168866 0.121358916 6.155626e-05
000060 b6 13 81 3c f0 9a 23 3e 2e fd e6 bd f0 a9 ad 3d
       0.01575647 0.15977073 -0.11278759 0.08479679
000070 c9 05 0c be c3 c5 06 3d c0 83 33 3e 8a 6c f9 bd
       -0.13674082 0.032903444 0.17530727 -0.12178905
000080 55 b3 2b 3c 04 b6 b9 bd 1e 4b 92 3d aa ef f5 3d
       0.010479768 -0.0906792 0.07143234 0.12008603
000090 02 26 ae 3d b0 c9 ad 3c 6e 4e 9b 3d 84 a9 7e 3d
       0.08503343 0.021214336 0.07583319 0.06217338
0000a0 ff 91 b6 3d 7d 2a 08 be bb 4d f9 bd 3e f8 ac 3d
       0.08914565 -0.13297458 -0.12173029 0.08445786
0000b0 51 66 06 3c 0b c3 95 bb ff 31 ae bb c6 0c da bd
       0.008203105 -0.00457037 -0.0053160186 -0.106469676
0000c0 4d f5 06 be be 99 61 3d 35 fb 69 bb c8 34 a7 bd
       -0.13179512 0.05507826 -0.003570271 -0.08164364
0000d0 e9 57 a5 3d 3d 0e 01 ba a7 b6 13 3e 09 c3 18 bd
       0.08073408 -0.0004923081 0.14425145 -0.037295375
0000e0 9c 4e b9 3d d2 13 4d 3d c9 8c ec 3d ff 60 fc ba
       0.09048197 0.05006773 0.1155029 -0.0019254981
0000f0 01 4d bb 3c 08 6b 94 3d 96 68 22 3e 7c 35 6e 3e
       0.022863867 0.07246977 0.15860209 0.2326259

weight f4 [2, 64]
000000 da a4 ff be 61 da 23 3f 6e 93 7b 30 5b fe 0a 3f
       -0.4993046 0.64005095 9.152278e-10 0.54294366
000010 83 10 1a 3f 2f 98 24 3f 60 af de 3e 50 2f 37 bf
       0.60181445 0.64294714 0.43493176 -0.7155657
000020 cf 2d 16 bf db 86 01 3f c1 7d 17 3f 2b 2c 5c 3f
       -0.5866365 0.505964 0.5917626 0.86004895
000030 3c 4b cd 3e 80 44 a5 be a4 ba 19 3f 78 48 07 bf
       0.40096462 -0.32278824 0.60050416 -0.52844954
000040 dd 2f 2a 31 e9 2d 47 3f 45 b2 f3 b1 50 b9 d3 32
       2.4765463e-09 0.7780443 -7.0924977e-09 2.4647903e-08
000050 a0 42 27 3f 11 30 37 bf 4f df 38 bf 5b f6 08 3f
       0.65336037 -0.7155772 -0.7221574 0.5350091
000060 7b 8f aa 3e 25 fa f1 3e d3 9f fb be c5 f8 58 3f
       0.33312592 0.47261158 -0.49145374 0.8475459
000070 05 de fc be 1f de 19 bf 35 3c 23 bf 3c 76 ac be
       -0.49388137 -0.60104555 -0.63763744 -0.33683956
000080 a7 e3 0f 3f 88 90 05 bf 41 55 3a 3f 25 5e 59 3f
       0.56206745 -0.5217366 0.7278634 0.8490928
000090 8b 96 1d 3f 83 c0 d9 3e 1c b1 0e 3f 95 7c 4a 3f
       0.61557835 0.42529687 0.55739 0.7909635
0000a0 61 ed 3f 3f 69 db 66 be 4d 20 f0 be 57 eb 26 3f
       0.74971586 -0.22544636 -0.46899644 0.6520285
0000b0 65 b0 54 3f 89 87 67 bc 4a 77 07 3f e9 09 2e bf
       0.83081657 -0.014131435 0.52916396 -0.6798387
0000c0 9e f6 bb be 1c 68 24 3f 17 3e d7 be 10 44 33 bf
       -0.3671159 0.6422136 -0.42039558 -0.7002573
0000d0 27 33 19 bf 02 6a 16 b9 4c e3 d5 be 44 54 24 3f
       -0.5984368 -0.00014344606 -0.41774976 0.6419108
0000e0 f1 dd 51 3f a0 22 c4 be 81 0d 93 be 9e 49 10 3f
       0.8197928 -0.38307667 -0.2872124 0.5636233
0000f0 a3 08 b1 be e3 ee 29 3f 0f c1 43 bf 91 4f 49 bf
       -0.34576902 0.6638014 -0.7646646 -0.78637034
000100 d3 f0 2e bd ec 4c bf be 54 c8 03 2f a5 3f 84 be
       -0.042710137 -0.37363374 1.1985551e-10 -0.25829807
000110 1c b3 83 bd 89 c2 67 be ad 44 c4 bd 96 43 e2 3e
       -0.06430647 -0.22632803 -0.09583411 0.4419219
000120 c4 49 8a bd 41 71 72 3d 65 1c 3c 3d 2e 1d 0a be
       -0.06752351 0.05919004 0.045925517 -0.13487694
000130 a4 ea b2 3d 93 d3 00 be 93 91 91 be de 63 64 be
       0.087361604 -0.12580709 -0.28431377 -0.22303721
000140 5d fe 3d 2f 02 7d d9 be 42 04 82 b6 ec 93 03 31
       1.7279818e-10 -0.42478186 -3.8747976e-06 1.9147093e-09
000150 e2 ce f3 bd c2 3c 3d 3d 37 32 69 3e 1a 70 8e be
       -0.11904694 0.04620052 0.22773062 -0.27819902
000160 b8 74 99 be 92 7c 73 3e 3b 48 d5 bd 60 01 7c 3e
       -0.29971862 0.23777989 -0.104141675 0.246099
000170 60 79 65 3e ac 44 9e 3e 1c e3 fd 3e a1 ca f8 3b
       0.22409582 0.30911767 0.49587333 0.0075925146
000180 12 a3 98 be 10 ce 9d 3c d7 cc 7c be 15 e0 b3 3d
       -0.29811913 0.019263297 -0.24687515 0.08782975
000190 6c 58 59 be b2 e9 d8 be 3e 08 b9 be 87 f2 d9 bc
       -0.21225137 -0.42365795 -0.361391 -0.026604904
0001a0 a4 fb 8c 3d 63 4f 86 3d 34 bd 1b 3e e8 ab 85 bd
       0.06883934 0.065581106 0.15208894 -0.06526929
0001b0 51 ab 0a bd 87 e9 90 36 ae ab 0f 3e 39 ee e1 3e
       -0.033854786 4.3187206e-06 0.14030334 0.44127062
0001c0 0a a9 1c be 37 35 87 be 37 24 d6 3e 30 72 17 3f
       -0.15298858 -0.26407787 0.41824505 0.5915861
0001d0 f0 b7 a6 3e f7 5b 0a 35 4c 75 da 3e 35 a3 ca be
       0.32562208 5.154283e-07 0.42667615 -0.39577642
0001e0 40 c1 71 be 14 96 55 3e c0 36 1c 3f 37 e4 da bd
       -0.23608875 0.20858032 0.6102104 -0.1068806
0001f0 cd 43 0c 3f 2a a4 4c 3e ba f9 ff 3e f0 54 06 3f
       0.54790956 0.19984499 0.49995214 0.52473354

bias f4 [2]
000000 73 75 75 3d 52 a6 14 3d
       0.05992646 0.036291428
