checkpoints/swarm_1d/linear/unknown/1-ra/50pct-constraint/run-1/dynamics64.pt (torch, 377957 bytes, 532 tensors)

weight f4 [16, 2]
0.40080008 0.33534464 0.40964845 0.26033932 -0.25350213 0.49600053 -0.09976716 -0.59780973
1.7831404e-08 -1.02901385e-08 4.705575e-11 -1.5166711e-10 -0.06503916 -0.27154773 -0.60785234 0.6853663
-0.2372335 0.4148809 1.5404521e-11 4.033291e-20 0.41103664 0.19870587 0.53298396 0.5133789
0.42486715 -0.48458987 -0.01101977 0.011035795 -0.28604192 0.22134331 0.15734579 -0.29398847
00000000: ab35 cd3e 4bb2 ab3e 71bd d13e 324b 853e
00000010: 08cb 81be c8f3 fd3e ba52 ccbd 0f0a 19bf
00000020: ac2b 9932 82c8 30b2 11f4 4e2e 7fc2 26af
00000030: 4033 85bd 4e08 8bbe 369c 1bbf 2a74 2f3f
00000040: 57ed 72be 456b d43e e67f 872d 7f77 3e1f
00000050: 6573 d23e 8d79 4b3e a371 083f cd6c 033f
00000060: 3088 d93e 2a1c f8be 448c 34bc 7bcf 343c
00000070: 1674 92be d2a7 623e 411f 213e a885 96be

bias f4 [16]
-7.3420386e-05 -0.00020433543 0.0001375088 -0.00025835625 -1.2053145e-08 -4.6354916e-07 -3.4744087e-05 0.000456029
1.5411419e-05 6.636977e-06 -0.00022975038 -0.00044681382 0.00025039102 1.6586706e-05 -0.0001840042 -2.8278135e-05
00000000: 45f9 99b8 e042 56b9 3d30 1039 fd73 87b9
00000010: 4b12 4fb2 b6dd f8b4 2eba 11b8 2d17 ef39
00000020: c547 8137 33b3 de36 26e9 70b9 5642 eab9
00000030: ea46 8339 ae23 8b37 40f1 40b9 d536 edb7

weight f4 [16]
0.42073315 0.37227708 0.35573974 -0.43638864 0.004391025 -0.0033761743 -0.14311759 -0.57950085
0.534938 -5.5929473e-07 -0.45004517 -0.60237795 -0.7534185 -0.00053220964 0.11015814 -0.49734455
00000000: 566a d73e 1a9b be3e 8523 b63e 556e dfbe
00000010: 96e2 8f3b ce42 5dbb 6b8d 12be 2b5a 14bf
00000020: b2f1 083f 7122 16b5 526c e6be 7135 1abf
00000030: 09e0 40bf fc83 0bba 979a e13d f2a3 febe

bias f4 [16]
0.30251172 -0.14934412 0.18309109 -0.030625902 -0.004794135 -0.0027681498 0.40393028 -0.11889737
-0.3727726 -4.8585868e-08 0.35900918 -0.15914288 -0.22839744 0.0032209766 0.32745233 0.07088619
00000000: d1e2 9a3e aaed 18be 3b7c 3b3e 2ce3 fabc
00000010: 1f18 9dbb d969 35bb f3cf ce3e 7780 f3bd
00000020: 0ddc bebe baac 50b3 0dd0 b73e 5af6 22be
00000030: 05e1 69be 0517 533b d5a7 a73e c72c 913d

running_mean f4 [16]
0.3475275 0.31719294 0.13786353 -0.34168693 5.0587183e-09 1.6420948e-08 -0.1634061 0.06056438
0.09603102 -4.804359e-07 0.28532773 0.49397027 -0.041823134 0.00033219546 -0.021238063 -0.07610003
00000000: 20ef b13e 1d67 a23e 192c 0d3e 97f1 aebe
00000010: f5d0 ad31 0c0e 8d32 ee53 27be 5b12 783d
00000020: e9ab c43d 4ef7 00b5 7a16 923e ace9 fc3e
00000030: bc4e 2bbd 852a ae39 72fb adbc 55da 9bbd

running_var f4 [16]
0.0043201256 0.0028788932 0.010132444 0.01200406 7.913004e-18 6.8483724e-22 0.002406971 0.021492908
0.0069925524 4.3352573e-24 0.0020625587 0.009182046 0.0105970735 6.1391693e-06 0.0026717288 0.0034968578
00000000: d78f 8d3b d0ab 3c3b 8d02 263c adac 443c
00000010: 1bf8 1123 b7fa 4e1c 46be 1d3b e511 b03c
00000020: c821 e53b 4fb6 a718 fe2b 073b 4b70 163c
00000030: 599f 2d3c 10ff cd36 2c18 2f3b 8a2b 653b

weight f4 [16, 16]
-0.012074454 -0.0009575626 -0.009289867 -0.0014400152 4.1812808e-12 3.3906043e-13 -0.0039999373 0.011266597
-0.004725121 4.6208288e-17 0.0057069943 0.0068523004 -0.006636548 8.740388e-06 -0.0027971726 -0.006393226
-0.55585647 -0.25389078 0.26320186 -0.22476724 -1.5025062e-10 -2.365268e-11 -0.22067201 0.38275027
-0.13837615 -2.5194853e-15 -0.28005823 0.48150495 -0.39300528 0.0003192243 0.09823854 0.00012605383
-0.23804453 -0.16414611 -0.013393057 0.2747079 3.5001013e-11 4.748946e-11 -0.16057965 0.04620532
0.49950072 4.140129e-15 0.19499364 -0.5611844 0.53984505 -0.0010037677 0.13122843 0.3676248
-0.03010126 -0.0051303217 -0.010502695 -0.009022185 2.0648169e-11 1.0304455e-12 -0.007805655 0.008504699
-0.008726523 -1.14252726e-17 0.005840448 0.008316885 -0.012730419 1.9249333e-05 -0.003145684 -0.011072253
-0.04125841 -0.005778233 -0.04118199 -0.0035495441 1.3745888e-11 -1.2374829e-12 -0.0031445336 0.00502651
-0.005078 2.581421e-16 -0.03598611 0.0068652374 -0.0148144495 2.34568e-05 0.027632814 -0.0026075556
0.024384027 -0.22264512 -0.040628135 -0.014157492 1.0542351e-11 -1.7912376e-10 -0.14112341 0.1354096
-0.02573311 -9.416543e-18 0.06906474 0.2659952 -0.12017178 -2.7406384e-05 -0.2087286 -0.3543577
-0.04946841 -0.014496618 0.0037885942 0.00020077829 -1.5404289e-11 5.4712515e-12 -0.002899408 0.028240573
-0.016029483 3.9814923e-17 -0.030551326 0.0082752425 -0.015466203 2.7736221e-05 -0.002936333 -0.023498904
-4.29847e-11 4.4142134e-10 -7.362798e-11 -2.2128637e-11 1.878172e-19 1.3384718e-21 -1.2351557e-10 3.8719035e-11
-1.6797173e-10 -3.684877e-26 -7.473302e-11 4.866892e-11 -5.3783245e-10 5.158443e-13 -4.6206986e-11 -4.2441184e-10
-0.0048727314 -0.0021853838 -0.0039832066 0.000807566 3.670335e-12 2.648457e-13 -0.0013868714 0.004842983
-0.0021652188 4.8413885e-18 0.0020434507 0.003266277 -0.0034470574 4.287111e-06 -0.0014924785 -0.003162904
3.0303024e-08 2.6632161e-08 3.584609e-09 1.6683738e-09 2.0330223e-17 3.1998787e-21 6.261216e-09 6.2921295e-09
1.1179271e-08 2.0572102e-23 -2.0162561e-08 -2.1814928e-09 5.2157274e-09 -3.1347838e-11 -1.4574365e-09 1.2021261e-08
0.0013656465 -0.0075848964 0.023829117 -0.0008735941 -1.2806522e-12 3.1070245e-13 0.0041767526 -0.015049706
0.012702608 -2.334044e-18 0.0027893903 -0.0037261043 0.034620322 -4.061427e-06 0.018281624 0.038953654
0.3182683 0.052770454 0.180064 0.26481095 -3.5091732e-10 9.1115365e-11 0.24788447 -0.617015
0.04886119 2.753696e-15 -0.66179794 -0.05769332 -0.07626433 0.0014851728 0.124472365 0.16162406
-0.2804059 0.27608523 0.01466817 -0.067268655 -4.6934153e-07 3.3808383e-09 0.03902686 -0.48985755
-0.2684752 -2.335236e-15 -0.27015516 -0.57443714 -0.19472887 -0.00061253866 0.26000655 -0.48744425
0.054793693 -0.29612744 0.24979451 0.23742601 2.9228084e-10 9.068703e-12 0.2516862 -0.3767059
0.50399417 9.116834e-16 0.47512725 -0.4786201 0.10643366 -0.0034702586 0.056353424 0.19920465
-0.06497864 0.5727836 -0.29076147 -0.16992879 -6.7476263e-10 -3.060544e-10 -0.097601056 0.12284166
-0.5821201 -1.8226466e-15 0.34079468 -0.15120888 -0.66804105 0.0004932661 -0.050358877 -0.16807102
0.42255557 0.4056305 0.27531284 0.57582784 1.5957579e-09 -1.3612467e-11 0.42613596 -0.13507763
0.13919374 -1.9768332e-15 -0.22429553 -0.1674336 0.20280142 -0.002269676 -0.07444133 -0.27216133
00000000: eed3 45bc f004 7bba 8734 18bc e4be bcba
00000010: a11d 932c c2df be2a e811 83bb 8897 383c
00000020: 30d5 9abb 1e19 5524 bd01 bb3b 4389 e03b
00000030: 6677 d9bb aea3 1237 c550 37bb 447e d1bb
00000040: 9c4c 0ebf f9fd 81be 65c2 863e 6229 66be
00000050: ca33 25af 1a0d d0ad d8f7 61be d8f7 c33e
00000060: 7ab2 0dbe 4d8c 35a7 cb63 8fbe d187 f63e
00000070: fd37 c9be 8f5d a739 4a31 c93d 512d 0439
00000080: f2c1 73be eb15 28be 8d6e 5bbc 84a6 8c3e
00000090: a3ef 192e 61dc 502e fe6e 24be ca41 3d3d
000000a0: 8fbe ff3e f329 9527 6aac 473e c8a9 0fbf
000000b0: 4933 0a3f db90 83ba bf60 063e 5139 bc3e
000000c0: eb96 f6bc 421c a8bb 7f13 2cbc c9d1 13bc
000000d0: 8b9f b52d b605 912b 94c6 ffbb 4b57 0b3c
000000e0: b1f9 0ebc 53c2 52a3 3b61 bf3b 8b43 083c
000000f0: 3f93 50bc a179 a137 d227 4ebb 6568 35bc
00000100: 94fe 28bd 5557 bdbb 72ae 28bd 789f 68bb
00000110: fad1 712d 0529 aeab 8514 4ebb 6cb5 a43b
00000120: 5a65 a6bb 0dcf 9425 2c66 13bd c9f5 e03b
00000130: 4eb8 72bc 18c5 c437 365e e23c 86e3 2abb
00000140: 03c1 c73c 15fd 63be b069 26bd d3f4 67bc
00000150: 8776 392d dbf2 44af a882 10be d0a8 0a3e
00000160: 3ece d2bc 5eb4 2da3 d071 8d3d 8630 883e
00000170: 9f1c f6bd c3e6 e5b7 f3bc 55be 5f6e b5be
00000180: 639f 4abd 3983 6dbc 104a 783b 0388 5239
00000190: 607f 87ad a780 c02c ff03 3ebb c658 e73c
000001a0: 4350 83bc 2a9d 3724 c646 fabc e294 073c
000001b0: f565 7dbc 15ab e837 7e6f 40bb c680 c0bc
000001c0: 780c 3dae 88ac f22f dee8 a1ae 43a5 c2ad
000001d0: 44bc 5d20 9f43 ca1c 8bce 07af c249 2a2e
000001e0: d7af 38af 5e77 3695 f356 a4ae 550c 562e
000001f0: 98d6 13b0 8032 112b 7138 4bae a852 e9af
00000200: 6fab 9fbb a838 0fbb 8f85 82bb d6b2 533a
00000210: 7023 812c 4a18 952a afc7 b5ba e3b1 9e3b
00000220: 58e6 0dbb 9f9d b222 6aeb 053b 090f 563b
00000230: 07e8 61bb 01da 8f36 459f c3ba b948 4fbb
00000240: 8726 0233 bec4 e432 1c55 7631 af4c e530
00000250: 6283 bb23 a8c6 711d 3d22 d731 2832 d831
00000260: f40e 4032 0ff6 c619 f131 adb2 3ae9 15b1
00000270: 0636 b331 87de 09ae fd4e c8b0 1186 4e32
00000280: 7eff b23a b98a f8bb 4835 c33c e801 65ba
00000290: 5c3c b4ab f1e8 ae2a 24dd 883b 0b93 76bc
000002a0: 991e 503c d838 2ca2 34ce 363b a831 74bb
000002b0: 0ace 0d3d 6447 88b6 58c3 953c de8d 1f3d
000002c0: 10f4 a23e d525 583d b262 383e 4d95 873e
000002d0: 39eb c0af 645d c82e 6dd5 7d3e b2f4 1dbf
000002e0: ac22 483d ba6c 4627 976b 29bf d54f 6cbd
000002f0: 7930 9cbd 21aa c23a 5eeb fe3d c780 253e
00000300: 5d91 8fbe 0b5b 8d3e c452 703c 26c4 89bd
00000310: cff9 fbb4 5654 6831 a1da 1f3d 9cce fabe
00000320: 9575 89be 8045 28a7 c751 8abe 500e 13bf
00000330: 0167 47be c692 20ba 941f 853e 4b92 f9be
00000340: 5a6f 603d 049e 97be 22ca 7f3e ce1f 733e
00000350: dfae a02f cf89 1f2d 03dd 803e 99df c0be
00000360: c305 013f 2e63 8326 e143 f33e b20d f5be
00000370: e4f9 d93d 476d 63bb d9d2 663d 4efc 4b3e
00000380: 8513 85bd f2a1 123f b0de 94be d001 2ebe
00000390: 337a 39b0 5441 a8af 10e3 c7bd 6994 fb3d
000003a0: d305 15bf e555 03a7 a47c ae3e 80d6 1abe
000003b0: bd04 2bbf 874e 013a 1c45 4ebd cf1a 2cbe
000003c0: 3459 d83e cdae cf3e cef5 8c3e 7469 133f
000003d0: bd51 db30 1a79 6fad 7e2e da3e ca51 0abe
000003e0: ce88 0e3e 2372 0ea7 baad 65be b773 2bbe
000003f0: 2dab 4f3e d8be 14bb b274 98bd bb58 8bbe

bias f4 [16]
-0.0002097959 -9.815319e-05 4.772132e-06 -2.8756473e-05 2.1921074e-05 7.899094e-05 -4.1492694e-05 6.192994e-05
-5.442907e-06 -1.4977799e-08 4.6069512e-05 -7.149367e-05 -0.00067813933 -0.00016034025 0.00049047224 0.00012991065
00000000: a8fc 5bb9 98d7 cdb8 4d20 a036 0e3a f1b7
00000010: 26e3 b737 f0a7 a538 7108 2eb8 62e0 8138
00000020: 37a2 b6b6 87a8 80b2 c33a 4138 dfee 95b8
00000030: 29c5 31ba 0221 28b9 0993 003a a038 0839

weight f4 [16]
0.023563363 0.29204765 0.06546804 0.023501925 -0.022546262 0.11858953 0.044626907 2.5882446e-07
0.013289378 -5.678877e-05 0.012881552 -0.27565545 0.40817586 -0.16359515 0.24763669 0.29358062
00000000: f407 c13c 4587 953e 1c14 863d 1c87 c03c
00000010: f0b2 b8bc 11df f23d b4ca 363d 90f4 8a34
00000020: b1bb 593c 7a30 6eb8 250d 533c b622 8dbe
00000030: 6dfc d03e 7d85 27be 7994 7d3e 3350 963e

bias f4 [16]
-0.1036427 0.16419251 0.15955077 -0.11060876 -0.1467717 -0.27472523 -0.23238824 -1.7088147e-05
-0.05322188 -7.648622e-06 -0.08395316 -0.080497205 0.20485473 0.21633956 0.31373888 -0.20967993
00000000: a042 d4bd 1522 283e 4761 233e d886 e2bd
00000010: 524b 16be c9a8 8cbe 2ff7 6dbe 8458 8fb7
00000020: 30ff 59bd 9552 00b7 a2ef abbd b8db a4bd
00000030: 70c5 513e 1e88 5d3e 62a2 a03e 56b6 56be

running_mean f4 [16]
-0.00804405 -0.3307422 0.16922253 -0.020611484 -0.037596703 -0.16860215 -0.038786642 2.5478464e-06
-0.0035407436 7.4421487e-09 0.031369083 -0.03695241 -0.47125658 0.40840587 -0.20273475 0.31962004
00000000: 31cb 03bc 0b57 a9be ac48 2d3e 6ad9 a8bc
00000010: 00ff 19bd 0ba6 2cbe bede 1ebd abfb 2a36
00000020: d20b 68bb d5b5 ff31 de7c 003d 695b 17bd
00000030: 8b48 f1be 931a d13e b399 4fbe 3da5 a33e

running_var f4 [16]
0.0003042855 0.22152293 0.18638465 0.0008561867 0.0005621389 0.09064045 0.0010352487 2.453753e-19
5.647858e-05 8.1831387e-16 0.0015251911 0.35108772 0.08981723 0.18175149 0.28677818 0.29728663
00000000: 8288 9f39 e8d6 623e 9edb 3e3e b871 603a
00000010: 815c 133a b3a1 b93d 2fb1 873a 11d8 9020
00000020: 6ae3 6c38 e8dc 6b26 ece8 c73a c5c1 b33e
00000030: 19f2 b73d 101d 3a3e 97d4 923e f435 983e

weight f4 [1, 16]
-0.03271842 -0.1700645 0.5333042 -0.09668477 0.101474024 0.26861542 -0.101648204 -4.1873304e-06
-0.0136023 -1.9305562e-06 0.075197324 -0.48937252 0.029992139 -0.24133119 -0.40144053 0.40607268
00000000: c003 06bd 6325 2ebe a086 083f aa02 c6bd
00000010: 9dd1 cf3d f687 893e ef2c d0bd e580 8cb6
00000020: 2edc 5ebc b48e 01b6 0e01 9a3d 098f fabe
00000030: 13b2 f53c 861f 77be 9d89 cdbe c2e8 cf3e

weight f4 [1, 16]
-0.007299136 -0.031437576 -0.24494149 -0.005909868 -0.006829162 0.1934204 -0.007395666 -3.483582e-07
-0.004636716 -1.0843461e-07 -0.0023536256 -0.1425832 -0.9498786 -0.22980541 -0.12370367 -0.30919296
00000000: 972d efbb b0c4 00bd f1d1 7abe 91a7 c1bb
00000010: 2ac7 dfbb ff0f 463e 5857 f2bb fd05 bbb4
00000020: 98ef 97bb 8fdc e8b3 493f 1abb 5501 12be
00000030: 3e2b 73bf 1c52 6bbe 5a58 fdbd 8a4e 9ebe

weight f4 [16, 2]
-0.018356748 0.54402614 -6.6120565e-10 -1.1790881e-11 0.07941213 -0.0035794356 0.3785661 -0.25753385
-0.14214975 0.15318638 -0.34610203 0.6830698 -0.2937357 -0.5289351 -0.5562606 -0.4114748
-0.0012683831 0.3260678 -0.17198585 0.50118035 0.030752946 0.122808255 -0.6742959 0.34077755
0.45689863 -0.22566412 0.021914862 -0.033418935 -0.17954119 0.27796233 6.0043114e-08 1.4734226e-11
00000000: e460 96bc 4c45 0b3f 36c0 35b0 686d 4fad
00000010: d4a2 a23d f794 6abb 6ad3 c13e 7adb 83be
00000020: b48f 11be e4dc 1c3e 4934 b1be aadd 2e3f
00000030: 8764 96be 4a68 07bf 1867 0ebf d3ac d2be
00000040: e03f a6ba 5cf2 a63e 0f1d 30be 5b4d 003f
00000050: 9aed fb3c e582 fb3d a89e 2cbf 657a ae3e
00000060: 9eee e93e 7f14 67be cc86 b33c 4be2 08bd
00000070: a5d9 37be 1451 8e3e 0df1 8033 879a 812d

bias f4 [16]
0.000102521415 1.0298516e-09 -2.1949134e-05 -0.00023380457 5.7961333e-05 -0.0005299787 -0.0005219941 -0.00016202567
-3.837232e-05 -0.00023126087 -8.623613e-05 -9.6617536e-05 0.0001970437 -0.00015879534 9.518101e-05 4.1018186e-10
00000000: c400 d738 af8a 8d30 681f b8b7 7029 75b9
00000010: 821b 7338 45ee 0aba 6ed6 08ba 6fe5 29b9
00000020: f7f1 20b8 9e7e 72b9 abd9 b4b8 259f cab8
00000030: 849d 4e39 4d82 26b9 ea9b c738 f77f e12f

weight f4 [16]
-0.45378417 0.0003703303 -0.037064552 -0.080906145 0.037869766 -0.40834343 0.57568717 0.41470078
0.2864281 -0.37816873 0.052153837 -0.5498905 0.26137537 -0.08276076 -0.26199892 -0.000945273
00000000: 6656 e8be e428 c239 00d1 17bd 1fb2 a5bd
00000010: 541d 1b3d 6412 d1be 3c60 133f a953 d43e
00000020: b4a6 923e 559f c1be 439f 553d a0c5 0cbf
00000030: fed2 853e 797e a9bd b924 86be 32cc 77ba

bias f4 [16]
0.86876166 -0.014479555 -0.05227149 0.22400339 -0.07885284 0.5606625 0.41208577 -0.03276158
0.036391832 0.38850448 -0.14213774 -0.13018599 -0.05265681 -0.13040935 -0.23999308 -5.261671e-07
00000000: 2a67 5e3f a83b 6dbc a11a 56bd 2561 653e
00000010: 997d a1bd 9487 0f3f e8fc d23e 0231 06bd
00000020: 9a0f 153d 0fea c63e 8e8c 11be 7a4f 05be
00000030: abae 57bd 078a 05be bfc0 75be ee3d 0db5

running_mean f4 [16]
0.25667515 -4.123219e-10 0.035232104 0.048966717 0.00931835 0.17411642 -0.39257932 -0.45607275
0.15938784 0.16973372 0.074652106 -0.14577936 0.10244086 -0.006320191 0.05070317 3.053518e-08
00000000: ed6a 833e 26ad e2af 8a4f 103d 5391 483d
00000010: feab 183c 934b 323e 2800 c9be 5e82 e9be
00000020: 9136 233e adce 2d3e 34e3 983d 2f47 15be
00000030: 83cc d13d 9b19 cfbb 21ae 4f3d c925 0333

running_var f4 [16]
0.011237128 4.2705146e-21 4.880517e-05 0.0040577515 0.001158543 0.01968442 0.010556256 0.007429653
0.0040169246 0.010300399 0.00056472654 0.008801169 0.003943854 5.07219e-05 0.0033992706 3.2380475e-17
00000000: ee1b 383c e255 a11d 27b4 4c38 e3f6 843b
00000010: 41da 973a 3941 a13c 26f4 2c3c 7274 f33b
00000020: 68a0 833b 01c3 283c 280a 143a c732 103c
00000030: 723b 813b 3abe 5438 4cc6 5e3b 1e54 1524

weight f4 [16, 16]
-0.19720255 8.889182e-10 0.0055759163 0.119607955 0.040899042 -0.36595985 -0.56666183 -0.47583887
-0.33048496 0.16493453 0.0011089556 0.030435147 0.16614085 -0.008203073 0.20323917 1.8911894e-10
-1.581404e-08 -1.6064318e-18 2.7132087e-11 5.2020597e-09 2.139963e-11 -1.830176e-08 -1.1387965e-08 -1.6055777e-08
1.1112977e-08 -2.3094046e-08 4.625277e-11 2.7587552e-09 7.9948276e-10 8.3819875e-11 -2.83497e-10 2.2947223e-20
-0.01592043 3.893776e-08 -0.00032598875 -0.04981486 -0.0069133528 0.18546629 0.15023774 0.031694397
-0.09297067 0.136167 -0.00020717652 0.2467042 -0.13415273 -0.0018351852 0.10139127 -1.0951589e-10
-0.21535127 2.466572e-10 0.0004945168 0.06374147 0.05582134 0.18898131 -0.39143813 0.084776096
-0.24356046 -0.30790192 -0.0010219747 -0.3604795 -0.104708456 0.0021278888 -0.4303573 1.6998591e-10
0.008863472 -5.141533e-12 6.717933e-06 -0.0007804102 -1.3387118e-05 0.0064530466 0.014469378 0.013399605
-0.0054560145 0.007229771 -0.00023732269 -0.005345971 -0.00062024227 -0.0001764879 -0.0018311723 -4.1160894e-12
-0.21384215 2.4340108e-10 0.0033000452 -0.18571547 0.014601829 0.09764258 -0.5409113 -0.31562358
0.15752377 -0.21942315 -0.017753476 0.14364837 0.22253808 -0.004614437 -0.28214464 -9.021292e-08
-0.0029006444 -5.0497497e-13 -2.710768e-06 0.0044583026 -0.0036922877 -0.015885118 -0.003343203 -0.00012410802
-0.0009404867 -0.007970327 2.7274614e-06 -0.0044467906 0.049921453 -2.7008884e-05 -0.002452198 -2.3359478e-12
2.146195e-10 2.2843064e-20 -6.649311e-14 -1.4669974e-11 -1.2838538e-14 4.6857965e-11 1.4527602e-11 5.486229e-11
-4.3878654e-11 2.943345e-11 -8.147321e-13 1.9450271e-11 4.06697e-11 -1.0457502e-12 5.1891006e-13 9.946762e-21
0.019188296 4.7356364e-12 2.434049e-05 -0.009456099 7.098713e-06 0.01581605 0.018253326 0.0046758736
0.0037437978 0.004846416 5.048295e-06 0.0009937033 0.0085240565 7.691299e-05 0.0024195232 -6.351331e-13
-0.5824805 2.049972e-10 -0.010570274 0.00014716688 -0.0021667015 -0.47573653 -0.32107118 0.36468118
0.14282435 -0.4389224 0.019981515 0.020724673 -0.033615723 0.010195787 0.11416526 -4.0978404e-10
0.045335528 8.439489e-12 0.00031455266 -0.078569844 0.09987516 -0.17171124 -0.009620887 -0.0026042336
-0.0015913507 -0.16644949 -0.004343938 0.13315985 -0.13626936 -0.00012298465 0.110246025 2.4554273e-08
5.026726e-14 -2.1103735e-24 2.0306472e-17 -3.681844e-15 -3.3590078e-17 2.9309014e-14 4.8959656e-14 1.6465135e-14
-2.1216815e-14 3.743767e-14 -5.2762615e-17 8.927904e-15 4.2696707e-15 -3.4927226e-16 1.61687e-15 -1.7640912e-24
0.2353287 7.296684e-11 -0.00019615395 -0.039966345 -0.037755333 0.024281614 -0.029506426 -0.034061212
-0.063894145 0.023295473 0.00045855343 0.09669651 0.022680953 -0.0031520934 0.031612366 5.6915517e-11
-0.00023927857 5.6073883e-14 8.494137e-07 0.00020787414 6.1973446e-07 -0.00022391617 -4.1658288e-05 -0.00020536882
0.00013084449 -0.0003512019 1.017132e-06 -0.00012629101 -4.4401506e-05 3.4524494e-06 -1.43423085e-05 -9.978272e-14
-0.31369537 -2.145266e-09 -0.03729135 0.22805247 -0.040102486 -0.6526075 0.40717843 -0.21449557
0.18915969 -0.062051706 -0.060483657 -0.63333535 -0.2891856 0.041288376 -0.0039549214 3.9214085e-10
-2.7839057e-12 1.2580781e-21 1.4707632e-15 1.5524294e-12 4.339833e-15 -3.843604e-12 -3.4334087e-12 -1.1190437e-11
1.2196596e-12 -7.828032e-12 1.101413e-14 3.0098954e-13 -1.3476506e-12 6.8874045e-14 1.3779697e-13 -2.3460022e-22
00000000: 77ef 49be 0f58 7430 2db6 b63b 04f5 f43d
00000010: c185 273d 175f bbbe c010 11bf 27a1 f3be
00000020: 5335 a9be 99e4 283e 605a 913a 2153 f93c
00000030: d420 2a3e 2f66 06bc ee1d 503e 40f0 4f2f
00000040: 71d7 87b2 4711 eda1 07a8 ee2d cdbd b231
00000050: af3b bc2d ff35 9db2 cda4 43b2 07eb 89b2
00000060: 64eb 3e32 5860 c6b2 fd6b 4b2e 8994 3d31
00000070: 99c2 5b30 6552 b82e a8da 9baf fbba d81e
00000080: 906b 82bc 853c 2733 78e9 aab9 ab0a 4cbd
00000090: 6889 e2bb e0ea 3d3e ecd7 193e fcd1 013d
000000a0: 6867 bebd 5d6f 0b3e 863d 59b9 07a0 7c3e
000000b0: 555f 09be 998a f0ba 3aa6 cf3d f7d3 f0ae
000000c0: 0b85 5cbe ea99 872f 76a2 013a e38a 823d
000000d0: eba4 643d 5184 413e 946a c8be 179f ad3d
000000e0: ea67 79be 52a5 9dbe c8f3 85ba c590 b8be
000000f0: 6371 d6bd 0d74 0b3b cb57 dcbe c8e6 3a2f
00000100: 1938 113c d0e6 b4ac 9b6a e136 7194 4cba
00000110: 3c99 60b7 1474 d33b f810 6d3c 048a 5b3c
00000120: 5ec8 b2bb b7e7 ec3b d3d9 78b9 412d afbb
00000130: c197 22ba 9c0f 39b9 f203 f0ba 70d2 90ac
00000140: 70f9 5abe a8cf 852f 9245 583b 322c 3ebe
00000150: 833c 6f3c d5f8 c73d 2a79 0abf 6a99 a1be
00000160: e94d 213e 76b0 60be bd6f 91bc 8f18 133e
00000170: 06e1 633e b434 97bb 4375 90be 14bb c1b3
00000180: bd18 3ebb 4823 0eab a4ea 35b6 f416 923b
00000190: 4ffa 71bb 8221 82bc a419 5bbb fe22 02b9
000001a0: fe8a 76ba f995 02bc 6e09 3736 62b6 91bb
000001b0: 707a 4c3d 2391 e2b7 0eb5 20bb b260 24ac
000001c0: 05fa 6b2f 24bf d71e abba 95a9 d809 81ad
000001d0: 4e47 67a8 6115 4e2e 8192 7f2d 7249 712e
000001e0: f9fa 40ae 1e73 012e a353 65ab 1e16 ab2d
000001f0: 03de 322e 1f2d 93ab 690f 122b 97e3 3b1e
00000200: c630 9d3c d29e a62c ce2e cc37 c1ed 1abc
00000210: 7b31 ee36 a990 813c 0088 953c 1238 993b
00000220: 815a 753b afce 9e3b 8664 a936 263f 823a
00000230: 7ca8 0b3c 594c a138 dd90 1e3b 2ac6 32ab
00000240: 711d 15bf 9565 612f f12e 2dbc cf50 1a39
00000250: 38ff 0dbb bd93 f3be 7163 a4be 7eb7 ba3e
00000260: 8c40 123e 70ba e0be 46b0 a33c cac6 a93c
00000270: a4b0 09bd 3b0c 273c 7acf e93d fa47 e1af
00000280: bfb1 393d 1478 142d 8bea a439 3ae9 a0bd
00000290: 598b cc3d 12d5 2fbe eda0 1dbc caab 2abb
000002a0: de94 d0ba bc71 2abe 9857 8ebb 0e5b 083e
000002b0: 328a 0bbe 71f5 00b9 abc8 e13d 6beb d232
000002c0: 3462 6229 4148 2398 4d4b bb23 04a7 84a7
000002d0: 2ae8 1aa4 fefe 0329 a47e 5c29 044e 9428
000002e0: a51a bfa8 b29a 2829 1a53 73a4 b1d4 2028
000002f0: c3d4 9927 7d57 c9a5 f903 e926 6d7d 0898
00000300: 02fa 703e ae74 a02e adae 4db9 c0b3 23bd
00000310: 56a5 1abd 3cea c63c 76b7 f1bc c583 0bbd
00000320: efda 82bd 26d6 be3c 006a f039 d208 c63d
00000330: 68cd b93c 5a93 4ebb f87b 013d 2d51 7a2e
00000340: dae6 7ab9 c988 7c29 4403 6435 caf8 5939
00000350: d45b 2635 0acb 6ab9 3fba 2eb8 4658 57b9
00000360: 4d33 0939 8521 b8b9 6484 8835 fc6c 04b9
00000370: c13b 3ab8 a1b0 6736 bf9f 70b7 d2b0 e0a9
00000380: ae9c a0be eb6b 13b1 d1be 18bd 9686 693e
00000390: 8142 24bd 4911 27bf b179 d03e baa4 5bbe
000003a0: 14b3 413e ee29 7ebd b6bd 77bd 4422 22bf
000003b0: 2310 94be 001e 293d 4998 81bb eb94 d72f
000003c0: 63e6 43ac 8a1d be1c 96f5 d326 2a7c da2b
000003d0: e55b 9c27 1b3c 87ac cb9a 71ac 3fdd 44ad
000003e0: dea6 ab2b 52b6 09ad b669 4628 2a71 a92a
000003f0: 3baa bdab 2f17 9b29 4625 1b2a a0ce 8d9b

bias f4 [16]
-0.00032302222 -1.4858933e-09 -9.868463e-05 -0.00042594166 -3.107026e-05 0.00017832474 0.00042347738 -1.5632945e-09
-8.582598e-05 -2.8743838e-05 0.0001760806 -9.294573e-05 -1.5500846e-05 6.3941484e-06 0.000351624 -2.4872374e-10
00000000: 4f5b a9b9 3938 ccb0 e8f4 ceb8 ec50 dfb9
00000010: 7051 02b8 affc 3a39 2c06 de39 89db d6b0
00000020: 79fd b3b8 ec1e f1b7 47a2 3839 dceb c2b8
00000030: d007 82b7 518d d636 2d5a b839 c1bc 88af

weight f4 [16]
-0.4182471 9.681108e-05 0.19244559 -0.44851646 -0.022666257 -0.20846412 0.0698538 -7.939064e-11
0.0024175644 0.3984131 -0.0992635 -2.1964255e-11 -0.097870424 5.5670385e-05 -0.37197244 2.1040036e-05
00000000: 7c24 d6be 0e07 cb38 7510 453e f3a3 e5be
00000010: 96ae b9bc 9e77 55be 820f 8f3d f594 aeae
00000020: 0070 1e3b cdfc cb3e a94a cbbd 1b33 c1ad
00000030: 4a70 c8bd 9f7f 6938 2c73 bebe 227f b037

bias f4 [16]
-0.10874134 -1.5733237e-06 -0.18632166 -0.32197675 -0.10794982 -0.05564132 -0.11895547 -0.0349589
-0.11261388 -0.002326235 -0.23489542 -2.364056e-06 -0.2006874 -0.013571357 -0.07116965 -1.2141756e-09
00000000: c8b3 debd fe2a d3b5 1bcb 3ebe 23da a4be
00000010: cc14 ddbd 27e8 63bd ed9e f3bd 1031 0fbd
00000020: 1ba2 e6bd bf73 18bb 6d88 70be 2ca6 1eb6
00000030: ff80 4dbe 665a 5ebc 65c1 91bd 02e0 a6b0

running_mean f4 [16]
-0.6589496 -1.0499792e-08 0.2353657 -0.4927053 0.0017332699 -0.52903533 -0.012926616 2.1123395e-10
0.037691448 -1.0551327 -0.13660167 6.951758e-07 0.20515363 -0.00024469706 -0.5467704 1.177299e-11
00000000: ecb0 28bf 9362 34b2 b503 713e de43 fcbe
00000010: e32e e33a dc6e 07bf 28ca 53bc 1241 682f
00000020: 5962 1a3d 970e 87bf 4fe1 0bbe 1e9c 3a35
00000030: cb13 523e af4a 80b9 25f9 0bbf d51c 4f2d

running_var f4 [16]
0.20503704 2.0532527e-16 0.06083272 0.14697827 5.6510446e-05 0.18515919 8.281055e-05 4.881105e-21
0.00075512234 0.49691415 0.0073340014 1.602237e-23 0.018207861 1.528127e-07 0.23263304 2.2927264e-23
00000000: 3bf5 513e 53b9 6c25 bb2b 793d 7981 163e
00000010: a105 6d38 5f9a 3d3e 93aa ad38 2767 b81d
00000020: 67f3 453a 886b fe3e 1052 f03b 77f5 9a19
00000030: a728 953c d614 2434 5b37 6e3e 28bd dd19

weight f4 [1, 16]
-0.33872887 9.785372e-07 0.11399042 0.29046702 0.02177735 -0.47800452 -0.0005162325 0.0100713745
0.28916666 0.5558748 0.13173719 3.0429726e-06 -0.026369821 0.018149842 -0.52410007 1.2019477e-09
00000000: df6d adbe 4856 8335 cf73 e93d 18b8 943e
00000010: 6a66 b23c 02bd f4be c753 07ba 6802 253c
00000020: a70d 943e d04d 0e3f 1de6 063e df35 4c36
00000030: 8605 d8bc faae 943c 6c2b 06bf c631 a530

weight f4 [1, 16]
0.4487922 -3.4667676e-07 0.39696237 0.9910419 -0.015764125 0.08435003 0.017447066 -0.0072457152
-0.0020298448 0.51586443 -0.030118592 1.7916464e-07 -0.19671983 -0.0016462567 0.43584666 -2.3949816e-11
00000000: 17c8 e53e e41e bab4 a73e cb3e ecb4 7d3f
00000010: c423 81bc b5bf ac3d 26ed 8e3c 776d edbb
00000020: 2507 05bb b10f 043f 44bb f6bc 6760 4034
00000030: ec70 49be 35c7 d7ba 4b27 df3e 31aa d2ad

weight f4 [16, 2]
-0.21908273 -0.28880256 0.15880401 0.6595866 -0.79886323 0.6033872 -0.24203749 0.28856272
0.06040458 -0.11523674 -0.11139042 -0.61221004 0.24261114 0.5301619 -0.6473302 0.6826115
-0.0055411225 -0.0007534561 0.7858101 -0.0809075 0.5152422 -0.24147756 0.5635563 0.5147647
-0.22810782 -0.39009488 0.43676996 0.43176734 0.32851693 -0.35369965 0.20126009 -0.23800951
00000000: 3957 60be eedd 93be 859d 223e abda 283f
00000010: 4d82 4cbf 9577 1a3f add8 77be 7ebe 933e
00000020: cb6a 773d 3d01 ecbd a920 e4bd ccb9 1cbf
00000030: 0e6f 783e b1b8 073f 6fb7 25bf a1bf 2e3f
00000040: 4e92 b5bb 9583 45ba da2a 493f d5b2 a5bd
00000050: eae6 033f e545 77be 3a45 103f 9fc7 033f
00000060: 1995 69be 84ba c7be 50a0 df3e 9c10 dd3e
00000070: 5f33 a83e 1f18 b5be 2017 4e3e c4b8 73be

bias f4 [16]
1.5878524e-05 7.815565e-05 0.00020541325 0.00058355246 8.34424e-09 -8.5675805e-05 1.2065439e-05 -2.2524875e-05
1.5174722e-05 -0.00011687046 -0.0003117741 0.00046529935 -0.00020061714 1.5280566e-05 2.8572751e-05 0.00025045226
00000000: df32 8537 7fe7 a338 3364 5739 8bf9 183a
00000010: 5b5a 0f32 d9ac b3b8 aa6c 4a37 cdf3 bcb7
00000020: ef96 7e37 5a18 f5b8 9d75 a3b9 6cf3 f339
00000030: c15c 52b9 c42e 8037 84af ef37 224f 8339

weight f4 [16]
0.021685626 0.3254615 -0.6671453 -0.45043787 0.012236651 -0.5796888 0.24382335 0.5373933
0.0043068435 0.41450655 -0.8132906 0.5766926 -0.4463765 0.0035797043 0.022751411 0.5497613
00000000: 0ea6 b13c e4a2 a63e 09ca 2abf cb9f e6be
00000010: 3c7c 483c 7c66 14bf d4ac 793e 9b92 093f
00000020: 6c20 8d3b 343a d43e d033 50bf 20a2 133f
00000030: 768b e4be 7999 6a3b 2b61 ba3c 28bd 0c3f

bias f4 [16]
0.27155253 -0.08111241 0.054433048 0.45127535 0.06317201 -0.34768102 -0.05996648 0.19789357
-0.025325425 -0.39070228 0.118876055 0.28272444 0.098867565 -0.22911584 -0.22533013 0.45920703
00000000: ef08 8b3e 431e a6bd 30f5 5e3d 900d e73e
00000010: 5460 813d 3f03 b2be 699f 75bd 9da4 4a3e
00000020: 4477 cfbc 210a c8be 4a75 f33d 42c1 903e
00000030: 147b ca3d 589d 6abe f1bc 66be 2f1d eb3e

running_mean f4 [16]
-0.24874622 0.4031265 -0.06131293 0.039804526 -0.044096272 -0.35682753 0.37723157 0.039373305
-0.0017703732 0.32081124 0.12336594 0.51444894 -0.29955825 0.42150894 -0.024305193 -0.038528565
00000000: 54b7 7ebe 9966 ce3e 4423 7bbd 120a 233d
00000010: 4b9e 34bd 19b2 b6be 7f24 c13e e745 213d
00000020: de0b e8ba 5f41 a43e 48a7 fc3d edb2 033f
00000030: b35f 99be 05d0 d73e af1b c7bc 21d0 1dbd

running_var f4 [16]
0.0030865464 0.015952593 0.021101598 0.0039487826 0.0010132574 0.01376905 0.01055514 0.022527
2.8182992e-06 0.0052603562 0.0046141916 0.0108282985 0.005676723 0.007653667 0.006286937 0.0027800468
00000000: a847 4a3b 03af 823c 42dd ac3c ca64 813b
00000010: 47cf 843a 9597 613c 77ef 2c3c 8b8a b83c
00000020: 0322 3d36 115f ac3b a532 973b 2d69 313c
00000030: ce03 ba3b 9dcb fa3b a602 ce3b 7231 363b

weight f4 [16, 16]
-0.23045832 -0.22669195 0.47521102 -0.5245211 0.014619455 0.0063465335 0.5752993 0.46433732
0.00017592784 -0.042759567 -0.14838026 0.5902957 -0.021642542 0.27582797 -0.061076455 -0.16088116
-0.0021132252 -0.25841907 -0.06324668 0.44780022 -0.0019319188 -0.035682254 0.08731328 0.047578637
-0.0032606735 0.113175735 -0.4223501 -0.013284378 0.28219637 0.29519957 0.06765258 -0.17161939
0.1782423 -0.46983397 0.29349762 0.13762008 0.05548537 -0.03432212 -0.372171 -0.0111994995
-0.0038327966 0.07836042 0.22882703 0.2920572 0.09440423 0.14776658 -0.31397623 0.6126712
0.015481617 -0.30999184 -0.5443777 -0.43432623 -0.002493223 0.50923914 0.28221676 -0.035932586
-0.000582954 0.22534446 0.38225362 0.3057461 0.0859176 0.14813279 -0.33228272 0.5462572
-0.11948665 -0.3527617 0.6576341 -0.005063616 -0.14001761 0.02942495 -0.47332442 0.15343963
-0.00031212182 -0.034664378 -0.19855079 0.33712184 -0.5785278 -0.008186917 -0.002420023 0.24535891
0.02090993 0.11272963 0.021308314 0.3865449 -0.0045052646 0.4276118 -0.45821273 0.3909022
-0.0005832767 -0.34897745 -0.5750682 -0.13033372 0.12042572 -0.11682036 0.29070437 0.531123
-0.26888326 -0.20333642 -0.40617344 -0.5959931 -0.027445879 -0.009139602 -0.33067223 0.4475363
1.0096999e-05 -0.09384486 -0.06184624 -0.07792413 0.5874285 0.03428058 0.011197024 -0.10963
-0.003153266 0.06720547 -0.017349968 -0.2073835 0.00073954504 -0.15042432 0.015328728 -0.13776278
-0.0019162799 0.21727559 -0.059023954 0.13298494 -0.2294283 -4.573981e-05 0.0011723288 -0.23044845
-0.0021249002 -0.0198986 0.19091561 0.123580985 -0.00040340557 -0.20665823 0.104000375 -0.037980974
0.0040112436 -0.21728195 -0.31593102 0.008613665 -0.07423708 0.08191212 -0.00046321456 0.16405211
0.06963887 -0.33233303 0.35821047 0.47226492 -0.004868265 -0.5522531 -0.039598063 -0.06942891
-0.003127133 0.15848641 -0.57540846 0.13794608 0.025972972 0.05914087 0.22248735 0.3252452
0.00035000814 0.00698464 -0.01705881 0.056609944 -0.00024333685 -0.02152937 0.0005944855 0.015379226
0.0030773699 0.011352561 0.032387435 0.028469875 0.02086683 -0.00016307949 0.0014789739 -0.09174922
0.080088936 -0.6454849 0.36831895 0.19818915 0.03464895 0.49268308 0.2354436 0.48784274
-0.0014676567 0.52739537 -0.6386822 -0.17942433 -0.036522143 0.20529939 -0.101197876 0.39854467
0.3379684 0.5153396 -0.45097435 0.13264157 -0.05308606 0.33598632 0.21072428 -0.14111002
-0.013482502 0.57055813 -0.16263238 0.053427517 -0.35940367 -0.21404995 0.1961796 -0.4746594
0.025953311 -0.14886874 -0.15257472 0.05341133 -0.0028524413 -0.20685674 0.09824037 0.42263228
0.00041520243 0.15237963 0.13891 -0.46721384 0.27511227 -0.0029012165 -0.0054462436 -0.3543043
0.011234807 -0.24407269 -0.17559038 0.0503729 0.003492388 0.38995126 -0.18443872 -0.12576897
0.0013230814 0.45553005 -0.3583973 0.017969282 0.15603024 -0.056589745 -0.109300405 0.16879928
0.22695647 0.11559713 -0.24453454 -0.45546278 -0.086364195 0.26933685 0.44244784 -0.5097542
7.325712e-05 -0.12714499 0.26933268 0.24227057 0.12287603 0.20915462 0.3704948 -0.6027501
00000000: 44fd 6bbe ef21 68be dc4e f33e 0447 06bf
00000010: 7086 6f3c 95f6 cf3b d146 133f 9fbd ed3e
00000020: 4579 3839 a824 2fbd fff0 17be 9e1d 173f
00000030: b34b b1bc 5339 8d3e 4e2b 7abd 08be 24be
00000040: 097e 0abb 814f 84be 7a87 81bd 1246 e53e
00000050: 7038 fdba 8e27 12bd 4ed1 b23d d1e1 423d
00000060: 06b1 55bb aec8 e73d 463e d8be b8a6 59bc
00000070: 0b7c 903e 6624 973e 708d 8a3d febc 2fbe
00000080: 2685 363e 148e f0be 5245 963e 47ec 0c3e
00000090: a144 633d 5a95 0cbd 338d bebe 1b7e 37bc
000000a0: a82f 7bbb 6e7b a03d a251 6a3e 8588 953e
000000b0: 0157 c13d 1f50 173e 7ec1 a0be 05d8 1c3f
000000c0: 9ca6 7d3c 40b7 9ebe 565c 0bbf 0260 debe
000000d0: 5765 23bb 7f5d 023f b77e 903e 0c2e 13bd
000000e0: 61d1 18ba b3c0 663e bfb6 c33e c18a 9c3e
000000f0: 91f5 af3d 1fb0 173e f620 aabe 83d7 0b3f
00000100: 6bb5 f4bd 2e9d b4be b55a 283f b1ec a5bb
00000110: c760 0fbe 980c f13c 9457 f2be 471f 1d3e
00000120: 48a4 a3b9 3cfc 0dbd e650 4bbe 3c9b ac3e
00000130: 661a 14bf 6b22 06bc 4099 1ebb 5e3f 7b3e
00000140: 4d4b ab3c cbde e63d c68e ae3c 37e9 c53e
00000150: e6a0 93bb efef da3e dc9a eabe 5524 c83e
00000160: 09e7 18ba 2cad b2be ab37 13bf 3476 05be
00000170: c3a1 f63d 833f efbd 34d7 943e adf7 073f
00000180: 11ab 89be 6c37 50be f7f5 cfbe 0193 18bf
00000190: 2ed6 e0bc 45be 15bc df4d a9be 7a23 e53e
000001a0: 4866 2937 bc31 c0bd 7c52 7dbd b096 9fbd
000001b0: b761 163f cb69 0c3d b973 373c b285 e0bd
000001c0: 06a7 4ebb 05a3 893d 8521 8ebc 575c 54be
000001d0: 07de 413a d508 1abe 5825 7b3c b011 0dbe
000001e0: af2b fbba 7e7d 5e3e 1ac3 71bd 342d 083e
000001f0: 41ef 6abe bfd8 3fb8 d4a8 993a aefa 6bbe
00000200: e941 0bbb 6402 a3bc 627f 433e 0718 fd3d
00000210: 2e80 d3b9 379e 53be 26fe d43d f091 1bbd
00000220: c070 833b 297f 5ebe b6c1 a1be 5420 0d3c
00000230: 9c09 98bd 8bc1 a73d 9bdb f2b9 47fd 273e
00000240: d39e 8e3d 8e27 aabe 5d67 b73e b5cc f13e
00000250: f785 9fbb 7660 0dbf 9431 22bd bf30 8ebd
00000260: 96f0 4cbb 434a 223e f84d 13bf bd41 0d3e
00000270: 45c5 d43c b23d 723d b9d3 633e 8a86 a63e
00000280: 4c81 b739 68df e43b ebbe 8bbc d4df 673d
00000290: 3d28 7fb9 5d5e b0bc 3fd7 1b3a 26f9 7b3c
000002a0: b3ad 493b 1800 3a3c b0a8 043d a839 e93c
000002b0: eaf0 aa3c 5100 2bb9 21da c13a 04e7 bbbd
000002c0: ab05 a43d 803e 25bf 4d94 bc3e 19f2 4a3e
000002d0: 0fec 0d3d f540 fc3e 2118 713e 86c6 f93e
000002e0: 635e c0ba 6203 073f ad80 23bf 03bb 37be
000002f0: 3e98 15bd 013a 523e d540 cfbd 0c0e cc3e
00000300: 320a ad3e 4ced 033f 1ce6 e6be 31d3 073e
00000310: c570 59bd 6606 ac3e 1bc8 573e 257f 10be
00000320: b6e5 5cbc 1910 123f 1a89 26be d0d6 5a3d
00000330: c203 b8be e92f 5bbe 4ee3 483e 8f06 f3be
00000340: 0a9c d43c 0c71 18be 8c3c 1cbe d7c5 5a3d
00000350: 06f0 3abb 41d2 53be 3f32 c93d 4263 d83e
00000360: 87af d939 6809 1c3e 6c3e 0e3e a736 efbe
00000370: 84db 8c3e 5622 3ebb 6776 b2bb 6067 b5be
00000380: 3212 383c 31ee 79be f7cd 33be d053 4e3d
00000390: 8ce0 643b b1a7 c73e 81dd 3cbe 95c9 00be
000003a0: 3f6b ad3a 3c3b e93e da7f b7be 5134 933c
000003b0: 64c6 1f3e a6ca 67bd e4d8 dfbd b8d9 2c3e
000003c0: 4767 683e 30be ec3d 4367 7abe 6b32 e9be
000003d0: b6df b0bd 85e6 893e 8688 e23e 407f 02bf
000003e0: 9ea1 9938 4c32 02be f9e5 893e c715 783e
000003f0: 6ea6 fb3d a12c 563e 7fb1 bd3e d54d 1abf

bias f4 [16]
0.00034187906 3.144255e-05 6.321752e-05 -6.394048e-05 -1.635659e-05 2.150047e-06 2.6009718e-07 5.9275003e-06
0.00029314728 -7.900231e-06 2.3320368e-07 -0.00012354297 -6.110183e-05 1.01723535e-05 4.891514e-08 9.7737684e-05
00000000: 3b3e b339 2ee1 0338 a693 8438 c917 86b8
00000010: 8235 89b7 8749 1036 7ca3 8b34 d7e4 c636
00000020: 90b1 9939 3c8b 04b7 8a66 7a34 508b 01b9
00000030: cc23 80b8 eda9 2a37 c416 5233 85f8 cc38

weight f4 [16]
-0.22543903 0.006273604 0.3344685 -0.08553534 -0.03971743 -0.1210885 0.37849155 0.0010728275
-0.043736044 0.13983938 -0.0017596299 0.25845012 -0.65425617 0.014270763 0.020180704 0.27295798
00000000: 7dd9 66be ce92 cd3b 753f ab3e 272d afbd
00000010: beae 22bd 3ffd f7bd a5c9 c13e 1e9e 8c3a
00000020: 9124 33bd 0e32 0f3e 62a3 e6ba 9353 843e
00000030: 557d 27bf ebcf 693c 0152 a53c 26c1 8b3e

bias f4 [16]
0.09096291 -0.086128354 -0.108879246 -0.14212492 0.1824825 -0.24325141 -0.20460956 -0.068291284
-0.2053672 -0.18418558 -0.033793896 -0.12334507 -0.00658729 -0.20085615 -0.11487149 0.055470176
00000000: c34a ba3d 1064 b0bd 15fc debd 3289 11be
00000010: b1dc 3a3e e616 79be 2b85 51be 4ddc 8bbd
00000020: c74b 52be 259b 3cbe 786b 0abd 579c fcbd
00000030: 32da d7bb 3cad 4dbe be41 ebbd b234 633d

running_mean f4 [16]
0.093323685 8.188407e-05 0.6776212 0.24791615 0.17069668 0.344278 -0.37548047 -0.3097576
0.036082465 0.25484002 0.02724402 0.28936374 -0.275045 -0.12972237 -0.081133194 -0.43189794
00000000: 7d20 bf3d 2db9 ab38 9578 2d3f bbdd 7d3e
00000010: 1ccb 2e3e 3545 b03e fa3e c0be 8c98 9ebe
00000020: 35cb 133d 647a 823e da2e df3c 7c27 943e
00000030: b3d2 8cbe f1d5 04be 2929 a6bd ba21 ddbe

running_var f4 [16]
0.22075862 0.07309752 0.12830582 0.19837852 0.24046677 0.27697995 0.3661438 0.02133676
0.16400109 0.67448276 0.005065874 0.3239442 0.10789677 0.14242898 0.08318393 0.44535944
00000000: 8c0e 623e 27b4 953d 9a62 033e bd23 4b3e
00000010: ec3c 763e 51d0 8d3e 3377 bb3e 6eca ae3c
00000020: e7ef 273e e7aa 2c3f a2ff a53b 04dc a53e
00000030: fbf8 dc3d e7d8 113e 565c aa3d 2706 e43e

weight f4 [1, 16]
-0.7252403 -0.61191803 0.00027975364 0.08658866 0.28990376 -0.6972345 -0.0074823746 -0.19869927
0.735116 0.21911283 -0.15155964 -0.7164406 -0.024576318 -0.32693836 0.28281096 0.62326515
00000000: 59a9 39bf a9a6 1cbf e6ab 9239 6555 b13d
00000010: 446e 943e f67d 32bf b52e f5bb d277 4bbe
00000020: 9030 3c3f 1d5f 603e 7332 1bbe a768 37bf
00000030: 4654 c9bc 7764 a7be 99cc 903e 4e8e 1f3f

weight f4 [1, 16]
0.4925053 -0.6108936 0.474051 0.24323682 -0.109260015 -0.64441156 0.48257545 0.03543266
0.32206258 0.22511931 0.0109291645 -0.3769343 -0.23180231 -0.12648678 0.20861478 -0.4677026
00000000: a829 fc3e 8663 1cbf d0b6 f23e 1313 793e
00000010: b7c3 dfbd 28f8 24bf 2114 f73e d621 113d
00000020: 63e5 a43e ad85 663e 3d10 333c 88fd c0be
00000030: 965d 6dbe c085 01be 1d9f 553e b776 efbe

weight f4 [16, 2]
0.6044172 0.43207708 -0.010180618 0.028833855 0.0040150317 -0.010346448 1.01676e-39 -2.6194052e-23
0.019632552 -0.009057549 -0.33270928 0.39714947 0.0050998395 -0.5649614 0.104861565 0.41946405
-0.18096937 -0.45651683 -1.7514201e-28 1.7078567e-28 8.786545e-15 5.7951175e-13 2.4016877e-05 -3.66043e-05
0.5989645 -0.21135402 -1.4422372e-29 -1.2908892e-29 -0.5035309 0.49268305 -3.9349547e-05 -0.0004988013
00000000: 16bb 1a3f 3539 dd3e 9bcc 26bc fa34 ec3c
00000010: 8790 833b 2684 29bc 5012 0b00 5555 fd99
00000020: 72d4 a03c 1d66 14bc df58 aabe 2d57 cb3e
00000030: 8e1c a73b 4fa1 10bf a9c1 d63d fec3 d63e
00000040: 0950 39be 93bc e9be d504 5e91 1e7f 5811
00000050: c948 1e28 391e 232b da77 c937 9187 19b8
00000060: bd55 193f 306d 58be 9e42 928f 66e9 828f
00000070: 67e7 00bf f440 fc3e 410b 25b8 fdc1 02ba

bias f4 [16]
-0.00034080635 5.6452907e-05 -3.8105096e-08 0.00016686393 3.3275217e-07 0.00033465534 -3.6633795e-05 -0.00052207086
0.00022256828 -0.00015316122 7.4791747e-06 -1.4130857e-08 -0.00040254678 -0.00010483553 -0.000706261 3.599847e-05
00000000: 41ae b2b9 d9c7 6c38 ffa8 23b3 32f8 2e39
00000010: 1ca5 b234 ae74 af39 3da7 19b8 95db 08ba
00000020: 3861 6939 e799 20b9 9ff5 fa36 2bc4 72b2
00000030: ea0c d3b9 26db dbb8 6024 39ba 10fd 1638

weight f4 [16]
-0.6248582 0.006796103 -1.7313567e-05 9.650453e-14 -0.00082180806 -0.6288429 -0.643144 -0.58848506
0.40141088 -8.209092e-09 -0.00048705854 3.389662e-05 0.502217 -4.9622667e-10 -0.51637536 -0.015722811
00000000: b5f6 1fbf d8b1 de3b 9a3c 91b7 134f d929
00000010: 9b6e 57ba d9fb 20bf 16a5 24bf f5a6 16bf
00000020: ba85 cd3e f807 0db2 e45b ffb9 382c 0e38
00000030: 4b91 003f d966 08b0 2d31 04bf 20cd 80bc

bias f4 [16]
0.36896244 -0.011777918 0.014735721 -2.847291e-21 0.023109278 -0.03202395 -0.24509749 0.46849477
-0.018589012 -3.2863729e-15 -0.00013086932 0.0014624208 0.5119691 -3.1163172e-15 0.053265516 -0.0073098736
00000000: a5e8 bc3e 2bf8 40bc 186e 713c 9e22 579d
00000010: ab4f bd3c 8c2b 03bd d6fa 7abe 8cde ef3e
00000020: fc47 98bc e1ce 6ca7 f739 09b9 b3ae bf3a
00000030: 6810 033f e88d 60a7 f12c 5a3d aa87 efbb

running_mean f4 [16]
0.48912627 0.0093327975 -0.0032568437 -6.613854e-06 0.004589312 0.04467292 -0.2761172 0.25274935
-0.30335623 1.378859e-05 -5.278568e-07 -7.360193e-06 0.16719158 5.7767775e-06 -0.0009280126 -0.0002870137
00000000: c26e fa3e 97e8 183c c570 55bb 93ec ddb6
00000010: f061 963b f4fa 363d 3c5f 8dbe 5d68 813e
00000020: 8251 9bbe 8b55 6737 0bb2 0db5 94f7 f6b6
00000030: 4534 2b3e 24d6 c136 df45 73ba 547a 96b9

running_var f4 [16]
0.0083327005 3.3021664e-05 4.3817276e-06 1.99051e-23 7.03149e-06 0.0073253866 0.011660635 0.0061773816
0.007460141 9.1944585e-23 4.7043937e-25 6.419507e-11 0.004900841 1.0186388e-23 0.011671654 1.0189447e-08
00000000: e185 083c be80 0a38 c106 9336 a482 c019
00000010: 0af0 eb36 cc09 f03b 3f0c 3f3c a26b ca3b
00000020: 3374 f43b f14e de1a 0c98 1117 9d2a 8d2e
00000030: 3c97 a03b 8d08 4519 773a 3f3c a90d 2f32

weight f4 [16, 16]
-0.0075504696 2.797253e-07 5.168531e-07 3.0421418e-31 -7.930468e-06 -0.032155942 -0.007313939 -0.018678289
-0.01752957 7.878296e-25 2.3157112e-15 4.2570876e-09 -0.021046748 -3.0344543e-25 -0.026470406 -1.3568982e-07
-2.6156426e-11 -6.420118e-14 4.7248544e-15 -4.809238e-38 -3.0556284e-13 5.300609e-10 1.2467802e-10 8.926122e-10
3.2062836e-10 -1.5127847e-32 -1.9938539e-22 -2.8544163e-17 4.534258e-10 1.0511845e-32 4.3676945e-10 -3.2286348e-15
1.00689385e-05 -1.0309574e-08 5.418548e-09 -1.5560243e-33 1.1457601e-07 1.8135623e-05 0.00022316376 2.9162293e-05
2.7702286e-05 2.2210605e-26 1.5974085e-16 -1.2837299e-10 -0.00020593959 9.277355e-27 3.3938548e-05 -1.0296666e-09
-0.0010528972 6.365954e-06 -4.1410422e-07 -1.4456471e-30 -5.0671683e-06 0.020495761 0.010031935 0.011582842
0.010464309 2.4959017e-24 5.610806e-14 -1.764241e-08 0.029452967 1.75115e-24 0.016403602 -1.0401559e-06
-0.3440314 0.025924323 -8.917478e-05 1.6710837e-29 -0.0039036314 -0.42075577 -0.35087675 0.15325728
0.017765403 7.832417e-22 1.1537047e-12 -1.2534641e-06 -0.6147215 2.9827202e-22 -0.06694601 3.9079798e-05
0.3158236 0.0010443766 6.19948e-05 -8.163251e-28 -0.0021381136 0.022608092 -0.5093474 0.76267475
-0.09327543 -8.713411e-22 -4.661583e-11 4.308084e-06 0.27981296 -1.6135593e-22 -0.48714674 -0.0015020836
-0.23313326 0.012763915 -0.0007408358 1.262761e-29 0.006044389 0.24988924 -0.17351235 0.060423873
0.1748708 4.2419244e-23 7.5675295e-13 0.0003232031 -0.3988928 8.086285e-24 0.009505615 8.627016e-08
0.014730095 -0.0009787693 1.4979734e-07 1.7795248e-31 -4.3984287e-06 0.02166714 -0.0077721924 0.03353248
0.004701251 -7.07145e-25 -8.280768e-14 3.8012873e-09 0.032880247 -4.450772e-25 0.008636924 -1.1299204e-07
0.28495097 0.003474704 0.0002720832 1.0756547e-28 -0.001213933 0.10176648 0.098916456 -0.06080008
-0.10030803 9.412479e-23 -1.8786366e-12 -3.5259225e-07 -0.3517659 1.1284856e-22 -0.2043066 5.635889e-06
0.4730199 -0.033051014 5.2670537e-05 -1.8106332e-28 -0.0007588909 0.11358612 0.105254725 0.18829055
0.35027388 7.605966e-23 -6.6792573e-13 2.1533073e-07 -0.27535746 9.218029e-23 0.08201061 -1.654001e-05
-0.6164356 -0.002566533 7.542553e-05 -7.734751e-30 0.00093532214 0.41044965 0.5099406 0.06717194
0.09778757 -6.9253046e-22 -7.417028e-12 3.670218e-07 0.48906243 -1.4007265e-22 0.15364411 3.068608e-05
0.27624723 0.0025017473 0.00010561177 -7.9452964e-28 -0.0001691945 0.43821836 -0.08704804 0.4426868
-0.2609004 -1.5632345e-22 1.5906988e-12 3.480897e-07 0.306952 -1.843663e-22 0.4584392 0.00067056506
-7.334518e-13 1.9691532e-16 8.0632785e-17 2.77495e-40 1.6481105e-15 -5.13288e-12 -1.1171747e-12 -2.116793e-12
-1.576724e-12 -7.7801985e-36 -3.608947e-24 -5.8352513e-18 -2.8387234e-12 2.3110913e-35 -4.453218e-12 -1.049698e-17
0.005463099 -1.0814791e-09 3.6233147e-10 4.966902e-34 -0.0005439194 -0.009326784 -0.021950167 -0.001869791
-0.056667097 2.4109923e-28 9.255028e-18 9.620864e-13 0.011912374 4.6417698e-29 -0.0037133014 -1.2146206e-10
-0.0027870312 7.574937e-07 -1.9419929e-07 -4.9248743e-32 -1.8826979e-05 -0.0042579663 0.00042787916 -0.003601507
-0.0036222183 1.7172911e-25 5.857538e-15 3.6517604e-09 -0.0017534605 -5.306514e-25 -0.0048218146 -8.081385e-09
0.38023737 0.0006874886 2.4586325e-05 -1.5033666e-28 6.314651e-05 -0.106974296 -0.12162681 0.2657049
0.41052827 -2.418561e-22 -1.8718832e-13 -4.511747e-06 -0.5692877 7.334239e-25 -0.2422281 3.8396593e-06
00000000: ee69 f7bb 272d 9634 e0bd 0a35 4072 c50c
00000010: 1a0d 05b7 f3b5 03bd c4a9 efbb 3603 99bc
00000020: 2c9a 8fbc 4bd2 7317 55dd 2627 bd45 9231
00000030: 3b6a acbc d9d2 bb96 77d8 d8bc 22b2 11b4
00000040: 0913 e6ad 7691 90a9 173b aa27 7feb 8281
00000050: 3f04 acaa b8b3 1130 be15 092f 005c 7530
00000060: 6e44 b02f b718 9d8a ca0a 719b 00a3 03a4
00000070: 0246 f92f 8e52 5a0a d61d f02f cda5 68a7
00000080: c3ed 2837 fc1d 31b2 0d2e ba31 fa44 0189
00000090: d40c f633 f421 9837 1101 6a39 8ca1 f437
000000a0: 3562 e837 93f6 db14 2d2b 3825 c925 0daf
000000b0: 7df1 57b9 c7c1 3714 3d59 0e38 2c84 8db0
000000c0: 5e01 8aba 219b d536 0d52 deb4 d591 ea8d
000000d0: a506 aab6 bae6 a73c fc5c 243c f6c5 3d3c
000000e0: 7e72 2b3c 6d1c 4118 30b0 7c29 128c 97b2
000000f0: 5947 f13c 197d 0718 d960 863c 7c9b 8bb5
00000100: e224 b0be 3f5f d43c 5803 bbb8 d077 a90f
00000110: 11d4 7fbb 4d6d d7be 1ea6 b3be 7aef 1c3e
00000120: c088 913c 64b8 6c1c 985e a22b b33c a8b5
00000130: 635e 1dbf 5c4b b41b fd1a 89bd 9de9 2338
00000140: a2b3 a13e 77e3 883a 3403 8238 155a 8192
00000150: 981f 0cbb 9b34 b93c 9764 02bf a73e 433f
00000160: 3007 bfbd 60ac 839c c204 4dae 298e 9036
00000170: a543 8f3e 3e11 439b 4c6b f9be 90e1 c4ba
00000180: 7cba 6ebe bd1f 513c a634 42ba 260f 800f
00000190: 0310 c63b f7e2 7f3e 39ad 31be 067f 773d
000001a0: 5511 333e 7b20 4d1a cc01 552b 9673 a939
000001b0: ad3b ccbe 5869 1c19 70bd 1b3c 8643 b933
000001c0: 7f56 713c 0c4a 80ba fbd7 2034 dbfe 660c
000001d0: 3796 93b6 497f b13c e0ad febb 5b59 093d
000001e0: f40c 9a3b cdd9 5a97 6177 baa9 7a9c 8231
000001f0: 70ad 063d a6be 0997 e381 0d3c 08a6 f2b3
00000200: 18e5 913e dcb7 633b 64a6 8e39 fe5a 0811
00000210: d51c 9fba f26a d03d b694 ca3d 8109 79bd
00000220: 4c6e cdbd 6c94 e31a 8232 04ac e94b bdb4
00000230: a91a b4be f06c 081b c035 51be eb1b bd36
00000240: aa2f f23e 8060 07bd 8fea 5c38 6886 6591
00000250: 4ef0 46ba d79f e83d ca8f d73d 3dcf 403e
00000260: 1957 b33e a6e6 b71a 1f01 3cab a935 6734
00000270: a7fb 8cbe d6e0 de1a 2ef5 a73d 67bf 8ab7
00000280: b9ce 1dbf 4733 28bb c62d 9e38 20e1 1c8f
00000290: 6830 753a 7526 d23e 788b 023f 7191 893d
000002a0: d944 c83d f34d 519c 537b 02ad 180b c534
000002b0: 6466 fa3e 6356 299b e254 1d3e edb4 0038
000002c0: 4770 8d3e 5bf4 233b e37b dd38 e7cb 7b92
000002d0: ce69 31b9 285e e03e 3e46 b2bd d8a7 e23e
000002e0: bd94 85be c4fb 3c9b f7de df2b 16e1 ba34
000002f0: d028 9d3e 9be2 5e9b 8bb8 ea3e dcc8 2f3a
00000300: c672 4eab 2507 6325 32ed b924 8b05 0300
00000310: 8c84 ed26 df98 b4ac 763a 9dab c1f4 14ac
00000320: 78e7 ddab 6e77 2585 489d 8b98 6448 d7a2
00000330: e5c1 47ac e4c1 f505 06af 9cac 96a2 41a3
00000340: cc03 b33b 2aa3 94b0 9f31 c72f bb0d 2508
00000350: d095 0eba 5ecf 18bc d6d0 b3bc c613 f5ba
00000360: c21b 68bd 96d0 9811 a2b9 2a23 d166 872b
00000370: 1e2c 433c 9e5d 6b10 dc5a 73bb 888c 05af
00000380: a0a6 36bb 9256 4b35 1885 50b4 cfb6 7f8b
00000390: a1ee 9db7 6986 8bbb f854 e039 4307 6cbb
000003a0: bd62 6dbb 2197 5416 410a d327 73f2 7a31
000003b0: 5fd4 e5ba 893a 2497 5000 9ebb 4fd6 0ab2
000003c0: 79ae c23e 9438 343a bb3e ce37 0993 3e91
000003d0: 866d 8438 5715 dbbd 7a17 f9bd 790a 883e
000003e0: c330 d23e 6b31 929b 5cc1 52aa 9d63 97b6
000003f0: d7bc 11bf d4fb 6217 a50a 78be 6cd6 8036

bias f4 [16]
-2.461346e-06 4.1640662e-05 -0.00017906674 -1.0069683e-05 -1.4384862e-05 0.00039061948 -4.8880134e-05 2.2030133e-06
1.19881215e-05 0.00019277546 -0.0001283815 -1.9557649e-05 -3.4920105e-09 2.34148e-06 -2.0535972e-05 -0.0001945143
00000000: 9a2d 25b6 52a7 2e38 ddc3 3bb9 f6f0 28b7
00000010: 8356 71b7 0fcc cc39 a504 4db8 7bd7 1336
00000020: 9720 4937 c523 4a39 269e 06b9 bb0f a4b7
00000030: 19f8 6fb1 5222 1d36 aa44 acb7 89f6 4bb9

weight f4 [16]
0.012222452 -1.09785515e-05 0.00015870931 -0.03901293 -0.17096747 -0.46076706 0.053553358 0.0316784
-0.14943552 0.29834434 -0.56948864 0.31491372 1.8046285e-11 -0.00074195495 0.008967974 0.24423087
00000000: ae40 483c 8530 38b7 356b 2639 06cc 1fbd
00000010: 1912 2fbe a9e9 ebbe c45a 5b3d 36c1 013d
00000020: a005 19be 97c0 983e 02ca 11bf 5f3c a13e
00000030: 9fbc 9e2d c17f 42ba 69ee 123c a817 7a3e

bias f4 [16]
-0.044341877 -2.1143943e-07 -0.006920348 -0.20476885 -0.01914353 -0.08268267 0.015313857 -0.15935034
0.09745459 -0.035506967 -0.13010843 0.09805538 -0.0029016682 -0.0027710476 -0.021659072 0.02670377
00000000: d49f 35bd 0708 63b4 16c4 e2bb edae 51be
00000010: e4d2 9cbc 8855 a9bd f9e6 7a3c bc2c 23be
00000020: 4696 c73d c16f 11bd 253b 05be 42d1 c83d
00000030: ea29 3ebb 779a 35bb 5e6e b1bc ddc1 da3c

running_mean f4 [16]
-0.047229268 2.6884004e-06 -4.06403e-05 0.032638535 -0.59646314 0.5259807 -0.23455402 0.05126028
-0.106859855 0.2980336 0.2525723 0.7016355 1.1058031e-10 -0.007531358 -0.0066671185 0.0044753514
00000000: 7a73 41bd 5e6a 3436 3175 2ab8 fcaf 053d
00000010: cfb1 18bf aca6 063f ee2e 70be 4df6 513d
00000020: 57d9 dabd dc97 983e 2851 813e 629e 333f
00000030: 2e2b f32e 9cc9 f6bb d877 dabb f8a5 923b

running_var f4 [16]
0.0020904168 8.3358537e-19 1.1801403e-08 0.0007756943 0.16640584 0.30588087 0.010661354 0.0021645648
0.03040558 0.11847967 0.1131811 0.44829884 2.9229537e-23 0.00015340574 4.76023e-05 0.08997226
00000000: 60ff 083b ee07 7621 1fbf 4a32 f757 4b3a
00000010: 4b66 2a3e 6b9c 9c3e f6ac 2e3c 5fdb 0d3b
00000020: 1f15 f93c 78a5 f23d 7ecb e73d 6d87 e53e
00000030: 6a58 0d1a 8adb 2039 95a8 4738 6043 b83d

weight f4 [1, 16]
0.002891996 1.3934161e-07 0.0043178615 -0.022876183 -0.16495484 0.36138076 0.018867837 -0.04780111
-0.04954383 -0.15685023 -0.2565361 -0.5953071 0.00044103913 0.0001826914 -0.008292677 -0.14729649
00000000: a487 3d3b ee9d 1534 d97c 8d3b d566 bbbc
00000010: ece9 28be e606 b93e b990 9a3c 19cb 43bd
00000020: 79ee 4abd 599d 20be b358 83be 0c66 18bf
00000030: 453b e739 d990 3f39 02de 07bc e4d4 16be

weight f4 [1, 16]
0.007430268 8.852624e-08 0.00019082033 0.0016675997 0.17905478 0.02798101 -0.07949383 0.00645609
0.4274263 0.349284 -1.0542834 0.07675952 0.0004602831 4.4220465e-05 0.0008107226 -0.6766384
00000000: 9b79 f33b d11b be33 f116 4839 5c93 da3a
00000010: 235a 373e 6e38 e53c a9cd a2bd 9c8d d33b
00000020: 9fd7 da3e 5ad5 b23e c2f2 86bf 1834 9d3d
00000030: 2752 f139 5d79 3938 ac86 543a 2d38 2dbf

weight f4 [16, 2]
0.19293179 -0.23852558 -0.41668025 -0.7235954 0.25335786 0.3116959 0.16901945 0.017312251
0.28575146 -0.561868 0.2468467 -0.726446 0.024751648 -0.0040854197 -0.14246066 0.5838659
0.00092480186 0.001747339 0.19280054 0.21555994 0.033469565 0.18139942 0.398361 -0.32294938
-0.58215016 -0.12797284 -0.17021707 0.5946543 0.2105212 0.39848787 -0.30492178 0.7956511
00000000: e98f 453e 0d40 74be 1d57 d5be 8c3d 39bf
00000010: 1fb8 813e 9b96 9f3e 6f13 2d3e 6cd2 8d3c
00000020: 044e 923e 95d6 0fbf 62c5 7c3e 5df8 39bf
00000030: f8c3 ca3c fcde 85bb 35e1 11be 3c78 153f
00000040: 676e 723a f806 e53a 816d 453e bfbb 5c3e
00000050: 6217 093d c5c0 393e f9f5 cb3e 9f59 a5be
00000060: cb07 15bf 500b 03be 624d 2ebe 443b 183f
00000070: df92 573e 9a06 cc3e b51e 9cbe caaf 4b3f

bias f4 [16]
0.00026725788 8.767817e-05 -0.0003217603 -1.5070174e-06 0.00011966239 -2.889638e-05 0.0003806322 1.4723304e-05
-8.758984e-08 0.0002315291 -9.557022e-08 0.00021887233 -0.0007849328 -8.783832e-05 -0.00024217776 -3.4127635e-05
00000000: bf1e 8c39 dcdf b738 f0b1 a8b9 b944 cab5
00000010: 42f3 fa38 8166 f2b7 978f c739 1c04 7737
00000020: 0619 bcb3 9fc6 7239 493c cdb3 1881 6539
00000030: f3c3 4dba d735 b8b8 19f1 7db9 4524 0fb8

weight f4 [16]
0.3073618 0.98214275 -0.48231414 -0.04881381 0.59699845 0.5029552 0.020931372 -0.51685274
-0.005229033 -0.39024073 0.0046437467 -0.28383008 -0.389487 0.5064931 0.4595927 -0.5879259
00000000: 875e 9d3e b56d 7b3f e1f1 f6be fdf0 47bd
00000010: e4d4 183f acc1 003f 4578 ab3c 7650 04bf
00000020: 4f58 abbb a2cd c7be 922a 983b 2d52 91be
00000030: d76a c7be 88a9 013f bc4f eb3e 5082 16bf
