checkpoints/swarm_1d/linear/unknown/1-ra/50pct-constraint/run-1/policy64.pt (torch, 14965 bytes, 14 tensors)

weight f4 [16, 101]
00000000: f81a deb9 f944 7136 28f0 ac36 6bd6 f436
00000010: e1c4 2737 496a 5d37 03ed 8c37 dda8 ad37
00000020: d8f8 cf37 ad11 f337 2a1b 0b38 966c 1c38
00000030: 0a4c 2d38 129b 3d38 f54c 4d38 e560 5c38
00000040: 79de 6a38 46d5 7838 b529 8338 83b3 8938
00000050: a30c 9038 7938 9638 c338 9c38 b506 a238
00000060: e89e a738 96f7 ac38 4f04 b238 96b4 b638
00000070: 09f5 ba38 e3b2 be38 3dd2 c138 d438 c438
00000080: ebc9 c538 6063 c638 6ae7 c538 a233 c438
00000090: 7b29 c138 09b0 bc38 86b6 b638 a837 af38
000000a0: 753f a638 5fed 9b38 b679 9038 4033 8438
000000b0: b9fc 6e38 5da8 5538 975e 3d38 6e08 2738
000000c0: 8667 1338 ccef 0238 1897 eb37 0588 d737
000000d0: f4bd c837 53f8 bd37 edb6 b537 0da9 ae37
000000e0: 37b5 a737 ea2a a037 f5b8 9737 0d56 8e37
000000f0: ff28 8437 e947 7337 0630 5e37 6ec6 4937
00000100: eaa1 3637 590e 2537 af4c 1537 913e 0737
00000110: 1a05 f636 61a8 e036 773c ce36 515c be36
00000120: e0ad b036 abfb a436 d6ef 9a36 b96e 9236
00000130: 5b46 8b36 105e 8536 2fb9 8036 b088 7a36
00000140: c457 7636 c7d0 7436 914f 7636 3a0c 7b36
00000150: f891 8136 ce08 8736 31bf 8d36 1ffd 9436
00000160: f3ec 9b36 2e64 a136 3d18 a436 72da a236
00000170: bb09 9d36 3f33 9236 2a08 8336 bf45 6236
00000180: c66c 3d36 ac2e 1e36 4f16 0c36 3d38 0f36
00000190: 2af3 2e36 a5ba a525 9d0e de22 2e09 6fa3
000001a0: a4eb 3a23 63da 8832 9f05 7ea3 b5e9 2e31
000001b0: 32f3 3e21 b9b9 b2a3 9a1a 1f23 53a2 9723
000001c0: a9c8 09a2 d884 4fa1 0dc8 06a3 927b 6ea3
000001d0: 0183 9ea3 e402 cb22 9802 4624 8957 ceb2
000001e0: c7b0 1322 9920 60a3 3f19 8d23 fbe7 6d22
000001f0: 2f56 6223 18e8 9ea3 36e9 1123 22d7 b923
00000200: 3a3a 5423 42b2 aba3 aa4f 8723 d3ae 6f33
00000210: 9629 1e23 c286 98a3 760c c323 da8a dc23
00000220: 5571 1da4 193d 4ca3 b7a3 6ea3 750b de23
00000230: 6216 bca1 58f6 cea3 26dd 68a3 d2b2 07a3
00000240: 39ee 3a23 34a7 c420 aa31 d7a2 c469 0fa2
00000250: 31ed 9623 009c b9a2 b82a eb22 0f8a bda2
00000260: 911e 55a2 afde ae22 9dbf 1ca3 aa4e 2223
00000270: 9440 d222 a733 0021 a9f0 31a3 c612 36a1
00000280: 4f03 0021 8eb4 68a1 0832 2ea2 7712 46a2
00000290: 1bd8 a122 212c b0a1 1003 aa1f 0393 86b5
000002a0: 0ea1 0722 6950 76a2 953c 72a1 7a75 74a2
000002b0: 6abe 8ba2 1f35 7020 b4f7 7522 0062 5da2
000002c0: 57c3 41a2 4ee6 6da2 5e6c 29a3 ec8b 3da2
000002d0: fd81 7822 999c 12a2 c335 5aa0 890c 5da1
000002e0: 31c2 92a1 b3af 2921 90f1 ed21 5f12 2ba2
000002f0: 802e 929f 7a7c 5822 9813 4721 1ff4 9da2
00000300: 4330 7920 a3fd eda2 9550 bf22 5267 79a2
00000310: 69ea a8a2 5479 8fa2 65b6 27a3 4de5 96a2
00000320: c253 3ca3 2dc9 3623 5dff 5525 05ba 84a3
00000330: 4cfc dea2 304f ab23 cba7 8420 3f04 9023
00000340: 0a80 fc21 a866 86b5 87cb 72a3 4c1a 1124
00000350: 76ea 0f24 95a1 1724 69ea 6a22 2019 c723
00000360: ce9b 15a4 bdc1 afa3 85b2 2524 6045 66a3
00000370: d6a4 0c23 bc73 2422 71bf a123 7631 9a23
00000380: 7939 3ba7 4ba0 a4a4 4030 f0a3 be40 4824
00000390: 7558 2aa7 bc7b dba3 763a 34a4 3c66 bfa3
000003a0: 2da9 5f20 febf 31a4 7476 33a3 a6c1 2225
000003b0: fe5f 1d24 0dcd 3f24 e986 1aa4 596c 7c23
000003c0: 4599 1c24 4780 3ea2 2662 d7a3 e51d 2a24
000003d0: 4d8f 8d23 830b 13a4 5eb1 3223 8854 ba23
000003e0: c963 24a0 8860 e4a3 da66 fca2 dc5c 40a8
000003f0: c4ab 723a 6613 2fa3 5ca9 3e3a 44ff a522
-0.00042363233 3.5951946e-06 5.1539573e-06 7.296728e-06 9.999815e-06 1.3197373e-05 1.6799668e-05 2.070184e-05
2.47922e-05 2.8976088e-05 3.316548e-05 3.7294427e-05 4.131723e-05 4.5205532e-05 4.894748e-05 5.2542327e-05
5.599714e-05 5.9326434e-05 6.254335e-05 6.566106e-05 6.868809e-05 7.163076e-05 7.449232e-05 7.726011e-05
7.992779e-05 8.2477156e-05 8.488504e-05 8.712073e-05 8.9148125e-05 9.093226e-05 9.242117e-05 9.3565934e-05
9.431302e-05 9.459886e-05 9.436796e-05 9.355626e-05 9.2106835e-05 8.997328e-05 8.712434e-05 8.355017e-05
7.9273166e-05 7.43519e-05 6.8891255e-05 6.3037965e-05 5.6978988e-05 5.0939958e-05 4.5149205e-05 3.9823753e-05
3.5143945e-05 3.1217744e-05 2.8084542e-05 2.5693336e-05 2.3930312e-05 2.264619e-05 2.1662063e-05 2.0821137e-05
1.9992336e-05 1.909347e-05 1.808673e-05 1.696779e-05 1.5754717e-05 1.4500672e-05 1.32434125e-05 1.2026734e-05
1.0885744e-05 9.838107e-06 8.898946e-06 8.061194e-06 7.331965e-06 6.695322e-06 6.1463174e-06 5.6731883e-06
5.2654505e-06 4.916879e-06 4.617478e-06 4.364029e-06 4.1507133e-06 3.974659e-06 3.8362555e-06 3.7332466e-06
3.6707943e-06 3.6480358e-06 3.670317e-06 3.7409031e-06 3.8614926e-06 4.0243385e-06 4.224385e-06 4.440211e-06
4.6469445e-06 4.8098364e-06 4.8904026e-06 4.8534066e-06 4.6800974e-06 4.357105e-06 3.9050547e-06 3.3717222e-06
2.822651e-06 2.3571001e-06 2.087461e-06 2.1341395e-06 2.606956e-06 2.8749413e-16 6.0188693e-18 -1.295816e-17
1.0132979e-17 1.5931795e-08 -1.3770558e-17 2.545318e-09 6.469637e-19 -1.9377455e-17 8.62504e-18 1.64402e-17
-1.867319e-18 -7.0310145e-19 -7.306517e-18 -1.2928173e-17 -1.7185877e-17 5.502632e-18 4.2936603e-17 -2.4021363e-08
2.00158e-18 -1.2149967e-17 1.5297943e-17 3.2242299e-18 1.2269735e-17 -1.722869e-17 7.90985e-18 2.0148852e-17
1.1504873e-17 -1.8615352e-17 1.4670468e-17 5.5805526e-08 8.574003e-18 -1.6536945e-17 2.114722e-17 2.3911254e-17
-3.4139944e-17 -1.10718e-17 -1.2936674e-17 2.407414e-17 -1.27453e-18 -2.2438895e-17 -1.2623575e-17 -7.356231e-18
1.0133526e-17 3.3314337e-19 -5.832845e-18 -1.9436106e-18 1.6363487e-17 -5.030952e-18 6.3742108e-18 -5.1374728e-18
-2.8883065e-18 4.739857e-18 -8.497353e-18 8.798695e-18 5.698899e-18 4.343645e-19 -9.646151e-18 -6.1688845e-19
4.3372466e-19 -7.884362e-19 -2.3607884e-18 -2.684378e-18 4.386795e-18 -1.1937905e-18 7.200287e-20 -1.0026564e-06
1.8381173e-18 -3.3381786e-18 -8.207297e-19 -3.3130358e-18 -3.7877634e-18 2.0346367e-19 3.3334824e-18 -3.0002966e-18
-2.625979e-18 -3.2241412e-18 -9.184456e-18 -2.568835e-18 3.3679083e-18 -1.9869592e-18 -1.8483107e-19 -7.4894303e-19
-9.944747e-19 5.7491963e-19 1.6123686e-18 -2.3184547e-18 -6.191033e-20 2.9339356e-18 6.7449755e-19 -4.281341e-18
2.1107089e-19 -6.4507527e-18 5.1855973e-18 -3.380049e-18 -4.5784683e-18 -3.888869e-18 -9.091712e-18 -4.0900363e-18
-1.0209237e-17 9.90884e-18 1.8561325e-16 -1.4390251e-17 -6.044035e-18 1.8573394e-17 2.2472706e-19 1.561431e-17
1.7110076e-18 -1.0013655e-06 -1.3161945e-17 3.1464137e-17 3.1206778e-17 3.287977e-17 3.183701e-18 2.1586264e-17
-3.2441196e-17 -1.905559e-17 3.5929884e-17 -1.2483016e-17 7.6243206e-18 2.2287414e-18 1.7536734e-17 1.6717661e-17
-2.598262e-15 -7.139521e-17 -2.6041287e-17 4.3422926e-17 -2.3640192e-15 -2.3796431e-17 -3.9080797e-17 -2.075156e-17
1.894481e-19 -3.854338e-17 -9.728693e-18 1.4116871e-16 3.4125257e-17 4.1590208e-17 -3.35077e-17 1.3683891e-17
3.3956932e-17 -2.5817711e-18 -2.3351914e-17 3.6888196e-17 1.5347941e-17 -3.1885295e-17 9.686958e-18 2.020196e-17
-1.3924356e-19 -2.4760692e-17 -6.8413635e-18 -1.0678277e-14 0.00092571625 -9.490877e-18 0.00072731613 4.4993613e-18

bias f4 [16]
00000000: 04ab a7ba b3da c3a4 a86e 0026 c8fc 62b9
00000010: 1442 b33e 842a 0d37 dc1e 0a39 141b 0000
00000020: b020 02ad d8c9 e0b7 174c 0ca4 55e3 ce3e
00000030: 778b 6f3d 0422 0000 e5a9 0ebf 701f 8530
-0.0012792055 -8.493826e-17 4.455889e-16 -0.00021647208 0.3501135 8.414154e-06 0.00013172202 9.714e-42
-7.3969025e-12 -2.6796872e-05 -3.042211e-17 0.40407816 0.058482613 1.2203e-41 -0.5572799 9.685959e-10

weight f4 [16]
00000000: 12ce b3ba ebf5 152b e6e9 e5ae 5137 efb3
00000010: fb24 e3bf 0603 412c e5d3 a431 d911 0080
00000020: ddbb ce31 e4cd faad 4f7d 622c b453 b73f
00000030: f8f4 9d3d c322 0000 6850 6040 12da ce1b
-0.001371803 5.3276714e-13 -1.0455263e-10 -1.1139367e-07 -1.774566 2.7428628e-12 4.797118e-09 -6.403e-42
6.0167467e-09 -2.8513143e-11 3.2186092e-12 1.4322419 0.0771274 1.247e-41 3.5049076 3.4220766e-22

bias f4 [16]
00000000: 2330 c63e 4cfb 04b9 c2ca 43b7 a397 9dba
00000010: 13ef 00be 452f d3b5 e6d1 b1b9 ee6e 9f9e
00000020: 1bc2 cfbb 999e 31b7 30a4 f0b6 ba0b 803f
00000030: 619d 063f c24f 5abd 76d8 7bbe 094a 35ab
0.387086 -0.00012682116 -1.1670114e-05 -0.0012023341 -0.125912 -1.5734482e-06 -0.00033916457 -1.688066e-20
-0.006340278 -1.05869485e-05 -7.1716713e-06 1.0003579 0.5258389 -0.05329872 -0.24594292 -6.440686e-13

running_mean f4 [16]
00000000: 0000 0000 0000 0000 0000 0000 0000 0000
00000010: 0000 0000 0000 0000 0000 0000 0000 0000
00000020: 0000 0000 0000 0000 0000 0000 0000 0000
00000030: 0000 0000 0000 0000 0000 0000 0000 0000
0.0 0.0 0.0 0.0 0.0 0.0 0.0 0.0
0.0 0.0 0.0 0.0 0.0 0.0 0.0 0.0

running_var f4 [16]
00000000: 0000 803f 0000 803f 0000 803f 0000 803f
00000010: 0000 803f 0000 803f 0000 803f 0000 803f
00000020: 0000 803f 0000 803f 0000 803f 0000 803f
00000030: 0000 803f 0000 803f 0000 803f 0000 803f
1.0 1.0 1.0 1.0 1.0 1.0 1.0 1.0
1.0 1.0 1.0 1.0 1.0 1.0 1.0 1.0

weight f4 [16, 16]
00000000: 1137 37bc 27a5 a4b4 6369 4cb3 62d0 a3b6
00000010: cd77 1f3f b064 ae32 99a6 21b6 5df6 ef9c
00000020: 6d1f e0b7 3566 3c33 293f 37b3 ecdf 3bbf
00000030: d756 3c3c 4413 41b9 26bc 173f 4443 bd28
00000040: 8fb9 9b3c d8c3 9e34 78b1 b133 5ff5 8034
00000050: 8d62 453c 6462 eb2f 66c4 e333 722f 0d1b
00000060: e75f 9836 31c5 9031 8b84 0432 931f 873d
00000070: efd4 793d d2b7 ce37 888a a03d 7972 9d25
00000080: 6364 5925 c20e 2b84 b72b 1385 4bd2 9606
00000090: 79e6 1695 a46e b701 e720 e504 4c53 0000
000000a0: 64c1 5c07 ee23 d002 b135 dd01 72cf 6e8e
000000b0: b5d2 2f8e e897 df08 977b f98d 3c27 0000
000000c0: 4052 013e 95d4 ebb5 808c 46b4 52c5 7db7
000000d0: 1bbb 5abc ec34 c7b2 2b50 cab6 25d6 ab9d
000000e0: 1e4f a8b8 3abe ddb3 8d86 7ab3 8d6d af3e
000000f0: 50d1 bf3e 016b d5b9 03a9 16c0 4675 8ba8
00000100: 059e 4a3e 9896 7f36 a15e fe34 e04e c9b7
00000110: dfe8 d13b 4e95 4933 d0cf 1434 82ef c81d
00000120: 7ade a236 e681 2334 3c3f 1c34 37d1 5a3f
00000130: eacd 923e e6f4 1f3a 2241 f6bf 2fa3 b128
00000140: 7c4b 303d 2ac7 91b5 04a5 a9b3 1cb2 45b5
00000150: e4da 7bbd 4710 0fb1 cda2 6cb2 f26d 949c
00000160: 3e9e 70b7 558d 89b1 a167 eeb2 9942 e23d
00000170: c061 ab3d 1353 b1b8 772c 453e 7664 77a6
00000180: 7202 0000 c15c 0000 7c69 0000 2808 0080
00000190: 861a 0080 383c 0080 f008 0080 9a15 0000
000001a0: e00b 0080 2056 0080 f229 0000 a913 0080
000001b0: 7407 0000 b802 0080 9104 0080 4a1c 0080
000001c0: 3b1f 0000 8812 0100 0556 0180 8b1e 0000
000001d0: 1712 0000 f30c 0080 d305 0000 b281 0080
000001e0: 216b 0180 881f 0000 4500 0080 8e23 0000
000001f0: f210 0000 3681 0080 dd0d 0000 f709 0000
00000200: ff0b 0000 b500 0000 b413 0080 a200 0000
00000210: 4f36 0080 e120 0080 d91a 0080 dd0c 0000
00000220: 3611 0080 2350 0000 af13 0000 3e08 0000
00000230: f222 0080 064b 0080 8f00 0080 8736 0000
00000240: ba9a 7206 5b6a b800 20a7 3a80 c851 1a80
00000250: 6cc9 a585 2102 0000 ecbf 2000 ada2 0000
00000260: d062 0d83 f83a 0100 2332 1300 943a 8f06
00000270: 9063 2807 489f 1a05 4417 4c89 0c19 0080
00000280: 1b3f 1d3d 0c73 46b5 6cfe e9b3 654b d8b5
00000290: d26c a3bd d730 5cb1 f1e9 9eb5 4bb1 8b1c
000002a0: db8e 57b7 9b07 08b4 9d58 8ab2 c3fc 583e
000002b0: ef40 493d 2464 e0b8 677b 94bc 2224 caa6
000002c0: 7abb 3b3e 9f2c 71b6 8a50 ceb4 7ec7 1cb8
000002d0: 2d67 43bf b4ac 4fb3 efbf 4eb7 755a f01d
000002e0: 608a 8cb9 1683 a4b4 c4c0 98b4 aa03 a4bd
000002f0: 3fca 113e 723b dbbb 3653 a03f 4002 31a9
00000300: b2c5 69bd 3fb5 d835 d08f 0135 3ca2 9bb7
00000310: c15f a73f 5b8d 3d33 156b 1137 8b2c df1b
00000320: 9bca 54b8 4d00 5934 b782 4634 9d15 c6bf
00000330: 4338 bebe 17f4 01ba a4ae c73f e164 e028
00000340: 56be 0000 dd15 0080 9fd3 0080 651d 0000
00000350: 0867 0100 0915 0000 7b08 0000 1c0b 0000
00000360: 655a 0080 dbcf 0080 620c 0000 8711 0180
00000370: 8b01 0000 dcc1 0000 b53a 0000 1211 0080
00000380: 36e1 e6be 58c4 0b36 fa8d 1a33 549d d8b6
00000390: a225 61bf 3665 eb32 795b e437 58ae 5d1b
000003a0: 49a7 fa37 d01d d8b3 9781 8ab3 eb54 20bf
000003b0: 6e98 06bf 1464 a63a 1985 283f 71f9 4e27
000003c0: 65bf b1be 0d50 34b6 933b c3b4 3b1a e8b6
000003d0: 223f fdbe f050 3eb3 f21d b7b6 e659 e91d
000003e0: 7ff1 f8b7 f6f5 2eb4 769c e9b3 6881 c0be
000003f0: 6a3b 2abd 225c 82bb 97b1 ae3d 7bd8 b2a8
-0.011182562 -3.0667545e-07 -4.75933e-08 -4.8820375e-06 0.62292176 2.0302053e-08 -2.4087842e-06 -1.5879377e-21
-2.6717515e-05 4.3865118e-08 -4.266545e-08 -0.7338855 0.011495314 -0.00018413091 0.59271467 2.1012387e-14
0.01900938 2.9572288e-07 8.274486e-08 2.402039e-07 0.012047422 4.2816162e-10 1.0606236e-07 1.1678577e-22
4.5411175e-06 4.2133697e-09 7.713548e-09 0.06597819 0.060994085 2.4642712e-05 0.07838923 2.7312728e-16
1.8855762e-16 -2.010773e-36 -6.919936e-36 5.6732727e-35 -3.047407e-26 6.7382345e-38 5.3867857e-36 2.9881e-41
1.6607793e-34 3.0583476e-37 8.125962e-38 -2.9435646e-30 -2.1671867e-30 1.3457037e-33 -1.5375563e-30 1.4075e-41
0.12629032 -1.7570734e-06 -1.84913e-07 -1.5125917e-05 -0.0133502735 -2.3190715e-08 -6.029402e-06 -4.5484743e-21
-8.025601e-05 -1.03257165e-07 -5.8330034e-08 0.34263268 0.3746438 -0.0004070625 -2.3540657 -1.548296e-14
0.19786842 3.8085618e-06 4.7380038e-07 -2.3997796e-05 0.006405934 4.693475e-08 1.3859176e-07 5.3187204e-21
4.853876e-06 1.5227815e-07 1.4551637e-07 0.85475487 0.28672725 0.00061018614 -1.9238627 1.9721717e-14
0.043040738 -1.0861306e-06 -7.899692e-08 -7.36474e-07 -0.061488047 -2.0818491e-09 -1.3774025e-08 -9.822239e-22
-1.4341958e-05 -4.0032924e-09 -2.7753972e-08 0.11047859 0.08368254 -8.4554915e-05 0.19255243 -8.583149e-16
8.77e-43 3.3274e-41 3.784e-41 -2.926e-42 -9.515e-42 -2.1602e-41 -3.206e-42 7.749e-42
-4.26e-42 -3.0896e-41 1.5047e-41 -7.053e-42 2.674e-42 -9.75e-43 -1.638e-42 -1.0148e-41
1.1203e-41 9.8483e-41 -1.22693e-40 1.0957e-41 6.49e-42 -4.645e-42 2.09e-42 -4.6526e-41
-1.30266e-40 1.1311e-41 -9.7e-44 1.2755e-41 6.079e-42 -4.6352e-41 4.973e-42 3.575e-42
4.303e-42 2.54e-43 -7.068e-42 2.27e-43 -1.9482e-41 -1.1795e-41 -9.631e-42 4.614e-42
-6.174e-42 2.8748e-41 7.061e-42 2.957e-42 -1.2536e-41 -2.6913e-41 -2e-43 1.9561e-41
4.5628816e-35 1.6935884e-38 -5.386412e-39 -2.41706e-39 -1.5590516e-35 7.64e-43 3.007584e-39 5.8357e-41
-4.1549607e-37 1.1299e-40 1.76286e-39 5.3876694e-35 1.2668174e-34 7.2703005e-36 -2.4566546e-33 -8.985e-42
0.03839026 -7.3928163e-07 -1.0896187e-07 -1.6115197e-06 -0.0797974 -3.2041976e-09 -1.1840003e-06 9.244078e-22
-1.284826e-05 -1.2668754e-07 -1.6105611e-08 0.21190171 0.04913419 -0.00010699805 -0.01812525 -1.402636e-15
0.18333235 -3.5937771e-06 -3.842909e-07 -3.737909e-05 -0.7632931 -4.8353016e-08 -1.2323245e-05 6.3621e-21
-0.00026805978 -3.0642758e-07 -2.8452462e-07 -0.08008511 0.14237307 -0.006690436 1.2525394 -3.9303847e-14
-0.057073303 1.6146004e-06 4.826552e-07 -1.8552986e-05 1.3076097 4.4133554e-08 8.6676055e-06 3.692104e-22
-5.073343e-05 2.020981e-07 1.8487741e-07 -1.5475346 -0.371523 -0.00049573317 1.5600171 2.4912745e-14
6.828e-41 -7.843e-42 -7.5915e-41 1.0545e-41 1.28796e-40 7.546e-42 3.042e-42 3.985e-42
-3.2427e-41 -7.4564e-41 4.442e-42 -9.8123e-41 5.54e-43 6.9544e-41 2.106e-41 -6.124e-42
-0.45093697 2.0826901e-06 3.5985046e-08 -6.455617e-06 -0.8794805 2.7403626e-08 2.7222313e-05 1.8337025e-22
2.988022e-05 -1.0063707e-07 -6.449698e-08 -0.62629575 -0.5257634 0.001269462 0.6582809 2.8723465e-15
-0.34716335 -2.6868686e-06 -3.6364926e-07 -6.9171924e-06 -0.4946223 -4.4311435e-08 -5.457311e-06 6.176754e-21
-2.967636e-05 -1.6294493e-07 -1.0878368e-07 -0.3759873 -0.041560568 -0.0039782682 0.08529966 -1.9855853e-14

bias f4 [16]
00000000: 9125 013c 4ddd 023a 9d50 b2b0 234f b13e
00000010: 1549 1a3e e2d3 29bc 3d14 0080 3a6e 44a4
00000020: 341c 0000 0263 c71c 57d3 ecbc 7913 943e
00000030: fd70 9cbe c51d 0000 d023 b0be 73aa 9cbd
0.007882492 0.0004992083 -1.2974116e-09 0.3463069 0.15066941 -0.010365458 -7.26e-42 -4.259409e-17
1.0117e-41 1.3194308e-21 -0.028909368 0.28921106 -0.30554953 1.0679e-41 -0.34402323 -0.07649698

weight f4 [16]
00000000: e16a 733f aa43 453e cec0 e09f b37f 1740
00000010: 066b 1040 1719 913e 131a 0000 a1fd 918b
00000020: 3906 0080 fc10 5591 99fc 7b3e 5df6 f03f
00000030: 3143 2c40 e5c1 0000 f596 953f 7cc5 bebf
0.9508496 0.19264093 -9.518666e-20 2.3671691 2.2565322 0.28339455 9.354e-42 -5.6233587e-32
-2.232e-42 -1.6807971e-28 0.24608077 1.8825184 2.691601 6.9556e-41 1.1686693 -1.4904017

bias f4 [16]
00000000: 3279 a43d 3d03 6abc 2eeb b6b0 14f6 0c3f
00000010: 4fcb d93e c6b6 efbc 234a d58e b8b9 8ba8
00000020: 5c50 6bac ab1b d5b3 e627 583c 056c 493e
00000030: 9caa 81be a2a2 04b7 73ac 81be ad79 b23e
0.08030929 -0.014282999 -1.3309085e-09 0.55062985 0.42537925 -0.029261958 -5.2579945e-30 -1.5512643e-14
-3.3440117e-12 -9.923618e-08 0.013193106 0.19670112 -0.25325477 -7.905679e-06 -0.2532688 0.34858456

running_mean f4 [16]
00000000: 0000 0000 0000 0000 0000 0000 0000 0000
00000010: 0000 0000 0000 0000 0000 0000 0000 0000
00000020: 0000 0000 0000 0000 0000 0000 0000 0000
00000030: 0000 0000 0000 0000 0000 0000 0000 0000
0.0 0.0 0.0 0.0 0.0 0.0 0.0 0.0
0.0 0.0 0.0 0.0 0.0 0.0 0.0 0.0

running_var f4 [16]
00000000: 0000 803f 0000 803f 0000 803f 0000 803f
00000010: 0000 803f 0000 803f 0000 803f 0000 803f
00000020: 0000 803f 0000 803f 0000 803f 0000 803f
00000030: 0000 803f 0000 803f 0000 803f 0000 803f
1.0 1.0 1.0 1.0 1.0 1.0 1.0 1.0
1.0 1.0 1.0 1.0 1.0 1.0 1.0 1.0

weight f4 [2, 16]
00000000: e2d5 333f de6b 303d 6c95 962d e070 16be
00000010: 845a 493e e178 1fbe 52ab c08f bdce a324
00000020: 67e0 23ad caae dcb4 9804 64be 2dac e6be
00000030: 8be3 cd3e 6b6f fa37 4dcd 82bf fa0e ff3e
00000040: e0ef bd3e 32b0 2cbc f1bb 082d 2d7a 1840
00000050: 7e4c 0440 bfad d5bc 47ef 5d8b 9a36 1425
00000060: a9b0 7827 d88a cd30 3a13 3cbd 7675 cabf
00000070: 1aa2 3e40 e66c 0433 6e25 1c3e 4e72 e6be
0.70248234 0.04307162 1.7119382e-11 -0.14691496 0.19663435 -0.15573455 -1.8998652e-29 7.104021e-17
-9.315305e-12 -4.110537e-07 -0.22267377 -0.45053235 0.40212664 2.9854205e-05 -1.0218903 0.49816114
0.37097073 -0.010540055 7.772436e-12 2.382457 2.0671687 -0.026083825 -4.2743064e-32 1.2855453e-16
3.4512681e-15 1.4955175e-09 -0.045916773 -1.5817096 2.978644 3.0832688e-08 0.15248653 -0.45009083

bias f4 [2]
00000000: aca7 013e c5b6 0ebf
0.12661618 -0.55747634
