checkpoints/vehicle_repositioning/unknown/1-ra/85pct-constraint/run-1/policy244.pt (torch, 913815 bytes, 6 tensors)

weight f4 [256, 627]
00000000: 2213 efba 4704 38bb 8bf4 50b9 45d4 29b9
00000010: cde8 2fb9 504f 56b9 7c55 4bb9 c4ff 5bb9
00000020: 95db 50b9 03f8 2eb9 708e 67b9 8ef4 76b9
00000030: dd43 58b9 3e91 51b9 04a7 46b9 d455 4fb9
00000040: dc92 78b9 6924 4fb9 24a5 47b9 5458 63b9
00000050: 4c1a 4cb9 61cd cd36 d3ef e3b8 2718 31b9
00000060: 9cb0 63b9 982e 4bb9 a5d7 c2b8 7f3f 62b9
00000070: 689c 50b9 850d 53b9 abe5 5fb9 e0db 67b9
00000080: e540 43b9 da0c 44b9 8c14 4ab9 f1cc 54b9
00000090: c8b6 57b9 0ffb 4cb9 3dc7 39b9 0a88 41b9
000000a0: b5e6 29b9 c93d 4ab9 c9c4 55b9 5426 51b9
000000b0: ea50 0db9 a8fa 3ab9 e3c7 35b9 8a84 4eb9
000000c0: 0434 56b9 7a07 51b9 a082 4fb9 ba9d 60b9
000000d0: 5db6 54b9 090e 58b9 c48e 54b9 3a99 6cb9
000000e0: 82c9 46b9 6dae 7f39 88d4 2b38 90c2 c8b8
000000f0: 2759 89b8 f07f 1db9 e3e9 5bb9 b138 18b9
00000100: 9cf7 24b9 488e 42b9 d599 3ab9 f2b6 50b9
00000110: fdad 21b9 d3d1 2cb9 748b 6fb9 92c1 57b9
00000120: bdb4 60b9 0bd8 85b9 aff5 84b9 4454 5bb9
00000130: 29e0 5ab9 9d61 5bb9 9672 5ab9 0ac6 43b9
00000140: 525c 9a39 7d27 4839 e062 2cb9 5fee 8538
00000150: d74f 34b8 0fbc 8739 acd1 3d39 67a9 8039
00000160: 982c 37b9 e697 0db9 0105 5cb9 e1e6 05b9
00000170: dc08 39b9 fbc0 64b9 5bc6 4ab9 5b01 4db9
00000180: d88d 4eb9 7e48 57b9 db66 6cb9 b7c5 5fb9
00000190: 541a 54b9 d141 66b9 441c 32b9 ceca cf38
000001a0: a0d8 4a39 dbc4 a239 745d ab39 3f72 6739
000001b0: bcd5 0a39 93fd 19b9 858d 0db9 9220 ae39
000001c0: 94a4 ffb9 d93e 47b9 1841 5eb9 56a0 56b9
000001d0: 096c 45b9 d7cf 5eb9 1791 75b9 8ea0 52b9
000001e0: f807 13b9 2e10 39b9 95fa 29b9 4924 3fb9
000001f0: 00df 43b9 ffc7 27b9 92ce 55b9 4a13 ea38
00000200: 555a 1939 00e4 3639 8770 9339 c876 cdb7
00000210: cf9a c438 5273 e938 6326 8e39 78e7 86b9
00000220: e37e 1339 dfce 1f38 6a2c b037 f1f6 e0b8
00000230: 5696 2db9 af7e 37b9 340d 0cb9 0daf 69b9
00000240: d6cb ceb8 7a1d 60b8 c6ff f0b8 c6ef 52b9
00000250: 5212 41b9 2e3e 60b9 3aad 48b9 ed61 4db9
00000260: 2463 b838 5648 9439 9c6d 4fb9 9aa9 e2b8
00000270: 1bfc dfb8 d164 aa39 d2b1 9838 e843 3fb9
00000280: fead 0239 4eaa a739 1476 a4b8 92f1 aa39
00000290: f23f 4539 f7ba 84b8 fef1 dab7 1af1 c538
000002a0: 7c69 ecb8 751f 64b9 d6f8 5fb9 32c2 a2ba
000002b0: 3658 1eb9 b1fc 7ab9 e119 58b9 3ad2 1bb9
000002c0: c7eb 40b9 b9f4 1239 4f1a 08b9 7179 c137
000002d0: c60a 23b9 3906 a138 6fd4 9338 a343 2bba
000002e0: 6ddf a839 8c0f 0239 1383 1f39 01e2 3ab9
000002f0: eb76 a039 eae3 ad38 5013 a839 2470 1cb9
00000300: 328b 53b9 c56c 5139 5dd7 3739 4616 ad39
00000310: 79ba 81b9 6e1c 4c39 2152 17b9 a755 a2b7
00000320: 472a 9eb8 230d 11b9 b86b d9b8 12cb 95b8
00000330: b7d3 9738 030a 9f39 eb7b 11b9 adee 8838
00000340: 44df 1ab9 5294 01b9 36d6 d038 ee06 e7b8
00000350: 3937 6238 679e 41b9 e049 7639 886b aa39
00000360: 4cdc a839 f5e9 8db8 13f1 e138 57bc 8d39
00000370: 791c 02ba ae4c 0eb9 85a1 2cba 3c56 8bb9
00000380: 2468 2ab7 db25 9f38 172b 7838 575c feb8
00000390: e7a4 42b9 6d9d 22b9 2097 5739 29f7 50b9
000003a0: 2861 8839 8b42 26b8 6a03 c238 b013 45b9
000003b0: fded aa39 1500 e337 8678 30b9 aa95 a739
000003c0: 1daf 6a39 4af6 3b39 0576 36b9 6b4e 0bb8
000003d0: 5ff5 8a39 01c3 8d39 726d c1b8 7724 18b9
000003e0: 9632 77b9 850d 3ab9 6f0a 2a39 e19b 61b7
000003f0: 17f5 56b9 24da 60b9 d4a9 43b9 bbd5 4734
-0.0018239955 -0.0028078721 -0.00019927525 -0.00016196173 -0.00016776026 -0.00020438177 -0.00019391434 -0.00020980748
-0.00019918226 -0.00016686325 -0.00022082939 -0.00023551492 -0.00020624646 -0.000199859 -0.0001894497 -0.00019773032
-0.00023705832 -0.00019754622 -0.00019039639 -0.00021681312 -0.00019464752 6.1333853e-06 -0.00010868874 -0.00016889033
-0.00021714199 -0.00019376946 -9.290808e-05 -0.00021576694 -0.00019894692 -0.00020127564 -0.00021352495 -0.00022111787
-0.00018620824 -0.00018696804 -0.00019271875 -0.00020294242 -0.00020572089 -0.00019548483 -0.00017717197 -0.00018456593
-0.00016203041 -0.00019287238 -0.00020386571 -0.00019946072 -0.0001347695 -0.00017831719 -0.00017335969 -0.00019695066
-0.00020428008 -0.00019934578 -0.0001978972 -0.00021421062 -0.00020285831 -0.00020604594 -0.0002027108 -0.00022563795
-0.00018957819 0.00024383674 4.0967512e-05 -9.572983e-05 -6.549275e-05 -0.00015020347 -0.00020972597 -0.00014516969
-0.000157325 -0.00018554286 -0.00017795649 -0.00019904578 -0.00015418972 -0.00016481364 -0.00022844766 -0.00020576108
-0.00021429635 -0.000255287 -0.0002536005 -0.00020916859 -0.00020873606 -0.00020921831 -0.00020832787 -0.00018670424
0.00029441953 0.00019088197 -0.00016440032 6.386334e-05 -4.29897e-05 0.0002588932 0.00018102553 0.00024540277
-0.00017468852 -0.00013503394 -0.00020982699 -0.00012769878 -0.00017646275 -0.00021815665 -0.00019338114 -0.00019550828
-0.00019698532 -0.00020531003 -0.0002254503 -0.00021340592 -0.00020227703 -0.00021959028 -0.00016985933 9.9083045e-05
0.0001934492 0.00031045717 0.0003268529 0.00022072437 0.00013240328 -0.00014685681 -0.00013499528 0.00033212133
-0.0004876001 -0.00019001531 -0.00021195819 -0.0002046836 -0.0001882763 -0.00021248996 -0.00023419071 -0.00020086972
-0.00014021981 -0.00017649002 -0.00016210445 -0.00018228697 -0.00018679723 -0.00016000865 -0.00020390216 0.000111615824
0.00014624868 0.00017441809 0.00028121864 -2.4493216e-05 9.374844e-05 0.00011131786 0.0002711295 -0.0002573093
0.00014066281 3.8101218e-05 2.1001517e-05 -0.00010727149 -0.0001655457 -0.00017499433 -0.00013356359 -0.00022285823
-9.860813e-05 -5.3433214e-05 -0.00011491733 -0.00020116483 -0.00018412739 -0.00021385468 -0.00019138018 -0.00019586804
8.79227e-05 0.00028282654 -0.00019781891 -0.000108081105 -0.00010680427 0.0003250004 7.2810464e-05 -0.00018240476
0.00012462583 0.0003197961 -7.842123e-05 0.0003260491 0.00018811206 -6.3290754e-05 -2.6100312e-05 9.438601e-05
-0.00011273005 -0.00021755493 -0.00021359636 -0.0012417494 -0.00015100915 -0.00023935993 -0.00020609006 -0.00014860267
-0.00018398381 0.00014014811 -0.00012979771 2.3063943e-05 -0.00015548905 7.678237e-05 7.049075e-05 -0.0006533211
0.00032209922 0.00012403558 0.0001521225 -0.00017822535 0.0003060618 8.291735e-05 0.00032057846 -0.00014919095
-0.00020174382 0.00019972313 0.00017532469 0.00033013726 -0.0002474373 0.00019465547 -0.00014431078 -1.935179e-05
-7.541902e-05 -0.00013833171 -0.000103674305 -7.1426985e-05 7.239676e-05 0.00030334303 -0.0001387444 6.529442e-05
-0.00014769757 -0.00012357652 9.958113e-05 -0.00011016229 5.393403e-05 -0.00018464924 0.00023487909 0.00032505044
0.0003220759 -6.766982e-05 0.000107737396 0.0002703394 -0.0004963349 -0.0001357074 -0.00065853476 -0.00026576396
-1.0157037e-05 7.588762e-05 5.9167938e-05 -0.000121288635 -0.00018562713 -0.0001550817 0.00020560296 -0.000199285
0.00026012328 -3.9639457e-05 9.251277e-05 -0.00018794718 0.00032602242 2.7060547e-05 -0.00016829566 0.0003196423
0.00022381214 0.0001792546 -0.00017400838 -3.3213215e-05 0.00026504227 0.00027038905 -9.223343e-05 -0.00014509434
-0.000235746 -0.00017743379 0.0001621635 -1.34473385e-05 -0.00020499933 -0.00021443568 -0.00018659915 1.8611074e-07

bias f4 [256]
00000000: 6bc7 35bb 619d 25b5 57b2 6e3d 406d c1bc
00000010: 7ea0 05bc 8b1c aabc 8afe 803d a27e eeba
00000020: 2103 02ba 254f 05bb 81ba 92b4 217f 893d
00000030: 60d1 f0b9 07b2 0e3d 1f25 5db9 bd96 bcbd
00000040: 7be0 90bc 9006 b8b5 b60b 25b8 5cd4 e73d
00000050: 2958 2c3b f465 d13a 9e0f 63ba 7a46 a63c
00000060: 4d4c 873a 3826 963d 49f0 14ba 5c4a a7ba
00000070: 6917 d0b5 5c91 b83c 3657 00bd 96d1 85b9
00000080: bf2e bd3d 6fd6 81ba 0ec2 233c fc92 873d
00000090: 9987 853d 1a26 0fba 3d1c 87ba a104 6cbb
000000a0: f54a 603c 9ed2 58b8 f1cd 69bc d40e 83b9
000000b0: 0d25 aeba 679d 353d aad6 08b5 0914 f23c
000000c0: 2b38 23bc 8abb dc3c 4ffa 263c 1394 403d
000000d0: be89 553d 6313 f6bb 5d5d 24b5 cb08 403d
000000e0: 5ef5 883a 6341 29bb 5c08 613c def7 1eb7
000000f0: 448d 34bb c07f 943c 0909 743c 91e8 33bd
00000100: 8450 b6bc 0ce6 67bb 6211 a3bc 35dc 87bc
00000110: 3f89 dbba 327e ea3d 3f09 c1bb 5e6a 24bb
00000120: 538c b63c 3cf8 b0b7 7576 e93c 75ae 703d
00000130: 5f28 d4b6 d29e 9c3d 6a12 b53c 64c7 d7ba
00000140: c6b2 7a3b 8163 f0ba 4f0e 83bc 7e4e 6fbb
00000150: 5e73 54bc ffd0 6738 4620 53b9 ffc0 9cb9
00000160: 52e5 3d3d 2bc9 a8ba 5aaf dcbc 6882 a43c
00000170: 48a8 e4ba f53a 4e3d 3a04 fdbc 2f5f c5b9
00000180: 0175 6a3c d982 10ba 849a 603d f145 75b8
00000190: 65e3 bdba 682f babc e252 20b4 2677 3e3c
000001a0: e394 52bd 6c2e 08b8 99a6 f23c 4b54 b13d
000001b0: 4e76 cd3c 7157 91bc ef21 57b7 f11f a8bc
000001c0: 8b98 593c 0393 e43a 64b1 163c 763a 61b9
000001d0: f889 c2b9 6e2b 16bc f398 163d e044 1cb7
000001e0: ccfd c2ba d2a6 f539 1a14 05b9 a9ff 20bb
000001f0: ab20 d23c 5dad e83c 8acc 1db9 195b 553d
00000200: 6a9d 9b3c 3ff2 803d dc16 ffb8 bc8c 283d
00000210: 03e6 0db5 75e9 97ba 4d0e 0fbd d56f 70bc
00000220: 7de3 0cb7 493f d63d fe56 ed3d 4ef6 c93a
00000230: 9f93 26bb ba9c c3ba 4641 7c3c 5186 54b9
00000240: 1f71 a53a 8a5e 763d b2a4 a53d 204f 17bc
00000250: 0fd0 0ebb efb0 8b3d d64d adb5 48c2 12b7
00000260: 5e1f d639 9229 48bd 1c46 26bd 9dc4 1abb
00000270: e567 33b8 b147 9bbc 02da 5abd 0f99 90bc
00000280: eb1d 523d 405a 3abb cb9f a3bd def9 46b9
00000290: 6ac3 873d 628e 603d 2a07 903c 85b5 9db9
000002a0: be05 f2bb f66a ed3c fe74 e63c 882a 483d
000002b0: 6125 94b5 7e9e a6bc f4a9 86ba 1074 98b3
000002c0: e9c7 10b7 c7b1 82ba 81f9 e3ba f74f 2835
000002d0: 948e c43b a2c1 ab3d aeee 03b8 062e c93c
000002e0: 1b3c ab3d 99f2 cb3c 54d9 383d 3761 003c
000002f0: fcc0 49bb 7a90 a63d dfdb 573c 49be 3e3d
00000300: e26f 7fb6 4b67 02bc 1bab 1d3d 60db 733d
00000310: ecb3 09b6 8ed2 8ebc f345 7ab6 a522 5fbc
00000320: aefc 703d 15a1 a73c 27a5 53bb 5d20 d5bd
00000330: 7b38 aabd 915c b73c 13d4 b43c 3e7a ea3c
00000340: 849d 92b6 d186 9db5 ab8f 25b8 7c0d 23bb
00000350: 0bd4 0d3a 899e aebd 1ce3 00b9 0fca 12bc
00000360: 8f13 3ab8 d3d3 bcb9 3b8d 86b9 7146 b8bc
00000370: 2b42 453b 16f2 253d f2fc fabc 6b96 33ba
00000380: be5b 4a3d 52c2 d5bc 4e43 183c 6d06 973c
00000390: 512c 923c a8db 983b 5839 29ba 9f9b a4bb
000003a0: 8463 af3d 3617 943d 1aad d5b6 fa9a b6b5
000003b0: b9bd 01bd 2981 b3b5 188c 09bb 7073 1dbd
000003c0: 1874 f4bc 5aab e43c 88f8 83bc 1e99 ecb7
000003d0: be68 783d 4ae3 09bb 86ff fe3b c329 a1b9
000003e0: 6834 12bc 61ea 4ebc 5195 84ba a0da 8d3d
000003f0: 7bcc 883b eb24 72b7 dc13 78ba 9748 77bd
-0.002773727 -6.1696306e-07 0.058275547 -0.023611665 -0.00815594 -0.020765563 0.062985495 -0.0018195699
-0.00049595727 -0.0020341363 -2.733032e-07 0.06713701 -0.00045932364 0.03483775 -0.00021090031 -0.092084385
-0.017685166 -1.3710978e-06 -3.9349972e-05 0.11319801 0.0026297665 0.0015975819 -0.000866169 0.020297278
0.0010322422 0.073315084 -0.0005681557 -0.001276325 -1.5504021e-06 0.02253025 -0.03133317 -0.0002552389
0.09237432 -0.0009905825 0.009994997 0.06619832 0.06520004 -0.00054606947 -0.0010308098 -0.0036013501
0.013689746 -5.1694566e-05 -0.014270292 -0.00024997315 -0.0013286188 0.044339564 -5.0976325e-07 0.02955057
-0.009962122 0.026944894 0.010191514 0.047016215 0.052133314 -0.0075096353 -6.123062e-07 0.046883386
0.0010449102 -0.0025826327 0.013734903 -9.475245e-06 -0.0027550021 0.018127322 0.014894732 -0.043922964
-0.02225519 -0.0035384921 -0.01990575 -0.016584495 -0.0016749277 0.11449851 -0.005890995 -0.0025087814
0.022283709 -2.1096428e-05 0.028498868 0.058760125 -6.322792e-06 0.0764748 0.022103507 -0.0016462621
0.003825353 -0.0018340201 -0.015998034 -0.003651529 -0.012966959 5.5269335e-05 -0.00020134551 -0.00029898432
0.046361275 -0.0012877336 -0.026939083 0.020081714 -0.0017445171 0.050349195 -0.030885804 -0.00037645685
0.0143101225 -0.0005512662 0.054834858 -5.847769e-05 -0.0014487325 -0.022727683 -1.4931314e-07 0.011625087
-0.05141152 -3.246816e-05 0.029620456 0.08658656 0.025080826 -0.01774189 -1.2822899e-05 -0.020523043
0.013280998 0.0017438832 0.009197567 -0.0002147945 -0.00037105358 -0.009165628 0.036766957 -9.314361e-06
-0.0014876663 0.00046854332 -0.00012691357 -0.0024566448 0.025650343 0.028402979 -0.00015048884 0.05208883
0.01899596 0.06296205 -0.000121636054 0.04114984 -5.2861304e-07 -0.0011589961 -0.034925748 -0.0146751
-8.3976165e-06 0.104612894 0.11588858 0.0015408488 -0.002541758 -0.0014924027 0.015396422 -0.00020267932
0.0012622214 0.060148753 0.08088054 -0.009235173 -0.0021791493 0.06820857 -1.2912158e-06 -8.747513e-06
0.0004084063 -0.04886777 -0.040594205 -0.0023615726 -4.2773685e-05 -0.018955084 -0.053430565 -0.017651109
0.051298063 -0.002843514 -0.079894625 -0.00018975834 0.06629069 0.054823287 0.017581541 -0.00030080616
-0.0073859384 0.028981667 0.028131958 0.048868686 -1.1037738e-06 -0.020339247 -0.0010274039 -7.099163e-08
-8.629614e-06 -0.0009971195 -0.0017393084 6.270124e-07 0.005998442 0.08386542 -3.145512e-05 0.024558078
0.083610736 0.024895953 0.045129135 0.007835678 -0.0030785194 0.081330255 0.01317498 0.04656819
-3.8063085e-06 -0.007959197 0.038493257 0.059535384 -2.051932e-06 -0.017434385 -3.7293619e-06 -0.0136191
0.058834724 0.020462552 -0.0032294483 -0.104065634 -0.08311554 0.022383006 0.022073781 0.028622743
-4.3694763e-06 -1.1736648e-06 -3.9472867e-05 -0.0024879863 0.000541032 -0.08526332 -0.00012291636 -0.008959307
-4.436407e-05 -0.00036015976 -0.00025663697 -0.022494527 0.0030099254 0.040514074 -0.030638192 -0.0006850722
0.0494039 -0.026093636 0.00929339 0.018435681 0.017843397 0.004664857 -0.0006455383 -0.0050234343
0.08563903 0.0723099 -6.3680463e-06 -1.3605161e-06 -0.031675074 -1.337413e-06 -0.0020988043 -0.038440168
-0.029840514 0.027913738 -0.01610972 -2.8204693e-05 0.060646765 -0.0021040016 0.0077819256 -0.00030739428
-0.008923627 -0.0126291225 -0.00101153 0.06926465 0.0041747666 -1.443292e-05 -0.00094634085 -0.06037196

weight f4 [256, 256]
00000000: 3bcb e3ba 40ce 8bb2 0c5a e6bc 7349 24bc
00000010: 1eb6 f73c 7787 2cbc 1ff3 c3bd 120c 2f3d
00000020: 3a7e 963c 02c3 4937 5f5c 24b2 bff4 97bd
00000030: 2a27 adb6 c489 2abb ef21 9f3c b4b5 29bd
00000040: 7c47 383b eb62 afb4 dad2 27b5 bc13 8abd
00000050: aca6 7c3d d086 4fbc 130b afb7 cd63 263b
00000060: 0843 393d 0cc5 65bd 95fb 5ebc f5b9 ac3d
00000070: e078 20b4 0148 e0bc 2821 d43c 51d7 46b6
00000080: 2e56 02bb ca5d 103c 3de6 47bc 75c7 c8bb
00000090: e21d 7abd d22e 49b6 fb08 8035 2168 7f3b
000000a0: 9af1 2c3c 12c0 26b6 4699 21bd d88e 17b7
000000b0: afa3 c1bc 9734 a8bc df5e 0bb4 d343 a43b
000000c0: ee9f 443d f074 293c 1ba2 453c fb63 afbc
000000d0: 41e5 1fbd 2b1e 8c3d 7dd7 43b3 6f5d c93c
000000e0: 4c5d e83b ac08 99b6 849b 4fbc 9385 ddb4
000000f0: 9cbc 973d 427b 81bc 65d2 c339 babd c63c
00000100: db50 9d3d e115 503d a28b fabc 5e16 cf3b
00000110: 63c8 173d f4a4 8d3d 99d8 9d3c 34ce bc3d
00000120: f2fe 513d 7fd4 cbb6 7789 213d 6084 e8bc
00000130: 1c40 02b4 213c a83c 493a 68b9 045e 02b8
00000140: c380 123c ad51 6f3c c45e cb3b f5c3 8b3d
00000150: 6b2f 8c3d 480a c5bc 4153 203c 2aaf 8db7
00000160: 15a0 5cbc 3a6d b63c 1642 4cbd 631c e23b
00000170: d2a0 ac3d b9dd c9bc f2d4 9b3b e3fb 6a3d
00000180: a149 993d 41f9 25bc 3e91 a5bb 29ba 3834
00000190: afbf 38b7 eec8 8cbc cb3e 23b2 7b26 213d
000001a0: 5aa5 44bd 05d3 8db5 dfd4 9f3a f2ec e93c
000001b0: c1eb cbbc 0251 0cbc 7f26 87b4 b675 1a3d
000001c0: b724 823d 925e 3ebc 3069 cb3c cbeb f0b5
000001d0: d6cb 93b6 9301 923c ef3d 96bc 2e57 2a34
000001e0: 92df 2cbc 1826 edbc af14 bfb5 f784 f63c
000001f0: b02b 803a ac0f 2b3c e135 e234 7f9d 6abc
00000200: cb2f ffbc c356 c23c 525c ef34 6eae 443a
00000210: 2f0b 12b4 5a0e 9b3c 4cac 53bd 03c6 923c
00000220: c023 3fb5 799c da3c ec31 f13c 1e84 ddbc
00000230: 31c9 153d a8a1 00bc 2de1 04bc 96aa 993c
00000240: 1124 d0bb c328 453c 61a5 80bd 9392 b03c
00000250: 5080 bfb6 243d 4fbc 3a15 b5b3 6c8d f6b5
00000260: a157 95bc a5e9 623d 1ae3 a8ba c863 943d
00000270: 3415 3437 98ef cf3c f703 80bc a479 f03c
00000280: 4030 24bd 9ba8 9536 66dc 8c3d fd7b 763a
00000290: 0114 a03c dcc3 7bbd 416a 953a b2e5 06b6
000002a0: 86dd 013d 2aa1 08bc 41df 1abd f376 71bc
000002b0: 7c57 7db3 9231 7d3c 5ab2 c1b6 c7aa a1b4
000002c0: 7515 88b4 e9ea 01b7 2c12 123d 9871 89b4
000002d0: 5615 20bd 276b 0e3d 88ad 42b4 0198 02bc
000002e0: e9a4 3a3c 6811 2fbb 8a34 44bb b015 bb3c
000002f0: 68c8 8b3a a667 c33c 31b5 46bc ce5a 463d
00000300: c843 adb4 1944 863d aef3 a3bc 5e6e a4bc
00000310: e3bf 1fb4 a391 5b3d 69f8 a8b4 9d84 aa3c
00000320: 4fa7 263c 98b2 a2bc 2fb3 9d3d 60f5 8e3d
00000330: 33dd 05bd 2bf6 fcbc 2171 c1bc 5d4b 95b9
00000340: 78ea 2fb4 a5e7 81b3 769e ddb5 b63e a4b6
00000350: edc5 b83c 77ed 4cbd 5503 78b4 940f ae3d
00000360: 83c7 0eb5 2d64 dcb8 f5d3 cfb6 2dbc f83b
00000370: 434e b33b 17d0 023c 0305 b33c c215 27b6
00000380: 6154 52bb 5700 993d 1f12 30bb c80c 11bd
00000390: a8d0 3cb9 678c 9aba 50c5 5bb6 8e2b 873c
000003a0: 027e 66bd 00cd 26bc bd45 64b6 5f83 22b4
000003b0: 4258 af3c 524d 89b2 2547 50bb bbf1 92bb
000003c0: f495 7e3c 9df2 503c d3f8 593d 7725 72b4
000003d0: c507 74bc e541 3b3b 3752 d43c be85 b4b6
000003e0: 0c6d 463c 46ca e93c 4aa9 3bb7 e87a 8cbd
000003f0: be6c 833d 86a6 bfb5 52ad 0dbc f73b d1bc
-0.0017379293 -1.6275521e-08 -0.02811911 -0.010027277 0.030238207 -0.010530344 -0.09567856 0.04273612
0.018370736 1.2025937e-05 -9.567059e-09 -0.074197285 -5.160361e-06 -0.0026022056 0.01942536 -0.04143305
0.002811878 -3.2668262e-07 -6.251918e-07 -0.06742045 0.06168239 -0.012666419 -2.0866783e-05 0.0025389076
0.04522994 -0.05609612 -0.0136097865 0.08433906 -1.4945135e-07 -0.027378084 0.025894716 -2.962963e-06
-0.0019887793 0.008811424 -0.012200889 -0.0061272928 -0.061063655 -2.9978587e-06 9.539357e-07 0.0038971978
0.010555649 -2.4847727e-06 -0.039452814 -9.03356e-06 -0.02363762 -0.02053289 -1.2979898e-07 0.005012968
0.048004083 0.0103428215 0.012062575 -0.02140998 -0.039036993 0.068416916 -4.559796e-08 0.024580685
0.0070912 -4.560765e-06 -0.012671355 -4.1261646e-07 0.07409021 -0.015805844 0.00037350054 0.02426039
0.076814376 0.050802115 -0.03058416 0.006319805 0.037056338 0.06916228 0.01926832 0.092190176
0.051268525 -6.0746092e-06 0.039437737 -0.028383434 -1.2130516e-07 0.020536484 -0.00022146957 -3.1081974e-05
0.008941832 0.014606875 0.0062063653 0.06824485 0.06844982 -0.024052754 0.009785474 -1.6890077e-05
-0.013465901 0.02226888 -0.049867712 0.0069003566 0.084291115 -0.024641858 0.0047556097 0.057369124
0.07484747 -0.010130228 -0.0050527146 1.720406e-07 -1.1011884e-05 -0.017185654 -9.502126e-09 0.03934334
-0.048009254 -1.0566733e-06 0.0012194178 0.028555367 -0.02489269 -0.008564236 -2.517372e-07 0.037709914
0.06354659 -0.011619227 0.02483043 -1.7950018e-06 -4.404671e-06 0.017823016 -0.01834008 1.58642e-07
-0.01055135 -0.028948829 -1.4236629e-06 0.0300927 0.0009778645 0.010440748 4.2134982e-07 -0.014319777
-0.03115072 0.023723012 4.458439e-07 0.00075027987 -1.3601378e-07 0.018927742 -0.051677987 0.017916685
-7.120507e-07 0.02668594 0.02944275 -0.027040537 0.036568824 -0.007851042 -0.008110327 0.0187581
-0.0063519557 0.012033644 -0.062815435 0.021554267 -5.707181e-06 -0.012648854 -8.4323304e-08 -1.8369587e-06
-0.018230261 0.055398602 -0.0012885064 0.07245594 1.0733773e-05 0.025382802 -0.01562689 0.029354878
-0.040085077 4.4601743e-06 0.06877975 0.0009402631 0.019540789 -0.061466083 0.0011399464 -2.0101256e-06
0.0317054 -0.008339206 -0.037810568 -0.014737832 -5.898572e-08 0.015453713 -5.772611e-06 -3.0112844e-07
-2.5347586e-07 -7.7436935e-06 0.03566186 -2.560089e-07 -0.039082848 0.034770157 -1.8130788e-07 -0.007970811
0.011391857 -0.0026713256 -0.0029938542 0.02283749 0.0010664584 0.023853134 -0.01212816 0.04842644
-3.2273078e-07 0.06555957 -0.020013656 -0.020072158 -1.4877837e-07 0.053605687 -3.147318e-07 0.020815188
0.010171725 -0.01986055 0.07700192 0.06980395 -0.032681655 -0.0308791 -0.023613514 -0.00028475645
-1.6383444e-07 -6.0491665e-08 -1.6511901e-06 -4.8948814e-06 0.022555316 -0.05003115 -2.3098012e-07 0.08499065
-5.318945e-07 -0.00010509077 -6.193756e-06 0.0075907917 0.005471976 0.007984183 0.021852976 -2.4897604e-06
-0.003209375 0.07470768 -0.002686627 -0.03541258 -0.00018006808 -0.0011791111 -3.2748394e-06 0.01650026
-0.056272514 -0.010180712 -3.401524e-06 -1.5135218e-07 0.02140439 -1.598406e-08 -0.0031780687 -0.004484383
0.015538681 0.012753156 0.053215813 -2.2551636e-07 -0.0148944305 0.0028573212 0.02591811 -5.3799877e-06
0.01211096 0.028538834 -1.1185484e-05 -0.0685938 0.06417225 -1.4279074e-06 -0.00864728 -0.025541289

bias f4 [256]
00000000: 11ff b3bc 619c 943c 79a1 40bb b35e be3c
00000010: e796 703c a2d6 623c 991d aab6 ae1d fab1
00000020: 1147 e8b9 1c47 843c b4ce 2cbd 8946 163c
00000030: 8cbc e1b8 a40c 3fb9 4fdf ae3c 6af7 3f3c
00000040: 73c6 3cb8 1896 973a 694e 613c 1c4c 2d3c
00000050: 3f78 b13c a5c1 ff3c 7611 6fb1 f98c fb3b
00000060: 5c32 f3ba b33b a73c a18d 673b fb15 cc3d
00000070: 7e85 ac3b b0f8 2a3c b363 673c 795d d13b
00000080: 62ea a9b8 f5f8 7db3 0671 05bd 8375 733c
00000090: 3ca9 49bc 4e08 63bb f1f4 c83c e3eb 223c
000000a0: 14c5 1836 01e5 823b a5ba 2ab3 4270 a63b
000000b0: 27c5 a7b9 fe38 cf3b 0853 d9b7 61c7 6b3c
000000c0: b733 413c d807 e8b9 fa33 16b4 36f7 6f3c
000000d0: 5d15 df3d 5cdc 383c 640d 1bb9 2b08 8cbb
000000e0: e909 9d3d 3828 313c ba90 8b3c bf7e ae3c
000000f0: 0617 d83c 167b 1fb8 b1aa 9b3d 42ce 28b8
00000100: 770f 663c b133 9cb5 3e82 6d3c 82dc d43c
00000110: e03b 31b9 0587 dcba 9633 1a39 f5fc 1d3c
00000120: 00be 74b6 a764 573b 2b18 8a32 2ff9 f0b4
00000130: fbcd 873c 6fe3 e23c bf1e 20bb 2a88 e53b
00000140: 0e31 b8b7 4c23 343c 2d06 8eb9 4f8d 013c
00000150: 4de5 38b2 1950 543d 0ba5 843b ac34 5c3c
00000160: 88a9 553c aece 53b5 e8d9 253c 8338 b33c
00000170: 008a f43c 3dca 893d d99f 203d 6bf3 8fb6
00000180: 92db 853b 3560 fbb6 5f02 063c 7567 35bc
00000190: bad6 7fb8 5e66 cb3b e94d 303c b93b 1f3c
000001a0: 94a5 243c e8d3 49b7 c6ca 553c 06cf e33b
000001b0: 17c9 82b6 59a1 5e3c d4bc 093c e94c 36b8
000001c0: 0f83 fcb6 603e 0cba 334e 863d 1eef 1cbd
000001d0: 8d6b 953c e14c a33c 53fc a73c 8490 653c
000001e0: c2f6 833c a777 333c 6175 b73c 0658 503d
000001f0: 50f0 e83b c49d f93b 9435 d9bc 2285 123b
00000200: a5c1 c2ba bf2c 883b 5844 943c 5568 183c
00000210: 891a d13b 5652 2a3b 700d f0b6 9dca 2c3c
00000220: 5b03 52bb 1c09 39bb 2397 4b3c a58f 6c3c
00000230: df69 97bb 2a96 733c e926 033d 6b3b bc3b
00000240: 03df 97bb 6df8 613c 23a8 c7b7 23a9 cbbb
00000250: 9315 3fbc b76d 3c3c 3ce3 21bc b07f 723c
00000260: 5c14 42bb 3de7 593c 97eb 1fbc d20a 2f3c
00000270: fb35 553c d3d9 faba 5f2a 3dba 9aa7 dc3c
00000280: 2f37 50b4 3fbb beba 8e19 833b a480 313b
00000290: 28dd 913c 2038 6e3c e37c 07bc 11c3 5ebd
000002a0: 32d8 4f3a a947 4e3c d103 1cb7 696e 273c
000002b0: 403a e5b7 bccf 1db8 e2a0 c03c 2510 1cbc
000002c0: 97c7 d33b 8672 3b3c 35cf d33b 8929 1bb7
000002d0: 2190 9db9 01ec 8b3c f20e cf3c 05fd babc
000002e0: cacb 1eb8 fc91 a3ae 96eb 5a3c 5a18 563c
000002f0: a183 82b9 f417 263a 3bbd 423c 9b5c a73b
00000300: dc53 04bd 7112 a6b2 3fda 9d3c 8e60 3fba
00000310: b323 3db9 ce71 8f3c c135 b93b 3a35 efb7
00000320: 8d81 97b8 d388 f33c f806 0b3c 3ebf a5b6
00000330: ab6e b1b8 f24c cd3b 406a 4ebc 577a df3a
00000340: 321c 483c 8ef3 013c 7f66 2cbc 6ce6 b4b9
00000350: 037c 903a 5115 a5b5 d52e 13bb 422f 963c
00000360: 164b 113c 7e6b 473b 6e37 81b8 ab80 11b4
00000370: 91dc a83d f2ac 35ba aaf4 59bb 9917 b93c
00000380: 3ef3 713c 0824 163c 350c 893c 4b63 983b
00000390: 7ff7 d23b 3eb6 9d3b 2b4d 113c e2b7 beb8
000003a0: c266 6c3c fd41 d9b8 b916 973b 1029 e6b4
000003b0: a5e1 173c a0b7 393c 403d b4b8 afc3 2db1
000003c0: a340 3b3d e305 73b7 2d06 2eb7 1ae8 23b6
000003d0: 2bfc c13b a9ff a4b4 7c9a 0ebc 3d64 503d
000003e0: 0d14 86bb 2c75 84b8 65d5 303c 8785 f6b2
000003f0: 8a7d 68b9 5e0c 67b7 3f79 313a 671e 4b3c
-0.021972211 0.018140974 -0.002939312 0.023238515 0.014684415 0.013845118 -5.0698404e-06 -7.279332e-09
-0.00044303437 0.016147189 -0.042189315 0.00917209 -0.00010763956 -0.00018219888 0.021346716 0.011716703
-4.5007513e-05 0.0011565117 0.013751605 0.010577228 0.021663783 0.031220267 -3.4789003e-09 0.0076767174
-0.0018554437 0.020414209 0.003533222 0.0996513 0.005264937 0.010435268 0.014122891 0.0063893166
-8.102205e-05 -5.9132578e-08 -0.03257849 0.01485956 -0.012308415 -0.00346424 0.02453086 0.009943935
2.276448e-06 0.0039945845 -3.975096e-08 0.0050793 -0.00031999612 0.0063239327 -2.590708e-05 0.014390797
0.011792115 -0.00044256332 -1.3988748e-07 0.014646342 0.108927466 0.0112830065 -0.0001478694 -0.0042734346
0.07667906 0.010812812 0.017036784 0.021300672 0.026378166 -3.8023187e-05 0.07600916 -4.0246414e-05
0.014041773 -1.163795e-06 0.014496384 0.025984053 -0.0001690234 -0.0016824907 0.00014705802 0.009642829
-3.6469428e-06 0.003286639 1.6076305e-08 -4.4884789e-07 0.016577711 0.02769634 -0.0024432389 0.0070047574
-2.1957352e-05 0.010994744 -0.00027088952 0.007907226 -1.0762347e-08 0.0518342 0.004047995 0.013440292
0.013040908 -7.8904384e-07 0.010122754 0.021877533 0.02985096 0.06728027 0.039214943 -4.2900697e-06
0.0040850127 -7.491583e-06 0.008179276 -0.011072029 -6.0996717e-05 0.0062072715 0.010760763 0.009718829
0.0100492425 -1.2029872e-05 0.013048833 0.0069521694 -3.897712e-06 0.013588273 0.008406837 -4.346381e-05
-7.5254425e-06 -0.0005349871 0.06557884 -0.038313977 0.01823976 0.01993412 0.02050606 0.014011506
0.016108874 0.01095382 0.022394838 0.050865196 0.0071087256 0.007617684 -0.026514806 0.0022357185
-0.0014858736 0.004155725 0.018098995 0.009302218 0.006381337 0.0025989017 -7.1541217e-06 0.010546354
-0.0032045457 -0.002823419 0.0124261705 0.014438544 -0.004620775 0.014867345 0.03201953 0.005744388
-0.0046347394 0.0137921395 -2.3800943e-05 -0.006215231 -0.011662859 0.011500767 -0.009880837 0.014800951
-0.0029614186 0.01329976 -0.009760759 0.010683732 0.013013358 -0.0019138403 -0.00072160916 0.026935387
-1.9391585e-07 -0.0014551653 0.004000849 0.0027084732 0.01780565 0.014539748 -0.008269521 -0.05438525
0.0007928639 0.012590327 -9.299213e-06 0.010219195 -2.7326052e-05 -3.7625185e-05 0.023514215 -0.0095253335
0.006463002 0.011440879 0.00646391 -9.248391e-06 -0.00030052758 0.017080309 0.025275681 -0.022825727
-3.785993e-05 -7.438314e-11 0.013361832 0.013067329 -0.00024893603 0.0006335967 0.011885936 0.005107475
-0.032306537 -1.933333e-08 0.019269107 -0.00073004595 -0.00018037744 0.017510321 0.00565216 -2.8515806e-05
-7.224372e-05 0.029728329 0.008485548 -4.9396467e-06 -8.460631e-05 0.006265276 -0.012598574 0.001705001
0.012213754 0.007931603 -0.010522484 -0.00034503953 0.0011023286 -1.2299662e-06 -0.0022458334 0.018333081
0.008868 0.003042906 -6.161524e-05 -1.3550986e-07 0.08245195 -0.0006930373 -0.0033257403 0.02259426
0.014767466 0.009163864 0.016729454 0.0046505085 0.0064381952 0.0048129847 0.008868496 -9.094157e-05
0.014428796 -0.000103596576 0.004610863 -4.2870715e-07 0.009270106 0.0113352835 -8.5944775e-05 -2.5286047e-09
0.04571594 -1.4485299e-05 -1.0372646e-05 -2.4423994e-06 0.0059199533 -3.0733398e-07 -0.008703824 0.050876845
-0.0040917457 -6.3160755e-05 0.010793065 -2.869889e-08 -0.00022172011 -1.3771552e-05 0.0006770081 0.012397385

weight f4 [4, 256]
00000000: 637b a5be 1d8d 283e 61b2 18be 18c6 ccbd
00000010: 1dfd 713e ba64 1bbe d92b 91b7 6289 28b3
00000020: f198 07ba d3be 0dbd aa0b 75be 03f9 d5bb
00000030: 0f9a 6db8 8ee7 79bd e95d 623d aebe 963d
00000040: 2162 ba38 adbe 99b7 950b 52be 37cb 54be
00000050: e89e a13d 8f78 0ebc 13e7 af2e 510c 88be
00000060: 22ec aabc d81a b43d 403b f23d 4321 ca3d
00000070: fbe7 93be 620a 2bbe d26d c2be 8dd0 efbd
00000080: fb98 6c3d 1e17 8ab3 cb91 9cbc 2f6c 0dbe
00000090: 5f9b 58bd 37e9 5a3a a64b 703d 61ac 3e3e
000000a0: dc28 70bd 7f76 a0bd 2eca 71b3 6374 99bc
000000b0: 3685 bd39 0a1d 04be bcce 55b8 7aa5 91be
000000c0: 9a51 08bc dabd b0b8 0619 e830 e4df 2e3e
000000d0: 4ea8 f23c 7d09 253e 3783 313a d331 debc
000000e0: 11a3 5cbe 9451 5a3e 51a7 16be 8a8a f03c
000000f0: 5e36 c5be 9172 c836 fdb5 0d3e b1ec 5138
00000100: 6bc0 a1be 276b 5db6 8e0e 83be 86a0 8abe
00000110: 7fc7 3eb9 d4c1 9d3d a2c6 a8be cd72 5a3f
00000120: 9f07 4433 93b4 79bd 40ef 1632 5bd5 b035
00000130: ba95 7ebe e687 48bd c460 47be 761c 88be
00000140: 1190 f935 07e6 b43d 67fe c037 c148 5e3d
00000150: b298 172e a8b5 ab3e 8cff a63d b89e 833e
00000160: d037 cabc 9220 6f32 b505 a6bd 2711 733e
00000170: 4437 de3d 1a2a 853e 9f4a c83d 10a3 bb37
00000180: 0fcf dfbd 8535 2838 d00f 6b3e 24ea ccbd
00000190: e489 ab36 bae7 0cbd ece9 523e 59b3 c8bd
000001a0: 54c4 573e d881 d835 cd7b 8fbd 0734 7fbe
000001b0: 6e3e 9e37 9b22 813e 0874 a93d 44c3 8337
000001c0: d3e4 19b4 e788 7e3a afc8 c63e b179 5c3d
000001d0: 3a66 4d3e 4a37 65be 78c7 aebd 74ff 473d
000001e0: eb6f 63be d63e b73c afa5 203e 402d 85be
000001f0: aa57 27be 7b6d 963d d0fc 21be 6c1e 8abe
00000200: e350 06bb 4a1a 833e 6a7d 9c3d 9ebd 8abe
00000210: 87f2 0e3e dd16 4d3e 2cb8 bf33 816d 77be
00000220: 65e4 6abd 103a 98b9 f6a4 4c3d 266e 413d
00000230: e259 d9bc 6607 81be 94a1 30be d470 bd3b
00000240: 5962 d0bd 3309 143d 2829 c9b4 0af3 943e
00000250: 3723 da3d af82 89bd 6422 52be d639 723d
00000260: 7643 61ba 2241 bb3d 93be 1dbd 6a02 84be
00000270: 28f9 473e 35a5 ba3c 0f4f da3a a4ce e13d
00000280: 5cc5 bd31 4727 86be e961 d23d 197d 2abe
00000290: 20de 133e 7018 883e 3a2c 5c3e 8ede febd
000002a0: f869 3bbe dbf3 013e 85bb 7e37 fed2 fd3d
000002b0: d2d9 04b8 3e30 5536 ace6 fb3d 5755 c1bd
000002c0: 344c 81be 10d2 a6bc 9be3 933d 741b 8438
000002d0: 320d 5cb8 944d 30be 06d3 9ebd cb28 21be
000002e0: 2041 2f34 8c4b 4c2c 5551 25be 2a9c 823e
000002f0: 0109 7739 623f 533e d4e7 30be b84d 463e
00000300: d64f c7bd 8a45 6e30 5249 f83d d901 87ba
00000310: 84b4 9ab8 63b2 163d f30d 1bbe 3962 5cb7
00000320: 06e1 9bb9 7023 82be 2d02 c43d 4c79 ecb7
00000330: 4ab9 49b7 72a6 6cbe c2ee 17bc d38e 363e
00000340: 85a3 9f3e 86fa 433e 2ac9 4ebe d4a7 c4b9
00000350: 4436 40be 0533 edb6 1eb9 f53a 7d1f 913e
00000360: c872 a83d e05a 323e d18e 0337 5cbb 6fb2
00000370: 0530 a83e bd5e f8ba 06f7 ce3a 09b6 0bbe
00000380: 037a 933c 5cb2 e13d 8c62 e93d 43c8 93be
00000390: 69f4 093e 3af4 883e f77e e13d e8e1 f336
000003a0: eadb a3bd 9abf 5f36 e13c c93d 3368 1bb4
000003b0: 4b3a 99bd 7a96 ed3c e6f5 c535 6f4a 8db1
000003c0: 3da3 3a3e 6d20 a9b7 ed3a b337 ec50 1d37
000003d0: 5c71 98be f4fe d7b1 bbdb f8bc 3f00 acbe
000003e0: d925 b2bd 4cfb 8d36 ec15 373e 03e8 1f31
000003f0: 4aff cb38 658b 9b38 404b 0238 91ab 2d3e
-0.323207 0.1646008 -0.14911796 -0.09998721 0.23631711 -0.15175143 -1.7305765e-05 -3.9240497e-08
-0.00051726314 -0.034605812 -0.2393023 -0.0065299287 -5.664868e-05 -0.061011843 0.05526534 0.07360588
8.887449e-05 -1.8327812e-05 -0.2051223 -0.20780645 0.07891637 -0.008695736 7.999126e-11 -0.26571897
-0.02086455 0.087941825 0.11827707 0.098696254 -0.28887925 -0.1670318 -0.3797441 -0.117097
0.05776308 -6.430331e-08 -0.019112488 -0.138108 -0.05288255 0.0008350792 0.058665894 0.18620445
-0.058632717 -0.07835101 -5.6296066e-08 -0.018732255 0.0003614814 -0.12901703 -5.0975694e-05 -0.2844656
-0.008320237 -8.4276966e-05 1.6887334e-09 0.17077595 0.02962127 0.161169 0.00067715667 -0.027123367
-0.2154658 0.21320182 -0.14712264 0.029362936 -0.3851804 5.9738018e-06 0.13838954 5.004992e-05
-0.31592116 -3.2993937e-06 -0.25597042 -0.27075595 -0.0001819413 0.077029854 -0.32964045 0.8533142
4.5641738e-08 -0.060963225 8.785548e-09 1.3175116e-06 -0.24861804 -0.048957728 -0.19470507 -0.26584214
1.8593875e-06 0.08832937 2.3006649e-05 0.054268602 3.4469046e-11 0.3353703 0.081542104 0.2570703
-0.024684817 1.3919037e-08 -0.08106557 0.23737012 0.10850385 0.26008683 0.09779858 2.2368069e-05
-0.10928165 4.0104165e-05 0.2295525 -0.10005596 5.1122497e-06 -0.03440068 0.20597047 -0.09799833
0.21070987 1.6131044e-06 -0.07006035 -0.2492219 1.8864139e-05 0.25221714 0.08274084 1.5707345e-05
-1.4332481e-07 0.0009709731 0.38824984 0.05382699 0.20058528 -0.22384372 -0.085341394 0.048827603
-0.22210662 0.02236883 0.15688203 -0.26011086 -0.16342035 0.073451005 -0.15819097 -0.26976335
-0.002049499 0.25605994 0.07641108 -0.2709779 0.13959704 0.20028253 8.927631e-08 -0.24162866
-0.05734672 -0.0002903496 0.049962007 0.047224186 -0.026532117 -0.25200957 -0.17249137 0.0057812724
-0.10175008 0.036141586 -3.7469113e-07 0.29091674 0.10651248 -0.06714379 -0.20520931 0.059137188
-0.00085931213 0.091432825 -0.038511824 -0.25783092 0.1952864 0.022783855 0.0016655641 0.11025742
5.523061e-09 -0.2620184 0.10272581 -0.16649283 0.14440203 0.26581144 0.21501246 -0.12444793
-0.18302143 0.1269068 1.518324e-05 0.12393759 -3.1674113e-05 3.1767554e-06 0.122998565 -0.094401054
-0.2525345 -0.020363837 0.07221147 6.299364e-05 -5.2464376e-05 -0.17217094 -0.07755093 -0.15738218
1.6321837e-07 2.903208e-12 -0.16144307 0.2550977 0.0002355911 0.20629647 -0.17275935 0.19365585
-0.09732024 8.6682717e-10 0.1212336 -0.0010300233 -7.376916e-05 0.036791217 -0.1514204 -1.3135891e-05
-0.0002973156 -0.25417662 0.095707275 -2.8189876e-05 -1.2023675e-05 -0.23110369 -0.009273233 0.1782792
0.31179443 0.19138536 -0.20193925 -0.00037509075 -0.187707 -7.06909e-06 0.0018747186 0.28344336
0.08225018 0.17417479 7.8414605e-06 -1.39542315e-08 0.32849136 -0.0018949133 0.0015790171 -0.1364366
0.018002516 0.110203475 0.113957494 -0.28863725 0.13472141 0.2674883 0.11010545 7.2682633e-06
-0.0800093 3.3341116e-06 0.09826065 -1.4473407e-07 -0.074818216 0.029002417 1.474921e-06 -4.112102e-09
0.18226333 -2.016147e-05 2.1365902e-05 9.37677e-06 -0.29773986 -6.2863084e-09 -0.030378213 -0.33593938
-0.08698625 4.2313823e-06 0.17879456 2.3269429e-09 9.7273456e-05 7.41694e-05 3.1064497e-05 0.16959979

bias f4 [4]
00000000: b645 583b c5d4 ab3b d66f aaba 379a cc3c
0.0033000535 0.00524387 -0.00130033 0.02497588
