checkpoints/swarm_1d/linear/known/no-constraint/run-1/policy_final.pt (torch, 14901 bytes, 13 tensors)

weight f4 [16, 101]
000000 1c 23 c4 3e 15 40 95 bc 87 89 93 bc d3 7f f2 bc
       0.38308036 -0.018219033 -0.018009914 -0.029601967
000010 89 75 bf bc 63 f9 d1 bc e0 1d e3 bc d2 c4 67 bd
       -0.023371475 -0.025631612 -0.027724206 -0.056584187
000020 54 99 4d bd 76 64 63 bd d6 cb 8f bd fd 6f e9 bc
       -0.050195053 -0.05551573 -0.070213005 -0.028495783
000030 ce 6b 9e bd b9 39 e7 bc 23 12 a4 bd 19 15 e3 bc
       -0.07735406 -0.028225766 -0.08011272 -0.027720021
000040 2c 1f eb bd e0 29 10 bd 01 6c dd bb 78 29 70 bd
       -0.11480555 -0.035196185 -0.00675726 -0.058633298
000050 f7 e0 e7 bd 35 0c 99 bd 74 d9 66 bd 26 83 a6 bd
       -0.113222055 -0.074730314 -0.056359723 -0.08130483
000060 94 51 c8 bd 50 64 2a 3d 7d b5 99 bd 66 38 c4 bc
       -0.09781185 0.04159957 -0.07505319 -0.023952674
000070 59 5f c2 bd 2c 06 5c 3d 55 b9 0e bd 69 b0 e7 3c
       -0.09490842 0.053716823 -0.034844715 0.028282361
000080 7f d0 ca bc 36 26 3c bd 89 0c 27 bd 21 94 17 bc
       -0.024757622 -0.04593488 -0.04078344 -0.009251625
000090 d8 84 56 bc cc 8c 1a bd 05 cb 94 3c 72 d9 5e 3d
       -0.013093196 -0.03773193 0.018163214 0.05440659
0000a0 ce e0 81 3c b0 a0 e9 3c 4c 12 57 3d 31 5b c5 3b
       0.015854266 0.028519005 0.052507684 0.0060228338
0000b0 28 34 d4 3c e4 bf c7 bc 63 1f 3c bc 07 b4 a1 bc
       0.025903776 -0.024383493 -0.011482093 -0.019739164
0000c0 5d 64 0b 3d 13 07 0b 3d f0 be bc ba 32 20 2a 3c
       0.03403126 0.033942293 -0.0014400166 0.0103836525
0000d0 c6 e9 6c 3c 7d a2 95 3c 37 f1 02 3d c7 c8 a5 3c
       0.014460033 0.018265957 0.03196832 0.02023734
0000e0 b0 1c d2 3c 33 28 d9 3c f8 37 a4 3b d8 dc 69 3c
       0.025648445 0.026508426 0.005011555 0.014273845
0000f0 c7 a8 3f 3c 63 5e 45 3c b1 60 5c 3c 79 8b 15 3c
       0.0116979545 0.012046429 0.013450787 0.009127491
000100 23 4c 5c 3c bc c0 8f 3c f8 07 6b 3c 4f 98 4f 3c
       0.013445887 0.017547958 0.014345162 0.012670591
000110 c0 e5 17 3c 33 46 7b 3c 11 52 6b 3c 82 10 16 3c
       0.009271085 0.015336561 0.014362828 0.009159209
000120 65 d2 12 3c 59 6a 3a 3c 5c 35 3a 3c 3a 1c 08 3c
       0.008961295 0.011377894 0.011365261 0.008307511
000130 09 e4 36 3c c5 bb 2d 3c e9 8f 40 3c 10 5b 39 3c
       0.011162766 0.01060385 0.011753061 0.011313215
000140 06 07 24 3c 61 a3 2e 3c 9e 2c 19 3c b6 5c 1b 3c
       0.01001144 0.01065907 0.0093490165 0.009482553
000150 a3 fd 21 3c 8b 7e 0b 3c 00 e2 1b 3c c8 b1 e8 3b
       0.009887132 0.008514057 0.009514332 0.0071012713
000160 3a ac e4 3b 3a a8 d7 3b 19 56 94 3b 53 66 83 3b
       0.006978539 0.0065813335 0.004526865 0.0040100007
000170 43 02 6b 3b 8b 4c c1 3a d6 72 8a 3a ff 33 0a bb
       0.0035859502 0.0014747543 0.0010562788 -0.002108812
000180 00 97 38 bb 22 4e 0c bc 50 da 0c bc 11 d3 88 bc
       -0.0028166175 -0.00856355 -0.008596972 -0.016702207
000190 8b 25 92 bc ef 8d 1a 3f 3e ab 1e bd 7e e8 f4 bc
       -0.017840168 0.60372823 -0.038737528 -0.029896017
0001a0 fc ef f6 bc d0 b9 4a bd cb 5f a3 bd 0d 9d 9d bd
       -0.03014373 -0.04949361 -0.079772554 -0.07695971
0001b0 ce 42 df bc cb a2 9b bd c4 bc 98 bd c9 b2 5f bd
       -0.027253535 -0.0759941 -0.07457879 -0.054613862
0001c0 6f 37 93 bd fd 2d 57 bd e4 8f d6 bd c5 52 67 bb
       -0.071883075 -0.052534092 -0.10476664 -0.0035297137
0001d0 52 cb 99 bd 1d 7b 33 bd 8a 18 8f bc 0c 6f ed bc
       -0.075094834 -0.04381858 -0.017467756 -0.028983615
0001e0 b2 ff cf bd 3c 5a 85 bd 8f 68 10 be 12 42 0f bc
       -0.10156192 -0.065113515 -0.14102386 -0.00874378
0001f0 af a6 d6 bd c9 a5 53 bd 8d 16 81 bd 14 f6 98 bd
       -0.10481011 -0.051671777 -0.06303129 -0.07468811
000200 98 98 2e bd c7 19 2d be 93 39 2e be 68 98 d8 bd
       -0.042625993 -0.16904365 -0.1701415 -0.10575944
000210 e0 76 b4 bc 91 e5 9d bd 7a a1 9c bd e0 d2 1a be
       -0.02202934 -0.07709802 -0.07647987 -0.15119505
000220 c6 1e 3e bd a0 db 1e be 51 a8 00 be 54 cb 02 be
       -0.046416067 -0.15513468 -0.12564208 -0.12772876
000230 3c dc 33 bd d0 1e b6 bd e3 75 fb bd 0d e5 1c bd
       -0.043911204 -0.08892596 -0.122783445 -0.038304377
000240 6a ed 04 be 11 59 9a bd 2f a8 b7 bd 32 49 69 bd
       -0.12981191 -0.07536519 -0.08967625 -0.05695457
000250 c1 f1 4d bd c5 c8 a5 bd 9c 07 8c bd 9c 53 30 bd
       -0.050279383 -0.080949344 -0.06837389 -0.043048486
000260 51 70 95 bd 20 82 b0 bd 08 15 a5 bd 19 e7 81 bd
       -0.07296813 -0.086185694 -0.08060652 -0.063429065
000270 03 45 65 bd 03 b2 31 bd 28 60 73 bd 4c b8 84 bd
       -0.055974018 -0.043382656 -0.059417874 -0.06480464
000280 20 d6 89 bd 8b 3b 32 bd 02 55 83 bd fb 33 5d bd
       -0.06730294 -0.043513816 -0.06412698 -0.05400465
000290 67 86 5c bd 12 6d 61 bd 96 e8 64 bd b8 1c 76 bd
       -0.053839114 -0.05503566 -0.055885874 -0.060085982
0002a0 8e c4 4f bd e9 98 55 bd 66 93 70 bd b6 3c 64 bd
       -0.05072456 -0.05214778 -0.05873432 -0.05572196
0002b0 86 67 5d bd 47 d8 67 bd 70 49 62 bd a1 07 70 bd
       -0.054053806 -0.056602743 -0.055245817 -0.058601025
0002c0 80 45 55 bd 34 17 58 bd b5 58 51 bd 86 24 75 bd
       -0.052068233 -0.052756503 -0.05110999 -0.059849285
0002d0 85 a9 6e bd 34 6c 57 bd 8c 21 73 bd d3 fd 71 bd
       -0.058267135 -0.052593425 -0.059358165 -0.059079956
0002e0 75 84 5d bd c6 0a 6d bd bd 3d 77 bd 88 e4 56 bd
       -0.0540814 -0.057871602 -0.060361613 -0.052464038
0002f0 fb 0d 69 bd 71 74 80 bd b5 bb 67 bd 5c cf 77 bd
       -0.0568981 -0.062722094 -0.056575496 -0.060500488
000300 2f 39 59 bd be e5 65 bd 6b 9c 5c bd 19 73 42 bd
       -0.05303305 -0.056127302 -0.05386011 -0.047473047
000310 1d f6 83 bd bc 35 82 bd fe ac 82 bd a5 86 42 bd
       -0.06443427 -0.06357905 -0.06380652 -0.04749169
000320 92 48 84 bd 2b 54 8f bd ca b2 0f 28 7a 20 0a 25
       -0.06459154 -0.06998476 7.976863e-15 1.1980595e-16
000330 0c c9 f8 25 37 b0 10 26 6b 73 e3 a4 63 41 57 a6
       4.3157377e-16 5.019885e-16 -9.864108e-17 -7.4681725e-16
000340 2f 77 b8 25 37 62 18 26 fc e5 af a5 d2 b3 1f 26
       3.1999674e-16 5.28687e-16 -3.0513504e-16 5.540791e-16
000350 ab 41 d7 a6 84 f8 bc 25 e2 0d 4c 26 63 85 1c 26
       -1.4936421e-15 3.2781202e-16 7.079553e-16 5.4304145e-16
000360 08 4a 17 26 83 22 70 25 f0 e5 18 26 4e 80 fb 24
       5.248898e-16 2.0828375e-16 5.3047217e-16 1.09071255e-16
000370 66 29 24 26 08 8b fd 25 d6 a4 a2 26 c6 c2 da 25
       5.6955035e-16 4.3982715e-16 1.1285687e-15 3.7948955e-16
000380 fb 09 3f 26 d0 d3 a2 26 32 75 24 a6 cc 99 f3 24
       6.6279963e-16 1.129842e-15 -5.705776e-16 1.0564499e-16
000390 3a 55 f6 a5 d6 dc c0 26 71 b6 ec 26 78 8d 24 26
       -4.273195e-16 1.3382534e-15 1.642524e-15 5.7090656e-16
0003a0 27 4d b9 26 38 18 39 25 42 e3 a7 25 da 4e 11 25
       1.2857866e-15 1.6054398e-16 2.9123878e-16 1.2603461e-16
0003b0 cb 9e fe 25 99 17 0f 26 c9 cc 21 22 f7 22 7e 25
       4.4169579e-16 4.964507e-16 2.1927981e-18 2.2042835e-16
0003c0 9d 13 0c 25 0a 38 59 26 69 ff 1f a5 19 89 35 25
       1.214971e-16 7.5362946e-16 -1.3877588e-16 1.5745698e-16
0003d0 c9 0c a1 26 9a 5d 5b 26 43 60 14 26 2e 98 4b 26
       1.1175085e-15 7.610774e-16 5.1478274e-16 7.0636015e-16
0003e0 dc 13 b6 25 20 a8 4b 25 76 2d 82 25 18 02 71 a5
       3.1585424e-16 1.7664406e-16 2.258221e-16 -2.0904127e-16
0003f0 04 4d 40 25 26 56 ad 24 7c 59 46 25 5e 99 4f 25
       1.6679439e-16 7.517273e-17 1.7204081e-16 1.8006351e-16

bias f4 [16]
000000 35 27 51 bd 32 0a 1b be 23 32 ac b0 e2 32 1c bd
       -0.05106278 -0.15140608 -1.2528897e-09 -0.038134463
000010 a7 77 99 bd a3 b8 75 3e 72 31 44 bd 91 08 95 b4
       -0.07493525 0.23996215 -0.047898717 -2.7759646e-07
000020 e5 19 bf bd f8 fc 59 3d fc 5c 5d b9 9d 01 9f b3
       -0.09331111 0.053219765 -0.00021110842 -7.404308e-08
000030 f5 c0 a0 3d 48 b9 49 3e e0 c5 38 b8 28 9b 02 be
       0.07849304 0.19699585 -4.4053304e-05 -0.127545

weight f4 [16]
000000 79 06 73 3f 1d 72 c0 3f 8d db 48 37 f0 68 86 3f
       0.9493175 1.5034825 1.1972047e-05 1.0500774
000010 a2 e8 b4 3f b1 de d6 3f 33 02 a4 3f c6 72 d8 37
       1.4133494 1.678671 1.2813171 2.5802652e-05
000020 fe ad 8e 3f 55 5a 64 3f 61 e7 2a 37 4f e9 5d 37
       1.1146848 0.89200336 1.0186662e-05 1.3226948e-05
000030 78 31 b8 3f 76 cd 93 3f cc 19 69 37 54 e2 c2 3f
       1.4390097 1.1547077 1.38938885e-05 1.522532

bias f4 [16]
000000 1e ea 46 bd a2 64 11 be d9 d7 a5 b2 63 f7 16 bd
       -0.048563115 -0.14198545 -1.9306684e-08 -0.03685702
000010 aa 6c 94 bd c6 77 4b 3e 3d 7e 3a bd e2 1a 4b b6
       -0.072472885 0.19869909 -0.045530546 -3.0265005e-06
000020 dd 95 ae bd 31 5d 6d 3d fe fd 3b ba 29 de 86 b3
       -0.08524678 0.057950202 -0.00071713317 -6.280272e-08
000030 87 68 91 3d 63 6e 45 3e d7 69 be b8 36 c9 fb bd
       0.07100015 0.1928039 -9.07962e-05 -0.12294237

running_mean f4 [16]
000000 00 00 00 00 00 00 00 00 00 00 00 00 00 00 00 00
       0.0 0.0 0.0 0.0
000010 00 00 00 00 00 00 00 00 00 00 00 00 00 00 00 00
       0.0 0.0 0.0 0.0
000020 00 00 00 00 00 00 00 00 00 00 00 00 00 00 00 00
       0.0 0.0 0.0 0.0
000030 00 00 00 00 00 00 00 00 00 00 00 00 00 00 00 00
       0.0 0.0 0.0 0.0

running_var f4 [16]
000000 00 00 80 3f 00 00 80 3f 00 00 80 3f 00 00 80 3f
       1.0 1.0 1.0 1.0
000010 00 00 80 3f 00 00 80 3f 00 00 80 3f 00 00 80 3f
       1.0 1.0 1.0 1.0
000020 00 00 80 3f 00 00 80 3f 00 00 80 3f 00 00 80 3f
       1.0 1.0 1.0 1.0
000030 00 00 80 3f 00 00 80 3f 00 00 80 3f 00 00 80 3f
       1.0 1.0 1.0 1.0

weight f4 [16, 16]
000000 0c 50 be 29 44 5a 4c a7 d4 58 0c 29 c5 a7 26 a6
       8.451581e-14 -2.835962e-15 3.116329e-14 -5.782019e-16
000010 fc 00 e0 a7 8e 05 f5 26 f1 b3 93 a7 55 73 4c a3
       -6.2173557e-15 1.7001796e-15 -4.099579e-15 -1.1083285e-17
000020 ae a9 d0 26 85 b6 56 27 ab 4e aa a9 b2 38 73 25
       1.4478891e-15 2.979741e-15 -7.563163e-14 2.10961e-16
000030 bf 35 4f 27 7c e1 a1 28 fa e9 38 27 17 72 10 28
       2.8756157e-15 1.7972379e-14 2.5661969e-15 8.018345e-15
000040 58 df 43 b3 5d 6e ff b4 ef b5 bb 26 da 1d 68 b4
       -4.5605105e-08 -4.757775e-07 1.3025045e-15 -2.1617544e-07
000050 18 b1 0c b5 6f 60 17 b5 f8 8b 65 b4 62 0d a8 29
       -5.241177e-07 -5.6392213e-07 -2.1378207e-07 7.46302e-14
000060 5b 75 8f b3 fc d7 17 b5 fe 36 84 2d 87 8c 54 27
       -6.680303e-08 -5.656618e-07 1.5031084e-11 2.949709e-15
000070 f7 20 69 b4 df 62 41 b5 91 d4 21 2c 2e c9 f7 b4
       -2.1711809e-07 -7.204198e-07 2.2997474e-12 -4.6153713e-07
000080 90 38 d9 be 52 69 be bd b5 cf aa 2f 28 cc b8 bd
       -0.42425966 -0.09297432 3.1070405e-10 -0.09023315
000090 f7 9d 0e bf 79 1a bf 3e aa 0b 32 bf 19 f3 0c 33
       -0.55709785 0.37324885 -0.6954905 3.2817386e-08
0000a0 63 2d 44 3e 0c 78 49 3e f1 4b 03 37 88 3c cf 30
       0.19157939 0.196747 7.82589e-06 1.5078436e-09
0000b0 fb b8 35 3f 41 be 94 3e d9 09 86 35 be 4b 1a bf
       0.7098538 0.29051402 9.986644e-07 -0.60271823
0000c0 b8 fc cc 2b 6e 74 ec 2b 71 9d 8c 23 fa 6b 3c 2c
       1.4565215e-12 1.6801124e-12 1.524551e-17 2.6776346e-12
0000d0 a9 c9 c8 2c 72 2c 41 2d f3 9c 57 2c e2 ba 30 26
       5.7067307e-12 1.0980649e-11 3.0640462e-12 6.131554e-16
0000e0 52 e7 2f 2b 22 f8 1b 2e c4 69 7d a5 e8 82 bc 28
       6.249351e-13 3.5463306e-11 -2.1980087e-16 2.0928964e-14
0000f0 d7 c0 60 2b 2f 06 35 2d 1d 71 53 a4 29 06 23 2d
       7.9848405e-13 1.0290032e-11 -4.5849142e-17 9.266845e-12
000100 2e 62 fa 29 54 39 24 2a 2b 5b ff a4 1c 15 1b 2b
       1.1119262e-13 1.4586016e-13 -1.10743066e-16 5.5096357e-13
000110 4e f8 d5 2a e2 b7 57 ac d6 a0 14 ab 74 63 b5 25
       3.8008697e-13 -3.0655413e-12 -5.2803367e-13 3.1465887e-16
000120 2d 5b 92 2a ba 3e bd ab e2 0f 0f a5 8f 56 9b 21
       2.5998076e-13 -1.3446668e-12 -1.2408654e-16 1.052612e-18
000130 a6 64 c5 ab 33 f9 a1 ab 83 0e cf 21 ec 71 6a 2c
       -1.4025627e-12 -1.1508905e-12 1.4030707e-18 3.331664e-12
000140 91 81 cf 3d 90 1b 00 bd 0b d5 5f ad 81 35 c6 be
       0.10132135 -0.031276286 -1.27233874e-11 -0.38712695
000150 96 dd 44 bf a7 20 b9 3e d9 0f 53 bf 7a a1 e9 b3
       -0.76900613 0.36157724 -0.82446057 -1.08792804e-07
000160 86 9f da be 9f 9b c8 bb e5 b8 3e b6 a0 02 92 30
       -0.42699832 -0.006122067 -2.841983e-06 1.0623644e-09
000170 b8 8a 70 3f 8f 9a 20 3f 9a e2 6b b5 e1 e5 62 bf
       0.9396167 0.6273584 -8.787407e-07 -0.8863202
000180 d4 e7 b5 be b9 ea 9e bc 56 4d dc 2f 06 55 a8 be
       -0.35528433 -0.019399034 4.0072717e-10 -0.32877368
000190 8b fa e0 be 47 5c 95 3e d6 19 c1 be cc 8d 11 33
       -0.4394115 0.29171965 -0.37715024 3.3889407e-08
0001a0 5e 97 8a bd a8 41 d1 be 1c 61 69 37 7b 6f b9 30
       -0.06767152 -0.40870404 1.3910492e-05 1.3492206e-09
0001b0 ad 1c 2a 3e 1a d5 01 3f a8 3f 57 35 b5 e3 3e be
       0.16612501 0.5071579 8.0186373e-07 -0.18641551
0001c0 ec 9e f2 3d 63 cb 73 bf 6b 45 1f b0 91 dc 8a be
       0.11846718 -0.9523222 -5.794251e-10 -0.27121404
0001d0 16 dd 52 3d 07 ca 4f 3f 3b 6b 3e be cc 0a 06 b4
       0.051480375 0.81167644 -0.18595593 -1.248365e-07
0001e0 dc e1 7a be 55 2b ba 3e e9 af b3 b7 ea 49 0e b1
       -0.24500221 0.36361185 -2.1420377e-05 -2.0705735e-09
0001f0 f9 d3 08 bf 7e 0c 50 3f 91 65 43 b6 40 ff 70 bf
       -0.53448445 0.8126906 -2.9116384e-06 -0.9413948
000200 60 9e 34 25 dc d6 0a a5 f5 7b c1 23 d0 0b 49 24
       1.5666171e-16 -1.2042389e-16 2.09776e-17 4.3594933e-17
000210 8d 43 89 a4 57 5e 96 24 83 f6 38 a4 c6 a4 2f 21
       -5.9528715e-17 6.521195e-17 -4.0107443e-17 5.951038e-19
000220 3f 92 98 23 75 c1 27 24 21 14 63 1f be f6 19 a6
       1.654181e-17 3.6376217e-17 4.808577e-20 -5.3416936e-16
000230 99 15 a4 a3 e4 28 ca 24 27 6e 3a 9f 25 35 63 ab
       -1.7790063e-17 8.767281e-17 -3.9478148e-20 -8.0720353e-13
000240 0b f8 fb bd cd ad 3f bc bf 8a 98 2f 5b fe b2 be
       -0.1230317 -0.011699152 2.7747224e-10 -0.34959683
000250 56 69 d8 be 1f 6f 9f 3e 67 a6 22 be c8 6f 1c 33
       -0.42267865 0.31139466 -0.1588379 3.6423245e-08
000260 24 d5 36 3d 7a a2 b1 be 05 69 2a 37 f9 26 62 30
       0.04463686 -0.34694272 1.0157241e-05 8.2273705e-10
000270 bf a4 b4 3e 99 29 02 3e e4 43 16 36 bd 45 f9 be
       0.3528194 0.12711181 2.239126e-06 -0.4868602
000280 60 cd b2 bd 44 41 02 3e 87 4c 5e a2 a6 8e 26 3e
       -0.087305784 0.1272021 -3.0127124e-18 0.16265354
000290 30 b0 50 3d e0 11 44 30 e9 9e 21 bd f5 d0 2a a5
       0.050949275 7.1329787e-10 -0.03945819 -1.4815947e-16
0002a0 21 8d dd 39 ab db 2d be d0 1f f9 a8 6e a0 13 a3
       0.00042257554 -0.16978328 -2.765835e-14 -8.002858e-18
0002b0 72 bb b1 2e 41 9c f9 bd 6a 30 29 a7 d2 e9 15 bb
       8.082325e-11 -0.12188006 -2.3479707e-15 -0.0022874963
0002c0 6f c6 7a be f7 35 fe ba dd c9 53 2f 16 c9 da bd
       -0.24489759 -0.0019394745 1.9262054e-10 -0.10682885
0002d0 62 0d f6 be a9 6d d0 3e 97 d2 d5 be ee eb f6 32
       -0.48057085 0.40708664 -0.4176223 2.8745458e-08
0002e0 d0 10 97 bd f2 68 7d be de e7 9b 36 72 7d 75 31
       -0.073762536 -0.24747065 4.646353e-06 3.57235e-09
0002f0 1f b3 5c 3e 4f ab b1 3d ab 71 a1 36 2d 5c 0e bf
       0.21552704 0.08675253 4.8114066e-06 -0.556094
000300 4b b1 2b 3f f2 b9 74 3f 23 7e 2a 2f 86 2d 10 3f
       0.670674 0.9559623 1.5506223e-10 0.56319463
000310 6b 0c 51 3f 97 d3 84 bf 42 ce 97 3e 65 00 b8 32
       0.81659573 -1.0377072 0.2964955 2.1420599e-08
000320 0c 07 28 3f 2e e9 6e be c1 4f 6d b6 bf 5d e3 ae
       0.6563575 -0.23331138 -3.5362175e-06 -1.03394175e-10
000330 dc 36 89 3e c7 73 ab bd 0a 36 06 b6 39 68 17 3f
       0.26799667 -0.08371692 -1.999901e-06 0.59143406
000340 e6 29 08 3e 87 99 00 bf bd 26 a0 ae d1 ba a9 be
       0.13297233 -0.50234264 -7.282839e-11 -0.33150342
000350 d0 7c a4 be 64 28 14 3f 4f ba 14 bf b8 1e 23 b1
       -0.32126474 0.5787413 -0.58096784 -2.3737083e-09
000360 13 ef 88 be 83 08 c0 3e 1d 7d 72 b6 17 27 8d af
       -0.267449 0.37506494 -3.6133636e-06 -2.5675526e-10
000370 45 e0 7d be 8f 86 68 3d 8e e3 86 b4 2c c6 38 bc
       -0.24792583 0.05676895 -2.5125013e-07 -0.011277717
000380 97 04 90 be 0b 3a c9 ba b3 bc 7b 2f 7d 92 98 be
       -0.28128502 -0.0015352381 2.2895356e-10 -0.29799262
000390 8f 83 8d be 15 6d 82 3e 66 f2 da be 93 9e 16 33
       -0.27639434 0.25473848 -0.4276306 3.506882e-08
0003a0 04 1f 6d bc b9 15 b8 be 84 08 31 37 68 49 96 30
       -0.014472727 -0.35954073 1.0552005e-05 1.09348e-09
0003b0 d7 32 89 3e 78 7d 09 3e f0 71 97 35 6a 59 84 be
       0.267966 0.13426769 1.1283537e-06 -0.25849468
0003c0 a6 30 81 be 5c 87 60 bf f0 97 69 2e 4a fe 8d 3e
       -0.25232428 -0.8770654 5.3113014e-11 0.2773307
0003d0 56 02 60 be b1 65 52 3f 03 e8 66 3e 60 47 42 b2
       -0.21875891 0.8218642 0.22549443 -1.1308515e-08
0003e0 5a c5 0e bf e3 af cf 3d 43 6e cf b4 04 60 9d 2f
       -0.55769885 0.101409696 -3.863698e-07 2.8626357e-10
0003f0 bc 6c 20 bf 81 b8 bc 3e 32 da 43 b3 c4 91 a3 be
       -0.62665915 0.36859515 -4.5600423e-08 -0.31947148

bias f4 [16]
000000 09 85 cb aa 06 b1 47 37 8e 3a a4 3d c8 5b 12 b6
       -3.6152356e-13 1.1902541e-05 0.08018981 -2.180912e-06
000010 22 bd ad 2c 99 90 b2 3d f3 de 86 3d 80 a9 82 3d
       4.9379537e-12 0.08718986 0.06585493 0.06379986
000020 39 91 3d ad 86 f4 ed 3d 96 18 dd bc 59 5d fb 3d
       -1.0775652e-11 0.11618905 -0.026989263 0.12273664
000030 9d 2b 9f bd 20 ec 7e 3d e5 0d c5 3d 74 dd b0 3d
       -0.077719904 0.062236905 0.09621791 0.08635989

weight f4 [16]
000000 3c 3f e7 37 e1 2a af 38 2c 13 af 3f 81 e2 87 38
       2.7566792e-05 8.352637e-05 1.3677726 6.479491e-05
000010 b7 21 6d 37 11 75 ca 3f e3 42 8e 3f f4 ee b3 3f
       1.4134151e-05 1.5816976 1.1114162 1.4057298
000020 cf ed 88 37 d0 2e 80 3f 28 10 2c 38 8a 89 89 3f
       1.6323202e-05 1.0014286 4.1023042e-05 1.0745099
000030 ec 42 cf 3f 93 e5 80 3f 62 07 4f 3f 33 83 9f 3f
       1.6192298 1.007006 0.8087064 1.2461914

bias f4 [16]
000000 43 6b f8 ae e8 be 4b 3c 03 f5 92 3d 26 66 1c b9
       -1.1296788e-10 0.012435652 0.071756385 -0.00014915373
000010 05 d0 03 34 c2 f5 a3 3d 11 c7 78 3d 32 8d 83 3d
       1.2276003e-07 0.08005859 0.06073672 0.06423415
000020 6d 92 34 b0 da 09 df 3d 18 28 de bc 96 52 f4 3d
       -6.56917e-10 0.10890551 -0.027118728 0.119298145
000030 ec c3 80 bd 74 c6 8d 3d fb 13 be 3d e0 8a b3 3d
       -0.06287369 0.069226176 0.09281155 0.08766723

running_mean f4 [16]
000000 00 00 00 00 00 00 00 00 00 00 00 00 00 00 00 00
       0.0 0.0 0.0 0.0
000010 00 00 00 00 00 00 00 00 00 00 00 00 00 00 00 00
       0.0 0.0 0.0 0.0
000020 00 00 00 00 00 00 00 00 00 00 00 00 00 00 00 00
       0.0 0.0 0.0 0.0
000030 00 00 00 00 00 00 00 00 00 00 00 00 00 00 00 00
       0.0 0.0 0.0 0.0

running_var f4 [16]
000000 00 00 80 3f 00 00 80 3f 00 00 80 3f 00 00 80 3f
       1.0 1.0 1.0 1.0
000010 00 00 80 3f 00 00 80 3f 00 00 80 3f 00 00 80 3f
       1.0 1.0 1.0 1.0
000020 00 00 80 3f 00 00 80 3f 00 00 80 3f 00 00 80 3f
       1.0 1.0 1.0 1.0
000030 00 00 80 3f 00 00 80 3f 00 00 80 3f 00 00 80 3f
       1.0 1.0 1.0 1.0

weight f4 [1, 16]
000000 60 9f 0e 2d f7 1e 48 bc 1d 23 8b 3f 85 98 d0 34
       8.107154e-12 -0.012214414 1.0870091 3.8853992e-07
000010 8f 70 6b b3 5d 12 b2 3f ae f5 3d 3f 30 ec 75 bf
       -5.4817573e-08 1.3911854 0.74203 -0.9606352
000020 6f c9 d2 ac 16 5e 52 3f 6e 74 7f 38 af 7a 73 3f
       -5.9909226e-12 0.82174814 6.090517e-05 0.95109075
000030 0c ce ac 3f c5 0b ea be d7 e7 36 3f 01 b3 8d bf
       1.350038 -0.45712104 0.7144751 -1.1070253
