checkpoints/swarm_1d/known/60pct-constraint/policy_final.pt (torch, 124031 bytes, 5 tensors)

weight f4 [64, 401]
0	0xbe5eca16	-0.21756777
1	0xbb02f904	-0.001998485
2	0x3ad80662	0.0016481394
3	0x3aa3fc50	0.0012511108
4	0xbb406a2e	-0.0029360163
5	0xb80596e6	-3.1850206e-05
6	0x3b21f1ae	0.0024710703
7	0xb809b1a8	-3.28288e-05
8	0xbc127326	-0.008938586
9	0xba1898b0	-0.0005821092
10	0xb81337aa	-3.5099372e-05
11	0x3b2112b6	0.0024577803
12	0xb819cdb4	-3.666962e-05
13	0xb81ce2a5	-3.7404378e-05
14	0xb8213d6f	-3.8442606e-05
15	0xb8238def	-3.8994414e-05
16	0xb82780e3	-3.9935938e-05
17	0x3ad7522c	0.0016427687
18	0xb82a8d0b	-4.0662515e-05
19	0xbb68e52e	-0.0035536992
20	0xb82bf620	-4.09988e-05
21	0xb8326f37	-4.2542084e-05
22	0xb8325af8	-4.252323e-05
23	0xb833f8b8	-4.2908563e-05
24	0xb8331790	-4.269887e-05
25	0xb82cc913	-4.119526e-05
26	0xb8155aed	-3.560905e-05
27	0xb8732d0f	-5.797768e-05
28	0xbb79e943	-0.003813342
29	0xbb3ec6ef	-0.0029110273
30	0xb8288d80	-4.0186103e-05
31	0x388199ac	6.179823e-05
32	0xb81ebbff	-3.784522e-05
33	0x3bebcfce	0.007196403
34	0xb80aae3d	-3.3064036e-05
35	0x3c0d217e	0.008613942
36	0x3b070e33	0.0020607829
37	0xb7f9c561	-2.9775025e-05
38	0xb7945cd4	-1.7686201e-05
39	0xb7bbdfea	-2.2396405e-05
40	0x3b468820	0.003029354
41	0xbb725598	-0.0036977287
42	0xb6379f10	-2.7361712e-06
43	0x3afef3d8	0.0019451333
44	0x34ecbf52	4.409763e-07
45	0x36996085	4.5709917e-06
46	0xbaf3808b	-0.0018577738
47	0x37a0af0c	1.9154999e-05
48	0x3813480a	3.5114623e-05
49	0xbb3117a2	-0.0027022143
50	0x399d743b	0.00030031972
51	0x38c56e4d	9.414237e-05
52	0x383c83d8	4.4945482e-05
53	0xbbb24db1	-0.0054413904
54	0xbba59d00	-0.0050541162
55	0xbac77ee8	-0.0015220316
56	0x392fe0e7	0.00016773083
57	0x38f29a51	0.00011568203
58	0x38e532c9	0.000109290304
59	0xbb54cc48	-0.0032470394
60	0x39039245	0.00012547623
61	0x39103978	0.00013754319
62	0x39247f29	0.0001568763
63	0xbaa0baac	-0.0012262664
64	0x3969f309	0.00022311149
65	0xbbdb5de8	-0.006694544
66	0x39a32a34	0.00031121226
67	0x3b57f3a9	0.003295163
68	0x398a9966	0.00026435702
69	0x398c0535	0.0002670676
70	0x39bdf3f6	0.00036230654
71	0xbb09aa82	-0.0021006172
72	0x3ac197ce	0.0014769973
73	0x3ac3d1fa	0.0014939897
74	0x3af3a8de	0.0018589755
75	0xbbca7b05	-0.006179216
76	0x3b8e5f9c	0.0043448936
77	0x39f82ec8	0.000473371
78	0x3a084a43	0.0005199054
79	0x3a0ca43e	0.000536505
80	0x3a14c671	0.0005675322
81	0x3a1cdf2e	0.0005984184
82	0x3a7bf3ba	0.0009611208
83	0xbbaf3a27	-0.0053475085
84	0x3a426987	0.00074162375
85	0xba161da3	-0.0005726462
86	0x3a468c8a	0.00075740425
87	0x3b1d6d25	0.0024021354
88	0x3a5afd5a	0.00083537924
89	0x3abd2450	0.0014430378
90	0x3b057e12	0.0020369333
91	0xbc04a996	-0.008097073
92	0x3b44e1d8	0.003004184
93	0xbb9b3147	-0.004736099
94	0x3a87a35e	0.001034837
95	0x3a721e20	0.00092360564
96	0x3c0ae466	0.008477306
97	0x3a72c823	0.000926139
98	0x3b8c73a7	0.004286248
99	0x3a7b3130	0.00095822196
100	0x3a8432d6	0.0010085951
101	0x3b925f03	0.0044668927
102	0x3a665133	0.00087859033
103	0x3a79969a	0.00095210376
104	0xbb1029ca	-0.0021997564
105	0x39adb1b5	0.00033129533
106	0x3a5f2345	0.00085120305
107	0x3a4919cb	0.0007671385
108	0x39418d51	0.00018458559
109	0x3a4a7189	0.00077226065
110	0x3a996702	0.0011703672
111	0x3a34a0c0	0.00068904087
112	0x3a275ce0	0.0006384384
113	0x39b71dde	0.00034926733
114	0x3a7756f0	0.0009435257
115	0x3a175780	0.00057732314
116	0x3a1159fd	0.00055447203
117	0xbadcbd3e	-0.0016841067
118	0x3a27f5e0	0.00064071827
119	0x3a24044b	0.0006256743
120	0x3a1201c7	0.0005569723
121	0x3b85e3fe	0.0040860167
122	0xbb2e374a	-0.0026583248
123	0xbae92b83	-0.0017789457
124	0x3a11488a	0.000554212
125	0x39dbefaa	0.000419495
126	0x3b9a57eb	0.0047101877
127	0x39f0e9c7	0.00045950545
128	0x39cc318e	0.00038946833
129	0x3c2864a8	0.010277905
130	0x39b73947	0.00034947155
131	0x39c3dfab	0.00037359944
132	0xbb82cc6d	-0.0039916546
133	0x39a80b87	0.00032052046
134	0x39a94a16	0.0003228939
135	0x39906b26	0.00027545652
136	0x39852930	0.00025398424
137	0x3a256461	0.0006309208
138	0xbae3cdfc	-0.0017380114
139	0x3963de03	0.00021731113
140	0x3947c6c4	0.00019052165
141	0x39372ab0	0.00017468142
142	0x39169e3f	0.00014364066
143	0x39086f7f	0.00013011506
144	0x3ae9e926	0.0017845973
145	0x3b8f4347	0.0043720338
146	0x38a66b4f	7.9354846e-05
147	0x38862f65	6.398446e-05
148	0x382d96f7	4.138701e-05
149	0x39b84820	0.00035148952
150	0x37815703	1.5418516e-05
151	0x3bc222cd	0.0059245587
152	0xbaa53df9	-0.001260697
153	0x3b877c2a	0.0041346746
154	0xb794a505	-1.7719818e-05
155	0xb7eda25b	-2.8328204e-05
156	0xbad10c69	-0.0015949133
157	0x37d5a542	2.5468533e-05
158	0xb8aa3f2e	-8.118e-05
159	0x39d33ef8	0.00040291972
160	0xb8e30d85	-0.00010826722
161	0xb89ae169	-7.385278e-05
162	0xba9874b9	-0.0011631466
163	0xb967c7ee	-0.00022104356
164	0xb8acc066	-8.237436e-05
165	0xb8ecea1d	-0.00011296964
166	0xb8dcd4d4	-0.0001053006
167	0xb917bba3	-0.00014470382
168	0xbadfce11	-0.0017074962
169	0xb8e76d07	-0.00011035246
170	0xbb99101e	-0.004671111
171	0x3be94ae3	0.007119523
172	0xbb53caaa	-0.0032316842
173	0xb8ded850	-0.00010626076
174	0xb9174ecc	-0.00014429836
175	0xb92bb587	-0.00016375455
176	0xb9079ee8	-0.000129338
177	0xb90199a0	-0.00012359628
178	0xb94de4bd	-0.00019635535
179	0xb8f8d1e4	-0.00011864657
180	0xbbdc53bc	-0.006723849
181	0xbc166009	-0.00917817
182	0x39545a45	0.00020251524
183	0xb907d4d1	-0.00012953884
184	0x3bfd027b	0.007721243
185	0xb989eaff	-0.00026305762
186	0xbb42bcd3	-0.0029714599
187	0xbb96da18	-0.0046036355
188	0x3a3d7e36	0.0007228585
189	0xbafd9721	-0.0019347408
190	0xb8ef214b	-0.000114026094
191	0xb9020892	-0.00012400959
192	0x3a826a83	0.0009949956
193	0xbb5abebf	-0.0033377854
194	0x3a3f5f22	0.00073002477
195	0xb908b2bc	-0.00013036554
196	0xb8f86bde	-0.00011845653
197	0x3ab4770f	0.0013768392
198	0xb9174cea	-0.00014429135
199	0xb90d67c6	-0.00013485466
200	0xbad41270	-0.0016179811
201	0xb8e553f7	-0.000109352106
202	0xbb2c49a7	-0.0026289017
203	0xb8e3ddc7	-0.00010865513
204	0xb8e71166	-0.00011018179
205	0xb8ebf9f3	-0.0001125223
206	0xba0f98eb	-0.00054778036
207	0xb9a0c5cd	-0.0003066495
208	0xb933bff9	-0.00017142286
209	0x3bc725d5	0.006077508
210	0xb8ec65fa	-0.000112723515
211	0xb92ba70f	-0.00016370065
212	0xb987aa8b	-0.0002587627
213	0x3b69b2c9	0.0035659543
214	0xb72030f7	-9.548144e-06
215	0xb9856555	-0.00025443235
216	0xb8ffcc1c	-0.00012197366
217	0xb8dd64a7	-0.00010556849
218	0xb8dd253d	-0.000105450374
219	0xb8e8b50c	-0.00011096345
220	0xb8dd7b11	-0.00010561024
221	0xb90d1f5c	-0.0001345849
222	0xbb3009e0	-0.0026861355
223	0xb912eee1	-0.00014012634
224	0x3a66ca17	0.00088039174
225	0xbb1b7133	-0.0023718595
226	0xba0771a0	-0.0005166773
227	0xb8f8e83e	-0.0001186882
228	0xb8e1c188	-0.00010764884
229	0xb8e0890f	-0.000107066815
230	0xb9067488	-0.00012822647
231	0xbb6b1fa5	-0.0035877016
232	0xb8f9479c	-0.000118865835
233	0x3a2af1c1	0.00065210095
234	0x3b8658e4	0.004099952
235	0xb90c1d85	-0.00013362437
236	0xb917e409	-0.00014485432
237	0x3bca977c	0.006182609
238	0xbacc91ae	-0.0015607381
239	0xb9166cce	-0.00014345648
240	0x3bc1bf4f	0.0059126983
241	0x3b463d82	0.0030249064
242	0xb93825ee	-0.00017561737
243	0xb966133b	-0.00021941673
244	0x36a2d39f	4.852612e-06
245	0xb99722cd	-0.00028826893
246	0xb91424c1	-0.00014128072
247	0xb93c73a7	-0.00017972161
248	0xb91f0c6d	-0.0001516805
249	0xbbd109ba	-0.0063793333
250	0x3be71c1e	0.0070529124
251	0xb96e1ddd	-0.00022708574
252	0xb9871aee	-0.0002576927
253	0xbb5a2621	-0.0033286887
254	0xb9129456	-0.00013978904
255	0xba0a6d1a	-0.00052805396

bias f4 [64]
0	0xbd445006	-0.04792788
1	0x3d3f2437	0.046665397
2	0x3cde3d7d	0.02712893
3	0xbc060c2d	-0.008181614
4	0x3d89a508	0.0672093
5	0xbd2c9c4c	-0.042141244
6	0xbd4b8fc7	-0.049697664
7	0x3d58aa9a	0.052897073
8	0xbabe64db	-0.0014525907
9	0xbcc5329f	-0.02407199
10	0x3ccc6474	0.024950244
11	0x3c856ea0	0.016288102
12	0x3d86e262	0.06586148
13	0xb9e7a5b9	-0.00044183226
14	0x3dd0f7f0	0.1020354
15	0x3daa1c93	0.08306231
16	0x3d976f72	0.073943034
17	0x3d7e2e50	0.062055886
18	0x3bd11949	0.006381188
19	0x3dd36e8b	0.10323819
20	0x3d55d71c	0.052207097
21	0x3d959fee	0.07305895
22	0x3d64bee4	0.05584611
23	0x3da29e0b	0.079403006
24	0x3d546900	0.05185795
25	0x3db82946	0.08992247
26	0x3dca60a6	0.098817155
27	0x3d4a0468	0.04932061
28	0x3d715dd3	0.05892737
29	0x3beee695	0.007290671
30	0x3d7443b0	0.059634864
31	0x3d6f4e37	0.0584242
32	0x3daa4983	0.083148025
33	0x3d3beacb	0.045878213
34	0x3d809208	0.06277853
35	0x3dbf609e	0.093446
36	0x3de545e3	0.111949705
37	0x3d92adac	0.071620315
38	0x3da70688	0.081555426
39	0x3d81e645	0.063427486
40	0x3d51dadc	0.05123411
41	0x3dcceb0e	0.100057706
42	0x3ddf9e4f	0.10918867
43	0x3d7c2916	0.06156262
44	0xbc8d4417	-0.017244382
45	0xbd1f3692	-0.0388704
46	0x3cb7c0be	0.022430774
47	0x3d57f40d	0.05272298
48	0x3de79223	0.1130717
49	0xbc0ba361	-0.008522839
50	0x3d626211	0.055269305
51	0x3cd283fd	0.025697703
52	0x3b3b9574	0.0028623017
53	0x3e1856b9	0.14876832
54	0x3d8cb2ce	0.06870042
55	0x3d731521	0.059346322
56	0xbbc723ef	-0.0060772817
57	0x3d980347	0.074225
58	0xbc8b6518	-0.017015979
59	0xbc6bc0c1	-0.014389218
60	0x3da72722	0.08161761
61	0x3db5f2d7	0.08884209
62	0x3db0ebf8	0.086387575
63	0x3da55fc3	0.08074906

weight f4 [64, 64]
0	0xbb58ea43	-0.0033098615
1	0x3e5a9d4b	0.21349065
2	0xbec2e96f	-0.3806872
3	0xbb451a17	-0.0030075365
4	0x3d089c71	0.03335232
5	0x39bfcda4	0.00036583573
6	0x3b40c023	0.0029411397
7	0xbd9003c0	-0.07031965
8	0x3c6c4ba9	0.014422336
9	0xbe8507f5	-0.25982633
10	0xbe9f9883	-0.31171045
11	0xbe44326b	-0.19159858
12	0x3ea60b65	0.32430568
13	0xbe0911fd	-0.13385768
14	0x3e4dbac5	0.20090778
15	0x3d32376d	0.04350989
16	0x3e6ae6a2	0.22939542
17	0x3e549053	0.2075818
18	0x3e062713	0.13100843
19	0x3e5eabfb	0.21745293
20	0xbeb7ff97	-0.35937187
21	0x3e04bc3e	0.12962434
22	0x3ea06b3e	0.3133182
23	0xbe4b7e7f	-0.19872473
24	0x3e3d655e	0.184957
25	0x3e5de8f8	0.21670902
26	0x3da43431	0.08017767
27	0x3e0b3606	0.13594827
28	0x3e991c0a	0.29904205
29	0xbdfba23c	-0.12286803
30	0x3d87845e	0.06617044
31	0x3f00568e	0.5013207
32	0x3bcc54a7	0.0062356773
33	0x3e0016cc	0.12508696
34	0x3eb41590	0.351727
35	0x3e8f4956	0.27985638
36	0x3c9d25c0	0.01918304
37	0xbe362daa	-0.17790857
38	0xbe2b68d1	-0.16739203
39	0xbc8255bb	-0.01591002
40	0xbeaaeef6	-0.33385438
41	0x3ea77a46	0.32710475
42	0x3eb92f05	0.36168686
43	0x3ec59aed	0.38594761
44	0xbd2ac436	-0.041691028
45	0x3d22d284	0.039751545
46	0xbea111a7	-0.3145878
47	0xbc2227ff	-0.009897231
48	0x3e9e8759	0.30962637
49	0xbeaa57fe	-0.33270258
50	0xbd96b24c	-0.07358226
51	0xbe347b1f	-0.17625092
52	0xbe4e4266	-0.20142516
53	0x3dc98ced	0.098413326
54	0x3e2eadeb	0.17058532
55	0x3e6ea874	0.23306447
56	0xbd2e1e67	-0.042509463
57	0xbd142a7c	-0.03617333
58	0xbb344e5e	-0.002751253
59	0xbb2b7a6e	-0.0026165503
60	0x3d8da835	0.069168486
61	0x3ec24915	0.37946382
62	0x3e970fd6	0.2950427
63	0x3cf63da7	0.030058695
64	0xbbf65907	-0.007517937
65	0xbc7586e8	-0.014985777
66	0xbe0c8708	-0.13723385
67	0x3dbbec1d	0.091758944
68	0xbe1e8db1	-0.15483738
69	0x3eff255c	0.4983319
70	0xbda42f5b	-0.08016845
71	0x3d8fafa1	0.070159204
72	0xbd548686	-0.051886104
73	0x3d863697	0.06553381
74	0x3e9c1b4a	0.3048957
75	0x3ea0f738	0.31438613
76	0xbd74583a	-0.059654452
77	0xbe22d0ff	-0.15900038
78	0x3db464d0	0.08808291
79	0x3c04f688	0.008115418
80	0xbeb756cf	-0.35808417
81	0xbe8c92cd	-0.2745575
82	0x3d86b7ec	0.06578049
83	0xbea9bfce	-0.33154148
84	0x3e5c2cf3	0.21501522
85	0x3e129a67	0.14316712
86	0x3aaee9a3	0.0013344776
87	0xbe26ea50	-0.1630032
88	0x3cfc2d3a	0.030783284
89	0x3e103cda	0.14085713
90	0x3df3b58b	0.11899861
91	0x3d6ba7d0	0.057533085
92	0xbe3b16c4	-0.18270403
93	0xbe3042ee	-0.17213032
94	0xbea7ff91	-0.3281217
95	0xbe86e3d7	-0.26345703
96	0xbea8b1b7	-0.32948086
97	0x3ea11f59	0.3146923
98	0x3e191c06	0.14952096
99	0x3eaf43fe	0.3423156
100	0x3d9d5a4c	0.076832384
101	0x3dfd2bd4	0.12361875
102	0xbe9e77e4	-0.30950844
103	0xbea9a214	-0.33131468
104	0x3d19f4d7	0.037587013
105	0xbe8a4408	-0.2700503
106	0x3dcfb113	0.10141196
107	0xbcdd4ef6	-0.02701519
108	0x3efe6513	0.49686489
109	0x3db597d9	0.08866853
110	0x3ec5a683	0.386036
111	0xbddea9e6	-0.10872249
112	0x3d4a0f16	0.049330793
113	0x3ea7e5b1	0.32792428
114	0x3dacba99	0.08434028
115	0x3e2404f9	0.16017522
116	0x3e4b978d	0.19882031
117	0xbe2c76eb	-0.16842239
118	0x3da44ad3	0.08022084
119	0x3da07f11	0.07836736
120	0xbd425bb9	-0.047450755
121	0x3e49f5ec	0.19722718
122	0x3c357480	0.011075139
123	0x3aaad1d9	0.001303251
124	0xbe661065	-0.22467192
125	0x3dd8d5b0	0.10587633
126	0x3e459030	0.19293284
127	0xbe0fb3f0	-0.14033484
128	0xbce95eee	-0.028487649
129	0x3d4ecc41	0.05048776
130	0xbd328a9b	-0.043589216
131	0xbcc74432	-0.02432451
132	0x3d534dc5	0.05158784
133	0xbcad690a	-0.02116825
134	0xba0fee4e	-0.0005490527
135	0xbe589025	-0.21148737
136	0xbb989575	-0.0046564885
137	0xbead8fa3	-0.3389865
138	0x3daa2869	0.08308489
139	0xbe9c47be	-0.30523485
140	0x3e764c46	0.24052534
141	0xbe008ef1	-0.12554528
142	0x3db931c0	0.09042692
143	0x3e245aa2	0.16050199
144	0x3ea87a7c	0.32905948
145	0x3ed4b745	0.41546074
146	0x3e462be3	0.19352679
147	0xbe1bfb88	-0.1523267
148	0xbe5afbd0	-0.21385121
149	0x3da4c863	0.08046033
150	0xbd2a9b81	-0.041652206
151	0x3df4bcad	0.119500495
152	0xbde5fafc	-0.11229512
153	0x3e3b48f7	0.18289553
154	0x3e87afd5	0.26501337
155	0xbe86cb49	-0.2632697
156	0x3ea99cc5	0.33127418
157	0x3ded580e	0.11589061
158	0x3e994ec4	0.29942906
159	0x3e80de8b	0.25169787
160	0xbc886799	-0.016650962
161	0xbe540283	-0.20704083
162	0xbdda305e	-0.106537566
163	0x3daeeb6e	0.085409984
164	0x3e990522	0.2988673
165	0xbdf12a5f	-0.1177566
166	0x3d4d032d	0.050051857
167	0x3e276b7b	0.16349594
168	0xbe031cdc	-0.12803978
169	0x3e24f4c2	0.16108993
170	0x3e1fd3e8	0.1560818
171	0x3df4c40f	0.11951458
172	0xbefbe76c	-0.49199998
173	0xbe17b9b8	-0.1481694
174	0x3e217399	0.15766753
175	0x3d833b72	0.06407823
176	0x3e669481	0.22517587
177	0x3e5d22a2	0.21595243
178	0xbd94f253	-0.07272782
179	0x3e59853f	0.21242236
180	0xbeb256f8	-0.34831977
181	0x3e335fdb	0.17517035
182	0x3e9a30e8	0.30115438
183	0xbe413319	-0.18867148
184	0xbad78985	-0.0016444182
185	0x3ecde026	0.40210074
186	0x3d77c04f	0.060486134
187	0xbd6126e9	-0.05496875
188	0xbe3553c3	-0.17707734
189	0x3e7d973f	0.24764727
190	0x3ea08963	0.31354818
191	0x3e6cbbaf	0.2311847
192	0xbdcc4bf8	-0.099754274
193	0x3c9223f0	0.017839402
194	0xbaa1828f	-0.0012322235
195	0xb6f9e9d2	-7.4479985e-06
196	0x3c2fb275	0.0107237
197	0xbd311e84	-0.043241993
198	0x3c0e297d	0.008676884
199	0xb95759e1	-0.0002053748
200	0x3cfc866c	0.030825816
201	0xbd0f1768	-0.03493443
202	0xbc80a73c	-0.015704744
203	0xbcf28b5d	-0.02960747
204	0xbd4c40d4	-0.049866512
205	0xbc906198	-0.017624661
206	0x3b566442	0.0032713567
207	0xbc7f5c6b	-0.015585999
208	0xbd5b9ca9	-0.0536162
209	0x3d0b19cc	0.03396015
210	0xbcac5399	-0.021035956
211	0xbcb4ba51	-0.022061499
212	0xbab7d153	-0.0014024175
213	0xba1275fe	-0.000558704
214	0xbadda6c0	-0.0016910657
215	0x3c29b30f	0.010357632
216	0x3b145da4	0.0022638822
217	0xbd439f12	-0.047759123
218	0xbd9ba41d	-0.075996615
219	0xbc5d3741	-0.013501943
220	0xbc38a782	-0.011270406
221	0xbb9d6ba5	-0.004804092
222	0xbc049d5c	-0.008094158
223	0x3cc6129b	0.024178794
224	0xbb3e6873	-0.0029053956
225	0xbcb2a823	-0.02180869
226	0xba79b3b3	-0.00095253735
227	0x3b4685ce	0.0030292156
228	0xbda82328	-0.082098305
229	0xba75953b	-0.00093682454
230	0xbd9b1a6f	-0.07573401
231	0xbb01ab41	-0.0019785913
232	0x3da56c53	0.08077302
233	0xbba80690	-0.0051277354
234	0xbdcc97f4	-0.0998992
235	0xbd2f9aa9	-0.042872105
236	0x3da4476d	0.08021436
237	0xbcc9dccf	-0.024641423
238	0xbb3c9ae2	-0.002877884
239	0xbd4ad69e	-0.04952108
240	0x3b271c34	0.0025498988
241	0x3d5a6eb0	0.053328216
242	0x3bd6ba73	0.006552988
243	0xbc8bb64c	-0.0170547
244	0xb9c8e1e0	-0.00038315263
245	0x3d46f452	0.048572846
246	0xbd2a348a	-0.04155401
247	0xbb4c8bed	-0.0031211332
248	0x3ae936e4	0.0017792848
249	0x3996797a	0.00028700737
250	0x3c9f8d9d	0.019476706
251	0xba38084e	-0.00070202805
252	0x3be628ec	0.0070239212
253	0xbb09dee4	-0.0021037394
254	0xbcb00d31	-0.021490665
255	0xba67d996	-0.00088443735

bias f4 [64]
0	0x3d7b68a3	0.061379086
1	0x3da92b8c	0.08260259
2	0x3cfe5e3f	0.0310508
3	0xbcfea7e8	-0.031085923
4	0x3d4d066d	0.050054956
5	0x3d99e8cc	0.075151056
6	0x3d8ed8e8	0.06974965
7	0x3d74e200	0.059785843
8	0x3d76d72d	0.0602638
9	0x3da9174b	0.08256396
10	0xbc0cdf7b	-0.008598204
11	0x3da9855f	0.08277392
12	0x3da75433	0.081703566
13	0xbaf547e0	-0.0018713437
14	0xbcc47b3d	-0.023984546
15	0x3d50a5df	0.050939437
16	0x3dd29e59	0.10284109
17	0x3ce3948e	0.027780797
18	0x3d806747	0.062696986
19	0x3ccf5002	0.025306705
20	0xb9d21732	-0.00040071603
21	0x3db221ab	0.08697828
22	0x3d8b0e22	0.06789805
23	0x3c86b96b	0.016445836
24	0x3d9a933d	0.07547615
25	0x3b4eb984	0.0031543681
26	0xbd1d85e7	-0.038457777
27	0x3d80f8fb	0.06297489
28	0x3d930e7b	0.07180496
29	0x3d81caf4	0.06337538
30	0x3de30ed8	0.110868156
31	0x3dae124b	0.08499583
32	0x3cc6b0a5	0.024254153
33	0xbc03742d	-0.008023304
34	0x3cd4b7d1	0.025966557
35	0x3c13688c	0.008997094
36	0xbcc3af07	-0.02388717
37	0x3d64a4bf	0.055821177
38	0xbc1b6747	-0.009485072
39	0x3d88f37e	0.066870674
40	0xbd120017	-0.035644617
41	0xbbecb19f	-0.0072233225
42	0xbc426204	-0.011864189
43	0x3dd75c90	0.10515702
44	0x3d5a965b	0.053366046
45	0xbbc4c436	-0.0060048355
46	0xbcdf45b1	-0.027254911
47	0x3d84898d	0.06471548
48	0xbbc1e65a	-0.0059173526
49	0x3db21716	0.086958095
50	0x39aedc2e	0.00033351913
51	0x3da760d3	0.08172765
52	0xbc822137	-0.015884979
53	0x3c030d38	0.007998757
54	0x3db2376a	0.08701976
55	0x3d7a52b1	0.061114017
56	0xbd2f1394	-0.04274328
57	0xbce9ef6c	-0.028556548
58	0x3d9f973f	0.0779252
59	0x3da74c07	0.08168798
60	0x3db5073c	0.088392705
61	0xbc666e06	-0.014064318
62	0x3db3421d	0.087528445
63	0xbd184d78	-0.037183255

weight f4 [1, 64]
0	0x3edbb0a0	0.42908192
1	0xbea2330a	-0.31679565
2	0x3ec8fad8	0.3925388
3	0x3e21b81b	0.15792887
4	0x3f10842a	0.56451666
5	0xbeae6d9c	-0.34068
6	0xbeb42b12	-0.3518911
7	0xbf0385e0	-0.5137615
8	0xbede7c7e	-0.43454355
9	0xbed58190	-0.4170041
10	0x3f08bd3c	0.5341375
11	0xbef78f3b	-0.48351464
12	0x3e9790cd	0.29602662
13	0x3cc53fec	0.024078332
14	0x3da176ef	0.07884013
15	0x3f08d7bf	0.534542
16	0x3e6a4e0d	0.22881337
17	0xbe966f10	-0.2938161
18	0x3ee22c89	0.44174603
19	0x3ee98bcf	0.45614478
20	0x3ef447ee	0.47711128
21	0x3e808ff8	0.2510984
22	0xbe6a309a	-0.22870103
23	0xbe0167cf	-0.12637256
24	0xbeb22243	-0.34791765
25	0x3f0c9ef0	0.5493002
26	0x3ea3d46b	0.31998
27	0xbf11c951	-0.5694781
28	0xbf37124f	-0.7151231
29	0x3e50e089	0.20398153
30	0xbe405e73	-0.1878603
31	0xbe459228	-0.19294035
32	0xbef221df	-0.47291467
33	0x3da3df04	0.08001521
34	0x3e818669	0.2529786
35	0xbee35d14	-0.4440695
36	0x3dd6f91f	0.10496735
37	0x3f017e8d	0.50583726
38	0x3e1e9c2b	0.15489261
39	0xbf04a68c	-0.5181663
40	0x3e726c6c	0.23674172
41	0xbeb8d259	-0.36097983
42	0x3ef9f0db	0.4881657
43	0xbe55b97b	-0.20871536
44	0x3f1176ba	0.5682179
45	0xbd206f73	-0.039168786
46	0x3e36d4a0	0.17854548
47	0x3f0051e7	0.50124973
48	0x3e01360b	0.12618272
49	0x3ecbbf1f	0.3979425
50	0xbe3c9ef8	-0.18420017
51	0xbefeed41	-0.49790385
52	0x3e0c7a8a	0.1371862
53	0xbf213f4f	-0.62987226
54	0xbe51d333	-0.20490722
55	0x3eedfe79	0.4648321
56	0x3ed99767	0.42498323
57	0xbeb48ec9	-0.35265186
58	0xbe7cd5c3	-0.24690919
59	0x3ea7cbe8	0.32772756
60	0xbe712b9d	-0.23551793
61	0xbe375bfe	-0.17906186
62	0xbef873d6	-0.48525876
63	0x3e81059e	0.25199598
