checkpoints/swarm_1d/known/95pct-constraint/policy_final.pt (torch, 124031 bytes, 5 tensors)

weight f4 [64, 401]
00000000: aca7 39be 915f 1b3e c814 603d 15ba 8f3d
00000010: 52ed 663d 1d4a 663e 25da a23d 28d1 623e
00000020: d0f2 893e 8169 353e 03bc c93d 66b2 8e3e
00000030: deb1 533e 0d6b 7e3e 3d90 483e 13fb e33d
00000040: 14a4 3a3e 0b13 8e3e b1c0 1d3e cc18 a23d
00000050: 4714 f33d 4296 5a3e edac 963d ab34 753e
00000060: 313b 323e 493e 3f3e 1626 873e 82a1 2f3e
00000070: b154 0b3e c79f c23d 9c56 1e3e 6be7 293e
00000080: 3bdf 183e 355b 233e d70d b63d d9ac 853e
00000090: 4ff4 6b3e 5789 183e b0b7 273e c968 903e
000000a0: b366 923e 3e9d 613e 2ae1 9e3d 7eaa 853e
000000b0: 4e0d 2f3e b900 ad3d 1c56 af3d 9c40 8d3e
000000c0: ca1f 483e 3c8a 933e c7f7 8f3e d973 633e
000000d0: 61be e83d 1f30 e93d 1e6e 943e e123 8b3e
000000e0: 82b4 8f3e 7dcb 173e 4da9 b93d f65e 163e
000000f0: 6d33 183e 494b f73d a277 1f3e d79c 593e
00000100: e3fa 693e 0f2c 9e3e b1cd 843e b035 313e
00000110: f875 c03d 9173 ad3e 7f65 823e 380d 563e
00000120: 1392 363e 3e25 863e e882 6c3e a037 843e
00000130: 8fb3 6a3e 60de 9d3e d81c 0f3e 76b9 1b3e
00000140: 231b ae3e e6ca e83d b93a 443e abf1 e73d
00000150: 878f 693e 81d9 133e 1b3a a53e ca54 c23d
00000160: 507c 823e 024c 663e 6820 9f3e 0de7 673e
00000170: fa90 2b3e 0a8f 623e 8af1 833e 903b 2b3e
00000180: 9d93 903e 4c15 793e 36e2 9d3e 6ba6 913e
00000190: 61c2 db3d d1b3 5a3e 583c 4d3e 1b6e f13d
000001a0: c319 b93d 7439 8d3e 50b5 1e3e 53a1 b73d
000001b0: af2a 793e be81 3b3e a535 523e bd34 993e
000001c0: cb54 623e fccc 253e 898c 113e 1da9 193e
000001d0: e72c b13d 0b53 a23e 0ee7 d73d 0d21 893e
000001e0: e054 443e 4198 693e 8ce0 063e 9a77 033e
000001f0: d7f6 a43e 8175 903e 6d25 7d3e e0aa df3d
00000200: 7bbc 233e df37 4f3e 4cef 8d3e 8392 8b3e
00000210: b1c6 e23d 710f 903e 7251 073e dbf5 313e
00000220: 6299 563e dd33 613e d38a 8b3e 8b58 963e
00000230: 40b3 083e 5afb e93d 09c8 8c3e 852a 013e
00000240: 0983 653e 1622 8e3e a8ba 933e 0c9a 2b3e
00000250: 6283 a93d 23b2 993e 15dc 953e 2214 503e
00000260: 96a0 493e 6364 4d3e 3abb 5c3e a325 353e
00000270: 8a88 8b3e e896 043e 0083 dd3d bfe9 123e
00000280: 08ad b43d cf59 413e cfb2 843e f7b7 e33d
00000290: ce18 6a3e b960 233e 274a 483e 881a c43d
000002a0: b3c8 3e3e 93e7 6c3d 612b 533e af4f ec3d
000002b0: e264 253d 93cb 9c3b 259e 2e3c 24b4 cc3d
000002c0: 4e3c abbc 589c ab3c 86b8 61bd b497 103d
000002d0: 732b ca3b 94d9 bfbd 415b 2bbe 3c6b 09be
000002e0: c3de c4bd c0cd 03be 97e3 61bd a2fd 20be
000002f0: fb22 bdbd 23a8 27be eee7 24be f267 33be
00000300: d262 39be 18c7 09be 8882 57be 4431 7bbe
00000310: 6a77 0bbe ae2c f2bd 6450 60be dd67 64be
00000320: 5a68 4dbe 3410 4fbe 93a5 46be aae3 bfbd
00000330: 303f 3abe 5db8 05be fcc5 02be f6ff 88be
00000340: 14d2 64be d993 f3bd 3270 77be dcd3 edbd
00000350: c00d 86be 5aa4 6ebe fa71 92be 9cf4 15be
00000360: 186e 57be 9d2f 09be 0cd9 27be 6787 a0be
00000370: 06ea aebd 578a 64be caf1 29be f92c 96be
00000380: 8557 4dbe 46c5 9dbe 7acd 52be d142 8ebe
00000390: 5f33 f4bd 6d6c 97be f99a 8abe a9c0 19be
000003a0: fbce 04be ddc5 50be 690c 0cbe 8f91 d0bd
000003b0: 08db 37be fd3b 4fbe 4560 49be a3d4 92be
000003c0: d9cd 6abe cf3d 3fbe 34fb 1cbe e129 4ebe
000003d0: bac0 86be 0461 33be eccb 12be 2dc0 78be
000003e0: 53d1 73be 3bb5 3cbe c462 00be 2dc8 2abe
000003f0: 5a56 96be a8b1 3ebe 7702 12be c89a 8dbe
-0.18130368 0.15173174 0.05470732 0.07017914 0.05637867 0.2248921 0.07951764 0.221501
0.26943064 0.17716028 0.098503135 0.27870482 0.2067332 0.24845524 0.19586273 0.11131873
0.18226653 0.27748904 0.15405537 0.07914886 0.11869102 0.21346381 0.07357202 0.23945872
0.17405392 0.18676104 0.26396245 0.17151454 0.13606526 0.09503131 0.15462726 0.16592185
0.14928906 0.15952761 0.088893585 0.26108435 0.23042415 0.14896141 0.16378665 0.28204945
0.28593978 0.2203264 0.077577904 0.26106638 0.17094919 0.084474035 0.08561346 0.27588356
0.19543377 0.28816402 0.28118727 0.22212161 0.11364437 0.113861315 0.28990263 0.2717581
0.28067404 0.14823718 0.09065495 0.14684662 0.14863367 0.120749064 0.1557298 0.21251236
0.22849612 0.3089299 0.2593818 0.17305636 0.09397501 0.33877233 0.2546806 0.2090348
0.1782916 0.2620029 0.23096812 0.25823689 0.22920059 0.3083372 0.13975847 0.15207466
0.3400508 0.11366825 0.19163026 0.113253914 0.22808658 0.1443844 0.32270893 0.094888285
0.25485468 0.22489932 0.31079412 0.22646733 0.16754523 0.22124878 0.25770217 0.1672194
0.2823762 0.2432453 0.30836648 0.2844728 0.10730434 0.21357657 0.2004255 0.11788579
0.09038117 0.27582896 0.15498853 0.08966317 0.24332689 0.18311211 0.20528276 0.2992305
0.22102658 0.16191477 0.14213766 0.15005918 0.086511426 0.31703982 0.10542117 0.26783028
0.19173002 0.22811987 0.13171595 0.12838593 0.32219574 0.28214648 0.24721308 0.10921264
0.15989868 0.20236157 0.27721632 0.27260217 0.11073054 0.2813678 0.13214663 0.17378943
0.20956948 0.2199244 0.27254352 0.29364428 0.13349628 0.11424895 0.27496365 0.12613876
0.22413267 0.2776038 0.28853345 0.16757983 0.082770124 0.3001872 0.29269472 0.2032018
0.19690165 0.20057826 0.21555796 0.17690139 0.2725261 0.12948191 0.10816002 0.1434698
0.088220656 0.18881916 0.2591767 0.11119073 0.22861025 0.15954866 0.19559537 0.09575373
0.18631248 0.057838034 0.20622016 0.11538636 0.040379412 0.00478501 0.010657822 0.099952966
-0.020902779 0.020948574 -0.055107616 0.035300925 0.0061697303 -0.093676716 -0.1673403 -0.13419813
-0.09612801 -0.12871456 -0.055148687 -0.15721753 -0.092351876 -0.16372733 -0.16104099 -0.1752012
-0.18104103 -0.13454854 -0.21045887 -0.24530512 -0.13619772 -0.11824928 -0.21905667 -0.22305246
-0.20059338 -0.20221025 -0.19399099 -0.09369595 -0.18188167 -0.1305861 -0.12770838 -0.26757783
-0.22345763 -0.11893434 -0.24163893 -0.116126746 -0.26182365 -0.23304883 -0.28602582 -0.14644092
-0.21038091 -0.1339707 -0.1639139 -0.31353304 -0.0854073 -0.22318397 -0.16596141 -0.29331186
-0.20052917 -0.3081457 -0.20586196 -0.27785352 -0.11923861 -0.2957491 -0.2707136 -0.150149
-0.12969582 -0.20387979 -0.13676609 -0.10184013 -0.17954648 -0.20237727 -0.1966563 -0.28677854
-0.22930087 -0.18675922 -0.15330201 -0.20133163 -0.26318914 -0.17517477 -0.14335603 -0.24292059
-0.2381032 -0.18428509 -0.12537676 -0.16677924 -0.29362756 -0.18622458 -0.14258753 -0.2765715

bias f4 [64]
00000000: f807 cf3d 08cf b2bd fb19 ecbc b1d2 2ebd
00000010: 47c9 d4bc d37d d1bc d4fe 9f3d 6c81 183d
00000020: 1b5d d6bc 2a02 f03c b608 80bc 395f 143d
00000030: 4b76 c63d 7710 88bd 3874 b13b e4e6 d23c
00000040: b1fd b33c fca9 41bd b718 d5bc a407 0e3e
00000050: f90e 3fbc 705a f63c b443 f63d 8a8f 043e
00000060: 47f7 1a3d 0a2e b7bc 8228 ab3d 1bd2 573d
00000070: 391b 5c3d 7f78 25bd b605 f0bc fe9c 8bbd
00000080: 7b73 74bc af24 e13d 9c55 82bd 10f4 b83c
00000090: 40ef 6bbc 372c 5cbc 5bcf 1b3e 0f78 d73c
000000a0: 146e 7dbc 9c61 00bd 4601 143c cd70 7fbd
000000b0: 2f46 04bd 6d3d d53c 0f3a 473d 69f7 b73c
000000c0: a0d0 aebc ab43 a9bc f060 0ebc 9ef3 9cbd
000000d0: 3589 083e 7713 033e c445 163e c455 b0bc
000000e0: 5371 5ebd 62f6 c7bc a5a2 f33c c69d dabb
000000f0: dfbf 47bd 7c9c 1a3d a2ba 19bd a331 99bc
0.10108942 -0.08730894 -0.028820982 -0.0426814 -0.025974883 -0.025572693 0.078122765 0.0372328
-0.026167443 0.029297907 -0.015629154 0.036223624 0.09690531 -0.066437654 0.0054154657 0.025744863
0.021971555 -0.04728125 -0.026012762 0.13870102 -0.011661285 0.03007242 0.12024632 0.12945381
0.03783348 -0.02236082 0.083573356 0.052690607 0.0537369 -0.040398117 -0.029299598 -0.06817053
-0.014920111 0.10993325 -0.06363985 0.022577316 -0.014400303 -0.013438276 0.15215819 0.026302366
-0.015468139 -0.031343088 0.009033507 -0.062363435 -0.032293495 0.026030267 0.048639353 0.022456842
-0.021339715 -0.02066215 -0.008690104 -0.07663654 0.1333359 0.12800394 0.14675051 -0.021525271
-0.054307293 -0.024409477 0.02974064 -0.00667164 -0.048766967 0.03774689 -0.037531503 -0.018700426

weight f4 [64, 64]
00000000: e510 a43e 31d8 bbba 1cee fa3b 61c2 8e3d
00000010: b192 07be 4ee4 68be c059 713e efb3 3dbe
00000020: ddac ec3d 378d 613e 8b8c 8bbd 4676 40bd
00000030: b635 a4bd a1f8 2e3d b0a0 4b3e 2a36 393e
00000040: 858a b7bc b516 55be ae17 853c ca29 9bbd
00000050: 4c6d be3b 676b e3be 2bd3 4a3d 2cea e8bd
00000060: afdf 50be b2a5 d33c e826 513e 37ce aa3e
00000070: b45d cf3d 44db 93bd 1af6 84be f34a 313e
00000080: e431 18be 7427 22be af0a 11bd ecf1 d73e
00000090: dc82 77be 7372 16be 8b41 d03d 2d75 8abe
000000a0: f389 1abe 93b0 043c e269 9e3e 5276 133e
000000b0: 838f 9fbe 9a0e b1be 20f5 fe3d 09d5 40be
000000c0: 12f0 273c b86f 15be 600e f6bd de1a e9bc
000000d0: b912 73bd 1ce1 f13d e5eb 09be e658 aa3d
000000e0: 96f6 4abe 9b54 863d c5ff 533e f2b8 adbe
000000f0: e1b9 debd 4135 42be 51b7 ed3a 486a 0fbe
00000100: 3806 1bbd a4e4 113b 8e83 d6bb 06a2 1fbd
00000110: 5fd9 163e b15b 703e 5c47 863e b957 33bd
00000120: 07e8 9f3e 1fd3 a83e 4d76 623c 0de6 eebe
00000130: cc89 593e d3a6 1dbd f6ba d8bd 8ddb 1a3e
00000140: 3d64 b33e 0a08 733e 1d57 063a 2f40 b43d
00000150: 1be6 b5bb a2dd dbbe be97 94be 7032 11be
00000160: 0bb8 39be c2d1 ed38 fec7 13be 606f 4abe
00000170: ef64 a1bc f925 833d ead4 92bd 42e2 6cbe
00000180: 296f 83bc 464f a13e 5331 77be 6657 bb3e
00000190: 6c50 563e 3cb3 af3e 9c3c 193e ba34 99be
000001a0: 035f 1c3e 18c9 66be 6304 803d f3de 633d
000001b0: d889 9dbd 6945 85be cb9c 923e b3e2 173e
000001c0: 4158 583c 7fbc 46be 4b1e 2c3e 0119 4dbe
000001d0: 799f f23e 5adb 583e 9bcc 903e 4511 7b3e
000001e0: fcd2 fcbd e53d 9b3d 6213 c43e d2c8 febd
000001f0: 6938 5fbd 8a03 17be e9b2 24bd 1017 04bd
00000200: 43cc 98be c7f4 653d e0ec ff3c adb3 2fb9
00000210: ee05 3bbe 7d6d 5d3e 89da 833e 83f2 76be
00000220: c922 8f3e 5640 31bb 5ac8 60ba 55df 153c
00000230: 63ec 003f 5e1b 033e 3de5 a03e 0cc9 df3c
00000240: 5673 243d 312c 8bbe 06ae b53b 5ab2 263e
00000250: 6ee0 31bd 4523 2ebe 3f79 0cbd 7b7e c3bd
00000260: f51b 73be e10d b23b d039 043c 2c60 efbe
00000270: 15ff c0bc 68d0 34be 8721 68be 2de0 9cbb
00000280: 6d0b 6abd a047 0f3e 3d52 8bbe 4d14 babd
00000290: 5bee 92bc d22a 083e 43d9 c1be e0c3 0d3d
000002a0: 11d1 2b3d 51e7 afbd cd35 48bd ad9b 7abe
000002b0: 4e6c d7bd a82c 9bbd 71df 563e 5a49 0a3e
000002c0: 6d0f 3cbc eb77 32be 19ac 7d3d 5549 1fbe
000002d0: e5b2 153e 1a58 9d3d c336 d73e 0d84 09be
000002e0: 4fe4 f63d 9fb8 8e3e 304e 0b3c 453e 0a3d
000002f0: cd66 283e 6289 efbe 4508 6738 c0f2 ce3d
00000300: 1deb c63e 34d8 5a3d 2819 ec3a cb1c 553d
00000310: c8b3 acbb 19a5 32bd 7ba3 f93c 9654 32be
00000320: fe34 f0bd 69ee 763e 0d03 943a 913e fdba
00000330: 61f2 01be 346c df3c 7164 443e 71c8 d03e
00000340: 6f5c 8a3d ccc6 32bd 9a26 e839 e8f4 163e
00000350: c701 573d f473 5fbe 1124 5ebe 61e1 41be
00000360: d279 9bbd beff d8bc 917b 753e 1811 6c3e
00000370: 87c1 d93d 0b0e 7ebd df84 37be 685c 593d
00000380: 25d3 0ebe ec94 20bc f6b8 6dbc b555 883e
00000390: 9a94 11bd 6f4c 043d bd6a f8bc 53d5 95be
000003a0: 4684 34bd 1134 60bd 965e 893e 9435 5cbd
000003b0: c326 24be ff88 99bd c042 2fbe 0882 81be
000003c0: 8005 f8bb 223c abbc c1cc f23d 1244 17bc
000003d0: e1f9 d2bd 91c8 293c d33b 88bd 8414 30be
000003e0: 3dc0 1bbd 932b ffbd 19de d33e 05e3 5ebe
000003f0: 2f50 9e3d a75f c3bd 806c 54bd d01e 16bd
0.3204414 -0.0014331398 0.0076577794 0.069706686 -0.13239552 -0.22743341 0.23569393 -0.1852567
0.115564086 0.22026525 -0.06813916 -0.046987794 -0.08018057 0.04271758 0.19885516 0.18087068
-0.022404918 -0.20809443 0.016246643 -0.0757633 0.005811369 -0.4441788 0.04951779 -0.1137279
-0.20397829 0.025835846 0.20424998 0.33360454 0.10125294 -0.07219556 -0.2596901 0.17313747
-0.14862782 -0.15835363 -0.03541058 0.4217676 -0.24171013 -0.14692096 0.10168751 -0.27042523
-0.15091686 0.008098739 0.30940157 0.14400604 -0.31164178 -0.34581453 0.12449098 -0.18831266
0.010250108 -0.14593399 -0.120144606 -0.028455194 -0.059344027 0.11810514 -0.13468893 0.08317737
-0.19820628 0.06559106 0.20703037 -0.33930165 -0.10875297 -0.18965627 0.0018136298 -0.14005387
-0.037847728 0.0022261525 -0.0065464443 -0.038972877 0.14731358 0.23472477 0.26226318 -0.04378483
0.3123171 0.32973573 0.01382215 -0.4665989 0.21243972 -0.038489174 -0.10582535 0.15122814
0.35037413 0.23733535 0.0005124675 0.088013045 -0.0055511124 -0.4294253 -0.2902202 -0.14179397
-0.18136613 0.00011340111 -0.1443176 -0.19769049 -0.01970145 0.06403727 -0.071695164 -0.23133186
-0.016044216 0.31505793 -0.2413991 0.36590117 0.20929116 0.34316432 0.14964527 -0.2992304
0.15270619 -0.22537649 0.06250837 0.055632543 -0.07692307 -0.26029518 0.2863525 0.14832573
0.013204635 -0.19407843 0.16808431 -0.2002907 0.47387293 0.21177426 0.28281102 0.24518307
-0.123449296 0.07580165 0.38296038 -0.12440647 -0.054497156 -0.14747444 -0.040209685 -0.032248557
-0.2984334 0.05614164 0.03124088 -0.00016756235 -0.18263981 0.21623798 0.25752667 -0.24115948
0.27956226 -0.0027046404 -0.00085747766 0.009147485 0.503607 0.12803409 0.31424895 0.027317546
0.040149055 -0.27182153 0.005544427 0.16278973 -0.043426923 -0.17005642 -0.034295317 -0.095456086
-0.23741134 0.0054337834 0.008070424 -0.4675306 -0.023559133 -0.17657626 -0.2266904 -0.004787466
-0.057139803 0.13992167 -0.2721118 -0.09085903 -0.017935922 0.13297585 -0.3786107 0.03461063
0.041947428 -0.08589042 -0.048879433 -0.24473448 -0.10518704 -0.07576877 0.20983674 0.13504544
-0.011478287 -0.17428558 0.061931703 -0.15555318 0.14619024 0.0768282 0.42033967 -0.1342928
0.12055265 0.2787523 0.008502528 0.03375079 0.16445465 -0.46784502 5.5082393e-05 0.10104895
0.38851252 0.053428844 0.0018012868 0.052029412 -0.005270455 -0.04361448 0.030473461 -0.1741508
-0.117288575 0.24114384 0.0011292413 -0.0019321014 -0.12690116 0.027273275 0.1917894 0.40777925
0.067559116 -0.04364662 0.0004427925 0.14741862 0.05249193 -0.21821576 -0.21693446 -0.18933631
-0.07591595 -0.026489135 0.23972918 0.23053396 0.106326155 -0.06202511 -0.1792178 0.05306664
-0.13947733 -0.009801131 -0.01450943 0.2662789 -0.035542108 0.032299455 -0.030324334 -0.29264316
-0.04407146 -0.054737154 0.26829976 -0.053762034 -0.16030411 -0.07496833 -0.17115307 -0.25294518
-0.007569015 -0.020902697 0.1185546 -0.009232538 -0.10301567 0.01036276 -0.066520356 -0.17195326
-0.03802513 -0.12459483 0.41380385 -0.21766289 0.077301376 -0.095397286 -0.051861286 -0.03665048

bias f4 [64]
00000000: 50c8 0dbb a3bc 2bbd e0be 04bd 51c7 403d
00000010: e72c 033d e289 413d 4b98 35bd c5e6 08bd
00000020: 8377 163e 3afd 0e3c 5620 e3bb 212b 21bd
00000030: 3df4 673d 6977 7bbc 7c99 163e 8abc a53d
00000040: c9f6 9b3c 6bc0 27bd dbf5 c9bb 41de 4c3c
00000050: 741d 333d 0f5c c43d 30dc 5b3d 58a6 f43c
00000060: bae2 a23d 7a70 af3d f74c d8bc 201e 123b
00000070: d9de f1bc 9adb 053d 35ca 053d 758f aa3d
00000080: ddc4 413b b2ad c03c 8548 b03c 076e f73d
00000090: 3196 4cbd 80c1 e63d 12b2 453c ce55 95bc
000000a0: 062b 0f3e ae5e 9abd 2502 26bd 6f70 6dbc
000000b0: 02cb 1cbc f6c8 593b e290 eebc 39aa 3fbd
000000c0: ee8a 6abd 10d8 9f3d 2eb5 1dbc cd86 613d
000000d0: ee18 be3b f07e 78bd 03dd 873d f45a 6dbd
000000e0: dd00 e4bd dc75 35bb a24c 24bd 3d26 0c3b
000000f0: 4223 e63d 4035 39bc 79f7 733d 5d24 adbc
-0.0021634288 -0.041927945 -0.032408595 0.047065083 0.032025244 0.047250636 -0.04433469 -0.033423204
0.14694028 0.008727366 -0.006931345 -0.03934777 0.05662941 -0.015348294 0.14706987 0.080926016
0.019038575 -0.04095499 -0.0061633415 0.012504161 0.04372926 0.09587871 0.053676784 0.029864475
0.07953401 0.08566375 -0.026403887 0.0022295788 -0.029525207 0.03268013 0.032663543 0.083281435
0.0029566803 0.023520324 0.021518955 0.12081533 -0.04994792 0.11267376 0.012066381 -0.018229391
0.13981256 -0.0753759 -0.04052939 -0.014492138 -0.009569885 0.0033231354 -0.02912182 -0.046793196
-0.0572614 0.078048825 -0.009625716 0.055060197 0.0058013117 -0.060667932 0.066339515 -0.057948068
-0.11132977 -0.0027688658 -0.040112145 0.0021385096 0.11237194 -0.0113042 0.05956218 -0.021135503

weight f4 [1, 64]
00000000: 5d56 19bf 1e83 d8be e1da 8bbe 5ffe 80be
00000010: f6c3 0dbf ecbd a33e 33ae eebe 1d14 afbe
00000020: 70d7 b43e d2cd 163d 59d0 32be 5f69 003f
00000030: f645 203f 3b6e d7be 4e91 c13e a556 153f
00000040: 82ea 91be 0c16 d4be 8c30 ef3e 622f 143f
00000050: 10e9 843e 40aa fabe c661 aabe 7476 173e
00000060: 6a66 c0be b57f 9abe fd16 ec3e 7570 adbe
00000070: efc9 a5be f852 d03e 262e 5a3e 570b 833e
00000080: ff52 7fbe 08ad bbbe 21e5 c9be 0d59 e13e
00000090: f94d b03e 984f debe c2d6 96be f411 05bf
000000a0: 9872 ee3e 67c0 853e 27ce 10bf d573 83be
000000b0: c863 25bd 4f9f eabe 6921 d93e 78bc 85be
000000c0: 4e1e ce3e 68b3 bd3e 3728 e0be 6ddf 223f
000000d0: a98a dfbe 435f be3e 8099 e4be f7e5 f43e
000000e0: 5411 f33e 29f4 bdbd 458a 043f 421d a8be
000000f0: efc3 cb3e c7be 2ebc a0ce c73e ff51 8fbd
-0.59897405 -0.42287534 -0.2731543 -0.2519407 -0.5537714 0.31980836 -0.46617278 -0.34195033
0.35320616 0.03681738 -0.17462291 0.50160784 0.6260675 -0.42076287 0.3780617 0.58335334
-0.28499228 -0.4142307 0.46716726 0.578848 0.25959063 -0.48958015 -0.3327772 0.1479128
-0.37578136 -0.30175558 0.4611129 -0.3387486 -0.32380626 0.406883 0.21306667 0.2559459
-0.24934004 -0.3665545 -0.39432624 0.44013253 0.34434488 -0.434201 -0.29460722 -0.5198052
0.46571803 0.26123354 -0.56564564 -0.2567431 -0.040378362 -0.45824668 0.42408302 -0.26120353
0.40257496 0.3705094 -0.43780681 0.6362217 -0.43660477 0.37182054 -0.4464836 0.478317
0.47474158 -0.092750855 0.5177348 -0.32834822 0.39797923 -0.010665602 0.3902483 -0.069980614
