checkpoints/swarm_1d/linear/known/50pct-constraint/run-1/policy_final.pt (torch, 14901 bytes, 13 tensors)

weight f4 [16, 101]
000000 eb 9a 24 3f f3 42 44 3d 37 1f 2c be 1e 63 35 be
       0.64298886 0.04791541 -0.16808783 -0.17713591
000010 92 9f 72 bc 5a 39 cc 3d 2b fe c2 bc 16 46 91 bd
       -0.014808552 0.099718764 -0.023802837 -0.07093446
000020 12 01 08 3b dc 0e 55 be b5 41 8e bd ff 48 99 3d
       0.002075259 -0.2080645 -0.06946126 0.07484626
000030 67 5f 79 3d 1c 53 4a be 51 b2 84 3d 4e 5b 0b bd
       0.060882 -0.19758266 0.06479324 -0.03402262
000040 4e 3e 92 bd 16 64 fa 3d 72 12 80 be 6c b7 a9 bd
       -0.0714079 0.12226121 -0.25014073 -0.08286938
000050 63 75 09 be 4d 66 81 be 07 3d 90 3d f7 6d 83 be
       -0.13423686 -0.25273362 0.0704289 -0.25669834
000060 f4 5f 6d 3a 04 14 2d bd da b2 f9 bd f4 88 8f 3c
       0.00090551306 -0.042255417 -0.12192316 0.017521359
000070 ba 77 9b be 13 c9 25 3d df 0a 93 be 9f 96 8b be
       -0.30364782 0.040474962 -0.2871923 -0.27263352
000080 a2 37 b8 bd 86 ed c5 3c 27 9a 25 bc 6d 26 92 be
       -0.08994986 0.024161112 -0.010107554 -0.28544942
000090 e1 e5 2c bc 2b ba a8 be 78 59 aa bd 36 1b 4e bd
       -0.010552854 -0.32954535 -0.08317846 -0.05031892
0000a0 cf 26 82 bd ee 71 d6 bd 5c 79 81 be 28 9c 05 be
       -0.063550584 -0.10470949 -0.25287902 -0.1304785
0000b0 99 a2 c5 bd 86 4f c2 bd 61 c7 8d be e0 eb 5a 3c
       -0.09650154 -0.09487824 -0.27691177 0.013361901
0000c0 fe e7 32 be 53 fb 71 be 48 96 89 be e2 f4 1f be
       -0.1747131 -0.23631029 -0.26872468 -0.15620759
0000d0 4c 3d 24 be 9f a4 3b be 47 ff c6 bb e2 74 e6 bd
       -0.16039008 -0.18324517 -0.006072912 -0.112527624
0000e0 c3 96 60 be 53 b0 84 bd 01 cb de bd 3c 58 3e be
       -0.21932511 -0.06478944 -0.10878564 -0.18588346
0000f0 95 c1 e9 bc 2e 15 c7 bd d9 a2 11 bc 85 83 42 be
       -0.02853469 -0.097208366 -0.008888924 -0.18995483
000100 9f 45 21 be 1c 98 d5 bc f2 a8 24 be cc 04 8a bd
       -0.15749215 -0.026073508 -0.16080073 -0.06739196
000110 6c 28 b0 bd 06 79 0f be 82 02 a7 bd 70 46 67 bc
       -0.0860146 -0.1401101 -0.08154775 -0.014115915
000120 7e 4a 8b bd 8c 96 de bd 25 37 04 bd 93 1a 73 bd
       -0.06801318 -0.10868558 -0.032279152 -0.059351515
000130 95 f3 ed bc 27 e6 9d bd f5 34 93 bd f5 8d c8 bd
       -0.029046813 -0.07709914 -0.07187835 -0.09792701
000140 53 8e 08 be 00 d9 71 bc 66 a5 f8 bd c5 7d bb bd
       -0.13335542 -0.0147612095 -0.12140922 -0.09154848
000150 ca 56 00 be ab 81 6d bd e1 17 65 bd 0a 7c a7 bd
       -0.12533107 -0.05798499 -0.055930976 -0.081779554
000160 4a 74 bf bd e2 17 06 3c b5 8f d9 bd 1e 1a 03 be
       -0.09348352 0.008184405 -0.10623113 -0.12802932
000170 8a f4 c7 bd 3c 6b 22 3d f8 35 41 3c fe 91 76 3b
       -0.09763439 0.039653048 0.011792652 0.003762364
000180 74 b8 00 be e4 16 10 bc 84 3f 03 be 10 65 38 be
       -0.12570363 -0.00879452 -0.12817198 -0.18007302
000190 48 44 82 3c 6f bb 6c b1 6d 56 3f 24 f4 98 4e 24
       0.0159017 -3.4449064e-09 4.148973e-17 4.4798686e-17
0001a0 0d 8a 56 24 b0 ec 69 24 5d 9c 88 24 13 09 81 24
       4.6520787e-17 5.0724303e-17 5.924549e-17 5.5960204e-17
0001b0 e4 25 8c 24 9f 32 91 24 90 c3 a0 24 59 41 a1 24
       6.077951e-17 6.296948e-17 6.9720235e-17 6.993332e-17
0001c0 59 73 a9 24 7e 19 b4 24 34 65 d7 24 aa 36 ce 24
       7.3487473e-17 7.810574e-17 9.341283e-17 8.9430864e-17
0001d0 9d f5 e0 24 79 85 d6 24 60 77 dd 24 dc 93 f0 24
       9.75606e-17 9.303382e-17 9.60457e-17 1.0433389e-16
0001e0 07 07 03 25 bf a4 ee 24 f4 d5 ef 24 83 55 06 25
       1.136482e-16 1.0349514e-16 1.0401218e-16 1.165162e-16
0001f0 f2 6b f9 24 57 6b f7 24 9d e6 fb 24 4e 73 f8 24
       1.081694e-16 1.07301015e-16 1.0924457e-16 1.0774819e-16
000200 24 c9 fb 24 e0 87 02 25 94 d9 0a 25 bd 2e f0 24
       1.09194644e-16 1.1321739e-16 1.204331e-16 1.04162586e-16
000210 21 4d ec 24 ab 38 eb 24 ae c8 e0 24 e9 cf d8 24
       1.02479347e-16 1.02011003e-16 9.748448e-17 9.402728e-17
000220 3c eb ee 24 ab 04 eb 24 b8 3d c4 24 6a f6 be 24
       1.0361455e-16 1.0192291e-16 8.5106006e-17 8.281681e-17
000230 70 f8 b3 24 18 fa a9 24 6f 31 b6 24 68 7f a9 24
       7.8049745e-17 7.371574e-17 7.901366e-17 7.35079e-17
000240 08 bc a5 24 3c 65 8c 24 89 b0 83 24 9c 1c 7a 24
       7.187588e-17 6.088682e-17 5.7111256e-17 5.4234342e-17
000250 9d 60 7f 24 9c 0d 5e 24 23 a3 69 24 79 36 49 24
       5.5376145e-17 4.8150104e-17 5.0662003e-17 4.3631067e-17
000260 ed 74 34 24 01 8b 26 24 bc ef 1e 24 5e 11 17 24
       3.9130318e-17 3.6113253e-17 3.446385e-17 3.2757616e-17
000270 f5 c9 0c 24 9c b9 07 24 16 e6 f4 23 34 ff e9 23
       3.0528725e-17 2.9430676e-17 2.6551978e-17 2.5369993e-17
000280 9f fc db 23 c3 a3 eb 23 93 3d c2 23 af 8a ca 23
       2.3851017e-17 2.5548107e-17 2.10596e-17 2.1959619e-17
000290 cc 11 be 23 cc 3f c9 23 0c 93 a9 23 5b d5 a1 23
       2.0607379e-17 2.1819483e-17 1.8385293e-17 1.7546015e-17
0002a0 2e db 9a 23 50 fa ab 23 df c1 92 23 95 69 97 23
       1.678954e-17 1.8645869e-17 1.591146e-17 1.6416169e-17
0002b0 c7 c8 90 23 38 d5 89 23 4c d4 89 23 65 4d 8c 23
       1.5697544e-17 1.4943871e-17 1.4943481e-17 1.5211608e-17
0002c0 64 23 90 23 26 0b 90 23 f6 c2 8c 23 26 a5 95 23
       1.56275e-17 1.5617233e-17 1.52614e-17 1.6224555e-17
0002d0 58 1a 91 23 ee f7 8c 23 3c 66 92 23 d8 59 ab 23
       1.5732089e-17 1.5283833e-17 1.587265e-17 1.8577907e-17
0002e0 92 56 a3 23 8a 3b a6 23 94 df ba 23 c0 93 ab 23
       1.770916e-17 1.8022972e-17 2.026085e-17 1.8602432e-17
0002f0 27 d6 ac 23 bd 1c b2 23 12 63 bb 23 4b e5 c2 23
       1.8738974e-17 1.931097e-17 2.0316539e-17 2.1130631e-17
000300 2b 88 d5 23 c2 20 de 23 9b 15 f4 23 40 31 f5 23
       2.3151176e-17 2.4083162e-17 2.6463683e-17 2.6583811e-17
000310 bc 25 0e 24 a8 1b 0f 24 12 49 11 24 80 76 31 24
       3.0823304e-17 3.1031608e-17 3.1503756e-17 3.848113e-17
000320 fc 3c 32 24 fa ba 4e 24 fb ac 6b ae 5f 51 7d 23
       3.8649253e-17 4.4827505e-17 -5.358645e-11 1.37323885e-17
000330 0f 55 80 23 05 c8 97 23 99 c5 92 23 1e b5 9c 23
       1.3913812e-17 1.6456164e-17 1.5913038e-17 1.699026e-17
000340 87 36 bd 23 e1 d0 b1 23 43 56 c3 23 f5 a5 c3 23
       2.0514514e-17 1.9278842e-17 2.1178476e-17 2.1212228e-17
000350 36 31 d1 23 f2 af dc 23 c6 9c f2 23 6d 65 ec 23
       2.2680667e-17 2.3926964e-17 2.6304089e-17 2.5630127e-17
000360 d5 bc f9 23 84 25 03 24 cf d4 12 24 d9 e3 0b 24
       2.7076608e-17 2.8437874e-17 3.183896e-17 3.0333815e-17
000370 27 2e 18 24 f2 1d 22 24 51 b2 16 24 b5 90 19 24
       3.299884e-17 3.5153515e-17 3.2677105e-17 3.3299158e-17
000380 49 96 18 24 5d b5 1b 24 bf aa 32 24 64 19 20 24
       3.3087043e-17 3.3763888e-17 3.8742225e-17 3.4715976e-17
000390 d8 08 1c 24 30 bd 1e 24 81 99 30 24 a2 d1 1a 24
       3.38346e-17 3.4421037e-17 3.829394e-17 3.3570993e-17
0003a0 dd 06 18 24 7f 20 15 24 a6 53 24 24 a1 44 0c 24
       3.296556e-17 3.233675e-17 3.5632684e-17 3.0415792e-17
0003b0 32 b5 1c 24 47 4a 05 24 0c 41 01 24 35 fe fa 23
       3.3980586e-17 2.8902693e-17 2.8027513e-17 2.7212715e-17
0003c0 d9 0e fd 23 40 d9 ff 23 04 ef d4 23 7c 73 ca 23
       2.7436603e-17 2.7739164e-17 2.3086313e-17 2.1949793e-17
0003d0 3c 93 c4 23 b5 e9 c1 23 f2 e0 ae 23 49 83 bb 23
       2.1312719e-17 2.102408e-17 1.8960386e-17 2.0330182e-17
0003e0 f8 49 9f 23 01 d8 a5 23 e8 7a 8e 23 f3 4f 92 23
       1.7270142e-17 1.7980817e-17 1.5447724e-17 1.5863212e-17
0003f0 d3 43 89 23 76 62 61 23 79 05 5e 23 0e 15 48 23
       1.4882294e-17 1.2218124e-17 1.2035803e-17 1.084648e-17

bias f4 [16]
000000 fa 2d 21 be fa 7d fa 36 81 0a 8d b4 76 b5 5f 3d
       -0.15740195 7.465246e-06 -2.627094e-07 0.054616414
000010 06 62 9b bc 0d a4 d6 bc 30 4c e4 3d f6 3c d0 bb
       -0.01896764 -0.026201272 0.11147344 -0.0063549234
000020 47 3d 3f 31 c9 74 74 bc 91 25 a2 bb 05 d5 e2 bb
       2.782899e-09 -0.014920422 -0.004948326 -0.0069223666
000030 f2 f1 c9 3d a2 e0 2d b8 83 a1 ae bb 3e cb cd bc
       0.098606005 -4.145562e-05 -0.0053293123 -0.025121327

weight f4 [16]
000000 d9 27 ef 3f 8f 90 ad 30 7c 4b 8d 32 b2 04 29 3f
       1.8684036 1.2628493e-09 1.6448887e-08 0.6602279
000010 92 92 8a 3f 11 ec 5b 35 5b 47 a5 3f 41 b8 49 3f
       1.082598 8.192738e-07 1.2912401 0.78796774
000020 12 0f 21 32 af 9a 67 b8 56 2d cd 3e cc cd e1 b6
       9.37486e-09 -5.5218752e-05 0.4007365 -6.7294804e-06
000030 8b ac 9f 3f 50 aa 96 32 fe 41 33 3f 53 c3 8d 3f
       1.2474531 1.7539747e-08 0.7002257 1.1075233

bias f4 [16]
000000 9c 5d 09 be 8b 2e c9 b7 7e 86 37 b5 b7 7e 6d 3d
       -0.13414615 -2.398274e-05 -6.8368524e-07 0.057982173
000010 dd d6 88 bc 0c 6c d4 bc c7 f7 d6 3d 3b c2 a2 bb
       -0.016704017 -0.025930427 0.104964785 -0.0049670017
000020 64 ab 46 b2 0c 1d 73 bc 50 2d ab bb 2f fd c5 bb
       -1.1564087e-08 -0.014838468 -0.0052239075 -0.0060421447
000030 e0 50 be 3d 00 d2 71 b8 d1 90 90 bb e2 02 bf bc
       0.092927694 -5.7654455e-05 -0.0044117947 -0.023316804

running_mean f4 [16]
000000 00 00 00 00 00 00 00 00 00 00 00 00 00 00 00 00
       0.0 0.0 0.0 0.0
000010 00 00 00 00 00 00 00 00 00 00 00 00 00 00 00 00
       0.0 0.0 0.0 0.0
000020 00 00 00 00 00 00 00 00 00 00 00 00 00 00 00 00
       0.0 0.0 0.0 0.0
000030 00 00 00 00 00 00 00 00 00 00 00 00 00 00 00 00
       0.0 0.0 0.0 0.0

running_var f4 [16]
000000 00 00 80 3f 00 00 80 3f 00 00 80 3f 00 00 80 3f
       1.0 1.0 1.0 1.0
000010 00 00 80 3f 00 00 80 3f 00 00 80 3f 00 00 80 3f
       1.0 1.0 1.0 1.0
000020 00 00 80 3f 00 00 80 3f 00 00 80 3f 00 00 80 3f
       1.0 1.0 1.0 1.0
000030 00 00 80 3f 00 00 80 3f 00 00 80 3f 00 00 80 3f
       1.0 1.0 1.0 1.0

weight f4 [16, 16]
000000 b8 71 11 bc c7 0d 4a b2 18 15 a1 2f 5d ec 3f be
       -0.00887721 -1.176108e-08 2.9300717e-10 -0.18742509
000010 4c ad 3a be 7d 6a 15 38 5a 93 9b 3d 19 03 1a be
       -0.1823017 3.5623543e-05 0.075964645 -0.15040244
000020 65 d8 a2 ae 83 8e 00 b6 5f 7d 29 bc 97 68 de 36
       -7.4053465e-11 -1.915644e-06 -0.010344832 6.6282914e-06
000030 a9 3c 84 3d 2e 08 e7 33 c4 4b f2 bd b9 a0 ea bd
       0.064568825 1.07582636e-07 -0.118308574 -0.11456437
000040 9e 00 3a bf dd 6f 2b 35 ff 3c 9b 32 b5 3a d3 3d
       -0.7265719 6.3865247e-07 1.8072113e-08 0.10313932
000050 89 57 3a 3e 2b 59 8a 39 67 f3 b0 be 98 b3 11 3e
       0.18197455 0.00026387846 -0.345607 0.14228666
000060 14 6c aa 2f 4a a2 43 39 4e 5c 99 bb fb f6 9c 38
       3.0999614e-10 0.00018657107 -0.004680193 7.4846634e-05
000070 be ab 9e be c0 b9 37 35 cb 3e e5 3d 27 92 16 3c
       -0.30990404 6.8443114e-07 0.111936174 0.009190119
000080 6b 5f 8f 3f 05 98 9d b3 5f 3f 95 30 ac a1 9e 3e
       1.1200994 -7.3385344e-08 1.0859188e-09 0.3098272
000090 28 66 13 3e 65 4a 74 38 8d a6 15 3f 17 9c 51 3e
       0.14394438 5.824342e-05 0.5845726 0.204697
0000a0 c2 84 0a ad 16 f7 73 37 71 2f 49 be 6d 93 47 b8
       -7.87387e-12 1.4541458e-05 -0.19647004 -4.75826e-05
0000b0 9f 57 0a 3f 9a 5c 80 b3 58 89 d1 3e 71 75 74 be
       0.5403995 -5.9773086e-08 0.40925097 -0.23872925
0000c0 c1 3f 01 bf c5 c3 88 33 03 d4 0d af d6 f8 8b be
       -0.50487906 6.368604e-08 -1.2899197e-10 -0.27338284
0000d0 8f 54 dd 3e 71 21 d9 b7 87 d3 fb be d2 a3 5e 3e
       0.43228576 -2.5883988e-05 -0.4918482 0.2174218
0000e0 16 1b 75 ad 19 26 a3 b6 ca af 3c 3e 10 52 81 b4
       -1.3932652e-11 -4.8622137e-06 0.18426433 -2.408783e-07
0000f0 ac f3 f7 be 09 18 07 33 e3 2d 35 3e 54 0a d2 3e
       -0.48428094 3.1453997e-08 0.17693286 0.41023505
000100 d3 b7 2a 3b 67 6a f0 b2 70 21 43 b0 33 f7 2e be
       0.002604951 -2.7988063e-08 -7.0988104e-10 -0.17086487
000110 49 eb 95 be a2 a8 f9 37 95 44 51 3e 1d ff 13 be
       -0.2928107 2.9761639e-05 0.20436318 -0.14452787
000120 f4 61 4e 2d 3f 96 9e 37 77 45 15 bd 6b d8 3c b6
       1.1731494e-11 1.8905032e-05 -0.0364432 -2.8140155e-06
000130 a6 e5 28 3e 73 37 50 33 a0 68 f2 bd ef 5d 5c be
       0.16493854 4.8479205e-08 -0.11836362 -0.21520208
000140 df ee 93 3f 7f b1 bb b4 fc 51 29 b2 d7 a8 07 3e
       1.1557273 -3.496061e-07 -9.855736e-09 0.13248001
000150 15 b0 03 bf 6d 7b 3c b9 b4 ea 24 3f 03 71 ae 3e
       -0.51440555 -0.00017975057 0.6442063 0.34070596
000160 2f bf 24 af 36 24 13 b9 6f d7 03 be 64 a1 69 b8
       -1.4983635e-10 -0.00014032502 -0.1287515 -5.5701836e-05
000170 ca b0 1f 3f 05 ad 07 b5 0f 9b af 3e 6a d6 4b be
       0.62379134 -5.0543196e-07 0.34297988 -0.19906011
000180 40 d0 f4 1e 7d 49 10 96 71 01 73 98 4a e5 ba 1f
       2.5920635e-20 -1.1655416e-25 -3.1407742e-24 7.915339e-20
000190 55 a6 e4 1f 5f 2d 14 9b b8 5b 38 1e d3 2f 1d 1f
       9.683693e-20 -1.2256933e-22 9.759846e-21 3.3285602e-20
0001a0 d5 bd d8 14 9d 48 9f 1b 8c 0d ae 1d 1d b8 01 9a
       2.1885302e-26 2.6351269e-22 4.6071424e-21 -2.68253e-23
0001b0 ce ed 1d 1e 19 0f be 96 73 20 23 1f c7 d3 52 1f
       8.360688e-21 -3.0705684e-25 3.4543434e-20 4.4644408e-20
0001c0 3d 13 bd 18 17 e6 eb 95 99 5f 37 1b 6c bb c3 19
       4.887478e-24 -9.527876e-26 1.5168294e-22 2.0238227e-23
0001d0 47 9f 62 18 8e a3 b1 95 62 5e 82 18 d5 83 ea 9c
       2.929023e-24 -7.1747774e-26 3.3699515e-24 -1.5518899e-21
0001e0 46 62 b5 16 2f c6 5a 9b 7a 6b 00 18 1a ab 05 98
       2.9304146e-25 -1.8096574e-22 1.6597874e-24 -1.7276231e-24
0001f0 37 da 5f 17 10 0f 75 91 22 07 b4 98 01 ff a1 9a
       7.233061e-25 -1.9331734e-28 -4.653611e-24 -6.700002e-23
000200 ba 90 57 3d 0c 91 ff b1 74 e1 94 2f 66 08 76 3d
       0.052628256 -7.4379667e-09 2.7081237e-10 0.060066603
000210 b8 42 a0 be ad 5b 18 b8 4e dc f4 3e fe 98 4a be
       -0.31300902 -3.6325004e-05 0.4782433 -0.19784924
000220 ad 17 98 ac 98 04 5c b7 c8 0d 01 bb 71 5d 24 b7
       -4.3227284e-12 -1.3114091e-05 -0.0019692052 -9.796918e-06
000230 b0 2a d5 3e b3 86 33 b3 9a d5 75 be 34 d7 de be
       0.4163413 -4.1799193e-08 -0.24007264 -0.43523562
000240 40 5d fe be 7b 70 7a 33 59 e0 28 31 c0 56 80 3e
       -0.4968052 5.830996e-08 2.4574744e-09 0.25066185
000250 59 36 07 3f 9a 33 f0 36 15 45 f9 be 4f 68 bc 3e
       0.528173 7.1585646e-06 -0.48685518 0.3679833
000260 fc d2 63 2f 80 8a 2a 38 fe d1 47 be 1e 40 ad 36
       2.0720486e-10 4.0660147e-05 -0.195137 5.163266e-06
000270 d2 4d bd be 4a d8 1a 35 be 84 36 be c5 39 a2 3e
       -0.36973435 5.768421e-07 -0.17824075 0.316847
000280 ad 26 71 bf 69 6e 06 b4 31 53 b0 b1 2f a7 9f 3e
       -0.9419964 -1.251989e-07 -5.131732e-09 0.31182238
000290 b4 86 10 be 73 31 63 b9 89 69 45 bf c6 69 07 ba
       -0.14113885 -0.00021666828 -0.7711416 -0.0005165603
0002a0 0f 8b 42 2f fb 50 d4 b8 70 b2 19 be 7e 88 6f b7
       1.7693601e-10 -0.000101240315 -0.15009475 -1.427729e-05
0002b0 cb 67 33 bf 0a c1 dc b4 63 91 e6 3e f5 e7 4a 3e
       -0.7008025 -4.1118648e-07 0.45032796 0.19815047
0002c0 cd 9c 8f b9 ed 91 37 24 ff 74 97 a3 ea 32 d2 bd
       -0.0002739191 3.9805403e-17 -1.6421003e-17 -0.10263617
0002d0 92 5b 67 3d d6 75 b2 b3 60 1a 66 31 4e 3e 4f bd
       0.056483813 -8.310205e-08 3.3484397e-09 -0.050596528
0002e0 50 a4 46 a0 82 cf 0f ab 17 66 96 3a 10 20 80 a9
       -1.6825619e-19 -5.109178e-13 0.0011474517 -5.689904e-14
0002f0 14 3e 49 31 c7 3e 41 24 b4 d9 9b 3d 8d da 26 bd
       2.9284637e-09 4.1903378e-17 0.07609883 -0.04073577
000300 72 98 13 3b 1d c2 85 23 30 1d 00 21 bf 32 e2 bc
       0.0022521284 1.4502099e-17 4.3406716e-19 -0.027612088
000310 43 8d 5a bc 23 f5 0f 39 f0 65 c9 ab 24 bc 7b ac
       -0.0133393435 0.00013728863 -1.4310202e-12 -3.5773684e-12
000320 8f 11 2f 1e a9 99 1c 28 e9 5f 5b 3a a6 f8 70 27
       9.268054e-21 8.693059e-15 0.0008368479 3.3441483e-15
000330 87 75 eb ab c4 5b 1f 24 4c 2c 93 bc 2e 20 e9 3b
       -1.6730375e-12 3.4555358e-17 -0.017965458 0.007114432
000340 6f ca c1 bb fd 42 ac 32 bd ff d5 2f 02 5c 14 be
       -0.0059140245 2.0053898e-08 3.8926187e-10 -0.14488223
000350 2e 20 3e be 83 0d 4a b7 3b 87 a5 3d 0f 19 e7 bd
       -0.18566963 -1.2043284e-05 0.08082434 -0.112840764
000360 79 3b 19 ac 92 23 94 37 ef f7 9f bc 6f 4e 09 b5
       -2.1775622e-12 1.7659539e-05 -0.019527404 -5.1150613e-07
000370 aa a6 8b 3d 7b 9f 84 b3 cc c8 e0 bd f9 66 40 be
       0.06818898 -6.175738e-08 -0.10975799 -0.18789281
000380 0b bf 01 bf 95 61 ad 34 b3 2d 0a 32 43 8a a0 bd
       -0.50682133 3.229476e-07 8.043048e-09 -0.07838871
000390 0b 3e 8b 3c 85 0a 7d 39 7f 93 a5 be ed e3 87 bc
       0.016997358 0.00024131879 -0.32339093 -0.016588176
0003a0 ed 67 ba 2f 1d 0c 45 39 80 ef 1f 3e bb 32 d6 38
       3.3907047e-10 0.00018791897 0.15618706 0.000102137645
0003b0 7a a0 8e be 52 ad ab 35 26 6f cf 3e 61 f3 bb 3e
       -0.2785681 1.2790936e-06 0.40514487 0.3670912
0003c0 1a 64 79 bf 60 c5 12 33 29 5b c8 b1 67 87 a7 3e
       -0.9741837 3.4172785e-08 -5.83113e-09 0.3272049
0003d0 8b 95 b3 3e be 37 2d b9 a6 87 2b bf 24 01 c6 3e
       0.3507503 -0.00016519331 -0.6700386 0.38672745
0003e0 2a eb 78 2d 98 4a 8d b8 03 1f 00 bd 27 2d cf 36
       1.4149385e-11 -6.737298e-05 -0.031279575 6.174337e-06
0003f0 81 f8 27 bf cd 9b 49 35 42 9d 10 3d 6a cb e5 bd
       -0.6561356 7.5105055e-07 0.035306223 -0.11220439

bias f4 [16]
000000 89 47 18 3d e4 13 90 3c f8 04 19 3c 44 cc c9 3b
       0.037177596 0.01758761 0.009339564 0.0061583836
000010 93 1a 5a 3d 02 48 52 3c 06 71 14 b1 79 7c b6 a4
       0.053248 0.012834551 -2.160108e-09 -7.914078e-17
000020 bc 94 9f 3d bd e4 14 bc 1c 41 f7 3c ac a5 a5 ba
       0.07792041 -0.009087739 0.030182414 -0.0012637875
000030 d6 c5 cd bc f3 ea 22 3d 75 45 26 bb 64 44 d5 ba
       -0.02511875 0.039774846 -0.002537099 -0.0016270992

weight f4 [16]
000000 c0 ab a7 3e 65 0c 6e 3f 6f 54 ac 3f 7f ae 8a 3f
       0.32748222 0.9298766 1.3463267 1.0834502
000010 a1 2c 08 3f c4 0e c6 3f 7d ea 9a 31 9c 3c c9 30
       0.531931 1.5473256 4.508648e-09 1.4641901e-09
000020 25 aa 7d 3f 71 d1 87 3f 63 99 c8 3f f8 6d ba 39
       0.99087745 1.0610791 1.567181 0.00035558618
000030 9d fd a0 b5 8b 73 a0 3e f8 b6 53 3f 1f 9b b8 3f
       -1.199474e-06 0.31338152 0.82701063 1.4422339

bias f4 [16]
000000 fb 5f c6 3c 3a 7c 6c 3c 63 92 55 3c b6 ed b0 3b
       0.024215689 0.014433915 0.01303539 0.005399431
000010 46 e1 3f 3d 84 af 7a 3c 19 a9 b7 b2 bc 2d 32 a8
       0.046845697 0.015300635 -2.13809e-08 -9.890902e-15
000020 32 2c 8c 3d 2a 64 13 bc 39 c9 bd 3c f7 6a ab ba
       0.06844367 -0.008996049 0.02316724 -0.0013078143
000030 3b c3 cd bc 4c 96 b2 3c e6 a5 24 bb 4b 12 7f bb
       -0.025117507 0.021800183 -0.0025123297 -0.0038920816

running_mean f4 [16]
000000 00 00 00 00 00 00 00 00 00 00 00 00 00 00 00 00
       0.0 0.0 0.0 0.0
000010 00 00 00 00 00 00 00 00 00 00 00 00 00 00 00 00
       0.0 0.0 0.0 0.0
000020 00 00 00 00 00 00 00 00 00 00 00 00 00 00 00 00
       0.0 0.0 0.0 0.0
000030 00 00 00 00 00 00 00 00 00 00 00 00 00 00 00 00
       0.0 0.0 0.0 0.0

running_var f4 [16]
000000 00 00 80 3f 00 00 80 3f 00 00 80 3f 00 00 80 3f
       1.0 1.0 1.0 1.0
000010 00 00 80 3f 00 00 80 3f 00 00 80 3f 00 00 80 3f
       1.0 1.0 1.0 1.0
000020 00 00 80 3f 00 00 80 3f 00 00 80 3f 00 00 80 3f
       1.0 1.0 1.0 1.0
000030 00 00 80 3f 00 00 80 3f 00 00 80 3f 00 00 80 3f
       1.0 1.0 1.0 1.0

weight f4 [1, 16]
000000 93 1e 94 3e be ad 3a bf 29 93 8e 3f 4e 89 80 bf
       0.28929576 -0.7292136 1.113866 -1.0041902
000010 c6 2b 05 3f f3 57 a3 3f aa ac 4f 2e 92 79 04 27
       0.5201992 1.2761215 4.7219707e-11 1.8384583e-15
000020 81 bf 6c 3f ad c3 74 bf 68 ae b3 bf 10 9d d7 3a
       0.9247971 -0.9561108 -1.40376 0.0016450007
000030 a2 5d 29 38 3f 01 b3 3e 38 96 39 bf b0 de a4 bf
       4.0379942e-05 0.34961888 -0.7249484 -1.2880459
