checkpoints/swarm_1d/linear/unknown/1-ra/no-constraint/run-1/dynamics95.pt (torch, 439851 bytes, 625 tensors)

weight f4 [16, 2]
-0.059042335 0.5979329 0.5598292 -0.31616035 -0.28554633 0.69512427 -0.51315737 0.360493
-0.55497134 0.5204776 0.19078796 0.40170425 -4.874292e-07 -0.011899786 0.2387985 -0.5563996
-0.40800533 -0.86500883 0.32631743 -0.4816323 1.1712044e-08 1.3986122e-09 0.33799824 -0.57394445
4.748991e-10 6.5464517e-10 -0.123038724 -0.3929266 -0.40792197 -0.658978 0.6208548 0.8200204
00000000: 60d6 71bd 2112 193f f750 0f3f c5df a1be
00000010: 2133 92be aaf3 313f 485e 03bf 8a92 b83e
00000020: 9a12 0ebf 053e 053f eb5d 433e 2eac cd3e
00000030: e1d7 02b5 52f7 42bc 9887 743e 3470 0ebf
00000040: 13e6 d0be 3871 5dbf 1413 a73e 8298 f6be
00000050: 1d36 4932 4b39 c030 1b0e ad3e 06ee 12bf
00000060: 0e8a 0230 8ff2 3330 bafb fbbd ad2d c9be
00000070: 26db d0be c8b2 28bf 57f0 1e3f dbec 513f

bias f4 [16]
5.9382834e-05 0.00022059235 -1.43549705e-05 -0.0002235935 0.0006610501 2.8088549e-05 -1.0430399e-08 0.000112329195
0.00012487613 0.00034705203 -4.186718e-07 5.701022e-05 -8.735746e-12 0.00025294366 -7.248374e-05 -0.00012684855
00000000: d511 7938 cf4e 6739 21d6 70b7 6c74 6ab9
00000010: 524a 2d3a b39f eb37 6131 33b2 4792 eb38
00000020: 2ef1 0239 89f4 b539 d0c5 e0b4 421e 6f38
00000030: 4dae 19ad 869d 8439 6902 98b8 a602 05b9

weight f4 [16]
-0.28263232 0.67948407 -0.09696407 -0.28309748 0.80616856 -0.2420423 -0.00016895978 0.42450863
0.7265773 0.5167699 -0.002026235 -0.4392688 -0.0013702582 -0.18730612 0.5031009 0.41545418
00000000: 2fb5 90be abf2 2d3f 1995 c6bd 27f2 90be
00000010: 1061 4e3f f0d9 77be cc2a 31b9 3259 d93e
00000020: f800 3a3f 084b 043f 95ca 04bb d7e7 e0be
00000030: 3c9a b3ba 2dcd 3fbe 38cb 003f 69b6 d43e

bias f4 [16]
0.5565902 0.32142338 0.24067536 0.11151214 0.3293323 0.69780713 -0.0006270632 0.2724908
0.46738043 0.01724177 -0.0007733116 0.12663856 -0.0034887043 0.26742202 -0.011725547 0.54334897
00000000: b27c 0e3f 9b91 a43e 9a73 763e 7a60 e43d
00000010: 3e9e a83e 7da3 323f 8061 24ba ea83 8b3e
00000020: 7d4c ef3e 9d3e 8d3c 10b8 4aba 8aad 013e
00000030: bfa2 64bb 8aeb 883e 821c 40bc eb18 0b3f

running_mean f4 [16]
0.28071317 0.084120646 0.23078285 -0.046343364 0.026253894 0.2909204 -0.0067094318 -0.17626783
-0.62362856 -0.102167934 2.2361382e-08 -0.14572525 7.579054e-11 -0.25653976 -0.51889807 0.6953232
00000000: a3b9 8f3e 7247 ac3d 5752 6c3e 8ad2 3dbd
00000010: 6812 d73c 85f3 943e cbda dbbb 8e7f 34be
00000020: 1fa6 1fbf 6c3d d1bd 3315 c032 0039 15be
00000030: 48aa a62e 2e59 83be 81d6 04bf b400 323f

running_var f4 [16]
0.017325884 0.00801577 0.02508409 0.009041437 0.017174365 0.007214486 8.246129e-06 0.016112948
0.03347786 0.012941842 1.7069808e-16 0.017929679 5.0180876e-19 0.007041139 0.019406278 0.030021625
00000000: 03ef 8d3c 9454 033c 267d cd3c 8922 143c
00000010: 41b1 8c3c 7f67 ec3b db58 0a37 4dff 833c
00000020: 1520 093d 050a 543c 2ecd 4425 43e1 923c
00000030: 991b 1421 5bb9 e63b eaf9 9e3c e9ef f53c

weight f4 [16, 16]
-0.009065731 -0.038472492 -0.0057184487 -0.020045092 0.065193 0.011042972 3.4915065e-08 -0.008556509
-0.014296427 -0.016223418 -2.6949554e-10 0.0042648884 -2.8898345e-10 0.0036285764 -0.011144811 -0.008547271
-0.39669874 0.41295397 0.252422 -0.5706019 -0.54104733 0.1870135 0.0007498293 -0.022530906
-0.72358316 -0.10441449 6.2148644e-08 -0.019896848 2.8766506e-10 0.30068883 -0.19115415 0.2027532
-0.00017968152 0.012365337 0.00011976398 -0.015877757 0.08485898 -0.018439714 1.8827775e-08 -0.06070218
-0.18936509 -0.05943031 -1.4134993e-10 -0.04723644 1.3841675e-10 0.001845202 -0.088006936 0.042030446
-0.024042424 -0.31765568 -0.023140656 -0.17437959 0.09492793 -0.22164108 2.2781781e-07 -0.2249272
-0.12609883 -0.1407221 -1.4464417e-10 0.15439187 -2.761335e-10 0.014164516 -0.12522675 -0.13153599
0.0018721834 -0.00023502436 -4.0115607e-05 -0.0009071963 -0.02245143 0.0033229815 -1.355899e-08 0.0022831806
0.004670215 0.00065525906 -1.6807553e-10 -0.009343043 -3.08991e-10 -0.0039357236 -0.0024586401 -0.021797357
0.07396977 -0.1807187 -0.15471803 -0.048608307 -0.7979174 -0.28066853 -5.350628e-06 0.2336831
0.5699307 0.18838158 1.443808e-09 -0.63604033 -4.6111398e-10 0.13888009 0.21628591 -0.19710386
0.37140012 0.096736826 -0.08499258 0.18967238 -0.447141 -0.108785294 -8.3806456e-10 0.22216417
0.029898485 0.073683955 1.08435864e-10 0.231115 1.2753483e-10 0.11093751 0.20014016 -0.077795334
0.013480007 0.00026472224 0.0037667982 -0.028035384 -0.008024382 0.006522248 8.326526e-08 0.0040330556
0.0031942062 0.0018688795 -1.04378554e-11 -0.0135161625 2.5764868e-10 -0.0059700017 0.002686647 -0.0082219485
0.26260877 0.2870135 0.076262936 0.093757525 0.16541325 0.01476597 -5.9458927e-07 0.25853726
0.29452944 0.19462352 -5.7456456e-10 -0.04967124 -1.7785896e-10 -0.110169366 0.1336669 -0.14933172
0.20919645 0.81184083 0.13076136 0.5121508 -0.34553513 -0.24913315 -9.61043e-06 0.27591392
0.15959737 0.2615714 1.8403011e-09 -0.2883221 9.431979e-10 -0.14577842 0.18422371 -0.25794783
-0.036228143 -0.11589043 -0.005962913 -0.032025035 0.037784815 0.010331641 2.0258403e-07 0.07610835
-0.023833955 -0.02677608 -2.650403e-10 0.011864983 -1.651848e-11 0.006523781 -0.01873683 0.022060163
0.004850782 0.11146854 0.022710921 0.009455734 -0.10573097 0.052834563 -8.8100995e-07 0.11942419
0.20197676 0.13961197 1.242843e-10 -0.005048877 -5.341778e-10 0.0055024675 0.11670484 -0.06944804
0.018397085 0.037448976 0.008526547 0.025578002 -0.008192279 0.014740096 1.4375674e-07 0.024593575
0.026139874 0.03314287 1.4868792e-10 -0.0067890454 -3.862118e-10 -0.0013693654 0.008479299 -0.008458308
0.12927812 0.3876915 0.36852685 -0.16597533 -0.33021143 0.68300825 -6.59059e-05 -0.45828944
-0.38165256 0.3687969 -7.659331e-09 0.4096482 1.5466285e-10 -0.585569 0.3510192 -0.55924255
0.014017988 0.014022488 0.003390669 0.03627836 -0.11174931 0.02356605 -1.0983636e-07 0.027283516
0.033372816 0.009100892 -2.7187794e-10 -0.066803336 3.4998335e-10 -0.010252902 0.05103248 0.028635943
-0.69910705 0.16359097 -0.18958165 0.042477213 0.6639485 -0.07385666 3.220713e-05 -0.41035306
-0.50576067 -0.28443375 9.731597e-07 -0.06947197 1.3728947e-10 -0.22372226 0.096491374 0.33944982
00000000: 6f88 14bc 5595 1dbd d361 bbbb 9b35 a4bc
00000010: e883 853d 95ed 343c 85f5 1533 9a30 0cbc
00000020: 903b 6abc f9e6 84bc 2028 94af 7ac0 8b3b
00000030: cede 9eaf 69cd 6d3b ba98 36bc da09 0cbc
00000040: 191c cbbe b46e d33e 753d 813e f712 12bf
00000050: 1482 0abf 7880 3f3e 3190 443a bc92 b8bc
00000060: bf3c 39bf 44d7 d5bd 9476 8533 b7fe a2bc
00000070: 4225 9e2f e3f3 993e eabd 43be 899e 4f3e
00000080: e468 3cb9 fc97 4a3c cc29 fb38 1212 82bc
00000090: 8bca ad3d e20e 97bc b7ba a132 d9a2 78bd
000000a0: ece8 41be 326d 73bd 786a 1baf ff7a 41bd
000000b0: da30 182f b4da f13a fb3c b4bd 1e28 2c3d
000000c0: 9ef4 c4bc c4a3 a2be 7991 bdbc 9090 32be
000000d0: 9369 c23d e1f5 62be 159e 7434 5153 66be
000000e0: 0d20 01be 7419 10be b709 1faf e718 1e3e
000000f0: 56ce 97af 4912 683c 713b 00be 5fb1 06be
00000100: 0d64 f53a df70 76b9 ce41 28b8 ead0 6dba
00000110: 10ec b7bc 61c6 593b 12f1 68b2 6aa1 153b
00000120: 9a08 993b b1c5 2b3a 0ecd 38af 9013 19bc
00000130: 9ede a9af 3ef7 80bb 2321 21bb 5f90 b2bc
00000140: 767d 973d 530e 39be 676e 1ebe 8119 47bd
00000150: 5144 4cbf c9b3 8fbe 8b89 b3b6 9f4a 6f3e
00000160: fae6 113f 1ae7 403e 7a6f c630 8ad3 22bf
00000170: 0680 fdaf 9536 0e3e 0e7a 5d3e 98d5 49be
00000180: 2828 be3e f51d c63d 9710 aebd 7a39 423e
00000190: aaef e4be d3ca debd 8d5d 66b0 017f 633e
000001a0: abed f43c 9de7 963d f773 ee2e 69a9 6c3e
000001b0: dd39 0c2f 3533 e33d 8bf1 4c3e 2953 9fbd
000001c0: 3fdb 5c3c 6bca 8a39 63dc 763b 76aa e5bc
000001d0: b378 03bc 95b8 d53b 90cf b233 b927 843b
000001e0: e355 513b 31f5 f43a ec9f 37ad e572 5dbc
000001f0: d4a4 8d2f 01a0 c3bb 7512 303b 5ab5 06bc
00000200: a874 863e 6ff3 923e be2f 9c3d f203 c03d
00000210: 1762 293e f8ec 713c dd9b 1fb5 ff5e 843e
00000220: 90cc 963e 634b 473e 63ef 1db0 1274 4bbd
00000230: d98e 43af 7aa0 e1bd fadf 083e 6aea 18be
00000240: 9837 563e cdd4 4f3f 4ee6 053e 511c 033f
00000250: fbe9 b0be c31c 7fbe 7c3c 21b7 9744 8d3e
00000260: 7e6d 233e b0ec 853e d7ed fc30 f49e 93be
00000270: d3a1 8130 f046 15be 24a5 3c3e bd11 84be
00000280: f663 14bd f657 edbd 8a64 c3bb af2c 03bd
00000290: 40c4 1a3d 0b46 293c e085 5934 b2de 9b3d
000002a0: 6d3f c3bc 8259 dbbc 1bb5 91af 5865 423c
000002b0: 4f4c 91ad 71c5 d53b fb7d 99bc 84b7 b43c
000002c0: 4ff3 9e3b 9e49 e43d 410c ba3c 39ec 1a3c
000002d0: 7b89 d8bd 0e69 583d 8b7e 6cb5 ab94 f43d
000002e0: ffd2 4e3e 71f6 0e3e eca6 082f 0d71 a5bb
000002f0: 6cd5 12b0 0b4e b43b f202 ef3d c63a 8ebd
00000300: 7cb5 963c 1964 193d eeb2 0b3c f588 d13c
00000310: e938 06bc 7280 713c 8d5b 1a34 7778 c93c
00000320: 4a23 d63c d1c0 073d ee7b 232f a476 debb
00000330: 7b52 d4af 477c b3ba c2ec 0a3c b794 0abc
00000340: 7c61 043e 807f c63e 8daf bc3e 70f5 29be
00000350: 7911 a9be a1d9 2e3f f636 8ab8 eaa4 eabe
00000360: f767 c3be f3d2 bc3e 1896 03b2 69bd d13e
00000370: b90d 2a2f dae7 15bf cab8 b33e 852a 0fbf
00000380: b4ab 653c 94be 653c fc35 5e3b 9e98 143d
00000390: d2dc e4bd 970d c13c 2ddf ebb3 ae81 df3c
000003a0: efb1 083d e81b 153c 6b77 95af 30d0 88bd
000003b0: c767 c02f cafb 27bc 6f07 513d ed95 ea3c
000003c0: aef8 32bf 6484 273e b121 42be 96fc 2d3d
000003d0: 87f8 293f 2942 97bd 2416 0738 cc19 d2be
000003e0: 8879 01bf 4da1 91be 839d 8235 5247 8ebd
000003f0: 8df3 162f 7317 65be 459d c53d 5ecc ad3e

bias f4 [16]
4.0624873e-06 -6.201086e-05 -6.5832414e-06 -3.2303018e-05 7.308802e-06 -0.00038087054 -2.7590047e-05 1.4938694e-05
0.00011989849 0.00010071361 3.610512e-05 -2.4280402e-05 -1.650267e-06 -6.035053e-05 0.0003966061 -0.00042486785
00000000: 8050 8836 d40b 82b8 9de5 dcb6 1a7d 07b8
00000010: 223e f536 94af c7b9 2d71 e7b7 34a1 7a37
00000020: 0372 fb38 3536 d338 946f 1738 c4ad cbb7
00000030: be7e ddb5 e320 7db8 92ef cf39 ccc0 deb9

weight f4 [16]
-0.012748481 0.43749702 -0.07152517 0.26099432 0.007468227 -0.36025968 -0.036333565 0.0007362819
-0.09680313 0.39543507 0.038734794 -0.2713308 -0.044235103 -0.3678374 -0.087757796 0.04107299
00000000: 01df 50bc 9cff df3e ca7b 92bd 0ca1 853e
00000010: 07b8 f43b f573 b8be 81d2 14bd 0b03 413a
00000020: b840 c6bd 7776 ca3e 60a8 1e3d dfeb 8abe
00000030: de2f 35bd 2f55 bcbe 5cba b3bd 273c 283d

bias f4 [16]
-0.07864084 -0.19714372 -0.32527775 -0.46854168 -0.074752636 0.19887282 -0.31239337 -0.12893955
-0.61012846 0.026925575 -0.3118703 -0.56078494 -0.10221796 0.05244828 -0.29517746 -0.18089326
00000000: 730e a1bd 0be0 49be ce8a a6be b2e4 efbe
00000010: e917 99bd 51a5 4b3e 06f2 9fbe bb08 04be
00000020: 6131 1cbf 0693 dc3c 77ad 9fbe 9a8f 0fbf
00000030: a657 d1bd 02d4 563d 8021 97be 153c 39be

running_mean f4 [16]
-0.004830203 -0.51901996 -0.1203497 -0.5541423 -0.024832053 -0.45316494 0.15230496 -0.0048813187
0.62096864 0.31675306 -0.04444006 0.22513674 0.07243688 0.013705827 0.014774398 -0.43010062
00000000: ae46 9ebb 7ede 04bf e779 f6bd 45dc 0dbf
00000010: 976c cbbc 3c05 e8be d5f5 1b3e 78f3 9fbb
00000020: cdf7 1e3f 752d a23e c806 36bd 3f8a 663e
00000030: c959 943d 688e 603c 5110 723c 2636 dcbe

running_var f4 [16]
0.005177582 0.1182052 0.04684009 0.2621908 0.0013291298 0.928286 0.24315478 0.00016589317
0.33387035 1.2946442 0.008731768 0.13609928 0.0066041052 0.3495188 0.018254817 1.0548794
00000000: b5a8 a93b 9115 f23d 65db 3f3d df3d 863e
00000010: 3236 ae3a 27a4 6d3f 91fd 783e 9cf3 2d39
00000020: 0ef1 aa3e e7b6 a53f b00f 0f3c 9c5d 0b3e
00000030: 4067 d83b 21f4 b23e 208b 953c 4a06 873f

weight f4 [1, 16]
-0.19992825 0.0013865934 0.14328533 0.48790595 -0.010317603 0.3626835 -0.15457426 0.04468982
0.37955916 -0.47235695 0.6654626 0.3884267 -0.0012301854 0.28289983 -0.1700362 0.71462864
00000000: feb9 4cbe 5bbe b53a 64b9 123e cfce f93e
00000010: 2a0b 29bc a7b1 b93e b748 1ebe ac0c 373d
00000020: 9455 c23e c5d8 f1be c25b 2a3f dddf c63e
00000030: 2c3e a1ba 3fd8 903e f81d 2ebe e7f1 363f

weight f4 [1, 16]
0.008090264 -0.6778569 -0.05154494 0.08355003 0.013822032 0.40862897 0.08687773 0.023158103
-0.05640641 -0.5888427 -0.20464924 0.07253533 0.0053097857 -0.30606088 0.10197004 0.39196095
00000000: 078d 043c 0888 2dbf c920 53bd 471c ab3d
00000010: ce75 623c d137 d13e f4ec b13d 10b6 bd3c
00000020: 680a 67bd 65be 16bf 928f 51be 678d 943d
00000030: b6fd ad3b 03b4 9cbe abd5 d03d 1baf c83e

weight f4 [16, 2]
-1.15566924e-10 9.3339905e-11 -1.262304e-07 1.3753076e-06 0.42507336 -0.19103932 4.23217e-13 -5.934695e-13
-0.014253106 0.0938216 -1.4621666e-08 -1.2390323e-11 -2.6196162e-08 -2.4714581e-09 0.4638533 -0.6841091
-7.34644e-09 -1.9041654e-08 0.3636698 0.6894952 -6.270882e-07 0.0063791876 -0.41944358 0.79651594
1.0763981e-15 2.1070069e-16 -0.5439552 -0.3975364 -0.003692088 -0.022673987 0.0038784803 -0.06738023
00000000: 6522 feae b241 cd2e f389 07b4 3697 b835
00000010: 37a3 d93e d09f 43be ff3f ee2a fc0b 27ab
00000020: dc85 69bc 8a25 c03d c432 7bb2 0ef9 59ad
00000030: f805 e1b2 5ad6 29b1 2e7e ed3e c621 2fbf
00000040: f86b fcb1 0a91 a3b2 ee32 ba3e c282 303f
00000050: 2c55 28b5 8108 d13b 4fc1 d6be 78e8 4b3f
00000060: 1520 9b26 deeb 7225 a640 0bbf e489 cbbe
00000070: f5f6 71bb ccbe b9bc 1a2e 7e3b a5fe 89bd

bias f4 [16]
2.5369087e-09 3.9368756e-06 3.931634e-05 1.9173151e-11 1.0846688e-05 4.412087e-10 5.2579503e-06 0.00027313246
-6.507958e-08 0.00060896314 7.4071314e-09 0.0001278315 1.2300994e-09 -0.00012712748 2.6466072e-05 -2.1211004e-06
00000000: c555 2e31 8119 8436 99e7 2438 19a6 a82d
00000010: 2cfa 3537 9b8e f22f 736d b036 3833 8f39
00000020: e1c1 8bb3 d3a2 1f3a d181 fe31 820a 0639
00000030: 4610 a930 864d 05b9 7503 de37 3a58 0eb6

weight f4 [16]
0.016924284 -0.00048371087 0.15592626 9.129185e-05 0.025024537 -0.0061135846 -0.012941205 -0.63744175
0.0023826638 0.65016836 -0.0021883752 -0.47719973 9.658198e-05 -0.38089517 0.015327819 0.08411997
00000000: cca4 8a3c 939a fdb9 22ab 1f3e f073 bf38
00000010: 4200 cd3c 7754 c8bb 5907 54bc 622f 23bf
00000020: 7726 1c3b 6f71 263f d86a 0fbb 8653 f4be
00000030: 0e8c ca38 b104 c3be 8821 7b3c 1747 ac3d

bias f4 [16]
-0.030239433 -0.0051501966 0.041039005 -0.04112519 0.0780412 -0.004005901 -0.027842442 0.46716985
-5.596569e-06 0.09813554 -0.056670215 0.70233333 -1.8580772e-06 -0.376336 -0.05168275 -0.19493356
00000000: b0b8 f7bc fbc2 a8bb 8418 283d e372 28bd
00000010: 11d4 9f3d ef43 83bb d515 e4bc e330 ef3e
00000020: 29ca bbb6 49fb c83d 071f 68bd 1ecc 333f
00000030: 0c63 f9b5 1daf c0be 4bb1 53bd aa9c 47be

running_mean f4 [16]
-2.34131e-10 7.743105e-07 0.09200963 -1.6368606e-12 0.043740623 -7.496852e-09 -2.9143655e-07 -0.15138927
-3.548625e-07 0.5167857 0.0033355635 0.22915345 -5.7358673e-11 -0.44808802 -0.0135817705 -0.03316845
00000000: 02b7 80af 36da 4f35 8b6f bc3d 1e5e e6ab
00000010: 5e29 333d 81cb 00b2 bc76 9cb4 ca05 1bbe
00000020: ee83 beb4 114c 043f 7899 5a3b 34a7 6a3e
00000030: 2044 7cae cb6b e5be 1386 5ebc a4db 07bd

running_var f4 [16]
1.6258408e-21 1.8841643e-13 0.0032862439 1.5481101e-26 0.0004437965 1.7952417e-18 7.295918e-18 0.025756966
2.851708e-14 0.02277723 2.0476402e-06 0.033971176 1.9732528e-32 0.00872304 2.4962332e-05 0.0002266948
00000000: abb0 f51c 5723 542a 065e 573b 4151 9914
00000010: 5cad e839 2877 0422 0096 0623 4600 d33c
00000020: f46d 0029 5097 ba3c 316a 0936 5c25 0b3d
00000030: 0fea cc0a 15eb 0e3c 3366 d137 ecb4 6d39

weight f4 [16, 16]
1.6331732e-17 -1.6103213e-15 -1.35929605e-08 7.414233e-18 -8.497891e-08 -8.3737326e-17 -7.291942e-16 -1.4037255e-07
5.1115563e-15 -1.3162239e-07 1.936611e-12 2.3210833e-07 1.1403833e-21 -1.4185845e-07 7.97103e-10 3.3673113e-09
2.053436e-12 -1.60869e-10 0.0007800932 -8.429777e-12 0.0006267805 1.7784375e-12 8.491322e-12 0.064356446
-1.4523372e-11 0.013950259 -4.1357455e-07 0.029901713 1.7070724e-15 0.008389865 -0.00030843122 -2.6667105e-05
6.693876e-24 -1.0632585e-22 -7.718366e-15 -2.4192978e-24 -5.5144063e-16 2.1375302e-24 9.177425e-24 -6.48629e-15
-2.5727278e-22 6.5034025e-15 5.9837713e-19 -3.8134782e-14 -5.270522e-28 4.566361e-15 2.896304e-16 5.168327e-17
-1.1744442e-12 -4.2770258e-12 0.0007758879 -3.9423473e-12 -0.00013032962 9.313892e-13 -7.084676e-13 -0.0030166756
-8.320362e-12 -0.0014783584 5.1939786e-08 0.0026509503 -1.1718503e-17 -0.00064455246 4.5191307e-05 4.84731e-06
-1.15535075e-10 -3.5678047e-09 -0.011891596 2.426983e-10 -0.016952833 -1.3296475e-10 -6.971792e-10 0.0038802584
-2.0826068e-09 -0.54299474 1.0171882e-05 0.41076 -1.5278175e-13 -0.33107483 0.01973886 0.001715806
5.376299e-10 8.1794843e-10 0.29377523 9.20377e-10 0.00509056 2.765631e-11 -7.18383e-10 -0.3333342
2.3278597e-09 -0.5329304 -7.6232286e-06 0.37310997 1.46792e-14 0.15684707 -0.010267895 0.066421136
3.92231e-12 2.9161704e-11 0.00114016 7.0503815e-12 -0.0002077401 1.4998472e-12 4.954219e-12 -0.004464416
-6.5880815e-11 -0.00097381236 4.3918416e-08 0.0055317343 1.3570398e-16 -0.0007326288 0.00010830147 -7.3531104e-05
-4.7686927e-10 0.0010046372 0.07967598 1.2987632e-10 -0.05796875 -2.9814137e-10 7.953688e-10 -0.3340627
4.2525888e-05 0.08100645 6.350216e-05 0.060142603 -7.86019e-14 0.62856674 -0.010329414 -0.037941262
-1.3066622e-09 -5.0507567e-09 -0.22528917 -2.318405e-09 0.0091838995 -7.3301876e-10 -4.7414505e-07 0.64391357
-7.531431e-09 0.24850765 3.0673216e-06 0.11866027 -2.52334e-13 -0.031588327 0.002517836 0.030523553
-2.0836661e-09 -1.8420571e-09 0.063327275 -2.0269362e-09 -0.02924782 7.036313e-10 1.3043805e-09 -0.36236224
-9.475492e-09 -0.65124655 -4.338493e-06 0.3697298 2.7203188e-14 -0.090750925 0.015700914 0.0026199224
-2.4263165e-09 6.943217e-09 -0.15853222 -1.5085888e-09 0.024621952 -5.294487e-10 -6.5403243e-09 0.73532635
2.0358371e-08 0.041477546 -9.911669e-05 -0.56252545 -5.5038378e-14 -0.12695327 -0.040590595 -0.004798966
-1.8700843e-11 -7.5097935e-11 -0.0021192976 1.7246942e-12 0.0017788385 6.941655e-12 -4.4736016e-12 0.009523159
-1.3523455e-10 0.0031365405 -6.440285e-07 -0.010690916 -4.35125e-16 0.0013814975 9.253722e-05 1.9263516e-05
1.0348641e-11 1.7082067e-11 -0.14588788 -9.7831e-12 -0.0006243181 2.6086928e-12 1.2474408e-11 -0.2666794
-7.275544e-11 -0.13979226 5.458282e-07 -0.13976844 -2.2788638e-15 -0.16446887 0.00030745834 7.504468e-05
-3.5575465e-13 1.9107327e-11 0.00031710084 5.23187e-12 -0.00030703086 -2.4420743e-13 -2.921096e-12 -0.0038759788
-4.504453e-11 -0.0025467097 1.0894962e-07 0.00259033 -4.8627606e-16 0.00014181627 -2.4523622e-05 8.345821e-06
1.860469e-14 1.3117116e-12 5.4327986e-05 9.330804e-14 0.00012498688 4.6403382e-14 -1.4090223e-12 0.00011504892
-3.2781137e-12 0.00024399823 2.3238136e-09 -0.00025824987 1.4975447e-17 -9.5280804e-05 5.3088897e-06 1.1185505e-06
1.5348615e-12 1.082042e-11 -1.8644778e-05 1.0966666e-12 -0.00034107658 1.0197998e-12 5.6358425e-12 -0.00063503074
-1.7195894e-11 -0.0013308428 -1.1372174e-07 0.0013460184 -5.472306e-17 -0.00027781082 7.1739364e-06 -5.3078014e-07
00000000: 36a2 9623 5f12 e8a6 7986 69b2 bac4 0823
00000010: a67d b6b3 cb15 c1a4 092d 52a6 50b9 16b4
00000020: c929 b827 1654 0db4 e246 082c 7439 7934
00000030: 7154 ac1c c151 18b4 231b 5b30 5e66 6731
00000040: 6a7f 102c 99e0 30af 2b7f 4c3a 574c 14ad
00000050: 874e 243a f74a fa2b 8461 152d 50cd 833d
00000060: 747f 7fad a18f 643c 4109 deb4 70f4 f43c
00000070: db03 f626 a575 093c f0b4 a1b9 2cb3 dfb7
00000080: 787a 0119 428a 009b ae0a 0ba8 212f 3b98
00000090: 23f1 1ea6 2662 2518 6884 3119 77b1 e9a7
000000a0: 0983 9b9b 4d4f ea27 199c 3021 69be 2ba9
000000b0: 8e07 2792 3f85 a427 e7f5 a625 d658 6e24
000000c0: d049 a5ab 067c 96ac f564 4b3a 82b5 8aac
000000d0: 17a9 08b9 d514 832b 796a 47ab 6bb3 45bb
000000e0: 945f 12ad 7ac5 c1ba 6614 5f33 91bb 2d3b
000000f0: 112b 58a3 2ff7 28ba cc8b 3d38 13a6 a236
00000100: 7710 feae 7c2d 75b1 f8d4 42bc c06c 852f
00000110: abe0 8abc 4032 12af a0a3 3fb0 ef4b 7e3b
00000120: 9b1d 0fb1 b401 0bbf e7a7 2a37 224f d23e
00000130: 5704 2caa a482 a9be 64b3 a13c e5e4 e03a
00000140: 57c8 1330 01d6 6030 b569 963e c6fd 7c30
00000150: b6ce a63b 7944 f32d b677 45b0 c8aa aabe
00000160: 24f8 1f31 206e 08bf 09cb ffb6 4508 bf3e
00000170: ee37 8428 859c 203e ac3a 28bc ce07 883d
00000180: 0701 8a2c 2941 002e 6c71 953a 3110 f82c
00000190: cfd4 59b9 b115 d32b a34f ae2c 3c4a 92bb
000001a0: 9adf 90ae 7147 7fba cfa0 3c33 8d43 b53b
000001b0: bf74 1c25 e30d 40ba e91f e338 b634 9ab8
000001c0: b114 03b0 08ae 833a 292d a33d efcc 0e2f
000001d0: a470 6dbd abe7 a3af 1ba1 5a30 440a abbe
000001e0: d35d 3238 b6e6 a53d 762c 8538 1758 763d
000001f0: e9fe b0a9 c0e9 203f b43c 29bc 4c68 1bbd
00000200: 1796 b3b0 ed8a adb1 34b2 66be d051 1fb1
00000210: 1178 163c 9c7d 49b0 008e feb4 85d7 243f
00000220: 9563 01b2 ca78 7e3e 2fd8 4d36 2804 f33d
00000230: 290d 8eaa c362 01bd 4702 253b 880c fa3c
00000240: 3e30 0fb1 9f2b fdb0 bbb1 813d 3d4a 0bb1
00000250: 2099 efbc a769 4130 cf45 b330 8b87 b9be
00000260: a8c9 22b2 18b8 26bf 5f93 91b6 394d bd3e
00000270: 4806 f528 9fdb b9bd 349f 803c 01b3 2b3b
00000280: 36bc 26b1 2f91 ee31 4556 22be c056 cfb0
00000290: fab3 c93c a488 11b0 4db9 e0b1 593e 3c3f
000002a0: 88e0 ae32 5ce4 293d dedc cfb8 ab01 10bf
000002b0: eede 77a9 0a00 02be 5342 26bd a540 9dbb
000002c0: 8e7e a4ad 6124 a5ae eae3 0abb a8ba f22b
000002d0: ea27 e93a df3c f42c 9f66 9dac 0607 1c3c
000002e0: 24b1 14af 6b8e 4d3b 4de1 2cb5 f428 2fbc
000002f0: 1ed5 faa5 5d13 b53a 8b10 c238 1698 a137
00000300: 230e 362d 6541 962d a263 15be 2a1b 2cad
00000310: 47a9 23ba 0892 372c bd73 5b2d 348a 88be
00000320: acfd 9fae b425 0fbe 0785 1235 751f 0fbe
00000330: 9e35 24a7 876a 28be 5c32 a139 4e61 9d38
00000340: a645 c8aa e011 a82d 8e40 a639 7f14 b82c
00000350: fcf8 a0b9 007a 89aa ca8d 4dac 2204 7ebb
00000360: a21b 46ae b3e6 26bb b0f7 e933 87c2 293b
00000370: d728 0ca6 84b4 1439 14b8 cdb7 0705 0c37
00000380: 7f93 a728 649b b82b 3bde 6338 6c1c d229
00000390: e90e 0339 75fb 5029 614d c6ab 6b46 f138
000003a0: 3fad 66ac c7d9 7f39 f6b0 1f31 b665 87b9
000003b0: c61f 8a23 7ed1 c7b8 0423 b236 1a21 9635
000003c0: 3703 d82b d75a 3e2d 5b67 9cb7 9457 9a2b
000003d0: 86d2 b2b9 2986 8f2b 284b c62c 3178 26ba
000003e0: b641 97ad ad6f aeba 3037 f4b3 e26c b03a
000003f0: 965d 7ca4 23a7 91b9 a5b7 f036 ef7a 0eb5

bias f4 [16]
2.1057635e-06 5.565676e-05 -3.4407221e-06 -2.1511767e-06 0.000110142806 -9.974352e-05 6.388679e-06 -3.7365524e-05
-1.6095019e-05 -3.4897406e-05 0.00012918522 1.4010951e-05 -0.00032607754 -4.645383e-06 -1.7382362e-07 -4.075761e-07
00000000: be50 0d36 fe70 6938 28e7 66b6 ef5c 10b6
00000010: 78fc e638 652d d1b8 565e d636 edb8 1cb8
00000020: ca03 87b7 ce5e 12b8 e575 0739 9410 6b37
00000030: 63f5 aab9 89df 9bb6 46a4 3ab4 d5d0 dab4

weight f4 [16]
-0.00044101317 -0.054309115 8.5545455e-09 0.0043375622 0.21101929 0.094663076 0.009620957 -0.18306838
0.24147053 -0.3061717 -0.506619 -0.0042628003 -0.10447957 -0.019573802 0.005078993 -0.0058807833
00000000: c937 e7b9 3c73 5ebd 4af7 1232 1c22 8e3b
00000010: 7115 583e b7de c13d 38a1 1d3c 4776 3bbe
00000020: 0d44 773e 89c2 9cbe c8b1 01bf f6ae 8bbb
00000030: 63f9 d5bd 3d59 a0bc ae6d a63b 96b3 c0bb

bias f4 [16]
-2.1757187e-05 -0.118841276 -1.2869709e-08 -0.013936832 0.04324744 0.040078085 -0.02587594 -0.18646955
-0.19891316 0.1768903 -0.1164447 -0.07406953 -0.45421734 -0.056486927 -0.008587203 -0.039838105
00000000: 3483 b6b7 0e63 f3bd 9419 5db2 4f57 64bc
00000010: 3a24 313d eb28 243d c8f9 d3bc e0f1 3ebe
00000020: e4af 4bbe bb22 353e 8f7a eebd c4b1 97bd
00000030: 2d8f e8be d65e 67bd 57b1 0cbc 482d 23bd

running_mean f4 [16]
-1.3025145e-07 0.06311197 1.5401085e-07 -0.00040851088 0.10624342 -0.050335757 0.00094014086 -0.08846634
0.5009222 -0.14192022 0.015116442 9.943633e-05 -0.31159288 -0.0018465216 2.0401649e-05 8.1264465e-05
00000000: 3fdb 0bb4 d940 813d 2e5e 2534 672d d6b9
00000010: 2696 d93d de2c 4ebd c973 763a d72d b5bd
00000020: 703c 003f 8953 11be f4aa 773c 7988 d038
00000030: 1a89 9fbe fc06 f2ba 3524 ab37 876c aa38

running_var f4 [16]
1.6971587e-13 0.0007261816 6.9498484e-27 1.2245865e-05 0.1986109 0.31756118 3.0232364e-05 0.035254944
0.15562169 0.40117204 0.44068146 0.00015891594 0.021784378 2.1984644e-05 1.846089e-07 2.7992469e-06
00000000: 4515 3f2a 395d 3e3a eba7 0914 9773 4d37
00000010: a860 4b3e 6197 a23e 829b fd37 7d67 103d
00000020: 4b5b 1f3e 6c66 cd3e 00a1 e13e aca2 2639
00000030: 2775 b23c aa6b b837 e838 4634 b2da 3b36

weight f4 [1, 16]
3.757442e-06 -0.055748362 1.307745e-08 -0.009893432 -0.28868413 0.22281651 -0.018993592 0.31839064
0.36669454 0.46719965 -0.5733594 -0.20154364 0.26330864 0.0043873517 0.0006824892 0.0024728451
00000000: 5d28 7c36 6558 64bd 3cab 6032 1018 22bc
00000010: 68ce 93be 032a 643e 7398 9bbc 1904 a33e
00000020: 63bf bb3e cb34 ef3e aec7 12bf 7561 4ebe
00000030: 64d0 863e c6c3 8f3b 13e9 323a 750f 223b

weight f4 [1, 16]
4.356373e-06 0.00010189658 1.0953e-08 0.00061965414 -0.51081973 0.21508577 -0.005197337 -0.120577775
0.48580366 -0.31671226 -0.847825 0.00020910127 -0.045965057 0.0043590986 0.00069437985 0.0018576308
00000000: f62c 9236 4fb1 d538 ce2b 3c32 4970 223a
00000010: 15c5 02bf 723f 5c3e 6c4e aabb 7bf1 f6bd
00000020: 42bb f83e 1c28 a2be 0f0b 59bf 3242 5b39
00000030: db45 3cbd c5d6 8e3b 0b07 363a bf7b f33a

weight f4 [16, 2]
-3.326119e-05 -0.00018335119 -0.43297508 0.30533177 -0.007124339 -0.33607835 0.18137777 0.20719776
-0.51704943 -0.06903109 -0.004474294 0.004481478 0.24877813 -0.27106458 -1.1427318e-31 -3.290635e-14
3.831326e-18 -1.1184801e-18 2.373e-41 -5.737e-42 0.013971287 0.67934924 -0.049189746 0.4209465
-4.2878137e-19 2.625353e-20 -0.028769651 0.1129879 -0.12285369 -0.37551156 -0.13352081 0.60927016
00000000: ee81 0bb8 f641 40b9 e9ae ddbe 7254 9c3e
00000010: 4a73 e9bb 7612 acbe 18bb 393e a62b 543e
00000020: 5a5d 04bf 2c60 8dbd 199d 92bb 5dd9 923b
00000030: b2bf 7e3e fac8 8abe c755 148c 7032 14a9
00000040: da59 8d22 fc0e a5a1 2642 0000 fe0f 0080
00000050: d3e7 643c d5e9 2d3f 307b 49bd 4d86 d73e
00000060: 9c1b fda0 24f5 f71e 55ae ebbc 3366 e73d
00000070: b79a fbbd 0d43 c0be aeb9 08be 21f9 1b3f

bias f4 [16]
-2.1198364e-05 0.00011223434 -0.00036253242 0.00015285806 0.00013753652 1.5965135e-07 -0.00016579803 0.00084489037
1.10291685e-05 -0.00020193678 -0.00020193569 -8.701643e-06 2.9645922e-10 9.896792e-05 0.00011569769 -0.00025605736
00000000: 24d3 b1b7 5a5f eb38 4712 beb9 8648 2039
00000010: ae37 1039 a16c 2b34 12da 2db9 a27b 5d3a
00000020: eb09 3937 febe 53b9 b3be 53b9 46fd 11b7
00000030: edfa a22f ff8c cf38 b9a2 f238 703f 86b9

weight f4 [16]
-0.000495593 -0.49057084 -0.25058872 -0.21033931 -0.3688547 0.00017107475 -0.27404577 1.4703889e-18
3.7827056e-06 2.2755062e-28 0.49495706 -0.2887834 -5.110332e-07 -0.030693348 0.37297827 0.50883883
00000000: afea 01ba 1a2c fbbe 2a4d 80be 3063 57be
00000010: 86da bcbe 8762 3339 ba4f 8cbe b9fd d821
00000020: 63da 7d36 333a 9011 036b fd3e 6bdb 93be
00000030: ef2d 09b5 9e70 fbbc 02f7 be3e 4343 023f

bias f4 [16]
-0.00023528744 0.36715823 0.3445089 0.061750222 -0.09527976 0.0057099564 0.24738505 -2.0508184e-13
-1.8804683e-07 1.752e-42 -0.5581226 0.5852927 -1.8018075e-07 0.095341995 0.22855426 0.46603477
00000000: 7eb7 76b9 2afc bb3e 7863 b03e cded 7c3d
00000010: 0922 c3bd 961a bb3b 8252 7d3e d1e6 66aa
00000020: ebe9 49b4 e204 0000 1fe1 0ebf bed5 153f
00000030: b577 41b4 aa42 c33d 210a 6a3e 1c9c ee3e

running_mean f4 [16]
-0.00011506086 -0.050261695 -0.17647752 0.18885703 -0.265008 0.00036082612 -0.014987384 -5.2541433e-05
-6.679376e-07 8.752702e-06 0.3542521 0.18441759 -1.7747552e-11 0.044652168 -0.24848408 0.24695775
00000000: d44c f1b8 35df 4dbd 86b6 34be bd63 413e
00000010: 21af 87be 432d bd39 a58d 75bc ef5f 5cb8
00000020: 534c 33b5 92d8 1237 8860 b53e f7d7 3c3e
00000030: ef1b 9cad 31e5 363d 9c72 7ebe 7ee2 7c3e

running_var f4 [16]
1.7502791e-09 0.0061050663 0.005365842 0.0019747848 0.0016740407 1.2934172e-06 0.0040470767 1.2190347e-22
1.9575751e-25 5.96873e-24 0.022077156 0.008039864 4.894436e-34 0.0006370672 0.0064219604 0.017756365
00000000: 798e f030 020d c83b f2d3 af3b 646b 013b
00000010: 7c6b db3a 7a99 ad35 579d 843b 4c5f 131b
00000020: 0856 7216 70e7 e618 27db b43c a2b9 033c
00000030: 42a5 2208 db00 273a 4f6f d23b cc75 913c

weight f4 [16, 16]
-3.4416775e-14 1.5209208e-07 -8.938655e-08 7.086091e-08 6.395234e-08 -8.582151e-11 -1.7866759e-07 -5.1900495e-28
3.1747943e-22 2.86e-41 6.4929324e-09 1.1575688e-07 -6.3335363e-22 1.5781529e-08 1.9422679e-07 -1.686725e-07
-7.13724e-10 -0.0067703356 -0.032916125 -0.0018051397 -0.027872257 -7.817524e-08 -0.0153735895 1.1685096e-23
2.0870154e-17 2.4636e-41 -0.0048410925 0.007785959 1.1024562e-16 4.5756493e-05 -0.0030433147 -0.058633827
-4.822388e-11 0.016927889 -0.0009589561 0.00012989275 -0.001054364 -1.1358781e-05 -0.0005671404 8.237106e-24
5.872133e-18 -3.7548e-41 -0.00016407135 0.0021840371 -4.8639945e-18 0.00049276394 0.0025645837 -0.0032775733
-2.6706914e-12 2.6484606e-05 -8.031767e-06 5.649214e-06 3.981065e-05 -3.99567e-09 -1.8647792e-05 -1.3984424e-25
-1.1494687e-19 2.8945e-41 1.7836229e-06 1.1185521e-05 -1.4519384e-19 3.4515142e-06 3.7666803e-05 -1.8633371e-05
-8.620223e-10 0.00074053986 -0.0016925097 0.0003295446 -0.00087442173 -2.401532e-07 -0.001398359 -1.10386435e-23
-3.9550417e-18 2.6419e-41 -0.0014812414 0.0008938226 -2.430744e-17 5.8768524e-05 0.00013732653 -0.0033162986
4.760281e-11 -9.6957156e-05 5.0673123e-05 -5.450006e-05 -0.00016108004 9.4166825e-09 6.5910266e-05 -1.6331616e-25
-1.0431374e-19 -2.13e-41 -1.5850666e-05 -3.5013283e-05 1.845302e-19 -2.356459e-06 -6.115571e-05 0.000117673655
-7.4664285e-07 0.13917498 -0.22691752 -0.016807547 -0.24986647 0.000106439365 -0.10541512 3.205585e-20
6.7588367e-15 -2.9864e-41 -0.47239092 0.37633547 2.2672822e-14 0.012754602 0.041684084 -0.53983915
0.0053446027 0.34886095 -0.20836343 -0.15520711 0.30858818 5.6636818e-05 -0.45257187 -5.30078e-16
3.76938e-16 -1.7605e-41 -0.06352127 0.19199023 2.9474083e-15 0.027183332 -0.0149549935 0.15885657
3.2964422e-07 -0.41969785 -0.013320706 0.006790622 -0.276782 0.0006681087 0.22990963 1.9453295e-15
-7.6153115e-15 2.5668e-41 0.7590538 -0.29361007 -7.2924116e-15 -0.051312126 0.13023496 0.55948377
-3.794845e-21 3.4604879e-15 -1.5894568e-14 7.561666e-15 -5.97852e-14 -3.8777334e-17 -9.516423e-14 1.8947752e-34
8.4926216e-29 -4.013e-42 -2.871748e-14 1.0707975e-14 7.932624e-29 6.636311e-15 1.278291e-13 -5.3895158e-14
1.1970033e-22 -2.7945766e-15 8.299321e-16 -5.951863e-17 -3.4031344e-15 3.0221858e-20 4.508162e-17 7.900771e-37
-7.05689e-31 2.1796e-41 -3.0864809e-16 -7.6886536e-16 2.6969711e-30 -2.8863336e-17 -3.0715903e-15 -6.580536e-16
3.2472625e-12 5.8201447e-05 -1.7689415e-05 1.574579e-05 4.579769e-05 1.3213157e-09 -9.691694e-06 4.7249597e-26
-9.5359365e-20 3.356e-42 1.6337699e-06 2.1580146e-05 -2.1755013e-20 5.76143e-07 2.2479373e-05 -3.88981e-05
-1.6446309e-20 -1.587428e-13 -1.1935876e-13 -4.9064543e-14 -4.5327e-13 2.5575427e-16 2.3589188e-14 -1.166378e-34
3.6487046e-28 -1.4844e-41 2.2004098e-14 1.2365472e-14 -1.317772e-28 -8.857017e-15 -1.2966269e-12 3.3778065e-14
1.6304756e-06 -0.29313713 0.35496593 -0.29963887 -0.11797761 0.0006131456 0.09268696 1.6943964e-19
7.245923e-15 1.84e-41 -0.11855176 -0.49028155 7.4651866e-14 -0.057677183 -0.49991816 0.16484132
-2.4339274e-08 -0.008990664 0.007804105 -0.0050171786 0.043410197 3.6932395e-06 -0.00023416472 2.658904e-22
-5.361895e-18 8.779e-42 0.00073784613 -0.005810884 1.1594998e-16 0.00042557158 -0.008199998 0.010258342
-1.12517586e-10 -0.0752905 0.015321008 0.016172225 -0.02797998 -7.813625e-08 0.006609747 5.1774366e-25
1.8643979e-19 -1.6251e-41 0.02518055 -0.020259062 -9.65164e-19 1.0240906e-05 -0.055520136 0.039863534
00000000: d7ff 1aa9 c14e 2334 c7f4 bfb3 322c 9833
00000010: 2c56 8933 37b9 bcae c6d7 3fb4 af7a 2492
00000020: 90e7 bf1b ba4f 0000 7018 df31 0596 f833
00000030: 5d6b 3f9c f38f 8732 a78c 5034 581c 35b4
00000040: dd2f 44b0 b1d9 ddbb 0fd3 06bd 709a ecba
00000050: 5c54 e4bc 4be1 a7b3 82e1 7bbc cb05 6219
00000060: 427e c023 ad44 0000 07a2 9ebb 5c21 ff3b
00000070: 8735 fe24 a9ea 3f38 5972 47bb 062a 70bd
00000080: 4317 54ae 5bac 8a3c 7462 7bba d233 0839
00000090: 9632 8aba 9891 3eb7 26ac 14ba 2c54 1f19
000000a0: baa4 d822 ab68 0080 910a 2cb9 1022 0f3b
000000b0: 2173 b3a2 d42c 013a 9312 283b 8ecc 56bb
000000c0: e6ee 3bac 422b de37 2dc0 06b7 618e bd36
000000d0: 5cfa 2638 494a 89b1 d46d 9cb7 691e 2d96
000000e0: 8fb4 07a0 b050 0000 d164 ef35 72a9 3b37
000000f0: 256a 2ba0 90a0 6736 6cfc 1d38 dc4e 9cb7
00000100: 6df3 6cb0 ca20 423a 34d7 ddba bac6 ac39
00000110: 7339 65ba 68ee 80b4 2449 b7ba b784 5599
00000120: 50ea 91a2 a549 0000 3726 c2ba 6b4f 6a3a
00000130: 5232 e0a3 397e 7638 4fff 0f39 4256 59bb
00000140: 005c 512e 7a55 cbb8 da89 5438 fe96 64b8
00000150: 98e7 28b9 02c7 2132 4e39 8a38 f52c 4a96
00000160: c94d f69f 603b 0080 0cf7 84b7 3adb 12b8
00000170: d5da 5920 a823 1eb6 b940 80b8 90c7 f638
00000180: e86c 48b5 e383 0e3e 115d 68be fbaf 89bc
00000190: ffdc 7fbe 3338 df38 e2e3 d7bd 2561 171f
000001a0: 4483 f327 4053 0080 39dd f1be 0baf c03e
000001b0: f837 cc28 aef8 503c eebc 2a3d e632 0abf
000001c0: c721 af3b e79d b23e 395d 55be 9dee 1ebe
000001d0: 45ff 9d3e 528d 6d38 80b7 e7be dac8 18a6
000001e0: 3b4a d925 1331 0080 7117 82bd 1699 443e
000001f0: 1662 5427 94af de3c ca05 75bc 4cab 223e
00000200: f5f9 b034 a3e2 d6be 173f 5abc de83 de3b
00000210: 5fb6 8dbe 0424 2f3a 6e6d 6b3e ff2c 0c27
00000220: 6d2f 09a8 8d47 0000 5a51 423f 0f54 96be
00000230: 505e 03a8 aa2c 52bd 505c 053e 543a 0f3f
00000240: 7d5d 8f9d bc5a 7927 612a 8fa8 0838 0828
00000250: d29f 86a9 32d4 32a4 724a d6a9 dcdb 7b07
00000260: 4450 d710 300b 0080 0055 01a9 d2e5 4028
00000270: ac1d c910 2a19 ef27 3bec 0f2a e3b8 72a9
00000280: 75b5 101b d75e 49a7 2e36 6f26 993d 89a4
00000290: c038 75a7 fcb7 0e1f fce6 4f24 b66c 8603
000002a0: 5902 658d c23c 0000 6bec b1a5 409c 5da6
000002b0: e6cd 5a0e d01b 05a4 d754 5da7 c9ab 3da6
000002c0: 7b81 642c 541d 7438 bb63 94b7 d415 8437
000002d0: e516 4038 aa99 b530 8299 22b7 fbf7 6915
000002e0: 3329 e19f 5b09 0000 e847 db35 0307 b537
000002f0: 6578 cd9e 3fa8 1a35 1692 bc37 8426 23b8
00000300: bc54 9b9e 7fba 32aa d262 06aa 91f7 5ca9
00000310: 172b ffaa ab6e 9325 f778 d428 c909 1b87
00000320: 9e43 e711 6129 0080 ff31 c628 adc1 5e28
00000330: 250c 2791 c88d 1fa8 e87b b6ab 751f 1829
00000340: b7d6 da35 1216 96be 18be b53e 446a 99be
00000350: 3f9e f1bd 81bb 203a a9d2 bd3d fd09 4820
00000360: ec87 0228 4b33 0000 44cb f2bd 2f06 fbbe
00000370: df19 a829 e93e 6cbd 46f5 ffbe 2acc 283e
00000380: a112 d1b2 944d 13bc 94b9 ff3b 2567 a4bb
00000390: e4ce 313d 5fd9 7736 1d8a 75b9 8cb8 a01b
000003a0: abd1 c5a2 7918 0000 046c 413a 3a69 bebb
000003b0: 65ae 0525 401f df39 4959 06bc 9b12 283c
000003c0: c56d f7ae e831 9abd f704 7b3c 9d7b 843c
000003d0: 4536 e5bc dccb a7b3 9496 d83b e13b 2017
000003e0: f81b 5c20 4d2d 0080 7147 ce3c 55f6 a5bc
000003f0: dd6e 8ea1 5bd0 2b37 1569 63bd f247 233d

bias f4 [16]
-7.8495657e-07 -0.00028548113 1.5461188e-05 2.2833814e-05 1.2886265e-07 -0.00072256074 -0.00013801239 5.5316228e-05
-1.3113137e-07 -0.00014035271 3.051434e-11 0.00050807494 -2.1377845e-10 -6.316491e-05 -6.065251e-06 2.1311426e-07
00000000: ceb5 52b5 a1ac 95b9 a6b2 8137 3e8b bf37
00000010: 7f5d 0a34 3b6a 3dba 6bb7 10b9 5903 6838
00000020: 1ecd 0cb4 a52b 13b9 1834 062e 5530 053a
00000030: 490d 6baf 6777 84b8 1c84 cbb6 67d4 6434

weight f4 [16]
-0.00013816965 -0.014990431 0.0119597195 -0.0008820178 -0.011940164 0.0018558754 -0.24207102 -0.36615533
0.46300742 -1.8135042e-11 2.25091e-08 -0.0037188474 1.346337e-08 -0.47230735 -0.06392891 0.018639434
00000000: a2e1 10b9 6d9a 75bc b3f2 433c 3637 67ba
00000010: ada0 43bc d840 f33a 77e1 77be b678 bbbe
00000020: 4f0f ed3e 7c84 9fad 095a c132 e8b7 73bb
00000030: 874c 6732 45d2 f1be 29ed 82bd bab1 983c

bias f4 [16]
-0.00018278726 -0.19679663 -0.032138817 -0.0017236378 -0.02273988 -0.0035253405 0.18274361 -0.14994676
0.054606512 -2.4710971e-05 -9.924239e-10 -0.002499121 -1.11573286e-07 -0.029624574 -0.13905679 -0.039265305
00000000: 95aa 3fb9 0e85 49be fea3 03bd b0eb e1ba
00000010: fc48 babc 6609 67bb 2421 3b3e a58b 19be
00000020: 14ab 5f3d 684a cfb7 d065 88b0 4bc8 23bb
00000030: 109a efb3 3caf f2bc e764 0ebe a8d4 20bd

running_mean f4 [16]
5.4361625e-08 -0.048478954 0.007349756 3.4220634e-06 -0.0019473496 5.2267605e-05 -0.13947655 0.17799586
0.021113873 1.44575315e-05 -1.9083812e-12 -6.1870733e-06 9.913916e-12 -0.38700438 0.0028390954 -0.03491545
00000000: 3d7b 6933 de91 46bd 39d6 f03b 9aa6 6536
00000010: 363e ffba ea39 5b38 f1d2 0ebe 8c44 363e
00000020: 00f7 ac3c a08e 7237 574a 06ac 8e9a cfb6
00000030: 4f68 2e2d 7025 c6be 1e10 3a3b 8103 0fbd

running_var f4 [16]
2.091956e-14 0.001642836 9.486409e-05 9.083132e-10 7.80687e-06 2.0521629e-08 0.2718372 0.070812315
0.2595494 8.5363005e-23 5.9821878e-30 4.6324193e-09 4.4045975e-25 0.34014493 0.00048032613 0.005124672
00000000: 396d bc28 6e54 d73a c5f1 c638 dcac 7930
00000010: 40fa 0237 8a47 b032 3f2e 8b3e 0c06 913d
00000020: a9e3 843e 2465 ce1a 97aa f20e 312b 9f31
00000030: d150 0817 7a27 ae3e 48d4 fb39 ddec a73b

weight f4 [1, 16]
-1.7277498e-05 -0.21502848 -0.0030451808 -0.00040096504 -0.0036257552 -0.0007607253 0.36967382 -0.05862369
0.40884638 -2.1529007e-05 -4.986005e-10 -0.00011989799 -1.0357572e-07 -0.4665059 -0.020215802 0.00029369595
00000000: 25ef 90b7 6d30 5cbe a891 47bb 9e38 d2b9
00000010: 149e 6dbb 696b 47ba e345 bd3e 651f 70bd
00000020: 5054 d13e 3199 b4b7 e40d 09b0 be71 fbb8
00000030: 5b6d deb3 dcd9 eebe 9c9b a5bc 34fb 9939

weight f4 [1, 16]
-3.3163436e-05 -0.004811768 -0.0063302824 -0.0006776796 -0.002236945 -0.0014047883 -0.6366287 0.8224492
0.58468485 -7.3054407e-06 -4.9000713e-11 -0.0003308178 8.6916e-08 0.23777205 0.052706975 -0.033689722
00000000: f818 0bb8 09ac 9dbb 426e cfbb 4fa6 31ba
00000010: b699 12bb e020 b8ba 19fa 22bf 088c 523f
00000020: e8ad 153f 4221 f5b6 e681 57ae 9d71 adb9
00000030: 94a6 ba33 847a 733e 45e3 573d 3cfe 09bd

weight f4 [16, 2]
-0.00813091 -0.0017413312 -0.3013859 -0.4874236 -1.3347546e-12 2.9612118e-12 -5.4373898e-11 8.600083e-05
-2.375212e-05 -3.025569e-05 -0.28528434 0.3469537 -0.021024777 -0.4411687 0.63182414 -0.2569789
2.0491386e-06 -5.361228e-20 -0.000411019 -0.007894341 9.137131e-05 0.01130069 -0.12906678 0.6752512
-1.19984e-12 3.958984e-09 0.29382232 -0.3407523 5.432031e-33 -2.392882e-32 0.30006897 0.4369081
00000000: 8237 05bc 613d e4ba 414f 9abe 968f f9be
00000010: 9ad9 bbab 7360 502c 9123 6fae 585b b438
00000020: 4a3f c7b7 99cd fdb7 ca10 92be eaa3 b13e
00000030: 273c acbc dde0 e1be 3abf 213f bd92 83be
00000040: ef83 0936 452d 7d9f 097e d7b9 4457 01bc
00000050: 999e bf38 8726 393c 152a 04be 43dd 2c3f
00000060: cbdc a8ab 9707 8831 e16f 963e 1677 aebe
00000070: 43a3 e109 b77d f88a a4a2 993e 6bb2 df3e

bias f4 [16]
-2.8064134e-05 6.816379e-05 -0.00015518673 -3.239429e-11 -4.3321706e-06 -0.00013400693 -0.0005732897 -0.00012170995
-7.6680834e-07 -1.3831193e-06 -3.6509e-06 -0.000551989 1.7643922e-08 -0.00030934598 -8.3836824e-08 0.00013423004
00000000: 456b ebb7 28f3 8e38 9fb9 22b9 ba78 0eae
00000010: 105d 91b6 3684 0cb9 d248 16ba 883e ffb8
00000020: abd6 4db5 9ea3 b9b5 fc01 75b6 5bb3 10ba
00000030: 658f 9732 b72f a2b9 c809 b4b3 1ac0 0c39

weight f4 [16]
0.014361914 0.7026892 -2.9922203e-06 2.4761361e-08 -0.0010319373 -0.47296572 -0.3709932 0.5920281
-1.4270727e-09 0.0037464628 -0.001737162 0.76908934 -0.00052022596 0.22767653 -1.8036665e-12 0.3132796
00000000: 3c4e 6b3c 70e3 333f f4cd 48b6 cfb2 d432
00000010: 1242 87ba 9028 f2be d2f2 bdbe 278f 173f
00000020: a822 c4b0 3787 753b 7cb1 e3ba 0ae3 443f
00000030: c65f 08ba 0924 693e efd7 fdab 2f66 a03e

bias f4 [16]
-0.024239913 0.123968676 2.867202e-06 -1.6081601e-07 -0.000402663 0.5262314 -0.21191892 0.10408993
-8.480378e-09 -0.0037912563 -0.00292826 -0.42868733 -0.00042911837 0.25272885 -9.800146e-16 -0.41634285
00000000: c892 c6bc 4ae3 fd3d 286a 4036 c5ac 2cb4
00000010: 831c d3b9 1ab7 063f 4601 59be 1a2d d53d
00000020: 19b1 11b2 ba76 78bb 0de8 3fbb e87c dbbe
00000030: 4bfb e0b9 ad65 813e 283c 8da6 e42a d5be

running_mean f4 [16]
-0.004649488 -0.3806775 7.8833455e-06 4.548737e-05 -2.7325385e-05 0.046369817 -0.22978121 0.1508462
1.0347859e-06 -0.0042482005 0.0058053215 0.27198714 1.4333529e-09 -0.04043684 3.809023e-09 0.35416064
00000000: bb5a 98bb 29e8 c2be b642 0437 b1c9 3e38
00000010: d138 e5b7 47ee 3d3d c44b 6bbe 6d77 1a3e
00000020: f9e2 8a35 7d34 8bbb 913a be3b e641 8b3e
00000030: 9fff c430 1aa1 25bd 85e0 8231 8b54 b53e

running_var f4 [16]
5.020778e-07 0.011431507 2.6332745e-23 4.0981984e-10 5.0289575e-11 0.007280135 0.009782991 0.007118275
3.1272524e-14 3.2261776e-06 6.5663326e-06 0.022961438 1.0076782e-18 0.0071483785 2.4305027e-31 0.00956651
00000000: 86c6 0635 374b 3b3c b8ac fe19 044d e12f
00000010: 072d 5d2e 338e ee3b d748 203c 6b40 e93b
00000020: c4d6 0c29 4f81 5836 5e54 dc36 a019 bc3c
00000030: 02b5 9421 f23c ea3b a7bf 9d0c dabc 1c3c

weight f4 [16, 16]
2.2630679e-11 5.885728e-07 -2.60146e-18 1.8127895e-18 -2.1228621e-14 -5.4114406e-07 -6.0219364e-08 -4.8007473e-07
1.0182687e-21 -2.0660038e-11 5.3883816e-12 -1.8560408e-07 3.3122533e-18 3.3405232e-08 9.568486e-30 -3.595912e-08
-3.2282668e-12 4.8719965e-08 -1.5479659e-19 -1.626835e-19 2.1080136e-15 -2.8007486e-08 2.1693795e-08 -8.313193e-08
4.7401066e-24 2.0146976e-11 1.248355e-12 4.263256e-08 -8.29732e-19 -2.2151134e-08 8.192954e-33 1.4286326e-08
-4.2558613e-06 0.0044836323 2.9266332e-17 -3.321737e-16 1.2249142e-14 0.0026729717 -0.0031534415 0.06702672
-5.1824126e-20 4.7154167e-08 -9.166358e-08 -0.033174798 -4.0111002e-16 -0.00048333404 3.004492e-27 -0.03030112
3.208547e-12 1.7740934e-09 -5.427217e-20 2.0627084e-18 9.234882e-16 1.0477412e-08 -6.717464e-09 1.7065485e-08
3.7564547e-22 -1.6535221e-11 -3.1861523e-12 -1.3768948e-08 -1.2321146e-18 5.0621916e-09 5.0455997e-32 -2.2020862e-08
6.3446106e-12 4.0323858e-08 -1.5386938e-18 4.1402305e-18 3.201871e-15 2.7582937e-08 -2.314093e-08 -4.2113157e-08
2.1029651e-21 -5.2276707e-11 -2.0227637e-11 -3.435926e-08 -1.6806672e-18 1.8945638e-08 1.752203e-30 -1.0462951e-08
-0.0056660357 -0.36553997 5.1608818e-11 4.839789e-12 -1.33044e-07 -0.38305664 0.015268761 -0.31140864
3.2079848e-14 -0.0002444729 0.0014463889 0.12265594 -1.2828587e-10 -0.24343872 4.598677e-23 -0.10759477
-6.427699e-08 -0.0010844093 -7.714703e-16 -1.0932394e-13 -3.0891995e-10 -0.0022610691 0.00079470465 -0.00211164
-1.7361791e-17 -1.3887714e-07 -1.11280606e-07 0.0017017999 1.2852558e-13 -0.00086011115 -1.5523538e-25 0.00037187128
-7.92524e-14 7.4963186e-10 6.394162e-21 -4.5988605e-21 5.423553e-17 -1.190484e-09 7.329798e-10 -1.608068e-09
-3.1110816e-24 1.0934114e-12 6.9475204e-13 1.3097813e-09 -1.27065435e-20 1.1406281e-09 3.837075e-32 4.1280482e-10
3.72462e-05 0.20092292 -1.2330928e-12 -5.854936e-12 9.356694e-09 0.090196244 -0.11186436 -0.17353143
4.48973e-15 -5.9413927e-05 -9.098262e-06 -0.23099415 -9.134279e-13 0.037644085 2.23219e-24 -0.05526086
-1.2671648e-13 -3.677676e-09 4.017856e-21 -3.1415746e-21 2.5637469e-17 -2.3732486e-08 8.751871e-11 5.522471e-05
-4.027224e-23 3.5962485e-14 -2.2617479e-14 -1.947182e-09 2.8598e-20 -9.470227e-10 -8.706629e-32 3.6804063e-06
0.016672004 0.23076274 -9.248756e-10 8.265063e-13 -6.010767e-06 0.093211986 -0.39228728 -0.40887195
1.2171258e-14 0.00070756994 0.00081953866 -0.84450114 3.2536873e-11 0.06749817 2.1774752e-22 -0.34994945
-2.5169282e-05 -0.10506835 -2.1090277e-11 -2.2633545e-10 3.521842e-07 -0.55851865 0.22680607 -0.4879236
9.171656e-14 -4.058815e-05 -0.0001901791 0.00920123 -3.749325e-12 -0.1906547 1.339685e-22 0.01956534
-9.586389e-15 -4.362993e-11 1.354455e-22 -1.01158385e-22 -5.106547e-18 2.0326853e-11 6.9098386e-12 -9.3034455e-11
8.244611e-26 -3.3772596e-14 8.395002e-16 3.491242e-11 -2.0577457e-22 2.4936166e-11 1.24751625e-33 1.0834713e-11
0.001302624 0.51598114 7.2206876e-12 -1.2649594e-11 1.3969324e-07 0.17189753 0.049921267 0.34056178
1.2048237e-14 0.00042894905 0.001864608 -0.28907526 -1.5597938e-11 0.13122928 -6.36065e-23 0.06938747
-0.0019530703 0.25060856 -2.3397403e-13 -2.8160299e-11 -0.0009078515 0.34590736 -0.09708503 -0.43408385
-6.243609e-12 -0.000704398 -7.1089894e-06 -0.4484378 -3.228267e-12 0.2063475 2.1737517e-23 0.0961235
-1.7201408e-09 0.00036462813 -7.0207956e-16 -1.7416652e-14 -2.2629178e-11 2.1189813e-05 0.000107013955 -0.00035461117
1.7127269e-18 1.2510507e-07 9.461353e-08 9.2864546e-05 1.5216586e-14 -5.4092096e-05 2.2295447e-27 0.000102227146
00000000: c20f c72d 6afe 1d35 31f4 3fa2 a0c2 0522
00000010: de35 bfa8 2343 11b5 f251 81b3 7cde 00b5
00000020: 5de0 991c 45ba b5ad 3a96 bd2c 764a 47b4
00000030: b266 7422 7179 0f33 6b12 420f 7871 1ab3
00000040: 492b 63ac 2b40 5133 66c0 36a0 1210 40a0
00000050: fde5 1727 1d95 f0b2 2959 ba32 4386 b2b3
00000060: be5f b718 f536 b12d bbb0 af2b ff1a 3733
00000070: c7e4 74a1 dc46 beb2 3729 2a0a ed6f 7532
00000080: 92cd 8eb6 6feb 923b 96f7 0624 307c bfa5
00000090: 32a9 5c28 062d 2f3b f8a9 4ebb 4e45 893d
000000a0: 86bb 749f 8e86 4a33 96d8 c4b3 4ce2 07bd
000000b0: 6439 e7a5 ff67 fdb9 560a 6e13 0e3a f8bc
000000c0: 0bc8 612c 5dd4 f330 8425 809f 7633 1822
000000d0: b316 8526 2500 3432 70cf e6b1 6697 9232
000000e0: 5210 e31b 0272 91ad 9e34 60ac 798c 6cb2
000000f0: f9d3 b5a1 82ef ad31 c3fd 820b 6328 bdb2
00000100: 2c3b df2c 8d30 2d33 3512 e3a1 5fbf 9822
00000110: 18b8 6627 85ef ec32 71c7 c6b2 e8df 34b3
00000120: 43e5 1e1d 57ea 65ae 97ec b1ad 6892 13b3
00000130: d005 f8a1 e6bd a232 d527 0e0e 8cc0 33b2
00000140: 27aa b9bb 0e28 bbbe 5dfa 622e f248 aa2c
00000150: dbda 0eb4 0020 c4be d329 7a3c f470 9fbe
00000160: 8c79 1029 992c 80b9 c294 bd3a 0a33 fb3d
00000170: 430d 0daf 0048 79be dd60 5e1a a65a dcbd
00000180: a608 8ab3 bd22 8eba 765c 5ea6 f62c f6a9
00000190: 9ed4 a9af 722e 14bb ba53 503a 7163 0abb
000001a0: 5f22 a0a3 421e 15b4 29f9 eeb3 ee0e df3a
000001b0: fab4 102a 1579 61ba 0e2c 4096 b8f7 c239
000001c0: e675 b2a9 a70e 4e30 8a90 f11d 73bd ad9d
000001d0: 031e 7a24 6f9e a3b0 de7a 4930 dd02 ddb0
000001e0: 52b5 7098 4ce2 992b 298e 432b d503 b430
000001f0: 1305 709e 49c4 9c30 7a3b 470b 1df1 e22f
00000200: cd38 1c38 bdbe 4d3e da8a adab 9300 ceac
00000210: 2dbf 2032 cfb8 b83d 2419 e5bd 39b2 31be
00000220: 73c2 a127 3833 79b8 bda4 18b7 bb89 6cbe
00000230: b58d 80ab af30 1a3d 14b5 2c18 3659 62bd
00000240: 8aab 0eaa 5cba 7cb1 52ca 971d e45e 6d9d
00000250: c376 ec23 4adc cbb2 a774 c02e 15a1 6738
00000260: 9ebe 429a ecf5 2129 5bb8 cba8 30cf 05b1
00000270: dc0c 071f 6628 82b0 7a09 e28b e6fc 7636
00000280: ba93 883c 114d 6c3e 563a 7eb0 0ea4 682b
00000290: 18b0 c9b6 ede5 be3d e1d9 c8be aa57 d1be
000002a0: 0542 5b28 377c 393a 4fd6 563a 3a31 58bf
000002b0: 4319 0f2e 7b3c 8a3d cc9e 831b 932c b3be
000002c0: 9f22 d3b7 132e d7bd 1583 b9ad c4db 78af
000002d0: d413 bd34 14fb 0ebf da3f 683e 1fd1 f9be
000002e0: ff86 ce29 323d 2ab8 d06a 47b9 c1c0 163c
000002f0: ebea 83ac fc3a 43be 3ef5 211b 7e47 a03c
00000300: 6bb1 2ca8 efe2 3fae 5abe 231b 0296 f49a
00000310: f965 bca2 01cc b22d 4b1e f32c be95 ccae
00000320: 6e20 cc15 2719 18a9 2ef8 7126 e48b 192e
00000330: 25c4 789b 4157 db2d 7947 cf08 369b 3e2d
00000340: cfbc aa3a 5717 043f 2c0e fe2c b588 5ead
00000350: 96fe 1534 e805 303e 3e7a 4c3d 1d5e ae3e
00000360: b00a 5928 91e4 e039 dd65 f43a ac01 94be
00000370: 6f33 89ad f860 063e 84ca 999a 051b 8e3d
00000380: 2afe ffba c44f 803e 36b7 83aa 5bb3 f7ad
00000390: e2fc 6dba c51a b13e 84d4 c6bd 3d40 debe
000003a0: 6ead dbac 59a7 38ba c189 eeb6 a499 e5be
000003b0: 4a2b 63ac c24c 533e 7c3b d219 66dc c43d
000003c0: 136a ecb0 8f2b bf39 545c 4aa6 11e0 9ca8
000003d0: 610c c7ad c7c0 b137 ae6c e038 1beb b9b9
000003e0: fec0 fc21 9f54 0634 572e cb33 46c0 c238
000003f0: 0f0f 8928 f2e0 62b8 8aa4 3013 c862 d638

bias f4 [16]
-2.4607785e-10 1.6020147e-06 0.00057442876 0.00020194022 -5.5916036e-09 0.00011337624 -1.2297351e-06 5.5623434e-07
-0.00010602886 9.394247e-05 -0.00023721003 -6.985283e-05 2.7439047e-12 6.8247165e-05 0.00019846635 8.192313e-05
00000000: 6148 87af ce04 d735 4395 163a eabf 5339
00000010: 4420 c0b1 68c4 ed38 600d a5b5 2250 1535
00000020: d05b deb8 fb02 c538 95bb 78b9 f47d 92b8
00000030: cb15 412c eb1f 8f38 681b 5039 25ce ab38

weight f4 [16]
1.0490674e-06 1.6829621e-07 0.0013897817 -5.7370467e-08 5.233193e-07 -0.35106003 0.0052437494 1.2047867e-08
0.053458508 -1.7136293e-07 -0.32544664 0.35727704 1.2328857e-05 0.25321737 0.3489707 -9.138386e-05
00000000: aecd 8c35 e9b4 3434 5629 b63a 7f67 76b3
00000010: 3a7a 0c35 24be b3be c2d3 ab3b 14fb 4e32
00000020: 4ff7 5a3d e2ff 37b4 f1a0 a6be 04ed b63e
00000030: 0ad8 4e37 b5a5 813e 4aac b23e 56a5 bfb8

bias f4 [16]
-0.031647205 -0.0027116768 -0.018026393 -0.0016807177 -0.0018090822 0.1151204 -0.023597471 -0.0010091354
0.05345078 -0.0005367583 0.022639489 0.22794038 -3.016375e-08 0.10368388 0.26193014 -0.007900541
00000000: 80a0 01bd 63b6 31bb 16ac 93bc 874b dcba
00000010: ba1e edba 3fc4 eb3d 7c4f c1bc f744 84ba
00000020: 35ef 5a3d 3db5 0cba 7376 b93c 3469 693e
00000030: 658d 01b3 3758 d43d b51b 863e 4571 01bc

running_mean f4 [16]
-2.6673192e-07 -7.1423514e-08 0.01767193 -9.093502e-06 2.7408388e-08 -0.4853732 -0.0023713976 -4.4539338e-08
0.036870163 1.1663656e-05 -0.12742412 -0.5291891 -1.0276752e-10 0.37922445 0.13354847 -3.093863e-05
00000000: 5b33 8fb4 7e61 99b3 b9c4 903c 4b90 18b7
00000010: af6f eb32 d682 f8be 7369 1bbb 854b 3fb3
00000020: 2b05 173d 05af 4337 787b 02be f078 07bf
00000030: f8fc e1ae b529 c23e eec0 083e 1ac4 01b8

running_var f4 [16]
3.7542587e-14 2.7571e-15 0.0010918219 6.143958e-16 1.940639e-15 0.23077424 8.360933e-06 3.5671453e-18
0.023075802 4.3303527e-10 0.1261684 0.2556191 1.5490201e-20 0.211747 0.084809296 2.4394081e-08
00000000: a813 2929 85ab 4627 771b 8f3a 6916 3126
00000010: 79d6 0b27 1550 6c3e ef45 0c37 bc9a 8322
00000020: 7709 bd3c 4c10 ee2f 4a32 013e 82e0 823e
00000030: 024d 921e 35d4 583e 7fb0 ad3d 278b d132

weight f4 [1, 16]
-0.0009185558 0.00356461 0.007191856 0.00315856 -0.00093659054 -0.31019664 0.0070450497 0.0013661206
-0.023961535 4.126392e-05 0.47686195 0.31393376 6.8353434e-09 -0.23265234 -0.08467884 -0.017465958
00000000: 3ccb 70ba 3b9c 693b a9a9 eb3b d8ff 4e3b
00000010: 8785 75ba 18d2 9ebe 29da e63b 670f b33a
00000020: fb4a c4bc cc12 2d38 4027 f43e edbb a03e
00000030: 51dc ea31 6a3c 6ebe 1a6c adbd c514 8fbc

weight f4 [1, 16]
0.003449426 0.00035104802 0.03853476 0.00018957022 0.00021660994 0.2906054 0.0016627889 0.00013677326
-0.31723452 7.813651e-05 -0.570449 0.42371404 2.0941506e-09 -0.2784649 -0.7346231 0.0006150644
00000000: c40f 623b de0c b839 a0d6 1d3d 5ec7 4639
00000010: ca21 6339 3bca 943e f0f1 d93a cb6a 0f39
00000020: 906c a2be 38dd a338 f208 12bf 0cf1 d83e
00000030: b0e8 0f31 f492 8ebe 4210 3cbf 463c 213a

weight f4 [16, 2]
0.3139072 0.16448379 0.47414768 0.7611058 -0.08872432 0.31327635 -0.0018981305 -0.23787682
-3.235652e-11 1.5945193e-16 -0.10510197 -0.38073143 0.00045491222 -0.034198184 1.7417524e-10 9.1340595e-11
0.21361642 0.47413564 0.031689957 0.29890418 0.0871979 0.46293244 0.2936236 0.32257307
-0.62912065 -0.69182396 -0.5584378 0.21112737 -0.06765501 0.42427894 -0.13706005 0.45093933
00000000: 72b8 a03e 706e 283e 7cc3 f23e d4d7 423f
00000010: 19b5 b5bd c265 a03e b1ca f8ba fb95 73be
00000020: 344e 0eae e7d5 3725 b43f d7bd 3bef c2be
00000030: 4981 ee39 6513 0cbd f981 3f2f 2fdc c82e
00000040: 43be 5a3e e8c1 f23e 54cd 013d f809 993e
00000050: d094 b23d 7b05 ed3e d555 963e 4c28 a53e
00000060: 0d0e 21bf 601b 31bf c8f5 0ebf c631 583e
00000070: b68e 8abd 173b d93e 7859 0cbe 85e1 e63e
