checkpoints/swarm_1d/linear/unknown/1-ra/no-constraint/run-1/policy95.pt (torch, 14965 bytes, 14 tensors)

weight f4 [16, 101]
00000000: aafd 492a 4609 8037 2ff6 67a9 4980 b0a9
00000010: 97bf 20b6 b12f 7aa9 038a 3e2c 6e47 9ea9
00000020: c17e e8a9 0afc 0329 f011 dea8 44f2 efa8
00000030: 2a42 ed29 2513 072a cd2e 8b29 3273 9ea9
00000040: fbf9 b9a9 be53 97a9 ad28 7129 44b6 552a
00000050: 5b96 6c2a 4e9e 542a 2ecf 282a c9dc 0b2a
00000060: a569 e829 7aa9 dd29 65e4 f729 8b85 1f2a
00000070: f017 3e2a b83c 642a 54c8 722a 3062 282a
00000080: 629d bfa7 b806 aca9 a776 bba9 34c3 3ca9
00000090: 6ce6 5429 9e5b b229 d04c f829 1965 d8a8
000000a0: 3e70 6ea8 02c8 e827 074b 5329 c31c 91a9
000000b0: 4707 5a2b 5170 392c 580d 8229 bba7 0caa
000000c0: 5a77 c4a9 a413 04aa 3363 68a9 fdcc 2ea9
000000d0: b84c aab3 55be 55b3 9668 6f39 8667 f9b9
000000e0: 0444 e238 3abf d838 db9f 2137 20d9 6a30
000000f0: 00c5 d936 4489 d3b7 a487 ecb1 43ed 51ab
00000100: 98fc 9732 447a 6635 878e 2536 d50a f4b9
00000110: 2ed5 7cb7 7c50 51b6 28b1 df31 aca8 f636
00000120: 8294 29b2 d459 bbb9 3ed4 1f35 fc84 2136
00000130: bd88 90ba c461 f1b2 12da 31b1 45e0 4039
00000140: 66e6 e2b4 fc86 a939 fb57 55b7 3054 9538
00000150: 3bb0 1bb5 f307 5937 9b04 a2b3 1899 1035
00000160: 68f1 f0b5 11fb 44b7 5aa2 3e36 03dc 3ab6
00000170: e6ec 85b2 2d62 ae2e bfba ac32 c07c 3eb6
00000180: f558 26b8 ab89 8639 d969 e1b9 634c 2cb8
00000190: d31c 423a 8b5a da23 e41a 51b7 34ed 7936
000001a0: be2f deb7 bf1c e2b6 440a 5836 365d 02b7
000001b0: d09a bcb5 5539 5cb2 83ed 0eb7 a60c 59b3
000001c0: 1d11 95b0 8bbc d3b3 ea91 b2b0 7908 f5b5
000001d0: 29d3 9336 222a e52c 5b3f 172f 806c 2033
000001e0: 9e07 5db1 3176 762f edfa 2ab4 49d5 72aa
000001f0: 8fc9 b1b3 72f3 1bb3 3188 1535 5f81 6732
00000200: f212 c1b4 359b 2faa 6f27 86ac 8a29 622f
00000210: 2ce7 9a33 a3b2 5a2e 58c3 e3b7 4c89 5aae
00000220: c14c 982d fb26 aa36 7c2e 0538 eec5 1935
00000230: 924f 53b4 920b d739 381a 01b5 ddaf b232
00000240: d909 1936 59c3 d339 15d5 4732 1bea 6e32
00000250: a92a 57b4 eafa 8137 8395 c735 c854 5c31
00000260: f567 5b33 5f97 49ac 25e9 6c33 a74d c335
00000270: 98e0 9eab 1767 0c39 6422 3eae 19a0 f136
00000280: 50d6 3d34 10c1 12b6 3c33 b035 0316 7932
00000290: 66b8 9ab5 bebb 8835 9377 36b3 b673 0eb5
000002a0: a2e7 7fb5 c529 1c36 2d9f 73b6 9185 3a39
000002b0: b2ba 85b6 4cb3 8fb4 0c12 46ba 99cc 0a36
000002c0: a87c d634 a697 01b4 afd4 cb35 fb85 3f36
000002d0: f0ae 4d38 626a ff36 4c87 ab35 b3bf bbaf
000002e0: b6c9 2ca1 1785 68b2 adfd a8b5 b5af a038
000002f0: e0dc 0338 8f2e b234 3203 3bb7 01ed 0cb4
00000300: 2f87 00b7 18d1 a1b4 11b3 a8b5 3c3c 3b35
00000310: 5d78 4fb3 6b7e 5834 666c 1db3 6904 482f
00000320: a83b b6b9 18a1 83b4 e615 0000 f616 0080
00000330: d606 0000 eb19 0000 572a 0000 e519 0080
00000340: cb82 0000 040b 0000 d708 0000 2949 0080
00000350: bd97 0000 6f72 0080 e505 0000 e93c 0080
00000360: 86d8 0000 a61d 0080 5760 0080 2705 0180
00000370: c667 0000 4162 0000 f808 0080 4d1c 0000
00000380: 4d8b 0080 4e76 0080 0323 0000 5499 0000
00000390: 9d70 0080 c73b 0000 5803 0000 5518 0000
000003a0: f511 0000 603a 0000 0487 0080 9b1b 0000
000003b0: 1d66 0000 d535 0000 f911 0000 292f 0080
000003c0: ab48 0000 fb74 0080 3a77 0000 115c 0080
000003d0: ac36 0000 9634 0080 840e 0080 dc4c 0080
000003e0: 930a 0080 ea21 0000 43c7 0000 acb2 0080
000003f0: eb41 0000 f768 0180 9d06 0000 d901 0000
1.7940394e-13 1.5263107e-05 -5.1505834e-14 -7.838224e-14 -2.3953378e-06 -5.5552517e-14 2.7077236e-12 -7.0290006e-14
-1.0324858e-13 2.9306452e-14 -2.465473e-14 -2.6639396e-14 1.0536392e-13 1.1997051e-13 6.1809587e-14 -7.036593e-14
-8.259015e-14 -6.720274e-14 5.354803e-14 1.8981436e-13 2.1013176e-13 1.8884305e-13 1.4993277e-13 1.242228e-13
1.0321196e-13 9.843771e-14 1.10086236e-13 1.4168369e-13 1.6883695e-13 2.0271534e-13 2.156342e-13 1.4955463e-13
-5.3183784e-15 -7.6395e-14 -8.325051e-14 -4.1913697e-14 4.7273315e-14 7.920681e-14 1.1026737e-13 -2.4024661e-14
-1.3235993e-14 6.4609784e-15 4.6916487e-14 -6.444283e-14 7.745926e-13 2.635243e-12 5.7754745e-14 -1.2492691e-13
-8.724853e-14 -1.173077e-13 -5.160039e-14 -3.881356e-14 -7.930197e-08 -4.9766033e-08 0.00022831777 -0.00047570112
0.00010789189 0.00010335301 9.633567e-06 8.543726e-10 6.490038e-06 -2.521708e-05 -6.8839245e-09 -7.458098e-13
1.769358e-08 8.5859597e-07 2.4669878e-06 -0.00046547377 -1.5070005e-05 -3.1190275e-06 6.5102945e-09 7.3510073e-06
-9.8708615e-09 -0.00035734347 5.954097e-07 2.4068277e-06 -0.0011027079 -2.8100551e-08 -2.5880849e-09 0.00018394094
-4.2263417e-07 0.00032334763 -1.2716274e-05 7.120555e-05 -5.799845e-07 1.2936059e-05 -7.5445506e-08 5.386696e-07
-1.7951652e-06 -1.1740966e-05 2.8406707e-06 -2.7844223e-06 -1.5590967e-08 7.9300434e-11 2.0108358e-08 -2.838482e-06
-3.9660332e-05 0.00025661042 -0.00042994207 -4.1079136e-05 0.0007404808 2.3673954e-17 -1.2463632e-05 3.7241962e-06
-2.6486694e-05 -6.7386713e-06 3.2192484e-06 -7.770306e-06 -1.4052148e-06 -1.2818721e-08 -8.51916e-06 -5.0535753e-08
-1.0846041e-09 -9.859749e-08 -1.2992676e-09 -1.8256388e-06 4.4055237e-06 6.513249e-12 1.3755878e-10 3.7351583e-08
-3.2164063e-09 2.241556e-10 -1.592377e-07 -2.1567916e-13 -8.278868e-08 -3.6310162e-08 5.570501e-07 1.3475385e-08
-3.5962836e-07 -1.559697e-13 -3.812887e-12 2.0569338e-10 7.213234e-08 4.9726123e-11 -2.7151473e-05 -4.9689405e-11
1.7314485e-11 5.0709327e-06 3.1752963e-05 5.728497e-07 -1.9679854e-07 0.00041016616 -4.80944e-07 2.08019e-08
2.2804509e-06 0.00040390601 1.1631774e-08 1.3906653e-08 -2.0038955e-07 1.549484e-05 1.4870169e-06 3.2062406e-09
5.108446e-08 -2.8647846e-12 5.5160076e-08 1.4551232e-06 -1.1288913e-12 0.00013389844 -4.3231543e-11 7.2009975e-06
1.7679963e-07 -2.1868073e-06 1.3127933e-06 1.44987125e-08 -1.1527561e-06 1.018743e-06 -4.248393e-08 -5.3067504e-07
-9.533197e-07 2.3270125e-06 -3.6302474e-06 0.000177881 -3.985443e-06 -2.676628e-07 -0.000755579 2.0682694e-06
3.9951306e-07 -1.206923e-07 1.5186578e-06 2.8539205e-06 4.9038732e-05 7.611977e-06 1.2779869e-06 -3.4151312e-10
-5.854283e-19 -1.35344385e-08 -1.2590805e-06 7.6621225e-05 3.143854e-05 3.318896e-07 -1.11468125e-05 -1.3124738e-07
-7.660869e-06 -3.0140723e-07 -1.2569091e-06 6.975058e-07 -4.8305413e-08 2.0162558e-07 -3.6653e-08 1.8191461e-10
-0.00034758192 -2.4517863e-07 7.856e-42 -8.237e-42 2.452e-42 9.298e-42 1.5189e-41 -9.289e-42
4.692e-41 3.952e-42 3.171e-42 -2.6245e-41 5.4433e-41 -4.1051e-41 2.115e-42 -2.185e-41
7.7674e-41 -1.0636e-41 -3.456e-41 -9.3684e-41 3.7227e-41 3.5247e-41 -3.217e-42 1.0152e-41
-4.9972e-41 -4.244e-41 1.256e-41 5.5004e-41 -4.0398e-41 2.1444e-41 1.2e-42 8.729e-42
6.442e-42 2.0941e-41 -4.8434e-41 9.903e-42 3.6631e-41 1.9311e-41 6.447e-42 -1.6918e-41
2.6068e-41 -4.1965e-41 4.277e-41 -3.3027e-41 1.9613e-41 -1.8864e-41 -5.207e-42 -2.7572e-41
-3.793e-42 1.2166e-41 7.1482e-41 -6.4095e-41 2.3647e-41 -1.2949e-40 2.372e-42 6.63e-43

bias f4 [16]
00000000: fa8f 092b fa7a ab24 5d19 0080 c9f8 95a2
00000010: dd80 f832 370d 0080 e421 0080 625e 30ac
00000020: 8ce8 4b38 e24d d0be c904 5dbe dad0 a206
00000030: 591c 0080 8bea f08c 68c4 07bf 7d7b 113e
4.8871985e-13 7.436776e-17 -9.099e-42 -4.0649942e-18 2.89296e-08 -4.74e-42 -1.2158e-41 -2.5063497e-12
4.8615548e-05 -0.4068442 -0.21583857 6.1244507e-35 -1.0169e-41 -3.7119015e-31 -0.5303407 0.14207263

weight f4 [16]
00000000: b6e6 abb0 946d bc2d f31a 0000 f453 b620
00000010: 6fb6 8033 c918 0000 bd42 0000 6cc5 4231
00000020: 992b 7f38 73c4 2e40 63a5 3e39 48a8 1e9c
00000030: 1a14 0080 e657 ed20 debc 6340 76f9 323e
-1.250746e-09 2.1421788e-11 9.668e-42 3.0887555e-19 5.993649e-08 8.891e-42 2.3941e-41 2.8342937e-09
6.083734e-05 2.7307403 0.00018181423 -5.2495313e-22 -7.211e-42 4.0207528e-19 3.5584025 0.17477974

bias f4 [16]
00000000: b808 1eba daec feb3 5644 89a7 dc25 83bb
00000010: b3dd 84bc 20f0 61b3 e07b 66bd 1e88 48ba
00000020: 90bb aa3e bd15 cabe f490 99bd 96fd 85a4
00000030: a5ec 77b7 e54d 52a8 d641 3ebf b935 ed3e
-0.0006028521 -1.187088e-07 -3.809923e-15 -0.004002316 -0.016218996 -5.2605287e-08 -0.05627048 -0.00076496776
0.33346224 -0.3946971 -0.07498351 -5.810915e-17 -1.4777445e-05 -1.16742324e-14 -0.7431921 0.4633005

running_mean f4 [16]
00000000: 0000 0000 0000 0000 0000 0000 0000 0000
00000010: 0000 0000 0000 0000 0000 0000 0000 0000
00000020: 0000 0000 0000 0000 0000 0000 0000 0000
00000030: 0000 0000 0000 0000 0000 0000 0000 0000
0.0 0.0 0.0 0.0 0.0 0.0 0.0 0.0
0.0 0.0 0.0 0.0 0.0 0.0 0.0 0.0

running_var f4 [16]
00000000: 0000 803f 0000 803f 0000 803f 0000 803f
00000010: 0000 803f 0000 803f 0000 803f 0000 803f
00000020: 0000 803f 0000 803f 0000 803f 0000 803f
00000030: 0000 803f 0000 803f 0000 803f 0000 803f
1.0 1.0 1.0 1.0 1.0 1.0 1.0 1.0
1.0 1.0 1.0 1.0 1.0 1.0 1.0 1.0

weight f4 [16, 16]
00000000: a978 a1b7 2f35 322e caca f024 b70a 2ab9
00000010: ef0e 18bb 99db 28b1 0f11 58bc 00ed 87b7
00000020: e9e4 ecbd 6588 dd3f 953d eaba c24f 3da3
00000030: 0cbf 42b5 91aa a9a5 6142 9b3c 50eb 7dbe
00000040: b7c4 6d32 3c49 1b32 20a8 aa37 d95c e334
00000050: 178c 64b6 9c6c 88b3 ee94 4339 843b b939
00000060: 11d1 c223 6347 da21 f0f5 3b34 3009 4937
00000070: 3c9f 2d1c e39f dfa7 d525 e722 619d 6024
00000080: b708 0000 e10b 0080 a70e 0080 780d 0000
00000090: 7f20 0000 310c 0000 6822 0000 7d0c 0000
000000a0: b408 0080 1550 0000 5917 0000 0e15 0000
000000b0: b148 0080 2312 0080 e109 0080 7d0e 0080
000000c0: da28 2738 9365 bdb3 28f9 02a6 466f bc39
000000d0: 803e b73a c42c 4d31 3a9c 953b 8a51 4738
000000e0: 9ca4 47be f4cb 083f 8c69 c53b 09f0 4723
000000f0: 5dca c035 3579 d726 9554 de3f a53b b1be
00000100: f98f 479e 15c3 87a7 e773 a603 fac6 0239
00000110: f5bb aa90 7c63 808d b424 4c13 7ccf 8f93
00000120: 9db7 d296 0670 b09a 6e62 bf13 0432 f786
00000130: f4f1 ed91 d213 1b28 bc31 c395 ecab 3299
00000140: 168a 87b5 2dcc 22b6 59d1 f18e 8035 42b3
00000150: d8a8 80a1 14d7 6299 e986 961f 1780 1bb3
00000160: bec0 2824 5e51 dba5 1bc6 cda0 85a2 910b
00000170: 1133 149c a740 7838 6a47 8e25 29e3 c622
00000180: 58ee bd17 a03b 8193 18a1 bf05 5b5c bdb6
00000190: b694 bf99 d826 1411 24d3 829a dacb 9597
000001a0: f2e9 619e d7cc 5c1e 9c26 bb9a 8449 6702
000001b0: 5d53 9094 48df 9f07 337f 869c 3b39 6f1f
000001c0: ece4 5bb7 592c 1cb4 3255 7fa6 f719 acb8
000001d0: 3111 f4ba 72a0 ecb0 b678 5cbb 8001 ccb6
000001e0: 212f e93d ae52 f93f acb1 e539 ab77 32a3
000001f0: 89ff 72b5 1e2c 88a5 acd7 31c0 999b c9be
00000200: 186f 5836 db71 1336 da4e edb5 0ea8 46ab
00000210: 4988 ee36 4457 5225 617b 50b7 1545 2cb8
00000220: e38e b39e c4ae d41a c24e a9b3 b74d 8ab3
00000230: 2560 0ab5 964c e832 8c4d 089c 0732 741e
00000240: 0ab9 ec27 cbb9 fc32 3b35 0fb5 e01e 84b4
00000250: 826a 3c33 f340 d4b5 1d38 b02f 4a87 c0b5
00000260: 7907 8938 7149 6cb9 e0cf 51b6 3910 2da2
00000270: d7dc 27b5 269c b0b4 3877 fe34 7c42 e7b4
00000280: b085 3b34 8205 f39d 3de3 c193 a015 b1b3
00000290: ad9f 2927 9ee7 a19e 0c40 83a7 9dd3 98a4
000002a0: 2161 ee2a 1e0b 08a9 5eda e926 2092 2a0f
000002b0: 120d 9222 d5de a5b7 e229 442c 26e3 932a
000002c0: 1d7b b0a6 6883 14b6 ec28 3136 5eb4 d1a9
000002d0: d997 4eb2 c7c7 81ae d9d1 23b4 dadf ba30
000002e0: e4a1 0000 2ee6 0080 aa4b 80ab 2857 ca27
000002f0: db2f c62b 0a02 ec38 aa5d 0180 9f2c 0100
00000300: 1b79 e838 efd0 80b4 f1eb 5425 fd14 363a
00000310: 2317 ddbb 0d76 6a32 757e 23bc 75b2 0139
00000320: 70f4 5fbe 63fc bd3d 6299 173c 68de 8da2
00000330: 1a1e 9336 72f8 0727 914b b83f 595d 3ebe
00000340: 48ee 5427 7640 5ba8 065c 3636 0506 d036
00000350: 1cdf f8a9 128b 4121 b120 7a2a 1b8e beb7
00000360: 5b93 6cb5 cd8d aeb0 2d7e 2eb9 5437 f832
00000370: d79e 6e3a ff63 b116 c8ec cd36 c1f7 ac32
00000380: 9060 0180 27a4 0000 5e25 0080 a2c9 3e2a
00000390: 728d 0000 3215 0080 e74c 0080 f587 0000
000003a0: b016 0000 7f64 0100 e0b6 0080 f7b9 0080
000003b0: 5e14 0000 816e 51ba 3954 0000 6198 0000
000003c0: 43f8 bfb7 450a 3db4 4bfa 0326 7b97 1bb9
000003d0: 3551 cbb9 eac2 35b1 1310 a4bb e7a6 0cb8
000003e0: 8bb3 d43e 34a3 d3bf 4d23 48bb 32bf fa22
000003f0: 6ddd 35b5 a547 25a7 465d 8cbe 9ae5 123f
-1.9248882e-05 4.051975e-11 1.04426947e-16 -0.00016216455 -0.002320226 -2.4572044e-09 -0.013187661 -1.6203616e-05
-0.11567099 1.7307249 -0.0017871136 -1.02626e-17 -7.254864e-07 -2.9432407e-16 0.01895255 -0.24796796
1.3839943e-08 9.038839e-09 2.0343869e-05 4.23496e-07 -3.405619e-06 -6.3527494e-08 0.0001865213 0.00035330292
2.1122065e-17 1.479115e-18 1.7505204e-07 1.1982673e-05 5.7446704e-22 -6.2068283e-15 6.265273e-18 4.8705562e-17
3.126e-42 -4.261e-42 -5.256e-42 4.832e-42 1.1657e-41 4.373e-42 1.2343e-41 4.48e-42
-3.122e-42 2.8728e-41 8.376e-42 7.553e-42 -2.6077e-41 -6.506e-42 -3.544e-42 -5.197e-42
3.985395e-05 -8.8194746e-08 -4.544048e-16 0.0003594106 0.0013980418 2.9856873e-09 0.004565743 4.7521236e-05
-0.19496387 0.5343621 0.006024545 1.0838641e-17 1.436401e-06 1.4951475e-15 1.7369562 -0.34615818
-1.0564745e-20 -3.7681535e-15 9.783213e-37 0.0001247189 -6.734277e-29 -7.912559e-31 2.5766516e-27 -3.630287e-27
-3.4043206e-25 -7.297288e-23 4.8312238e-27 -9.2984565e-35 -3.7541122e-28 8.608526e-15 -7.883834e-26 -9.237104e-24
-1.0098472e-06 -2.4258727e-06 -5.961268e-30 -4.5217803e-08 -8.71831e-19 -1.1727361e-23 6.375066e-20 -3.6205247e-08
3.6592452e-17 -3.804558e-16 -3.4859446e-19 5.60965e-32 -4.9035094e-22 5.918802e-05 2.4681465e-16 5.3908523e-18
1.2274005e-24 -3.2622973e-27 1.802073e-35 -5.6433905e-06 -1.9809001e-23 1.1687111e-28 -5.4107856e-23 -9.680359e-25
-1.19597796e-20 1.1689063e-20 -7.7403764e-23 1.6992298e-37 -1.4573165e-26 2.4054894e-34 -8.900256e-22 5.065756e-20
-1.3106717e-05 -1.4544766e-07 -8.858636e-16 -8.2064355e-05 -0.0018620846 -1.7216861e-09 -0.0033641285 -6.0798484e-06
0.11385942 1.9478357 0.0004381066 -9.67474e-18 -9.052388e-07 -2.3622134e-16 -2.7787886 -0.39376524
3.2251173e-06 2.197098e-06 -1.7680825e-06 -7.0576954e-13 7.1088184e-06 1.8244163e-16 -1.24264925e-05 -4.1072333e-05
-1.9011459e-20 8.7963494e-23 -7.884002e-08 -6.440262e-08 -5.1548915e-07 2.7043182e-08 -4.509885e-22 1.2927598e-20
6.570378e-15 2.942115e-08 -5.334911e-07 -2.460938e-07 4.386903e-08 -1.5814134e-06 3.2054084e-10 -1.4344489e-06
6.534061e-05 -0.00022534073 -3.1264426e-06 -2.345446e-18 -6.253371e-07 -3.2896168e-07 4.739793e-07 -4.3075477e-07
1.7464367e-07 -6.432726e-21 -4.8944124e-27 -8.246138e-08 2.3540022e-15 -1.7142333e-20 -3.6429244e-15 -6.627798e-17
4.234469e-13 -3.020771e-14 1.6226811e-15 8.40979e-30 3.958722e-18 -1.9773297e-05 2.7876525e-12 2.6270061e-13
-1.2245823e-15 -2.2130207e-06 2.6398875e-06 -9.312753e-14 -1.2025304e-08 -5.9017284e-11 -1.52569e-07 1.3596904e-09
5.8075e-41 -8.2573e-41 -9.115948e-13 5.6160758e-15 1.4082029e-12 0.00011253737 -1.25436e-40 1.07843e-40
0.0001108518 -2.3993877e-07 1.8468009e-16 0.00069458765 -0.006747143 1.3647434e-08 -0.00997888 0.00012368879
-0.2187059 0.092766546 0.009252878 -3.845361e-18 4.3844457e-06 1.8869696e-15 1.4398061 -0.18590297
2.9550083e-15 -1.217092e-14 2.7173678e-06 6.199584e-06 -1.1052116e-13 6.5575e-19 2.2215803e-13 -2.2715938e-05
-8.813128e-07 -1.2700468e-09 -0.00016640937 2.889616e-08 0.00091026485 2.8658999e-25 6.137041e-06 2.01361e-08
-1.26476e-40 5.8887e-41 -1.3405e-41 1.6945345e-13 5.0741e-41 -7.603e-42 -2.7587e-41 4.8772e-41
8.139e-42 1.27887e-40 -6.5603e-41 -6.6712e-41 7.306e-42 -0.00079891837 3.0213e-41 5.4663e-41
-2.288458e-05 -1.7605733e-07 4.5788965e-16 -0.00014838383 -0.0003877968 -2.6449762e-09 -0.005006799 -3.353404e-05
0.4154323 -1.6534181 -0.003053862 6.796507e-18 -6.774997e-07 -2.2937188e-15 -0.27414912 0.57381594

bias f4 [16]
00000000: 6396 33be b54c bf23 1518 0080 4c59 a0be
00000010: 4af4 1f9a cb4f 7223 a05e 9d9f 9114 83be
00000020: 2970 eb9f b8a3 021c ed6f 1a2c a59e 0080
00000030: 0605 abbe 106f 052f 4082 0000 610f 2c3f
-0.17537837 2.0740748e-17 -8.639e-42 -0.31318128 -3.3077764e-23 1.3135743e-17 -6.664863e-20 -0.25601628
-9.9711925e-20 4.3224993e-22 2.1946848e-12 -5.6911e-41 -0.3340227 1.2135737e-10 4.6725e-41 0.67210966

weight f4 [16]
00000000: 5500 d7bf f686 ae25 2a1b 0000 f830 f83f
00000010: fe7c 2c22 8b07 65a9 a6bf 3127 8418 6740
00000020: c6a2 d225 535c b1ab 2f74 18ac 5026 eb07
00000030: e54f aebf 4f03 fd38 48c7 1d90 c9f6 e73f
-1.6796976 3.0275642e-16 9.745e-42 1.9389944 2.3376517e-18 -5.0854757e-14 2.4667577e-15 3.6108713
3.6539493e-16 -1.2602232e-12 -2.1664994e-12 3.5381388e-34 -1.3618132 0.000120645964 -3.111631e-29 1.8122188

bias f4 [16]
00000000: 3b43 3f3e b868 f5b3 7b56 ea3a 5536 b6be
00000010: 3fcd aeb1 efcd 2639 7caf 8ab5 c180 8ebe
00000020: ed74 cbb0 7207 65ad 0813 3dbc d55e 2c93
00000030: c278 c93e 00f0 3ab3 0c45 5faa 2cc6 123f
0.1867799 -1.142775e-07 0.0017878556 -0.35588327 -5.0874003e-09 0.0001590771 -1.0332874e-06 -0.27832606
-1.4803426e-09 -1.3018796e-11 -0.011540182 -2.1756208e-27 0.39349943 -4.352478e-08 -1.9830334e-13 0.57333636

running_mean f4 [16]
00000000: 0000 0000 0000 0000 0000 0000 0000 0000
00000010: 0000 0000 0000 0000 0000 0000 0000 0000
00000020: 0000 0000 0000 0000 0000 0000 0000 0000
00000030: 0000 0000 0000 0000 0000 0000 0000 0000
0.0 0.0 0.0 0.0 0.0 0.0 0.0 0.0
0.0 0.0 0.0 0.0 0.0 0.0 0.0 0.0

running_var f4 [16]
00000000: 0000 803f 0000 803f 0000 803f 0000 803f
00000010: 0000 803f 0000 803f 0000 803f 0000 803f
00000020: 0000 803f 0000 803f 0000 803f 0000 803f
00000030: 0000 803f 0000 803f 0000 803f 0000 803f
1.0 1.0 1.0 1.0 1.0 1.0 1.0 1.0
1.0 1.0 1.0 1.0 1.0 1.0 1.0 1.0

weight f4 [2, 16]
00000000: 8854 cc3f aeae 4233 d56b 0c3b 9203 133f
00000010: 8918 de30 c7a3 13b9 5231 7eb6 0e13 c8be
00000020: e1b1 8e30 e635 422e df72 2abb 515a a711
00000030: 5927 9b3f da35 d633 322a 852a 08c2 b9be
00000040: de08 5a3c 207f 6832 fab2 923a 8c0a fd3f
00000050: 1694 4fb0 6bc1 8e37 5c94 02b5 0c04 78c0
00000060: 89e8 3c2e f211 082c 71b6 47b9 c855 0c91
00000070: 575c 703e 9229 2032 538b 6b2a e77c 0440
1.5963297 4.5328015e-08 0.0021426578 0.5742732 1.6159599e-09 -0.00014080024 -3.7877658e-06 -0.39077038
1.0382416e-09 4.4158364e-11 -0.002600841 2.6403616e-28 1.2121383 9.974947e-08 2.3654825e-13 -0.36280847
0.013307778 1.3533082e-08 0.0011192255 1.9768844 -7.5516604e-10 1.7017786e-05 -4.8644665e-07 -3.875247
4.2952784e-11 1.9336724e-12 -0.00019046084 -1.1070486e-28 0.23472725 9.322678e-09 2.092053e-13 2.0701234

bias f4 [2]
00000000: 9baa b2be 3674 5e3f
-0.34895787 0.86896074
