checkpoints/swarm_1d/known/70pct-constraint/policy_final.pt (torch, 124031 bytes, 5 tensors)

weight f4 [64, 401]
00000000: e9ea 0ebe 638a 453c acb7 283b 54d9 673c
00000010: 9ad2 7f3c 898c 17bc d9be 7e3c 3267 2f3c
00000020: 7655 863c 0148 7b3c 7382 843c f5e3 a93c
00000030: 0028 953c b0d3 263c f0a1 89bc c547 1d3c
00000040: 0984 793c 8f03 e33c afd9 9e3c 88b7 a13c
00000050: b280 0f3c 322c 03bc d7bd 63bb e22e ad3c
00000060: 6256 143d ebf0 163d 2710 2cbc 6707 e93c
00000070: 1d73 b33c 5c0a a7bc 4aa4 e1bc 4891 793c
00000080: 10aa 51ba 32df 8ebc ceb8 d53c 73bc bf3b
00000090: e337 ba3c a58c 223d 5414 d9bc c759 3abd
000000a0: 1794 30bd aebe d53c 0f96 c0bb b380 75bd
000000b0: 07c6 4bbd fcb9 893b 2e49 e63c 83ce b3bc
000000c0: 6193 dbbc 1701 babd 2a9b 5abd 44c4 b5bc
000000d0: 4221 36bc f624 9c3c 7206 c43b b819 e0b9
000000e0: 867f 84bc 335d 88bd 5dff 9d3c 47a8 5abd
000000f0: d343 7e3c 612a ddbc ea63 acbc 96f0 023d
00000100: 7fc1 9dbc ae63 92bd e609 5abd 858c b6bd
00000110: 8bdb e2bd c69d 9d3c 3f4d 843c 9b86 f4bd
00000120: df1e edbd bf92 d8bd 5692 3b3d 4abd 413d
00000130: 6f8f 503d cd95 2cbb e105 abbd ba2d 09bd
00000140: 254e 18bb f7a1 8d3b cdeb b6bc 7456 80b9
00000150: 93af f33c 67ce c0bd 6738 dd3c 9d0b 18bd
00000160: f83a 403d d79e 8f3c 4398 cdbd 3e67 84bd
00000170: 5124 203d 24da d4bc f857 193c 7b98 6fbd
00000180: 57d3 05be 4d26 e8bd 46eb ff3c 96a7 f6bc
00000190: 480e f8bc 31db c0bd 2c95 a5bd 7691 65bd
000001a0: af3a 01be 28ea c8bd 8375 debd 23ec 36be
000001b0: a6d9 d6bc e22e 06be 0c71 27bd 5cf4 b1bd
000001c0: 0828 aebd 2651 aebc fa10 e8bd 65e8 0abe
000001d0: fb06 3ebe d6da 18be 7d6c 1cbe a24b 2cbe
000001e0: 00f8 05bd ada2 dfbd bf45 8dbd 1507 17be
000001f0: 628e 24be a67b fcbd af6f d5bc 5657 56bd
00000200: 2ba9 d4bd 02f6 d8bd df70 bbbd 3609 64bd
00000210: 90ea a1bd 1409 7ebd dea3 55bd d9a2 1cbb
00000220: 19a8 f4bd aade 4dbc 69f2 cfbd 870e bcbd
00000230: 71cd dcbb 3b51 a03c 74b1 7ebc 84de e4bc
00000240: c7ea 46bd 3d9f 39bd a3db 863c 5ecf 323c
00000250: 44d5 95bd e5f4 083d 4416 0a3d 5c56 223d
00000260: 4dd4 523c fe7f 2bbd db8d 2c3b b6c4 dfbc
00000270: c8ce fbbc 59c4 26bc ce7c 61bc 0e8b 10bd
00000280: c8fd 4a3d b586 823d fdb3 a93d b046 ec3a
00000290: 18fe 9c3c 32d3 0f3d 3f09 6c3d 4ede ab3d
000002a0: 3175 203c 85b2 4a3c 240d f33d 7a4a 4f3d
000002b0: 5ed9 873d d3ef 813d 975a e23d 6d05 923d
000002c0: 7bc0 e03d 1a83 023e e691 2d3d 8d65 023e
000002d0: 887c a73d 52b1 813d 630e c73c 5e1a bc3d
000002e0: d6e8 f13d 7e2a 003e 39e1 363d 486b dd3d
000002f0: 24cc b23c 2ffe c73d 9368 1c3e f9a6 c53d
00000300: 0114 093e 898b 1e3d fbb5 063e 2dfe c93d
00000310: e250 fe3d c13b 233d 5a41 833d c068 f43d
00000320: 58f6 cf3d 1a53 c13d d880 bb3d 2b0d 0c3e
00000330: 7b4b ee3d 221e 0d3e 718f a43d 092a 0a3e
00000340: f15b 0e3e 5190 0f3e 6aed 0d3e c058 1f3e
00000350: d43e 2c3e b9ea 213e d801 203e 4fac a23d
00000360: afea 1a3e 98bf 293e 375e 953d 3549 303e
00000370: f935 383e 6c5e 143e 56a0 113e 3d8e 943d
00000380: f523 093e 4fe0 b73d 809c 293e edfe f33d
00000390: 1e90 fa3d 9f47 333e 4e7c 3b3e fe09 3b3e
000003a0: 9eee cd3d 8e57 c53d 30c9 363e c2aa d43d
000003b0: a000 3a3e c6cc b93d 1043 2a3e 407a 283e
000003c0: f6e0 193e 4a29 313e 2141 013e c216 cc3d
000003d0: 4736 173e fbe6 0d3e 7a87 233e a843 b43d
000003e0: 5db5 013e 0291 0e3e eee2 0e3e 188b 1a3e
000003f0: a5c4 a63d 1a88 ac3d 3ba0 233e 98a0 6f3d
-0.13956799 0.01205692 0.0025744243 0.014150936 0.015614176 -0.009249815 0.015548431 0.010705756
0.016398173 0.015336991 0.016175484 0.020738581 0.01820755 0.010182306 -0.01680085 0.009599631
0.015229234 0.027711658 0.019390909 0.019740835 0.008758711 -0.008006142 -0.0034750605 0.02114052
0.036215194 0.03685085 -0.010501898 0.028445913 0.021905476 -0.020390682 -0.02754416 0.015232392
-0.00079980586 -0.017440412 0.026089098 0.0058513223 0.022731727 0.03968491 -0.026498951 -0.045495775
-0.04310998 0.0260919 -0.0058772634 -0.05993719 -0.0497494 0.0042030793 0.028111067 -0.021949058
-0.026803674 -0.09082239 -0.053370632 -0.022188313 -0.011116328 0.019060593 0.0059822137 -0.0004274377
-0.01617409 -0.06658401 0.019286806 -0.053383138 0.0155191 -0.026997747 -0.021043736 0.031967722
-0.019257305 -0.07147919 -0.053232096 -0.08913521 -0.11077031 0.019240271 0.016150115 -0.119397365
-0.11578154 -0.105748646 0.045793854 0.04729966 0.05091804 -0.0026334405 -0.08350731 -0.033490874
-0.0023239937 0.004322286 -0.022329235 -0.00024478475 0.029746806 -0.09414368 0.027004434 -0.03712045
0.046931237 0.017531795 -0.10038807 -0.064650044 0.039097134 -0.025982924 0.009359352 -0.058495026
-0.13068901 -0.1133543 0.031240117 -0.030109208 -0.030280247 -0.094168074 -0.08085093 -0.056046925
-0.12620042 -0.09810287 -0.10862257 -0.17863517 -0.02622683 -0.13103822 -0.040879294 -0.08689186
-0.08503729 -0.021278929 -0.11331363 -0.13565214 -0.1855735 -0.1492723 -0.1527576 -0.16825727
-0.032707214 -0.109197 -0.06898069 -0.14748795 -0.1606994 -0.123282716 -0.026054231 -0.052329384
-0.10383829 -0.10593797 -0.09152388 -0.055672847 -0.07906067 -0.062020376 -0.05215823 -0.0023900776
-0.119461246 -0.012565294 -0.10153658 -0.09182458 -0.0067383577 0.019569984 -0.015545238 -0.027938135
-0.048563745 -0.045317877 0.016462153 0.010913698 -0.07316068 0.033436675 0.03371264 0.03963314
0.012867999 -0.04187011 0.002632967 -0.027315479 -0.03073825 -0.010178649 -0.013762666 -0.035288863
0.04955843 0.063733496 0.08286283 0.0018026438 0.01916413 0.03511352 0.057626005 0.08392011
0.009793566 0.012371664 0.11867741 0.050608136 0.066332564 0.06344571 0.11052435 0.07129941
0.10974213 0.12745324 0.042375468 0.12734051 0.08178049 0.06332649 0.024298852 0.09184717
0.11811988 0.1251621 0.044648383 0.10811478 0.021825857 0.097652785 0.15274267 0.09650988
0.13386537 0.03870729 0.13155358 0.09862933 0.12417771 0.039851908 0.06408949 0.11934042
0.10154408 0.094396785 0.09155434 0.13676898 0.116354905 0.13781026 0.08035172 0.13492598
0.1390226 0.14019896 0.13860098 0.15561199 0.16820842 0.15812196 0.15625703 0.079430215
0.15128587 0.16576993 0.07293361 0.17215426 0.17989339 0.14489144 0.1422132 0.07253692
0.13392623 0.0897833 0.16563606 0.119138576 0.122345194 0.1750779 0.18309137 0.1826553
0.10055278 0.0963584 0.17850184 0.10384132 0.18164301 0.090722606 0.16627145 0.16452885
0.15027222 0.17300907 0.12622501 0.09965278 0.14766799 0.13857643 0.15969649 0.08801967
0.12666841 0.13922504 0.13953754 0.15092123 0.08142976 0.08424397 0.15979092 0.058502764

bias f4 [64]
00000000: 6080 9c3d 5008 b03d 1d31 79bc 1178 31bb
00000010: be98 a03d a17f 8ebc 0088 17bd ad3a 823d
00000020: 9348 583d 25d2 36bb 79fe 863d d3a8 36bd
00000030: 664d 793d 7832 48bd 5067 bcbc 07fd 94bc
00000040: 7eb8 193d 030e 8d3d 5baa b23b 02c8 f83b
00000050: d818 52bb f6fa 1a3c 3397 b53d df5f c23d
00000060: 76f4 883d 3696 9d3d 7ed1 783d 5849 913d
00000070: d4eb 0ebc c997 1bbd ae9b 08bd cdd6 993c
00000080: ed49 f4bc 87a5 473d 0810 a03d 600e 9b3d
00000090: 58f7 52bd 4138 60bc e9f1 9ebc 9b52 7d3d
000000a0: 2cda cebc 9f25 153e e20c 963d 03e9 883d
000000b0: 31a0 733d 3622 a23d dfc2 2abd 80da dd3b
000000c0: 6ea2 e7bc 81c2 cebc 84e5 77bc adc6 343d
000000d0: b4c3 a93c ad74 7e3d eacc a7bb 2cf2 fd3d
000000e0: fc01 323d f392 0a3d 5a79 f23b 1d23 bd3d
000000f0: 6a8c 823d ad6d 9d37 20e0 8e3d 361a 493d
0.07641673 0.085953355 -0.015209463 -0.0027079622 0.07841633 -0.017394843 -0.036994934 0.06358848
0.052803587 -0.0027896252 0.065915056 -0.044594597 0.06086483 -0.048876256 -0.022998482 -0.01818706
0.03752946 0.06887438 0.005452437 0.007592202 -0.0032058265 0.009459248 0.088667296 0.09490942
0.06687252 0.07694666 0.060746662 0.07094067 -0.008723218 -0.03798655 -0.033351593 0.018779183
-0.029820407 0.048741844 0.07815558 0.07571101 -0.051505417 -0.013685287 -0.019402461 0.061846357
-0.025250517 0.14565133 0.07326676 0.066850685 0.059478942 0.079166815 -0.04168975 0.006770432
-0.028275695 -0.025239231 -0.015130404 0.044134784 0.020723201 0.06212299 -0.005120863 0.12399706
0.043458924 0.033831548 0.00739972 0.09235213 0.06374438 1.876693e-05 0.06976342 0.049097262

weight f4 [64, 64]
00000000: 5d7b a0be 4fff cbbc fcf6 47bd 8a9c af3c
00000010: 72c4 0e3e 816d e93e 9499 6037 e0fc 1d3d
00000020: 50bd 913d 0995 d23d bf6e 0bbe 6b3d 273c
00000030: 403d 5cbe 4fdd a83d be0d 063f d16c eb3d
00000040: 6220 793e 4acc ee3c 5206 813e 4762 b2bc
00000050: 1f1b c43c ab21 58be 93ef 3dbe 5730 8d3e
00000060: 6a6e 383e 7e6e 92bc 20dd adbe ee00 cb3d
00000070: 64a7 ce3c 94b6 d23d 6a8d ed3b 0479 d1bd
00000080: f396 8b3b 584d a1be bdcb 7a3e 8a4b 9a3d
00000090: de36 d23e de52 12bd 1b71 773b d6b7 bfbc
000000a0: c42e 6b3c e470 41be c867 9a3c 073a 3abd
000000b0: b863 3cbe 551b 75bd c330 1a3d c700 5bbd
000000c0: 562b 303e 3019 063d 77bc fb3a b947 213e
000000d0: 6d06 c03e eece 2a3e aee7 003f b753 60be
000000e0: 29b9 603e 32e0 22bd 04a6 943d bb68 b1bd
000000f0: 0fc3 00be c2e1 7b3c 618f 5c3e 0990 6bbe
00000100: b5a4 f0ba efb6 75be 6f59 1dbb e4fe a6ba
00000110: 4faa 9c3e 1f8a 97be 968f 00ba 7668 1b3e
00000120: b57b fcbc bdca ed3c 1bf4 6e3d c5a5 8bbc
00000130: 861f 72be d8c3 00bf 80a2 10be ff52 e2bd
00000140: f6b7 88bd afb1 01be 6cf2 9d3e 4d94 833e
00000150: 4b2a 86bb accd 8a3d 969b b23d a6b6 55bd
00000160: 12b8 7c3e 9701 8cbe 4e58 84bd 7504 71bd
00000170: 9787 58bb 6d65 29be fe42 44bc 5b03 bdbd
00000180: daca 96bc dda2 85bd 1dba aebd c829 013e
00000190: 75ff eabe 4d21 6cbd 1512 6dbc 1eb3 28be
000001a0: 8d6d 11be 2d24 ab3e c7fe 94bd e748 0d3e
000001b0: 6791 2abe 9e89 533d 80c2 dbbc ef9d 903e
000001c0: 520e 1fbe 49cb afbb 97fc d2bd 9ece 55bc
000001d0: 321e 93be 8e5c f83d 77b0 58bc b3ad e93e
000001e0: 4a8e 053e f204 80be 2620 0b3e 6783 063e
000001f0: 0cac 99be 94ea 8ebb 11d3 843d 7b44 93bd
00000200: a7a5 163c 961b 01bc 7bf7 e4bb abb4 e83c
00000210: 0b44 f4bb 8dc3 6abd 8d41 aeb5 778e eebc
00000220: 5819 abbc 7df8 fb3b 4535 8b3b efdb 16b8
00000230: 7e8a 9939 01f6 e7bd 8d62 06bd d0c1 7fbd
00000240: 8b1b 56bb ae7f 703d 1393 1d3d 98a0 b0bc
00000250: 5c6f adba a50b b3bc 8039 dcbb db60 84bc
00000260: 6eab 47bc aed6 e8bb bd59 923b 2ee5 88bb
00000270: 7dd6 bdb6 1410 5dbd 8009 103d 24ea fcbb
00000280: 2e80 0a3a 265b 67bd e832 80bb 9d1d 693c
00000290: 8a9f 78bd de9e cfbc 8a24 d8b7 4722 70bc
000002a0: b0d6 1dbd 9491 173d 6da7 05bb 0df6 3e3c
000002b0: 81bc 26bb 474d 09bd e289 0cb8 5f11 50bc
000002c0: 1758 3ebd 0f49 1b3a dae9 8736 458c 853c
000002d0: 1114 cabd e0fd 39bc 1a07 093d 5c64 413d
000002e0: 6deb 5a3d 69ba 8f3c d2f4 fb3b 4010 3dbc
000002f0: 320d 433d e729 c7bc 3473 56bd 9565 63bc
00000300: 6955 0e3d 236c 133e 0a56 eeb9 29c6 94b8
00000310: 2858 643e 6ff5 50be 6940 6cb9 a060 72bd
00000320: d15d 54bd a2c2 423e 94c5 3d3e 67d5 f7ba
00000330: 95db 743e c391 fcbe 6061 0fbf f119 10bf
00000340: 5323 6c3e 81d2 c43e 8f31 13be 70d4 34bc
00000350: b75a 37b9 22de b83d ca1a 35bc f958 bc3d
00000360: dae4 cabd 4b1b 6d3e dc1f 253e ad75 ca3c
00000370: 1620 0fb9 8b8c e9be 1efc 183d 3df1 923c
00000380: ad71 cebb 729d 9a3d 463a 47bc 9b87 c43e
00000390: 4a81 2dbe 3858 e8bc b5c5 b33c 9468 1bbe
000003a0: 6591 abbe 4002 b73e 642f fdbd ca62 56bd
000003b0: c258 913e 2f59 6d3e d635 4f3c 72cf 28be
000003c0: 6d98 acbe 87cb 643c 1d36 0cbd 3e34 e8bb
000003d0: def5 e6be c083 6a3e 3527 8cbe 8f1a 983d
000003e0: 6802 903e eabe 643e a695 d7bc c91b d63e
000003f0: cdaf 823d ef70 69bd ae15 6e3e 997a 7abe
-0.3134412 -0.024902014 -0.048819527 0.021436948 0.13942125 0.45591357 1.3387198e-05 0.03857124
0.071161866 0.102823325 -0.13616465 0.010207514 -0.2150774 0.08245336 0.5236472 0.114953645
0.2432876 0.029150147 0.25200135 -0.021775378 0.023938714 -0.21106593 -0.18548422 0.27575943
0.1801087 -0.017874952 -0.33957767 0.09912287 0.025226302 0.1028873 0.007249524 -0.1022816
0.004259938 -0.3150432 0.24491782 0.07533939 0.41057485 -0.03572356 0.0037756625 -0.02340309
0.0143544115 -0.1889072 0.018848315 -0.045465495 -0.18397415 -0.05984052 0.03764416 -0.05346754
0.17204031 0.032738864 0.0019205947 0.15750016 0.37504902 0.166805 0.50353515 -0.21906935
0.21945633 -0.03976459 0.072582275 -0.08662554 -0.12574409 0.015373649 0.2153907 -0.23004164
-0.0018359633 -0.23995565 -0.0024009605 -0.0012740758 0.30598685 -0.29597566 -0.00049042085 0.15176567
-0.030820707 0.029027337 0.058338266 -0.017046819 -0.23644838 -0.50298834 -0.14124489 -0.110509865
-0.06675713 -0.12665437 0.30849016 0.25699082 -0.004094397 0.0677751 0.08721082 -0.05217614
0.24679592 -0.27344963 -0.06462155 -0.05884214 -0.0033039802 -0.16542597 -0.011978863 -0.09229156
-0.018407274 -0.06525204 -0.08531592 0.12613595 -0.45898023 -0.057648946 -0.014469643 -0.16474578
-0.14201947 0.33426037 -0.072751574 0.13797341 -0.16657029 0.051644914 -0.026826143 0.28245494
-0.15532807 -0.0053648097 -0.10302084 -0.01304975 -0.28733975 0.121270284 -0.013225666 0.45640334
0.1304256 -0.25003773 0.13586482 0.13136064 -0.30014074 -0.00436146 0.0648557 -0.07190796
0.009194768 -0.007880112 -0.00698751 0.028406462 -0.0074544004 -0.057315398 -1.2983088e-06 -0.029120667
-0.020886108 0.007689534 0.0042482936 -3.5967616e-05 0.0002928562 -0.113262184 -0.03280883 -0.062440693
-0.0032670225 0.058715515 0.03847034 -0.021560952 -0.001323204 -0.021856138 -0.0067207217 -0.016159466
-0.012186868 -0.00710567 0.004466264 -0.004177711 -5.6576087e-06 -0.05397041 0.03516531 -0.0077183414
0.00052833825 -0.05648341 -0.0039123185 0.014228252 -0.060699023 -0.025344308 -2.5766221e-05 -0.01465661
-0.03853482 0.03700407 -0.0020393983 0.011655343 -0.0025441947 -0.033520963 -3.3507014e-05 -0.012699454
-0.046470728 0.00059236673 4.0505374e-06 0.016302237 -0.098671086 -0.011352032 0.03345404 0.04721485
0.053447176 0.017544942 0.007689097 -0.011539519 0.047620006 -0.024311973 -0.05235596 -0.0138791995
0.034749422 0.1439672 -0.00045459002 -7.0941e-05 0.22299254 -0.20406125 -0.00022530709 -0.05917418
-0.051847283 0.19019559 0.18532401 -0.0018908203 0.23911889 -0.49329957 -0.5600796 -0.56289583
0.2306035 0.38441852 -0.14374374 -0.011036977 -0.00017486034 0.090267435 -0.01105375 0.09196658
-0.09906931 0.23154943 0.16125435 0.024714315 -0.00013649496 -0.45615038 0.037349813 0.017937297
-0.0063001723 0.075495616 -0.01215989 0.3838471 -0.16943851 -0.028362378 0.02194486 -0.15176612
-0.33509365 0.35743904 -0.12362555 -0.052340306 0.2838803 0.23178552 0.012647113 -0.16485384
-0.33710042 0.01396454 -0.034231294 -0.007086306 -0.45109457 0.22901821 -0.27373663 0.07426941
0.28126836 0.22338453 -0.026316475 0.41818073 0.063811876 -0.056992467 0.23250458 -0.2446083

bias f4 [64]
00000000: 633f bd3d d532 c73b 9217 31bd 68c8 743d
00000010: ce7e 813d dd50 993c 254c 2ebc 6570 bebc
00000020: cb54 623d c5fd 5fbb 917c 793d 2a7b 413d
00000030: bf2b 603d 9b38 683d 3cbd 843d e777 3b3d
00000040: 6244 a13d 7109 95bc f68f 543d 4b18 1b3d
00000050: 8a1b 1a3d 7ea5 783d 68c3 883d 0da4 853d
00000060: c16f 803d a37b 4f3d 41f0 5cba 927a 433d
00000070: 1e27 803d 6f7e cbbc 8c4e 7c3d e00c e7bc
00000080: 63bb 0d3d 7921 983d d2c8 80bc 4946 16bd
00000090: da3b 5e3d 1361 873d 2b96 903c 6ed0 603d
000000a0: 6a91 673d 9a7c 973d 9ae3 2f3d 40b0 973d
000000b0: 7908 7b3c 6021 8cbc 9339 3f3d 6467 6c3d
000000c0: 1f89 863d d441 523c 11bb 25bd 503c b73d
000000d0: cf84 123d 6cc7 23bd 3dcf 853d a800 8d3d
000000e0: e3fa 773d ad07 c9bc ce34 0a3d 3688 9f3d
000000f0: 691a 16bc ca4a 2b3d a7fe 413b b231 5c3d
0.09240606 0.0060790577 -0.04323537 0.059761435 0.06323014 0.018715316 -0.010638271 -0.023246953
0.055256646 -0.0034178358 0.06090981 0.0472366 0.05472922 0.05669461 0.06481406 0.045768645
0.07874371 -0.018192979 0.051895104 0.037864964 0.03762392 0.0607047 0.06677896 0.06525431
0.06271315 0.05065502 -0.00084281346 0.047724314 0.06257461 -0.024840562 0.061598346 -0.028204381
0.034602534 0.074282594 -0.015720759 -0.036688123 0.054256298 0.06610312 0.01764973 0.054886274
0.056535162 0.07396813 0.042941667 0.07406664 0.015321844 -0.017105758 0.046685766 0.05771579
0.065691225 0.012833077 -0.040461604 0.089470506 0.035771187 -0.039985105 0.06533668 0.06884891
0.060542 -0.024539793 0.033741765 0.07789652 -0.00916157 0.04181937 0.0029601248 0.05375833

weight f4 [1, 64]
00000000: e11d 27bf 0ad7 2a3f 0cd1 b73e ca67 c73e
00000010: fffe 21bf a2d5 01bf 8920 0fbe 8d7f f93e
00000020: 73bc 1ebf 7b3e ffbe ad17 323f fd5b 90be
00000030: 7b8e 253f 3210 8c3e ada1 f1be b92e 023f
00000040: 51c7 aabe 7e16 5bbd 328d 193f fb3b f13e
00000050: 41f7 273f a094 bf3e 188a 06bf ac09 cebe
00000060: 11ce 87be 8473 073f e003 c23c 24d3 233f
00000070: 7ef4 f3be 5a5e 963c bd08 ba3e 5f1e 4a3d
00000080: 69a0 1b3f 192c 0cbf f1c2 b13d 7cc8 833e
00000090: 3866 00bf c42b 05bf 6d2a 29bf aeb3 a6be
000000a0: 4ba9 af3e a11f c5be ba1f a13e 0c4b a8be
000000b0: 0b61 0e3f e767 0b3e 2182 e93e b3e9 d13e
000000c0: 82b3 07bf 41f8 b43e 19c8 8f3e 3d28 98be
000000d0: 2088 c73e db90 913e bd2f cebe 2917 e8be
000000e0: 2fd5 113f f2d5 9b3e 35a1 e23e bd17 0dbf
000000f0: fc13 06bf 05bb 343f 032c 0dbf 8c69 acbe
-0.65279967 0.66734374 0.35901678 0.38946372 -0.6327972 -0.507166 -0.13977255 0.48730126
-0.620063 -0.49852356 0.69567376 -0.2819518 0.6467053 0.27356106 -0.4719366 0.50852543
-0.3335519 -0.053488247 0.5998107 0.47116074 0.65611655 0.3741808 -0.52554464 -0.40241754
-0.26524404 0.5291064 0.023683488 0.6399405 -0.4764747 0.018355537 0.36334792 0.04934537
0.6079164 -0.5475479 0.0867976 0.25738895 -0.50155973 -0.52019906 -0.6608036 -0.3255896
0.34308848 -0.38500693 0.31469518 -0.32869756 0.55616826 0.13613854 0.45607093 0.4099861
-0.5300828 0.35345653 0.2808235 -0.297182 0.38971043 0.28430828 -0.40270796 -0.4533017
0.5696592 0.30436665 0.44263616 -0.55114347 -0.52374244 0.7059787 -0.5514528 -0.33674276
