checkpoints/swarm_1d/unknown/50pct-constraint/policy_final.pt (torch, 124255 bytes, 6 tensors)

weight f4 [64, 401]
0.041135084 -1.9279933e-05 -1.8780422e-05 -1.8922616e-05 -2.1030228e-05 -2.0447638e-05 -2.0409758e-05 -2.0778301e-05
-2.0835228e-05 -1.9081712e-05 -1.8352424e-05 -1.8579654e-05 -1.9463772e-05 -2.035261e-05 -1.9952078e-05 -1.9948697e-05
-1.71319e-05 -1.932293e-05 -1.9348978e-05 -1.6396909e-05 -1.6788155e-05 -1.70801e-05 -1.481962e-05 -1.8110512e-05
-1.3949701e-05 -1.9000483e-05 -1.9141002e-05 -1.4633149e-05 -1.2942938e-05 -1.265818e-05 -1.0650147e-05 -1.1401663e-05
-1.254998e-05 -1.9018307e-05 -1.2277258e-05 -1.3583163e-05 -1.9180618e-05 -1.921557e-05 -1.9062856e-05 -6.834717e-06
-5.2469977e-06 -4.933205e-06 -5.654412e-06 -8.934956e-06 -1.4773211e-05 -1.882687e-05 -3.7351958e-06 -1.7299061e-06
-2.2851893e-06 -9.395446e-06 -1.0051792e-06 -1.0743084e-05 -1.8698278e-05 -5.691548e-06 1.4411476e-06 -6.903555e-09
1.0605871e-06 -1.7922763e-05 2.2896074e-06 -1.562168e-05 -7.2068633e-07 3.5285265e-07 -1.3935193e-05 -3.2387229e-07
-1.2370865e-05 -6.6651097e-07 -8.128676e-07 -1.8836006e-06 -1.6240921e-06 -4.0741934e-06 -2.460881e-06 -1.62843e-05
-1.4504889e-05 -7.2200887e-06 -7.17922e-06 -1.1405171e-05 -1.016973e-05 -8.046279e-06 -7.4631835e-06 -1.1951164e-05
-1.3771626e-05 -3.4315144e-06 -7.0959425e-07 -6.348081e-07 -4.611126e-06 4.870777e-06 5.9480294e-06 -4.2462725e-05
-4.498014e-05 -4.836978e-05 6.8038066e-06 1.8173583e-05 1.4558528e-05 -6.1015595e-05 1.1765462e-05 -3.2526335e-05
-2.3053308e-05 -1.1182892e-06 9.259254e-06 5.596497e-06 -7.6520395e-05 -3.1819225e-05 -1.3993463e-05 -1.9311996e-05
-9.306286e-05 -0.00011176882 -5.0252882e-05 -0.000115148156 -7.161826e-05 -6.3010746e-05 -9.825396e-05 -0.00010139388
-0.000112810085 -0.000108983564 -0.00011336983 -0.00010357908 -0.00010637224 -9.350837e-05 -9.323854e-05 -8.69179e-05
-8.1439415e-05 -7.354594e-05 -6.318567e-05 -6.5301734e-05 -6.0326274e-05 -6.109958e-05 -4.1623323e-05 -4.6141402e-05
-4.4105065e-05 -2.7802042e-05 -3.1632746e-05 -2.0687035e-05 -1.6326818e-05 -1.9350018e-05 -1.521479e-05 -1.2955174e-05
-8.673255e-06 -6.8168574e-06 -6.261649e-06 -8.6773125e-06 -9.807853e-06 -1.1508323e-05 2.9657363e-06 4.6763575e-06
5.892334e-06 -1.1420021e-05 3.819525e-06 8.600197e-06 -1.272664e-05 1.0434075e-05 9.385956e-06 -1.5917907e-05
-1.5514077e-05 1.2709901e-05 -1.6431906e-05 4.3597784e-06 -1.4323945e-05 -8.9574513e-07 -1.5692362e-05 1.578445e-05
-1.51889635e-05 1.6922779e-05 1.5673068e-05 -1.7418674e-06 -1.4035314e-05 -2.9451664e-07 1.5908934e-05 1.9208364e-05
-1.2434612e-05 1.8193929e-05 -6.1802452e-06 1.9833606e-05 2.1125257e-05 2.143982e-05 2.1752208e-05 2.0701851e-05
2.2098448e-05 1.6621096e-05 -6.8883883e-06 1.822717e-05 -4.64175e-06 7.364314e-06 -4.294423e-06 2.0829273e-05
1.986287e-05 2.4134544e-05 2.0938463e-05 4.5705804e-07 2.3677254e-05 7.2819596e-08 2.3692202e-05 2.158946e-05
2.4617988e-05 2.4091447e-05 4.4592525e-06 9.677936e-06 9.320606e-06 7.4701597e-06 2.3931047e-05 5.751391e-06
5.2664295e-06 2.3882254e-05 9.99273e-06 9.186273e-06 7.9969595e-06 2.1842392e-05 9.748576e-06 2.0887794e-05
1.8129103e-05 1.3946689e-05 2.0157337e-05 2.1241329e-05 2.0641193e-05 9.49602e-06 1.3152918e-05 1.581717e-05
1.3443802e-05 1.1909307e-05 1.26360765e-05 1.448506e-05 1.618531e-05 1.8766521e-05 1.6718775e-05 1.1056295e-05
1.3467787e-05 1.1779677e-05 1.1122502e-05 6.492109e-06 1.27670455e-05 3.850512e-06 8.622886e-06 4.9860246e-06
1.2980818e-05 5.0880158e-06 1.1044105e-05 1.25581755e-05 1.2581469e-05 6.228629e-06 1.564638e-05 1.3796618e-05
7.824661e-06 1.0628061e-05 -6.1035153e-06 -2.5671227e-06 1.3887394e-05 1.4938933e-05 1.0248756e-05 3.5468215e-06
5.9800914e-06 -1.1225494e-05 1.4762734e-05 1.28079355e-05 -8.940479e-06 -1.4378369e-05 1.3330084e-05 -1.2534179e-05
00000000: 437d 283d 57bb a1b7 a68a 9db7 02bc 9eb7
00000010: 126a b0b7 f886 abb7 9f35 abb7 104d aeb7
00000020: 50c7 aeb7 aa11 a0b7 88f3 99b7 81db 9bb7
00000030: 2246 a3b7 e6ba aab7 c35e a7b7 8057 a7b7
00000040: 7ab6 8fb7 ad17 a2b7 9d4f a2b7 188c 89b7
00000050: 4ad4 8cb7 3c47 8fb7 c9a1 78b7 07ec 97b7
00000060: 8209 6ab7 3a63 9fb7 fd90 a0b7 e580 75b7
00000070: 7f25 59b7 785e 54b7 08ae 32b7 c549 3fb7
00000080: c18d 52b7 8189 9fb7 6cfa 4db7 3ee3 63b7
00000090: 10e6 a0b7 1f31 a1b7 2ce9 9fb7 c655 e5b6
000000a0: 5e0f b0b6 e987 a5b6 07bb bdb6 58e7 15b7
000000b0: 75da 77b7 65ee 9db7 2daa 7ab6 1f2f e8b5
000000c0: 415b 19b6 22a1 1db7 b2e9 86b5 323d 34b7
000000d0: 3fda 9cb7 06fa beb6 746d c135 5034 edb1
000000e0: 7f59 8e35 d758 96b7 28a7 1936 4d0b 83b7
000000f0: 3075 41b5 b36f bd34 33cb 69b7 abe0 adb4
00000100: 768c 4fb7 49ea 32b5 d633 5ab5 06d0 fcb5
00000110: 61fb d9b5 0eb5 88b6 9d25 25b6 459a 88b7
00000120: 065a 73b7 1744 f2b6 08e5 f0b6 d658 3fb7
00000130: a89e 2ab7 81fe 06b7 426c fab6 dc81 48b7
00000140: af0c 67b7 f848 66b6 f27a 3eb5 ae67 2ab5
00000150: 45b9 9ab6 a86f a336 2f95 c736 011a 32b8
00000160: 0fa9 3cb8 a8e0 4ab8 414c e436 7973 9837
00000170: 6740 7437 ffea 7fb8 4664 4537 e36c 08b8
00000180: 9a62 c1b7 2018 96b5 3158 1b37 8bc9 bb36
00000190: 9379 a0b8 a275 05b8 77c5 6ab7 3200 a2b7
000001a0: be2a c3b8 6e65 eab8 9fc6 52b8 b27b f1b8
000001b0: c331 96b8 a324 84b8 b10d ceb8 6da3 d4b8
000001c0: 7494 ecb8 1b8e e4b8 f7c0 edb8 9838 d9b8
000001d0: 2914 dfb8 ed19 c4b8 0f89 c3b8 b147 b6b8
000001e0: 74ca aab8 ad3c 9ab8 8c82 84b8 9af2 88b8
000001f0: d806 7db8 9622 80b8 b494 2eb8 f487 41b8
00000200: 74fd 38b8 6e38 e9b7 67ad 04b8 1289 adb7
00000210: 93f5 88b7 d951 a2b7 0743 7fb7 0c5a 59b7
00000220: 5983 11b7 5cbc e4b6 281b d2b6 c694 11b7
00000230: 688c 24b7 df13 41b7 f606 4736 9be9 9c36
00000240: c3b6 c536 9e98 3fb7 7829 8036 9149 1037
00000250: 8184 55b7 030e 2f37 6078 1d37 7287 85b7
00000260: 3a24 82b7 9c3c 5537 40d7 89b7 364a 9236
00000270: e050 70b7 2373 70b5 17a3 83b7 d968 8437
00000280: 1ad4 7eb7 64f5 8d37 a879 8337 1cca e9b5
00000290: 3779 6bb7 0f1e 9eb4 2d74 8537 a621 a137
000002a0: 409e 50b7 2a9f 9837 e75f cfb6 5860 a637
000002b0: 2536 b137 aad9 b337 8378 b637 e3a8 ad37
000002c0: 0e60 b937 886d 8b37 ce22 e7b6 8de6 9837
000002d0: 54c0 9bb6 fa1a f736 d018 90b6 86ba ae37
000002e0: 309f a637 8a74 ca37 02a5 af37 9461 f534
000002f0: 849e c637 ff60 9c33 9ebe c637 031b b537
00000300: ba82 ce37 fd17 ca37 b0a0 9536 6b5e 2237
00000310: b35f 1c37 2fa8 fa36 88bf c837 13fc c036
00000320: 49b6 b036 c056 c837 73a6 2737 be1e 1a37
00000330: ae2a 0637 2e3a b737 d18d 2337 3238 af37
00000340: f413 9837 93fc 6937 8d17 a937 682f b237
00000350: a026 ad37 1851 1f37 5aab 5c37 1daf 8437
00000360: b18c 6137 16ce 4737 89ff 5337 dc04 7337
00000370: b0c5 8737 cc6c 9d37 4c3f 8c37 6d7e 3937
00000380: b4f3 6137 54a1 4537 c89a 3a37 cbd6 d936
00000390: 0b32 5637 a533 8136 03ab 1037 a04d a736
000003a0: 30c8 5937 b9b9 aa36 124a 3937 f4b0 5237
000003b0: ff14 5337 84ff d036 5840 8337 0678 6737
000003c0: aa46 0337 2d4f 3237 cccc ccb6 d546 2cb6
000003d0: e7fd 6837 3ba2 7a37 12f2 2b37 ee05 6e36
000003e0: 98a8 c836 2155 3cb7 76ad 7737 aae1 5637
000003f0: 11ff 15b7 a03a 71b7 46a4 5f37 e449 52b7

bias f4 [64]
-0.029949477 0.12898585 -0.023748916 -0.013380736 0.0037071966 -0.013731195 0.0373303 -0.07802627
-0.0031682607 -0.0070129153 -0.08137787 0.14796917 7.757788e-05 -0.0027834654 -0.0043202527 -0.0331994
-0.0037289918 -0.0012577814 -0.019221263 -0.0029317576 -0.0068323617 -0.0025307904 0.01880054 -0.0045335577
0.09857323 0.23788074 -0.012948647 -0.007762069 -0.04684241 -0.013005244 0.10212306 -0.022894138
0.0013297574 -0.0068972586 -0.004049967 -0.009925945 0.14622732 0.0011089693 -0.016723655 -0.0026987465
0.16867064 0.11752127 -0.0018343466 -0.0022334834 -0.029084018 -0.009090344 0.09422237 0.07486902
-0.047295243 -0.072669625 0.087985605 -0.06668618 -0.012296348 0.08199037 0.07916617 0.0027234817
0.001016195 0.14059728 -0.01606025 0.029933829 0.10156763 0.14638118 -0.019964326 0.0009162412
00000000: 9b58 f5bc de14 043e 168d c2bc e03a 5bbc
00000010: 70f4 723b cef8 60bc a8e7 183d 3dcc 9fbd
00000020: 98a2 4fbb 99cc e5bb 71a9 a6bd 3b85 173e
00000030: 4fb1 a238 cd6a 36bb e890 8dbb 18fc 07bd
00000040: 1a62 74bb 24dc a4ba e975 9dbc bb22 40bb
00000050: 01e2 dfbb 9edb 25bb 9703 9a3c 3d8e 94bb
00000060: c3e0 c93d 0297 733e 9026 54bc f458 febb
00000070: d4dd 3fbd f213 55bc e525 d13d 7d8c bbbc
00000080: 414b ae3a 6602 e2bb 96b5 84bb 6ea0 22bc
00000090: 9dbc 153e d65a 913a 0c00 89bc 74dd 30bb
000000a0: ffb7 2c3e feae f03d 756e f0ba a25f 12bb
000000b0: 9b41 eebc abef 14bc a8f7 c03d ee54 993d
000000c0: a8b8 41bd d0d3 94bd cc31 b43d c492 88bd
000000d0: 9f76 49bc 91ea a73d df21 a23d 717c 323b
000000e0: d931 853a bcf8 0f3e c990 83bc ca37 f53c
000000f0: b102 d03d f3e4 153e 3a8c a3bc e82f 703a

weight f4 [64, 64]
-0.0021173842 0.064877585 -0.38942045 -0.0005080385 -0.074173294 -0.00022429663 -0.071648024 -0.348284
-0.054580953 -0.11021832 -0.3534483 0.2642487 0.029530698 -0.3732591 -0.12784904 -0.0031708912
-0.14577682 0.00014682293 -0.0014218292 0.0002332463 -0.10234572 0.0027258336 0.044345886 -0.21259026
0.08815235 0.19070451 -0.031708393 -0.1621975 -0.0026578552 -0.0008328795 0.0048406306 -0.17230082
-0.0008204724 -0.09032755 -0.0039178734 0.0010614279 0.30065033 0.0034410392 -0.11157801 -0.0071601802
0.29386565 -0.07626949 -0.072783336 0.0008774824 -0.30922362 -0.000104237784 0.16828991 0.13771944
-0.38373658 -0.38570195 0.17585194 -0.1605861 -0.09920343 0.19050281 0.101537414 0.007906515
-0.10672117 0.16808508 1.14069435e-05 -0.52735406 0.072973676 0.56004435 0.018516298 -0.20663583
-0.00022718274 -0.013245968 0.062964715 -0.00024444575 -0.052184083 -0.00093925226 0.010405116 0.10599597
0.07593631 -0.09037208 0.10516241 -0.05576251 -0.017634502 0.020950925 0.0047863834 8.343218e-05
0.09642242 0.00021102795 -0.00017999066 6.1078965e-05 -0.009036555 0.00011696604 -0.022538058 0.0011911909
-0.008354057 0.011122656 0.019618476 -0.07310354 -0.0001918225 -2.6264822e-06 -0.013756285 0.012761686
0.00073499064 0.11380266 0.020668348 3.8101567e-05 0.006643376 0.00084278424 -0.062420562 -0.065424494
0.0063261753 0.01232069 0.043941133 0.00034528767 0.09863271 -2.6193016e-05 0.012528613 0.0020347813
-0.013979053 0.08400157 0.008992641 -0.058263768 -0.0616838 0.060432065 -0.0532803 0.047166355
-0.03674248 0.0082854675 0.00013439545 0.06634663 0.0023471706 -0.06253537 0.0077124857 0.07062922
0.000733947 0.10093845 -0.011095585 0.00022015342 -0.033119977 0.010096849 0.018367715 0.0033428539
0.15486306 0.032285742 -0.119451344 0.059900023 -0.022602137 0.182087 -0.15548652 0.00034299982
-0.1636972 -0.0004317621 0.0071030925 -7.6440476e-05 -0.22789237 -0.0011057908 0.08012307 -0.019709567
0.01261135 -0.044909053 -0.0069582034 -0.0101290215 0.00027165012 -8.619819e-05 0.165141 -0.053290814
-0.0001824723 0.011302133 -0.006938829 -0.0006607223 -0.022690892 -0.00065635756 0.054047212 -0.030428916
-0.0308628 -0.021556001 0.20670523 -0.0011622804 0.031550024 0.000115924406 -0.006151998 -0.10667119
0.25338504 0.12410491 0.078557976 -0.031220429 0.17446725 0.19203478 -0.25160375 0.16602434
-0.097305976 -0.07054955 0.00023122542 0.2196707 -0.013975895 -0.016814772 -0.0060280073 -0.115010284
-0.0026727912 0.10816489 -0.43742183 0.00019852305 0.023985976 -0.0016209759 0.08501557 -0.24301937
-0.02546901 -0.18588464 -0.44347847 0.14621 -0.017047917 -0.19013955 -0.20102453 -0.0024384824
-0.17650318 -0.0002075489 -0.0017605051 0.00027502852 -0.0646877 0.0036746662 0.103456415 -0.16536663
0.11263454 0.30781573 -0.1961293 -0.09458719 -0.0038192284 -0.00033608533 0.17902578 -0.13710287
0.0009976034 -0.14701723 -0.21880879 0.0013491639 0.18924703 0.0031112498 -0.07422489 0.08035949
0.23888387 0.09576435 -0.048489727 0.0028330227 -0.41961688 -0.0006294293 0.1042431 0.0722292
-0.4860955 -0.40512726 0.29366022 -0.3856929 0.015503204 0.17426187 0.024920117 -0.20883428
-0.029575719 0.12241107 -0.0013419653 -0.35455233 0.17094359 0.42671278 -0.17208904 -0.08401787
00000000: d0c3 0abb 8ade 843d 1e62 c7be e32d 05ba
00000010: 2be8 97bd 2b31 6bb9 33bc 92bd 4852 b2be
00000020: 4790 5fbd 24ba e1bd 2df7 b4be 9b4b 873e
00000030: 5dea f13c d11b bfbe dcea 02be bace 4fbb
00000040: 8546 15be 7bf4 1939 ac5c baba 9493 7439
00000050: a29a d1bd e6a3 323b 08a4 353d 43b1 59be
00000060: 3889 b43d 0b48 433e a9e0 01bd 1a17 26be
00000070: 692f 2ebb 9955 5aba 279e 9e3b a06f 30be
00000080: f914 57ba a7fd b8bd 8161 80bb 9c1f 8b3a
00000090: d7ee 993e 0f83 613b 0383 e4bd f29f eabb
000000a0: 8f75 963e 2e33 9cbd 6e0f 95bd d906 663a
000000b0: 8f52 9ebe 3c9a dab8 3154 2c3e 5306 0d3e
000000c0: 1f79 c4be ba7a c5be 8812 343e af70 24be
000000d0: 2b2b cbbd 2b13 433e d9f2 cf3d 548a 013c
000000e0: a190 dabd 7f1e 2c3e 7360 3f37 ad00 07bf
000000f0: 3973 953d 115f 0f3f 7eaf 973c 5898 53be
00000100: e737 6eb9 9e05 59bc a5f3 803d f428 80b9
00000110: fabe 55bd 2738 76ba 387a 2a3c 6a14 d93d
00000120: 7f84 9b3d ff14 b9bd 645f d73d 3b67 64bd
00000130: 3b76 90bc 46a1 ab3c 18d7 9c3b 50f8 ae38
00000140: 1e79 c53d 6247 5d39 e0bb 3cb9 8517 8038
00000150: 0f0e 14bc aa4b f538 bca1 b8bc bc21 9c3a
00000160: 74df 08bc cd3b 363c edb6 a03c 4fb7 95bd
00000170: f623 49b9 9f42 30b6 0b62 61bc 6416 513c
00000180: 63ac 403a 5e11 e93d ab50 a93c 3fcf 1f38
00000190: adb0 d93b 4bee 5c3a b4ac 7fbd 47fd 85bd
000001a0: ce4b cf3b b8dc 493c 9efb 333d ba07 b539
000001b0: f2ff c93d 13b9 dbb7 d044 4d3c f759 053b
000001c0: 6608 65bc 0409 ac3d df55 133c fda5 6ebd
000001d0: 27a8 7cbd 9d87 773d 723c 5abd 8231 413d
000001e0: 487f 16bd c5bf 073c 81ec 0c39 bee0 873d
000001f0: fdd2 193b 8b12 80bd 05b9 fc3b 0da6 903d
00000200: 5966 403a d1b8 ce3d 42ca 35bc fcd8 6639
00000210: d0a8 07bd 416d 253c e477 963c c813 5b3b
00000220: 6c94 1e3e 0e3e 043d e8a2 f4bd ba59 753d
00000230: 1e28 b9bc 0475 3a3e dc37 1fbe a8d4 b339
00000240: 3da0 27be 215e e2b9 0fc1 e83b ab4e a0b8
00000250: 9e5c 69be 2ff0 90ba 9017 a43d f575 a1bc
00000260: d69f 4e3c 8ef2 37bd a401 e4bb 32f4 25bc
00000270: 436c 8e39 4dc5 b4b8 b91a 293e 7847 5abd
00000280: 0956 3fb9 952c 393c 1e5f e3bb 5334 2dba
00000290: 40e2 b9bc 690f 2cba 9c60 5d3d 1046 f9bc
000002a0: fcd3 fcbc 3696 b0bc 89aa 533e a957 98ba
000002b0: 993a 013d 711c f338 b396 c9bb 6d76 dabd
000002c0: afbb 813e b72a fe3d 01e3 a03d fcc1 ffbc
000002d0: 8ba7 323e c4a4 443e 35d2 80be 4902 2a3e
000002e0: 5b48 c7bd 487c 90bd 1a75 7239 5bf1 603e
000002f0: 27fb 64bc 22bf 89bc 9786 c5bb 838a ebbd
00000300: ff29 2fbb 8e85 dd3d c1f5 dfbe a02a 5039
00000310: 3d7e c43c ed76 d4ba a51c ae3d 12da 78be
00000320: 63a4 d0bc 8b58 3ebe 9c0f e3be 13b8 153e
00000330: 13a8 8bbc f1b3 42be 60d9 4dbe f2ce 1fbb
00000340: 40bd 34be 7ca1 59b9 c0c0 e6ba b431 9039
00000350: fc7a 84bd abd2 703b f5e0 d33d df55 29be
00000360: f0ac e63d 069a 9d3e 1fd6 48be eeb6 c1bd
00000370: 054c 7abb 9c34 b0b9 8952 373e b264 0cbe
00000380: 04c2 823a af8b 16be 690f 60be 6ed6 b03a
00000390: f9c9 413e 1ce6 4b3b 3803 98bd 8493 a43d
000003a0: f99d 743e 1920 c43d 2a9d 46bd 3caa 393b
000003b0: 06d8 d6be 4900 25ba 687d d53d e7ec 933d
000003c0: 82e1 f8be d76c cfbe a25a 963e 8a79 c5be
000003d0: 2701 7e3c b471 323e 4625 cc3c a7d8 55be
000003e0: c748 f2bc a8b2 fa3d e2e4 afba e287 b5be
000003f0: d60b 2f3e 197a da3e 1c38 30be 9011 acbd

bias f4 [64]
0.12156848 0.006265709 -0.020162812 0.09862107 0.0060252086 0.009572699 0.090761326 0.0039483067
0.04080982 0.01787986 0.017799973 0.12662007 0.029445872 0.012944649 0.2161206 0.065612055
0.029352818 0.10473987 -0.015596086 0.10393529 0.11221269 0.017864123 -0.010611992 0.14385797
0.0014301011 0.007996592 -0.011967479 0.0028681376 -0.0013793099 -0.007844454 0.00656579 0.032987352
0.10142589 0.07029269 -0.097074434 -0.0054223943 0.032062326 0.15080737 0.027603164 0.012732071
0.028534053 0.03989931 0.039830822 -0.09188685 -0.023268506 0.020728823 0.09538485 0.01710833
0.11339338 0.039528273 0.11937195 0.044524014 0.03510121 0.018378474 -0.020756897 0.10867048
0.022129295 -0.0073102354 0.014832778 0.13911803 0.0326415 0.09939998 0.10564456 0.006874109
00000000: e5f8 f83d 9450 cd3b 7b2c a5bc d8f9 c93d
00000010: 1d6f c53b cfd6 1c3c 13e1 b93d cc60 813b
00000020: 3328 273d c978 923c 40d1 913c b1a8 013e
00000030: 7838 f13c cb15 543c b84e 5d3e 9d5f 863d
00000040: 5275 f03c db81 d63d ba86 7fbc 06dc d43d
00000050: c4cf e53d c857 923c ecdd 2dbc 814f 133e
00000060: 3b72 bb3a 2304 033c 3f13 44bc 5df7 3b3b
00000070: f6c9 b4ba 0686 00bc d725 d73b bf1d 073d
00000080: 61b8 cf3d 9df5 8f3d f6ce c6bd 57ae b1bb
00000090: c953 033d 3f6d 1a3e 0820 e23c 2d9a 503c
000000a0: 3fc0 e93c 756d 233d a525 233d 2c2f bcbd
000000b0: 989d bebc 7ecf a93c 2259 c33d c526 8c3c
000000c0: ca3a e83d 66e8 213d 4879 f43d d05e 363d
000000d0: 49c6 0f3d 748e 963c 5e0a aabc a18e de3d
000000e0: 7f48 b53c b38a efbb 2e05 733c f574 0e3e
000000f0: 18b3 053d 3792 cb3d 2d5c d83d 3540 e13b

weight f4 [2, 64]
0.5241769 -0.07320341 -0.2575147 0.56807715 -0.42416036 -0.5548363 0.62497514 -0.064047374
-0.36587024 -0.63117063 0.16259599 0.51543576 -0.19334514 -0.47163233 0.36391023 -0.46930373
-0.7017268 0.69407433 0.12702121 0.6735165 0.46742764 0.085709825 -0.55248135 0.63316256
-0.4628133 -0.36339238 -0.47080302 -0.60841715 -0.017741177 0.04175014 -0.4497815 -0.39020154
0.534176 0.46982923 -0.27228725 -0.35350102 -0.5727221 0.5404105 0.09202081 -0.28058606
0.28186175 -0.486734 -0.42146468 0.46142122 0.2818596 -0.5795387 0.6112917 -0.6080524
0.49702427 -0.538475 0.49569818 0.7376042 -0.5158851 -0.3239813 -0.18854603 0.6378707
-0.55044156 -0.033849403 0.6740783 0.41683382 -0.28493437 0.5025999 0.48077965 -0.569766
0.4492968 0.08662604 0.28872803 0.6085959 -0.29538128 -0.33517927 0.3727178 0.1572729
-0.24394463 0.039572436 -0.2788946 0.4422678 -0.28880653 0.16358483 0.38444343 -0.45673653
-0.12720904 0.19153222 0.010544718 0.47906396 0.48128024 -0.4855825 -0.061210632 0.4631635
0.021433176 -0.18183601 -0.21298824 -0.1612954 7.039401e-05 -4.0752577e-05 -0.40571105 -0.48116428
0.4032099 0.30562484 -0.24044248 -0.2509245 -0.47554547 0.50499994 0.07402522 0.17727539
-0.2027768 -0.55502564 -0.14568965 -0.17882216 -0.00035678226 0.040967807 0.61172366 -0.16351616
0.20511185 0.17262933 0.34223917 -0.16366124 -0.15001805 -0.5512306 -0.13532346 0.404517
0.07598575 0.022934902 0.19886374 0.61816967 -0.19445659 0.47345558 -0.24820799 -0.36841235
00000000: 7530 063f abeb 95bd f7d8 83be 816d 113f
00000010: 8c2b d9be c009 0ebf 5ffe 1f3f 452b 83bd
00000020: 5853 bbbe 6694 21bf 907f 263e 99f3 033f
00000030: 45fc 45be cb79 f1be 7152 ba3e 9448 f0be
00000040: 5ea4 33bf dbae 313f d911 023e 946b 2c3f
00000050: ad52 ef3e a288 af3d 6b6f 0dbf f116 223f
00000060: ddf5 ecbe 910e babe 180d f1be 3ac1 1bbf
00000070: f255 91bc 3202 2b3d c349 e6be 7fc8 c7be
00000080: c2bf 083f 758d f03e 3c69 8bbe 16fe b4be
00000090: ea9d 12bf 5858 0a3f 6875 bc3d faa8 8fbe
000000a0: 2f50 903e 3335 f9be 38ca d7be 673f ec3e
000000b0: e74f 903e a65c 14bf 9d7d 1c3f 52a9 1bbf
000000c0: f779 fe3e 7fd9 09bf 27cc fd3e a1d3 3c3f
000000d0: 0c11 04bf e1e0 a5be 3612 41be 7f4b 233f
000000e0: bde9 0cbf aca5 0abd 6590 2c3f 3e6b d53e
000000f0: ebe2 91be 63aa 003f c028 f63e 2fdc 11bf
00000100: 3b0a e63e fe68 b13d 29d4 933e f1cc 1b3f
00000110: 373c 97be 9e9c abbe ded4 be3e 260c 213e
00000120: 9fcc 79be b516 223d 46cb 8ebe ed70 e23e
00000130: 73de 93be c882 273e c5d5 c43e 5fd9 e9be
00000140: 1643 02be 0621 443e c1c3 2c3c df47 f53e
00000150: 5d6a f63e 459e f8be 00b8 7abd c423 ed3e
00000160: a194 af3c 3833 3abe 9719 5abe 9f2a 25be
00000170: 7fa0 9338 bfed 2ab8 5cb9 cfbe 2a5b f6be
00000180: 8771 ce3e dc7a 9c3e 8e36 76be 2d79 80be
00000190: b27a f3be ad47 013f 899a 973d ae87 353e
000001a0: b9a4 4fbe 2916 0ebf ab2f 15be 281d 37be
000001b0: 810e bbb9 dccd 273d ec99 1c3f c870 27be
000001c0: d708 523e bec5 303e f939 af3e d096 27be
000001d0: 559e 19be 731d 0dbf 3c92 0abe da1c cf3e
000001e0: 6b9e 9b3d fae1 bb3c f0a2 4b3e 5e40 1e3f
000001f0: a11f 47be c568 f23e 3c2a 7ebe 8ba0 bcbe

bias f4 [2]
0.017429966 -0.057269234
00000000: 4ac9 8e3c 2593 6abd
