checkpoints/vehicle_repositioning/unknown/1-ra/50pct-constraint/run-1/policy229.pt (torch, 913815 bytes, 6 tensors)

weight f4 [256, 627]
00000000: c671 083e 39cc cf3d d56b 9f3b d56b 9f3b
00000010: d56b 9f3b cd6b 9f3b b969 9f3b cac0 9d3b
00000020: ac25 9d3b 09a1 9e3b 8847 9f3b f467 9f3b
00000030: cb6b 9f3b d56b 9f3b d56b 9f3b d56b 9f3b
00000040: d56b 9f3b d56b 9f3b d56b 9f3b d56b 9f3b
00000050: d56b 9f3b d56b 9f3b d56b 9f3b d56b 9f3b
00000060: d56b 9f3b d56b 9f3b d56b 9f3b d56b 9f3b
00000070: d26b 9f3b ef69 9f3b 9de6 9e3b 7fb8 973b
00000080: 836c 813b dfc2 723b 6723 443b 91db 463b
00000090: 70e3 913b 2e18 9f3b b46b 9f3b d56b 9f3b
000000a0: d56b 9f3b d56b 9f3b d56b 9f3b d56b 9f3b
000000b0: d56b 9f3b d56b 9f3b d56b 9f3b d56b 9f3b
000000c0: d56b 9f3b d56b 9f3b d56b 9f3b d56b 9f3b
000000d0: 8d6b 9f3b 3843 9f3b d9ce 993b e034 4f3b
000000e0: ef37 0f39 2d27 25bb 8e44 9b38 fca7 15bc
000000f0: 0980 88bc 8588 d6bb ba10 813b 5d2b 9f3b
00000100: bf6b 9f3b d56b 9f3b d56b 9f3b d56b 9f3b
00000110: d56b 9f3b d56b 9f3b d56b 9f3b d56b 9f3b
00000120: d56b 9f3b d56b 9f3b d56b 9f3b d56b 9f3b
00000130: d56b 9f3b 0f0a 9e3b 6366 823b 221c 72ba
00000140: 8880 17bc f97b aabb 81f4 0aba 7de5 e839
00000150: 327d 98bb b354 88bc 4a15 4fbc 2924 4abc
00000160: 6be9 873b bce8 9e3b 3968 9f3b aa6b 9f3b
00000170: d36b 9f3b d56b 9f3b d56b 9f3b d56b 9f3b
00000180: d56b 9f3b d56b 9f3b d56b 9f3b d56b 9f3b
00000190: d56b 9f3b d56b 9f3b 158d 3e3b 435e 4abb
000001a0: 79a0 00bc 69a3 f5bb cae6 c7bb 421f 19bc
000001b0: 4482 e7bb 435c 0ebc e379 82bc b39b 17bc
000001c0: 22e7 a3bc 8e43 8cbb 9313 5b3b cda4 933b
000001d0: 7037 9d3b c821 9f3b 5166 9f3b a36b 9f3b
000001e0: d26b 9f3b d36b 9f3b d16b 9f3b d36b 9f3b
000001f0: d56b 9f3b d56b 9f3b d56b 9f3b 281c 6fbb
00000200: de43 eabb b01a fbbb b2f7 58bb 6d67 e7ba
00000210: 7bff 06bc 0f2b 3cbc 991f 4cbc 5905 81bc
00000220: 8ee7 20bc f504 98bb eda1 23bc 4572 ebbb
00000230: 5c95 b6ba 00e8 cb3a 8b48 753b a348 963b
00000240: 390c 9e3b 4396 9e3b 1191 9e3b c381 9e3b
00000250: b948 9f3b 746b 9f3b d56b 9f3b d56b 9f3b
00000260: bc6f 08bb 9dd0 43bb 8bf4 a33a c89b 253b
00000270: ecae 633a d076 f3bb 1b25 cebb c106 e7ba
00000280: c069 b8bb 6a07 c5bb 1895 3abc 43f6 8bbc
00000290: f25e 99bc b596 0fbc 461f 58bb bed7 df3a
000002a0: 3fad 6e3b 1149 843b 7fde c03a 9873 e5bc
000002b0: 1cad 99ba 28a4 853b b8e4 9d3b 1267 9f3b
000002c0: b76b 9f3b 4a2a 23b8 f6c3 8fba 4e8f 2b3b
000002d0: 09d1 de3a e719 61bb 4f2b c5bb 385a 75bc
000002e0: aef8 8dbb 2b8b 71bb 5568 b3bb e217 d0bb
000002f0: 7388 91bc ecf2 8fbc 51bd e6bb 3fb4 c7bb
00000300: 618f 33bb 0b0c 0e3a 1c31 6fba 27fb e6bb
00000310: 4494 80bc 5908 39bc 0970 3fbb ab79 b23a
00000320: 61e4 923b e3db 9d3b 1358 34ba f3e5 343a
00000330: 3840 cb3a 3b20 b6ba c06d d4bb eec0 0bbc
00000340: 0d24 92bb 8f20 b738 a4a0 0a3b 1b7e 4dba
00000350: 3743 6bbb c30c 5bbb d90a f1bb 64ca e0bb
00000360: b2e1 d7bb 4a7a 53bc f089 1fbc 28f9 09bc
00000370: 3986 88bc 6ebf 6abc ec08 b2bc ef9b 8cbc
00000380: 10b7 7ebb a394 65bb a5be 0a3b 99bd 7a3b
00000390: a3bc 1f3b c315 c53a 253e 16bb 4242 33bb
000003a0: 28b2 bfbb 2ca5 01bc 1d05 7abb 4a90 a9bb
000003b0: 38e9 71bb 4366 96bb 73c7 6cbb 70a5 4a39
000003c0: 2df1 34bb dea4 9fbb 6d4c a3bb d9ec 7abb
000003d0: b90c 1abc 655c ddbb d7f3 55bc 42d1 58bc
000003e0: 2f96 8ebc e254 6abc b0b6 2fbc b9d3 0bbb
000003f0: 21e7 373b dc81 233b b411 9d3a bfd4 3eba
0.13324651 0.10146374 0.0048651495 0.0048651495 0.0048651495 0.004865146 0.004864898 0.004814242
0.0047957506 0.004840974 0.004860822 0.004864687 0.004865145 0.0048651495 0.0048651495 0.0048651495
0.0048651495 0.0048651495 0.0048651495 0.0048651495 0.0048651495 0.0048651495 0.0048651495 0.0048651495
0.0048651495 0.0048651495 0.0048651495 0.0048651495 0.004865148 0.004864923 0.0048492686 0.004630148
0.003949703 0.0037042422 0.0029928328 0.0030343274 0.0044521615 0.0048551774 0.004865134 0.0048651495
0.0048651495 0.0048651495 0.0048651495 0.0048651495 0.0048651495 0.0048651495 0.0048651495 0.0048651495
0.0048651495 0.0048651495 0.0048651495 0.0048651495 0.004865116 0.004860308 0.0046938476 0.003161721
0.0001365838 -0.0025200353 7.403745e-05 -0.009134289 -0.016662614 -0.006547036 0.0039387615 0.004857464
0.0048651393 0.0048651495 0.0048651495 0.0048651495 0.0048651495 0.0048651495 0.0048651495 0.0048651495
0.0048651495 0.0048651495 0.0048651495 0.0048651495 0.0048651495 0.0048229764 0.0039794906 -0.00092357595
-0.009246953 -0.005202767 -0.0005300716 0.0004442147 -0.0046535963 -0.01664195 -0.012639353 -0.012337723
0.0041476986 0.0048495214 0.004864719 0.0048651295 0.0048651486 0.0048651495 0.0048651495 0.0048651495
0.0048651495 0.0048651495 0.0048651495 0.0048651495 0.0048651495 0.0048651495 0.002907579 -0.0030878938
-0.00785076 -0.0074962866 -0.0061005102 -0.009345831 -0.0070650894 -0.008688989 -0.01592726 -0.00925343
-0.020007674 -0.004280514 0.0033428415 0.00450573 0.0047978684 0.004856322 0.004864492 0.004865126
0.004865148 0.0048651486 0.0048651476 0.0048651486 0.0048651495 0.0048651495 0.0048651495 -0.0036485288
-0.0071492037 -0.0076630935 -0.0033106622 -0.0017654725 -0.008239622 -0.011484875 -0.012458705 -0.01574962
-0.009820832 -0.004639263 -0.009987337 -0.007185253 -0.0013930011 0.0015556812 0.0037427272 0.0045862957
0.0048232344 0.00483969 0.0048390706 0.004837246 0.004860964 0.0048651043 0.0048651495 0.0048651495
-0.0020818552 -0.0029878982 0.0012508793 0.0025269855 0.0008685428 -0.007429935 -0.0062910444 -0.0017625914
-0.0056278408 -0.0060128467 -0.011388086 -0.0170852 -0.018722031 -0.008763959 -0.0032977625 0.0017077846
0.003641918 0.0040370305 0.0014714747 -0.028009221 -0.0011724564 0.004078407 0.004818525 0.004864582
0.0048651355 -3.8901613e-05 -0.0010968435 0.0026177946 0.0016999553 -0.0034347714 -0.0060171257 -0.014975123
-0.0043326234 -0.0036856632 -0.005475084 -0.0063505033 -0.01776526 -0.017571889 -0.0070416112 -0.006094485
-0.0027398693 0.00054186647 -0.00091244443 -0.0070489827 -0.015695699 -0.011293494 -0.0029211065 0.0013616582
0.0044827913 0.0048174723 -0.0006879579 0.000690072 0.001550681 -0.0013895103 -0.00648281 -0.008529885
-0.004459864 8.7321845e-05 0.0021152878 -0.00078389206 -0.0035898217 -0.0033424355 -0.0073560295 -0.0068600643
-0.0065881843 -0.012907574 -0.009737477 -0.00842122 -0.016665565 -0.014327867 -0.02173277 -0.017164199
-0.0038866438 -0.0035031221 0.0021170762 0.0038259982 0.002437391 0.0015036393 -0.0022925225 -0.0027352725
-0.0058500953 -0.007912915 -0.003815002 -0.0051746713 -0.003691269 -0.0045898273 -0.0036129623 0.00019325851
-0.0027609572 -0.0048719486 -0.004983476 -0.0038288145 -0.009402447 -0.006755399 -0.013058624 -0.013233485
-0.017405597 -0.014302464 -0.010724708 -0.0021335913 0.0028061348 0.0024949228 0.0011983425 -0.00072796264

bias f4 [256]
00000000: cb90 94bd ae87 36be 1451 67bd 9148 d2bd
00000010: da00 1f3e 6bdf ec3b 10e0 9db9 1b34 d3bc
00000020: ffc7 ca3c 4931 8ebc 4542 13be 88d9 fab8
00000030: 2a58 9ebd 996e 35bd 1a54 fbbd 6bdd 17be
00000040: a07c d3bd 8862 093c 1ad7 82b8 f913 cdbd
00000050: b037 c7bd 0d52 073e 745a 933d 7593 f33d
00000060: fd87 f1bd 7a64 d7bd 98be 8abd e830 0cbe
00000070: e269 dc3b f5f3 1abd ff97 07bb 234d 6e3d
00000080: 1e2f 82bd 537d a63d 5383 67be 5fa0 fa3c
00000090: 63da 1dbd 2c69 073e 505f d53c 7d5d 29be
000000a0: a48d 293e d454 a43d ac23 9b3d 07b9 b0bd
000000b0: 038b 6f3c 7984 23bd 53e3 ff3d 8f59 d4bd
000000c0: d728 8f3d ba48 b43b c8d1 663d 9cfc d1bc
000000d0: e189 b6b3 863b 3ebe 98c0 16b8 b68d 293d
000000e0: 68fa 83bd 8826 0a3d 2e8e 9f3d a7e1 313d
000000f0: e4cc 2abe f89b 2c3c fc96 52bd fcb3 49bd
00000100: 468e 1aba 9771 d6bd 73ba 203e 09ab 01bc
00000110: 55ff 4bba 46f4 ce3c 21f1 0fb9 9084 0dba
00000120: 2e6f 2b3d 453f 26b7 cc23 9bbd 9181 a93c
00000130: 78eb 223d feeb 5ab9 3dbe 02be cacb 9eba
00000140: 83ac 1bbb 2a4b 18bd c314 353e 0b03 7bbd
00000150: 2e33 b0bd 6cf2 02bd d692 d63d 1572 533c
00000160: 0d24 5e3d d6d3 e5b8 3d05 23bd 207d 4db0
00000170: a5c4 58bc 11f5 1c3c 9390 343c ec99 53ba
00000180: 5866 173d 616d 373c 239c 533d 0abb 0bbd
00000190: 6088 7cbd ad4d 053e 876d 81bc 5360 0ebe
000001a0: 8abf b3bc 6d4b 6a3d 20db 5db8 0c32 3fbb
000001b0: 97f4 90bd 7582 ecbd 6f7b 8abd 101a 273e
000001c0: ff76 cebd 099c 83bd 815b 39bb d80a 8e3d
000001d0: 4381 113e 63b4 34be ef27 87b9 ff2c c4bd
000001e0: ac42 fc3d bf7d db3d f0f5 073d 026d f4bd
000001f0: 3e77 1bbe b898 db3d b80e 41bd bd28 14bd
00000200: bbaf 1b3d a79f 28be 48ea 333e 35d9 df3d
00000210: cb36 9f3d 99e8 8eb8 948e 963d 326e b3ba
00000220: 852b 953d fd5c d93d 1a2f a33d 492e 0eb8
00000230: d798 1aba 170a e8bd eb93 bcbb 67f4 333d
00000240: 3ae4 1a3c 3592 1d3e c731 bfbd 8959 e1b6
00000250: a3b6 ab3c 459a a8bd 56e5 34b9 6b6d 03bd
00000260: f36a 103d ef5a 2ebe 33e4 23bd 25f6 91b9
00000270: b32e bdbc 942e 21bd da3b 24bd b046 ab3d
00000280: 5e34 dd3d 2cca e93d c2f1 11bb adb6 58bc
00000290: 1028 2f3c 7fcc 143e 7f4d 06be 3942 bc3d
000002a0: 3ebf 7bbd 07f4 c2bd a628 25b8 d081 133e
000002b0: 6972 ec3d 001c acb6 1a69 113d 1548 55be
000002c0: 8d36 343d a457 99bd 9fbc c6bc 1fa8 dabd
000002d0: 83fd 913d 7677 033e b68b 933d e4eb 1bb4
000002e0: 3e9c 34bb 48b3 86bd cf63 9f3d 2492 1ebd
000002f0: bf35 d6bd d272 4abb 15b0 d0bd 8830 01b8
00000300: 9bad 033e a177 19bc 1b6e 9fbd 6fff b5bd
00000310: 95fb 06b8 83d0 2ab6 1e1d feb7 9322 093e
00000320: fc3f 45be 60fd 9bb3 330d 183e be2b 91bc
00000330: 977d 32b6 0ad8 cf3d 676c c03a 412f 093e
00000340: 9dd2 dfbc 90da c0bd dc50 903d f632 e03c
00000350: c046 1cbe 0b91 1a3c 41cd f4bd ae66 8d3d
00000360: 437b 11be 03ed db3d 0a07 d33b c6dc d9b9
00000370: 3708 d2bd d68c 9abd 81fe 7a3d f27b f8af
00000380: f5e1 af3c 6bd7 93b6 aaab 243d dffe 8fbd
00000390: 3168 a53d cc90 0fb9 c479 a1ba 5eaf 0f3d
000003a0: 9e53 20ba f5b6 9b3d 8755 0c3d b486 dfbc
000003b0: cecb 1dbe 3ac5 2abd 7e2c 243e 345a d0bd
000003c0: e8de 783d dbfb 8abd c472 d03d 65f0 06be
000003d0: aa62 87bd 338a af3c 7971 c5bc 6083 a4bd
000003e0: 8b31 d1bc f2e0 efbd 3ee8 a53d 68ab f53d
000003f0: dfca 243d a12a 9a3d a240 043e 8e1a aabd
-0.072541796 -0.17825195 -0.056473807 -0.10267747 0.15527669 0.007228782 -0.00030112313 -0.025781682
0.024753569 -0.017357485 -0.14380749 -0.00011961447 -0.0773166 -0.044294927 -0.122719005 -0.14830558
-0.10326505 0.008385308 -6.238949e-05 -0.10013575 -0.097274184 0.13214894 0.07194987 0.118933596
-0.11793516 -0.10517211 -0.06774634 -0.13690531 0.0067264894 -0.03783031 -0.0020689962 0.058179032
-0.06356643 0.081293724 -0.2260869 0.030594049 -0.038538348 0.13223714 0.026046425 -0.16539569
0.16557938 0.08023992 0.07575163 -0.08629041 0.014620545 -0.039921258 0.124945305 -0.103686444
0.069902115 0.0055018337 0.056352407 -0.025633149 -8.5001155e-08 -0.18577394 -3.5942154e-05 0.04139491
-0.064442456 0.033728153 0.077907905 0.04342809 -0.16679722 0.010535233 -0.05141352 -0.049243912
-0.0005895834 -0.10470884 0.15696125 -0.007914313 -0.0007781883 0.025262963 -0.0001372737 -0.00053984765
0.041854076 -9.909102e-06 -0.07575187 0.020691665 0.03977534 -0.00020878014 -0.12767883 -0.0012115177
-0.0023753948 -0.037181057 0.17683701 -0.0612822 -0.08603512 -0.031969473 0.104772255 0.012905617
0.0542336 -0.000109590284 -0.039799917 -7.475638e-10 -0.013230477 0.009579913 0.011020797 -0.00080719474
0.036962837 0.011195512 0.051662575 -0.03411392 -0.061653495 0.13017912 -0.015799297 -0.13903932
-0.021941919 0.057200838 -5.2894582e-05 -0.0029174117 -0.07077902 -0.1154832 -0.06761824 0.16318536
-0.100812905 -0.06426246 -0.00282833 0.06935662 0.14209466 -0.17646937 -0.0002577896 -0.09578895
0.12317404 0.107173435 0.03319353 -0.11934854 -0.15182206 0.10722488 -0.047133178 -0.036171664
0.038009387 -0.16467153 0.1756984 0.10930101 0.07774123 -6.814412e-05 0.07351413 -0.0013689457
0.07283691 0.10613439 0.07967968 -3.3898545e-05 -0.00058974087 -0.113300495 -0.005754938 0.043934252
0.0094538275 0.15387805 -0.09335666 -6.715946e-06 0.020961111 -0.082325496 -0.00017251572 -0.03208677
0.035258245 -0.17026876 -0.04001255 -0.00027839947 -0.023093557 -0.03935106 -0.04009614 0.08363092
0.10801004 0.11415514 -0.0022269343 -0.013227147 0.010690704 0.14531134 -0.131155 0.091923185
-0.06146168 -0.09519201 -3.9376922e-05 0.14404988 0.115452595 -5.129259e-06 0.035500623 -0.20828278
0.043997336 -0.07487419 -0.024259863 -0.10676598 0.07128432 0.1283854 0.07204382 -1.4521316e-07
-0.0027558948 -0.06577164 0.07782709 -0.03871359 -0.1045947 -0.0030891192 -0.10189835 -3.0801195e-05
0.12859194 -0.009366901 -0.07784673 -0.08886611 -3.2182394e-05 -2.5453344e-06 -3.0292718e-05 0.13392095
-0.1926269 -7.2638386e-08 0.14848785 -0.017721053 -2.659717e-06 0.10148628 0.0014680744 0.13396932
-0.027322108 -0.094166875 0.07046673 0.02736805 -0.15261364 0.009433995 -0.119532116 0.0690435
-0.14207177 0.10738566 0.006440048 -0.00041553954 -0.10255473 -0.075463936 0.06127787 -4.5199006e-10
0.02147005 -4.4060193e-06 0.040202774 -0.07031035 0.080765136 -0.00013691484 -0.0012319614 0.035079353
-0.00061159756 0.07603256 0.034261253 -0.027285911 -0.15409777 -0.041691996 0.16032597 -0.10173455
0.060759455 -0.06786319 0.1017814 -0.1317764 -0.066106156 0.021428203 -0.02410196 -0.0803287
-0.02553632 -0.11712827 0.08100937 0.11995584 0.040232535 0.07527662 0.1291528 -0.08305846

weight f4 [256, 256]
00000000: bb9c a0bc df9c d0b9 9fd0 dcbc 6f3a 883c
00000010: 18e8 403d 585b 03bd 320f f836 38ed 933d
00000020: bca4 513c 1a0c 83bc 797e d9b6 3054 1636
00000030: 4ad0 95bc 4f48 dbbb 64fb 79bd d5a8 44ba
00000040: bf25 8ebd 15bb e5bc 89c9 b035 6460 8e39
00000050: 0fa3 3cbb 65a8 913d 11b7 a13c f25e a3bb
00000060: 7aba c23c a88c 43bc 58c6 cabd 8066 40b7
00000070: 9f2e d0bc 56eb 88bd 8d1c 5438 b5a6 913c
00000080: 2c75 85bc ddb0 833c 839b bc39 0b4c 15bd
00000090: 7da5 e03c f76b 223d 56a9 9abd fc91 47ba
000000a0: f0d1 663c 01d4 753d 63de 273d d731 26bd
000000b0: 56dd 363c f978 66bd eb38 4c3d 28a2 663c
000000c0: a99a a83c d308 0dbd 4bb5 74bd 0fe3 bdbc
000000d0: 317d ca30 da66 62ba 9647 b134 bd7f cabc
000000e0: a97c 5fbd db96 153c a66d 453c f139 46bd
000000f0: bab2 bfb9 fa3b e4bc 850f d2bd 5347 0dbd
00000100: 4fd9 3636 25f9 d9bc 164a 203d 9a3d 6bbd
00000110: c1ad 1437 35ab ae3c f80f df34 af75 f736
00000120: 42e0 633c b7d2 0833 fae6 5abd abb6 fb3b
00000130: bd33 15bd b59c 8935 02ce 1cba bea9 ea36
00000140: 3ed6 4537 cd95 8cbd e34c 203d fb55 babb
00000150: f865 68bd 6dc9 40bd feaf bebc 8443 18bd
00000160: 0577 6bbd 98e5 1634 f1e5 29bd c216 07ae
00000170: bcfc 90bc 88b5 12bd f207 0abd 9ac3 2836
00000180: 30e3 cc3a 8c90 a6bc 729e f3bb 4ad1 013c
00000190: 325e d6bb c916 073d 41ba 81bb 0f3d c43b
000001a0: 1a9e 2cbd 4d24 3a3c 5eec 0534 e137 fb37
000001b0: 171c e5bc 3486 e8bc fb3d be3a cbd7 823c
000001c0: 8530 5bbb 246b 4fbe 0503 0c38 60c5 e83c
000001d0: 048e 443c 740f 5bba 3897 2f35 dfce 963c
000001e0: 5ed0 783d 1334 81bc 046c 0abd 0211 76bd
000001f0: 002e 19ba 7a2d 133d 2c41 07bd 91a5 c2bb
00000200: b782 4bbd 5f89 39ba a8bd 453d 0b91 de3c
00000210: 79bf 43bd 5595 0eb8 a004 01bc 0072 3c37
00000220: d7b6 cc3c a6dd e03c d524 683d e938 5b34
00000230: 778f aebb 8ba4 933c ffc4 b1bc c31a 0fbd
00000240: b7d1 09bd d433 483c 3204 8a3c 41f5 8ab4
00000250: bffa 4dbd ab44 9cbd 64ff 2336 cb87 9bbd
00000260: a92a 87bd f5db debd dc9e 9abd 1d3e d135
00000270: 628b 65bd 6c3d 42bd 3459 a4bb c153 213c
00000280: ee2e 023d f803 21bb dc4b 1038 d0df 03bd
00000290: a163 fbbc ecf9 283d c742 e6b9 56f7 663d
000002a0: c854 03bc 1916 c238 ddc3 d634 b99e 273c
000002b0: dd9e d93c 23af 9432 73e2 0abd e8a4 d4bc
000002c0: 8db1 6f3c 1dd9 80bd 30f9 85bc ce22 ae3b
000002d0: 3149 0abc 7dd1 803c b702 403c 41b2 7934
000002e0: c353 9637 bb91 29bd f42a f5bc 25a0 f0bc
000002f0: 4781 323c 4c42 0238 6e08 61bd ff93 4235
00000300: bcdf fb3c 3a41 b6bc 1475 8abc 8d32 9cbd
00000310: 9454 ab34 e966 d4b2 302c 8234 e4f1 8b3d
00000320: 282a 79ba 9a60 0931 d790 b637 809f 8e3d
00000330: afc4 8532 a420 853a 6618 24bc 2af3 f13c
00000340: 1ad9 41bd 243a 413b 24b7 e33b 61e7 aebc
00000350: f7fa 7536 916f 03bd d846 11bd 224b 9cbc
00000360: 128f 1cba c324 a43d c065 58bc 921b bbbb
00000370: cb2c 53bd d2d3 3fbb 9f79 213c 4f37 3330
00000380: 6f9a 763c c7e6 0034 7364 363e fe45 4d39
00000390: 437b c439 97c4 9a35 d645 2bbd 9172 23bb
000003a0: 7057 3837 9433 48bd b428 41bd 1707 5dbd
000003b0: 6734 90bd 5208 ae3c 079d 52bd 2d57 51bd
000003c0: c3ba b33c 7a1d 85bc 78ff 9b39 acea d93c
000003d0: 424c 29ba aded 0bbd 742e 1bbd b446 64b9
000003e0: a9ac 2cbd f828 f9bc 9646 0f3d 2d5f 883a
000003f0: 53fd 71bd 7777 293d 4493 8b3d 5779 e8bc
-0.019605985 -0.0003978973 -0.026954947 0.016629426 0.04709634 -0.032069534 7.392745e-06 0.0722298
0.012795623 -0.015996981 -6.4818273e-06 2.2400745e-06 -0.018287797 -0.0066919695 -0.06103076 -0.00075019646
-0.06940793 -0.02804331 1.3171676e-06 0.00027156167 -0.0028783714 0.07112197 0.019740613 -0.0049856836
0.02377056 -0.0119353905 -0.09901112 -1.1467957e-05 -0.025412856 -0.06685512 5.057133e-05 0.017779687
-0.016291223 0.016075546 0.0003597402 -0.036449473 0.027422661 0.039653745 -0.075518295 -0.0007613001
0.014088139 0.060016636 0.04098357 -0.040574875 0.011161169 -0.056267712 0.04985897 0.014076747
0.02058156 -0.034432244 -0.059743207 -0.023179559 1.4733016e-09 -0.0008636542 3.3020905e-07 -0.024719113
-0.054562245 0.009130205 0.012050068 -0.0483951 -0.0003656352 -0.02786063 -0.10256866 -0.03449185
2.7246604e-06 -0.02660806 0.039133154 -0.057431795 8.861943e-06 0.021321872 4.1548606e-07 7.374874e-06
0.013908448 3.185661e-08 -0.053442933 0.007681688 -0.036426295 1.0252903e-06 -0.0005981625 6.993504e-06
1.1791997e-05 -0.0686451 0.039135825 -0.005686519 -0.05673787 -0.047067095 -0.023277279 -0.037173763
-0.057486553 1.4053364e-07 -0.041479055 -3.071566e-11 -0.017698638 -0.035817653 -0.033698983 2.5147806e-06
0.0015631672 -0.020332597 -0.0074346596 0.007923434 -0.0065419907 0.032980714 -0.003958971 0.005988724
-0.042142965 0.011361194 1.247258e-07 2.9947552e-05 -0.027967496 -0.028384306 0.0014514321 0.015972039
-0.0033445668 -0.20255715 3.3381413e-05 0.028414428 0.01199675 -0.00083564897 6.541263e-07 0.01840919
0.06074559 -0.015771901 -0.033794418 -0.060074814 -0.00058433414 0.03593204 -0.033021137 -0.005940147
-0.049685206 -0.000707766 0.048276573 0.027168771 -0.047790024 -3.3994515e-05 -0.007874638 1.1232216e-05
0.024989529 0.02744944 0.05667575 2.0416668e-07 -0.005327161 0.018022796 -0.02170038 -0.03493763
-0.033647265 0.012219388 0.016847704 -2.588295e-07 -0.05028796 -0.07630285 2.443755e-06 -0.0759426
-0.06599934 -0.10881797 -0.07549831 1.5589791e-06 -0.05604113 -0.047421858 -0.0050155167 0.009846629
0.031783037 -0.0024569016 3.4402925e-05 -0.032195866 -0.030687155 0.04125397 -0.00043918772 0.05638822
-0.008015819 9.254757e-05 4.0003115e-07 0.0102307135 0.02656501 1.730911e-08 -0.033907365 -0.02595754
0.014629734 -0.06291411 -0.016354173 0.0053142076 -0.008440302 0.015724892 0.011719397 2.325478e-07
1.7920398e-05 -0.041398745 -0.029927708 -0.029373238 0.01089508 3.105616e-05 -0.05493968 7.2485994e-07
0.030746333 -0.0222479 -0.01690153 -0.07626829 3.191277e-07 -2.4726846e-08 2.4246538e-07 0.06833246
-0.0009504878 1.9991035e-09 2.1763537e-05 0.06964016 1.557268e-08 0.0010156822 -0.010015583 0.029534895
-0.047326185 0.0029484117 0.0069493223 -0.021350564 3.6653926e-06 -0.03208882 -0.035467952 -0.019078795
-0.0005972247 0.08014824 -0.013207853 -0.0057100737 -0.05155639 -0.0029270542 0.009855657 6.519842e-10
0.015051468 1.2004885e-07 0.17811756 0.00019576398 0.0003747587 1.1531109e-06 -0.041814648 -0.0024940113
1.0987613e-05 -0.048877314 -0.04715796 -0.05396184 -0.07041245 0.021244202 -0.051419284 -0.051108528
0.02193964 -0.016249407 0.00029754243 0.026601158 -0.00064582017 -0.034162212 -0.037886098 -0.00021770113
-0.04215685 -0.030415043 0.034979425 0.0010404341 -0.05907948 0.041373696 0.06815198 -0.028378172

bias f4 [256]
00000000: 24d2 dc3c aacc 123d cff6 d23b 79bd 16bd
00000010: d961 99bb 0fda 55bb 0a8b ffb3 fbd6 173c
00000020: cf73 913a b3e9 5c3c 0d8c d03c 2c2a b6b4
00000030: 1cb2 4db9 0650 f73d 9ebf 063d a90b e43c
00000040: 269f ce3c a22e afba 7054 32b8 06a7 843d
00000050: 275c 01be 21ae 08b8 0b8f 87bd f3d5 093e
00000060: 6548 f2b8 530f 683d 7f14 653c be25 1c3d
00000070: bae2 de3b b03c 41b4 aebb 0abd a34b 023b
00000080: f170 f3ba 78b8 363d c16c 72ba e127 a2bc
00000090: 754d 263d d1cf 1a3d 098c d2bb ba38 18be
000000a0: d211 1fbe 9f62 af3c c04f de3b 6074 dd3c
000000b0: 1295 513d 3faa 15b9 c360 9ebd 253b 673d
000000c0: aeae 543d bd75 773c 649b 133e c212 00b9
000000d0: be30 813d c651 343d 758c 03b7 7782 7b3d
000000e0: 4f33 af3d ae2e cbbb 4d32 db3c 21a0 163c
000000f0: 8793 50bd d5a1 153c 1b2b d73c d758 a5bb
00000100: 8ac6 b5b8 f4c3 c33d 7332 aabb 1e59 8a3c
00000110: 67c7 943d 5348 e8bc 1898 e03c ca95 c8b7
00000120: 5e30 623c 0f83 843d 0767 633d 24b4 623c
00000130: 3229 033d 72d5 b03d c732 883d 1d2f 603c
00000140: d904 29bc 097a 0e3d 03ea 31b7 ca7e e73c
00000150: 9399 e239 3d5f 553c 05ed 323d e853 7a3d
00000160: f4d4 b739 d568 7b3a 34d1 95bd dcb4 3c3d
00000170: 5807 883d c381 2a3d 1b6f 3dbd 7560 803c
00000180: 93cb 9ebb 9bd1 4dbd 2558 0a3c defd 08bb
00000190: 7d21 f93c 7e5c 83bd f1d7 a93b 5390 f7b7
000001a0: de0e e23c 8ebb 543c 172a f8b8 8d40 243d
000001b0: 8fba 973c c896 77b8 bb03 963c b826 e43c
000001c0: 43ab 2f3c 00b7 0dbb 273c b0b9 757d 9f3c
000001d0: 5888 b03c 6285 da3c 9ffd 23bd e946 1f3d
000001e0: 5222 8a3c 32d1 d93c 1ab5 eab6 513b 803d
000001f0: 5d43 4c3d bbfd 9d3d af07 31b9 ed2f cb3c
00000200: ba9f a8b9 7419 333d b47e 393d 7e6b 9abc
00000210: de29 8f3b 9e8f f9bb 8ea0 d1ba f763 ffb2
00000220: d90c 903c 2253 07be 0c80 803d d414 893c
00000230: da3d 85bb 3379 573d af8e c23c 2671 423c
00000240: d567 b73d 7814 cd3c 200d ddbc b924 53b7
00000250: a8ce 23bc 435c 3eba 3130 5dbc 304c e33b
00000260: dd55 97bc 9451 9a3c 12c1 5a3c 9b63 99bd
00000270: 777a 15bd 8524 cc3a e8af eaaf 4641 0dbc
00000280: 83f6 cb3c aca5 0d3d 7cf7 133e cc2b 823d
00000290: e555 3dba 7f70 443b ac1d a3bd 0268 813b
000002a0: 3acd 51bc cfb1 debc f34a 283d 00fd 8cbd
000002b0: f052 c93d d5c4 16bd 47fa b23b d3a0 853c
000002c0: d315 6bbd cd17 55bc cb58 ac3c 770c 27b4
000002d0: 4d37 463d 269d e7bd e3b0 8ab8 e418 703c
000002e0: de8f cdb9 fd7a 333c cc96 9e3d 16eb 2ab9
000002f0: ac26 b23b 36ef 333d 6bef 4eb9 a30a 4e3d
00000300: ba82 c63d 4a65 363d 7aa6 403d f34e 20bc
00000310: f356 2fba ac83 5ebd ff3a 6b3d cd6f a93d
00000320: 1ca4 66ba 320d 013d 7e3d c1b8 eea2 7fb6
00000330: 0bae b239 45e0 faba 3853 ec3b 6707 d93c
00000340: e8ec 01bd 1fd8 e63c 8db4 24bd 4a8e b13d
00000350: 5cdc 693d ea7a 1bbc 866b fd3d 33ef 1c3d
00000360: 98de 34bd e120 62bd 2cc8 ec3b 587d 08bb
00000370: 568f bc3d 6bd7 02b8 454c bd3d e645 e0ba
00000380: 596a 15be 3715 153d fad0 ca3c dbd9 103c
00000390: 0211 a63c 7579 68b7 71a0 ae3d 99bf 253c
000003a0: 8bd7 db3c 96d2 e53d 435e cdb3 5220 14bd
000003b0: b35c 8a3b e74e ca3d 755a f13a 30f8 443c
000003c0: 30da 39bd 319a 853a 420e f33a 4e37 d53c
000003d0: 7de5 10bd 542a d3bc 784b dfbb 38ca 9f39
000003e0: 4c74 40b9 7472 9cbb 0c9c cc3b 30f9 dabc
000003f0: f212 523d 18b9 1ebc 5e13 f93c 99de 16be
0.026955672 0.035839714 0.0064381133 -0.03680179 -0.004680854 -0.0032631194 -1.1899654e-07 0.009267564
0.0011097136 0.013483453 0.025457406 -3.3930826e-07 -0.00019616674 0.1207581 0.032897584 0.027837591
0.025222372 -0.0013365338 -4.2517146e-05 0.0647717 -0.1263281 -3.2587097e-05 -0.0661908 0.13460521
-0.00011552944 0.05665524 0.013981937 0.03812193 0.0068019303 -1.7996604e-07 -0.03387039 0.0019881509
-0.0018573088 0.044609517 -0.0009247773 -0.019794406 0.040601213 0.037795845 -0.006425385 -0.1486539
-0.15534142 0.02140933 0.0067844093 0.027033031 0.051167555 -0.00014273169 -0.077332996 0.05645289
0.0519244 0.015103755 0.14414746 -0.00012214019 0.06308125 0.044023298 -7.840911e-06 0.061403718
0.08554708 -0.006200633 0.026757384 0.009193451 -0.050921943 0.009132822 0.026265671 -0.005045991
-8.667733e-05 0.095588595 -0.0051940023 0.016888198 0.072645955 -0.0283548 0.027416274 -2.3911609e-05
0.013805477 0.0647031 0.055518176 0.013836894 0.03202171 0.086344615 0.0665031 0.013683108
-0.010316097 0.03478435 -1.0604507e-05 0.0282587 0.000432205 0.013023195 0.04368307 0.061115175
0.00035063142 0.00095905113 -0.07315293 0.04607092 0.06642026 0.041627657 -0.046248537 0.015670994
-0.0048460453 -0.050248723 0.008443867 -0.002090327 0.030411476 -0.06414126 0.005183213 -2.95119e-05
0.02759498 0.01298417 -0.000118334014 0.040100623 0.018521575 -5.9029815e-05 0.018312326 0.027850494
0.010721984 -0.002162397 -0.00033614153 0.019469002 0.021549389 0.02667493 -0.040036794 0.038885985
0.016862068 0.02658901 -6.9948264e-06 0.06261314 0.04986893 0.07714411 -0.00016882898 0.024803126
-0.00032162463 0.043725446 0.04528685 -0.018850084 0.0043690046 -0.0076159975 -0.0015993284 -2.9731366e-08
0.017584251 -0.13215306 0.06274423 0.016733564 -0.004066211 0.05260582 0.023749677 0.011867797
0.08955351 0.025034174 -0.026983798 -1.258513e-05 -0.009998001 -0.0007261673 -0.013500259 0.0069365725
-0.01847356 0.018837728 0.013351696 -0.07489701 -0.036493745 0.0015574849 -4.268934e-10 -0.008621519
0.02489782 0.034581825 0.14449877 0.0635601 -0.0007222577 0.002997428 -0.07964644 0.0039491663
-0.0128052775 -0.027184395 0.041087102 -0.068841934 0.09830272 -0.036808807 0.0054619643 0.016312039
-0.05739386 -0.013006163 0.021038434 -1.5557622e-07 0.048392583 -0.113092706 -6.6133005e-05 0.014654372
-0.00039207836 0.010954616 0.07743606 -0.0001630004 0.005436739 0.0439293 -0.00019734881 0.050303113
0.09692903 0.04453019 0.047033764 -0.009784448 -0.00066886767 -0.05432479 0.05742931 0.082732774
-0.0008798258 0.031506725 -9.214411e-05 -3.8092799e-06 0.00034080478 -0.0019140324 0.007212069 0.026492788
-0.031720072 0.028179226 -0.04021125 0.086697176 0.057094917 -0.009489754 0.12374024 0.038314056
-0.044157594 -0.055207137 0.007226011 -0.0020826664 0.09207027 -3.119504e-05 0.09243063 -0.0017110675
-0.1459135 0.036397185 0.02475785 0.008841003 0.020271782 -1.38565565e-05 0.085266955 0.010116481
0.026836177 0.11221807 -9.5632025e-08 -0.036163636 0.0042224764 0.09878331 0.0018413799 0.012022063
-0.045374095 0.0010193047 0.0018543678 0.026027348 -0.035375107 -0.02577702 -0.0068144165 0.00030477508
-0.00018353871 -0.004774386 0.006244188 -0.02673015 0.0512876 -0.0096876845 0.030404743 -0.14733352

weight f4 [4, 256]
00000000: dbeb 893d 6de3 e93d 0b58 13bd 3458 973e
00000010: 4ed9 62be a464 543e 36f9 19b4 3284 2fbd
00000020: 10d5 cb3d 6709 0a3e 17ba e13c f437 1634
00000030: c534 d036 0105 a1be a1e5 4b3e 18dc 5b3e
00000040: d1c1 063d 9858 283b 6bde f7b7 187f 7abc
00000050: d1a2 9ebe 59d5 f837 fc55 9a3e 8739 53be
00000060: 7a4f 59ba 66d5 cf3d 5ba1 333e da52 75be
00000070: f68c 8b3c 2a83 0b34 6ee9 013c c952 b13d
00000080: a49d 1d3e faf9 87be a667 1b3e 72a2 16be
00000090: 33d7 c4bd 1333 ae3d 2deb 5dbe 406e 0e3f
000000a0: bb4b a63e 3aa7 74bd f7ca ff3d 163c 063d
000000b0: 51ba c33e 5c01 d138 af1c cd3d d830 acbe
000000c0: ad57 ee3d 5947 2b3e 5622 92be 7277 1538
000000d0: 96c4 2b3e 2c34 e43d 869d 2636 36b2 023e
000000e0: 9106 333e 9853 1fbe d340 8a3d e2ab 2fbe
000000f0: 4df9 febd 6227 533e 3e8a f43c c14f e5bd
00000100: 9e53 2bba 0e1f 123c ff8c e43b 87b4 b4bc
00000110: 00a1 a3be dade 3dbe 5e0a f53c 9e54 a338
00000120: 1b68 c13d d76d f73d 63b8 043d 0bcd 343e
00000130: 8b43 b23d c07a 53be 834f 603e 82e9 cf3d
00000140: f86d b63e 45d5 253e 0d8a 6db8 8505 75be
00000150: c887 0dbe 77c4 543e 6d2f fe3d 4657 e0bd
00000160: 6668 52be a2a3 66bc e12d de3d 8a62 173b
00000170: 6384 e93e 27b7 4c3e 3322 e9bd 43b8 6b3d
00000180: 6281 c1bd 40f9 c13d 3453 a5bd 11ad 573e
00000190: 90ec aa3a 0fc0 d43d acbe 81bc f630 05b7
000001a0: 83ba 003d 281d 203e 824c 0cb8 06ad c7bc
000001b0: 3689 38bd ddb7 8b36 8ea6 86be 1ef7 76be
000001c0: 59d4 5bbe 0370 f9bd 0934 b53e 6386 703e
000001d0: a146 91bd 1217 5f3e 38b4 8bbe e6c1 da3d
000001e0: 2d35 973e 1950 c03c dd29 2936 7f93 633e
000001f0: 7862 b73e 1da5 dd3e 08b3 d839 0490 6d3e
00000200: c635 583e 41d6 2b3d c101 5abe d608 63be
00000210: c624 4abe 272e 673e ca01 fbb9 df40 9e30
00000220: fd01 35be 1a77 d23e 1ce9 fbbe dbab 4e3e
00000230: 3522 c23c bc8c bd3d 861c 85bd a2bd 7c3e
00000240: 088f b13e e693 83be 54f6 6bbe 2b36 2cb6
00000250: 7b6b ffbc 0fd2 beb9 49ae e0bc 0a31 77bd
00000260: 66a2 55bd 655a 923e c552 fabb c379 373e
00000270: 348a 123e bdf7 d13b 3e9f fbaf b0c4 e6bd
00000280: aca9 413e aa71 e83d 0e51 bbbe 77ef 89be
00000290: 0974 153a bfd3 463e 55bc 20be 2be0 c9bb
000002a0: 22e1 333e 2d89 75be 52f8 e53d 7e36 0e3f
000002b0: cb66 f83e f101 4b3d 055c 3bbe ec2a 22be
000002c0: 3cc6 8c3e 4902 863e eebf a8bd 4303 7033
000002d0: 85aa 08be 36c3 9dbe d663 acb9 c37e 673e
000002e0: d4ae 9639 a12f 353b 61b6 a1be d1e8 bc37
000002f0: 7f01 d23e 6912 d43d 1438 d939 74fd 92be
00000300: 9767 d1be 5aff ef3d ce28 26bd 898f cfbd
00000310: 3796 3eb9 168e 2c3f 2b62 0a3e fa61 ba3e
00000320: 57ba 5ab9 6ccf a53c 8c23 4539 4f1d 0e30
00000330: 2f25 963e 38d8 23bc 8423 9a3c 51e6 d23c
00000340: 2f96 88bd ae02 553e 030d c5be e94f abbe
00000350: bb35 753e dffb 22bd 0f2f 1bbe 550b b03d
00000360: ce6e 71be 4c5a b63d 5fc6 7fbe 6e26 273e
00000370: 2eaa d03e 42e9 c7b6 95b9 fd3d 0b38 6fbd
00000380: a94a 143f 8094 a2be 9c28 88bd 9d8d e63d
00000390: 25ea 7a3e e018 3b37 dc30 8dbe 0801 ed3c
000003a0: f4aa ca3c f8d4 e6be 41b1 32b2 4bb2 813d
000003b0: 6778 00be c1e9 6abe d009 30bd 02cd 1c3e
000003c0: d295 e33d 7602 0bbe 9dcc 0b3e c387 983e
000003d0: aac3 833e 35a8 f4bd 8cc3 f63d 6a4f 8dbe
000003e0: 0f5c e0b9 f64f 4b3c 892b 103e 3475 12be
000003f0: 88fb 113e 1a1c 40be f0cf f13d 5ec5 213f
0.06734439 0.11420331 -0.035972636 0.2955948 -0.22153208 0.20741516 -1.4339898e-07 -0.04285068
0.09952748 0.13480149 0.027554555 1.3990194e-07 6.2050262e-06 -0.3144913 0.19911815 0.21470678
0.03289968 0.0025687572 -2.9548266e-05 -0.015289091 -0.30983594 2.9663252e-05 0.30143726 -0.20627414
-0.0008289736 0.101481244 0.17542021 -0.23957387 0.017034989 1.2993101e-07 0.007929189 0.08658368
0.15392166 -0.26557904 0.15176257 -0.14710405 -0.096113585 0.085058354 -0.21671744 0.5563698
0.32479653 -0.059729792 0.12489884 0.032772146 0.38228086 9.96615e-05 0.100152366 -0.33631015
0.116378166 0.16726436 -0.2854182 3.563561e-05 0.1677421 0.111427635 2.4827618e-06 0.12763295
0.17482974 -0.15559232 0.067506455 -0.17155412 -0.12449894 0.20620492 0.029851075 -0.111968525
-0.0006535592 0.008918537 0.006974816 -0.022058738 -0.3195877 -0.18542042 0.02991217 7.788207e-05
0.09443685 0.12081497 0.032402407 0.17656343 0.08704289 -0.20652294 0.21905331 0.1015196
0.35630774 0.16194637 -5.6633773e-05 -0.23927887 -0.13821328 0.2077807 0.124113895 -0.10954146
-0.20547637 -0.014077099 0.108485945 0.0023099505 0.45608816 0.19991742 -0.11383476 0.057548773
-0.09448506 0.09471369 -0.0807251 0.21062113 0.0013040472 0.10388195 -0.01583799 -7.938817e-06
0.03142787 0.15636122 -3.3449855e-05 -0.024374496 -0.04505273 4.1639273e-06 -0.26298946 -0.24117705
-0.21467723 -0.12179568 0.35391262 0.23488764 -0.070935495 0.21786144 -0.27285933 0.106815144
0.29532757 0.023475694 2.520733e-06 0.22224234 0.35817313 0.43290034 0.0004133212 0.23199469
0.21114263 0.041952375 -0.21289732 -0.2217134 -0.1974059 0.225762 -0.00047875784 1.151445e-09
-0.1767654 0.41106492 -0.49201286 0.20182745 0.023697952 0.092553586 -0.06499581 0.24681714
0.34679437 -0.25698775 -0.23043185 -2.5661527e-06 -0.03117918 -0.0003639613 -0.027426856 -0.0603495
-0.05215683 0.2858459 -0.0076392614 0.17917542 0.14310533 0.0064077065 -4.5769782e-10 -0.11267984
0.18912381 0.11349805 -0.36585277 -0.2694051 0.00057011895 0.19416712 -0.15696843 -0.006160756
0.1756635 -0.2397811 0.11229004 0.555519 0.48515925 0.0495624 -0.18296821 -0.15836686
0.2749499 0.26173618 -0.08239733 5.588232e-08 -0.13346298 -0.30812997 -0.0003288078 0.2260695
0.00028740487 0.0027646797 -0.31584457 2.251976e-05 0.41016766 0.10355074 0.00041431247 -0.28708994
-0.40899345 0.11718626 -0.040566258 -0.10134799 -0.00018175771 0.67404306 0.1351401 0.36402875
-0.00020859517 0.020240508 0.00018800626 5.170095e-10 0.29325244 -0.010000281 0.018815763 0.025744589
-0.0666927 0.20801803 -0.3848649 -0.33459404 0.23946278 -0.039790984 -0.1515467 0.085959114
-0.23577425 0.089039415 -0.24978016 0.16323254 0.40754837 -5.957817e-06 0.123889126 -0.058403056
0.5792642 -0.31753922 -0.066483706 0.11257479 0.24503382 1.115186e-05 -0.2757634 0.028931156
0.02473972 -0.45084357 -1.04012665e-08 0.06332835 -0.1254593 -0.22940733 -0.042978108 0.1531258
0.1111256 -0.13575158 0.13652273 0.29791078 0.25735217 -0.119461454 0.12049016 -0.2759965
-0.00042793198 0.012409201 0.14079107 -0.14302522 0.14256108 -0.1876072 0.11807239 0.63191783

bias f4 [4]
00000000: d389 9b3c 9a87 2839 fdba bebc ad61 b83d
0.018986618 0.00016072244 -0.023282522 0.09003005
