checkpoints/swarm_1d/linear/known/95pct-constraint/run-1/policy_final.pt (torch, 14901 bytes, 13 tensors)

weight f4 [16, 101]
000000 43 6a f4 3d 67 eb 1e be 98 2f dd bd 4c 1e 91 bd
       0.1193433 -0.15519486 -0.108000934 -0.07085857
000010 e0 7c 5f 3c 0e a3 43 be 30 26 5f be 31 52 1d be
       0.013640612 -0.19105169 -0.21791911 -0.15363385
000020 5d 4d 2a be a8 9a 40 3e 53 69 23 bc 0e 49 2c be
       -0.16631074 0.18808997 -0.009973842 -0.16824743
000030 23 f8 1e 3e 5a f5 b2 ba 9a f7 22 3e 04 a2 d3 3d
       0.15524344 -0.0013653443 0.15914765 0.103336364
000040 ed e8 8d 3c 6f c6 58 3e c1 29 67 be f8 7f f7 bd
       0.017322982 0.21169446 -0.22574522 -0.12084955
000050 d8 85 f4 3c 7d 06 c6 b9 fd 1a 52 be 7c b8 01 3e
       0.029848978 -0.00037770337 -0.20518108 0.12668031
000060 e2 8d 62 be 41 21 4b 3e 8e b8 1b 3e 4b b3 39 be
       -0.22124436 0.19836904 0.15207121 -0.18134801
000070 e7 47 86 bd 59 3c 56 be cd ec 10 3e d3 c1 3f be
       -0.06556683 -0.20921458 0.14152832 -0.18726282
000080 cb 3c 3d be dd 34 09 bd 7d d3 62 3e 10 7d 2b 3e
       -0.18480222 -0.03349768 0.22150989 0.16746926
000090 e6 a7 21 be 53 d5 af bb 35 74 1c 3d fb be a5 3d
       -0.15786704 -0.0053660064 0.03819676 0.08093067
0000a0 f4 f3 1a 3e bc 42 2f 3d 49 bb 21 be ad 4c c4 3d
       0.15132123 0.042788252 -0.157941 0.09584937
0000b0 66 a0 24 3e 75 c3 f9 bd 87 8e 2a be 70 93 3f be
       0.16076812 -0.121954836 -0.16655932 -0.18708587
0000c0 77 57 1e be 54 0c ae bd 23 8f 3d be 86 38 55 be
       -0.15463053 -0.08498445 -0.18511634 -0.20822343
0000d0 a8 22 ea bc d7 d2 23 3e f7 75 6a 3d 8f 0b 42 3e
       -0.028580979 0.15998398 0.057241406 0.18949722
0000e0 1c 6d 27 3e b3 ea d0 bd 2d 8f a4 3d 4a c2 be 3d
       0.16350216 -0.10201015 0.08035121 0.093144014
0000f0 37 2a b2 3d 74 2d 10 be 8b 63 9b 3d c2 36 43 be
       0.08699458 -0.14079839 0.07587346 -0.19063857
000100 87 d0 df bd 66 61 7d 3d 59 e9 3b 3e 25 11 44 be
       -0.10928445 0.061860465 0.18350734 -0.19147165
000110 56 16 0d 3d 2d da 0e 3e 21 bb d4 3c 20 ee e2 bd
       0.03444513 0.13950415 0.025968136 -0.11080575
000120 0a 44 27 bd ca be 97 bd dd a4 a8 bd 9d 3b d9 3d
       -0.04083637 -0.07409437 -0.0823457 0.106070735
000130 67 42 2a be 9d 09 c6 3d 14 d1 1d 3c 41 8e b5 bd
       -0.16626893 0.09669802 0.009632368 -0.088650234
000140 60 84 18 bd 38 b9 d0 bb ba c1 9f bc 19 f3 62 3d
       -0.037235618 -0.006369736 -0.019501556 0.055407617
000150 c1 0e 33 ba 87 a4 11 be 55 8a 54 3e 34 1a 58 3d
       -0.00068305066 -0.14222918 0.20755894 0.052759364
000160 9b 18 2b 3e 74 12 5c be e6 7f 6f bc 73 ea b0 3d
       0.16708605 -0.21491414 -0.014617896 0.08638468
000170 58 e3 6e 3d 83 b7 39 be 4e 17 85 3c 74 50 3a 3d
       0.05832228 -0.1813641 0.016246464 0.045486882
000180 d0 2a 1e be 3a 85 ae 3d e5 cf b0 3d 38 b5 00 3d
       -0.15446019 0.08521505 0.08633403 0.031422824
000190 bb 26 2f 3e a7 21 7a be bb 05 20 ba 8c 66 28 ba
       0.17104618 -0.244269 -0.00061043695 -0.0006423972
0001a0 ad a8 16 ba 66 ec 08 ba 55 29 ed 39 9c fd 27 3a
       -0.00057471805 -0.00052232144 0.00045234957 0.0006408335
0001b0 64 cd 14 3a 4a 49 32 b6 e5 a3 ec 39 95 96 94 38
       0.00056763575 -2.6566727e-06 0.0004513554 7.085238e-05
0001c0 38 79 20 3a a0 39 d6 39 fd 3f ff b9 25 07 43 3a
       0.00061215786 0.00040860195 -0.00048685065 0.0007439724
0001d0 67 92 a5 b9 3d a6 1c 3a 70 bf b0 b9 25 d0 9f b9
       -0.0003158033 0.0005975699 -0.00033711968 -0.00030481923
0001e0 20 89 83 b9 f2 dc 5d 39 77 82 6f b9 7a cb 62 39
       -0.00025088433 0.00021158511 -0.00022841418 0.0002162884
0001f0 f6 61 52 b9 1c 53 39 b9 70 a3 1c 3a 77 a3 f0 37
       -0.00020063654 -0.00017673936 0.0005975282 2.8686349e-05
000200 ea 67 39 b9 e4 c0 32 3a e1 cd 0f 3a cb df b7 39
       -0.00017681686 0.0006818904 0.00054856954 0.0003507122
000210 5d 1a 72 b9 18 dc 36 3a 3e 5f e4 39 13 b2 31 3a
       -0.0002308874 0.00069755455 0.0004355851 0.0006778549
000220 9c a2 0d 3a c6 d3 3b b9 3f 2b 06 ba 54 9f 0b ba
       0.0005402954 -0.00017912601 -0.00051181385 -0.0005326171
000230 64 6e b9 39 64 99 1f ba fa f5 26 ba 07 69 e3 38
       0.00035368197 -0.00060882256 -0.0006369051 0.00010843766
000240 5d 65 33 ba 6f f7 35 ba 15 a0 32 ba 44 64 59 39
       -0.00068434124 -0.00069414725 -0.0006814015 0.00020732085
000250 8e 13 f2 b7 62 8e 2f ba f2 dc 24 ba 3c 51 01 3a
       -2.8857754e-05 -0.0006696937 -0.0006289027 0.00049330643
000260 5d da a0 39 ef f5 fc 39 28 2c 0d 3a 41 2c 90 b9
       0.0003068027 0.0004824842 0.0005385303 -0.00027498792
000270 e4 fb 0e ba 62 22 03 ba cd cf eb b9 de 98 8e b9
       -0.0005454405 -0.0005002377 -0.00044977517 -0.00027198246
000280 21 5d d5 b9 8f f3 a9 b9 48 6f 98 39 76 62 05 ba
       -0.00040695912 -0.00032415657 0.0002907461 -0.0005088219
000290 af 7e 07 ba 8d a5 8d b8 20 b7 94 b9 3d 51 76 b8
       -0.00051687186 -6.75424e-05 -0.00028365199 -5.872663e-05
0002a0 4c 34 16 38 76 0c 40 b9 76 33 16 b9 85 e7 02 ba
       3.5811492e-05 -0.00018315189 -0.00014324285 -0.00049936055
0002b0 bd 47 eb 39 ec cd 02 ba 12 fd b3 b9 a6 e4 db b8
       0.00044876142 -0.0004989791 -0.00034330093 -0.00010485323
0002c0 3c a6 e5 39 a5 a6 17 b9 34 6d e9 39 86 8c 78 b8
       0.00043802138 -0.00014462562 0.00044522586 -5.925868e-05
0002d0 7f ee ea 39 46 33 fe b9 e7 71 94 b8 15 99 a4 b9
       0.0004480965 -0.00048484857 -7.078406e-05 -0.00031394573
0002e0 50 96 87 b9 b2 a0 d8 39 94 4f f4 b9 57 35 1a b9
       -0.00025861198 0.00041318458 -0.00046598597 -0.00014706455
0002f0 93 1b 8b b9 1f 50 fd 39 b5 a6 de 39 6d b1 f5 39
       -0.0002653269 0.00048315615 0.00042467346 0.00046862234
000300 42 03 b5 39 34 d1 cd 39 95 d6 f7 b8 89 43 03 ba
       0.00034525438 0.00039256515 -0.00011817847 -0.0005007317
000310 1f 1a 37 39 94 68 fd b9 c3 a5 05 3a 7c f9 19 ba
       0.00017461971 -0.00048333837 0.0005098248 -0.0005873663
000320 32 a6 0e ba 45 9d 17 ba 8d 28 c5 be 63 4c 51 3d
       -0.0005441635 -0.0005783628 -0.385075 0.05109824
000330 30 6e 2e 3d 62 f9 21 3e 1c 39 dd bd 84 78 2c 3e
       0.04258555 0.15817788 -0.108019084 0.16842848
000340 df 9d e1 3d c1 06 68 bd f5 10 d3 3b 33 38 7c bc
       0.1101644 -0.056647066 0.0064412304 -0.015394258
000350 3c 0d 20 3d bc 75 e9 3c 5e e2 1d 3d 8a 20 cc bd
       0.03907512 0.028498523 0.03854596 -0.09967144
000360 4c e0 09 3e 06 e8 27 3d 8c 24 2f 3d a2 63 bb bd
       0.13464469 0.04099276 0.042759463 -0.09149863
000370 1a e0 a2 bd 13 c5 4e 3e 72 9d 37 bc 93 14 22 3d
       -0.079529 0.20192365 -0.0112069715 0.039570402
000380 c5 46 02 3e 62 3c 7d 3d 2e c1 2c 3e 95 b0 e8 bd
       0.12722309 0.061825164 0.16870567 -0.11361805
000390 97 27 f2 3c 7d 3c 88 3c 14 2a be bd 4c d1 01 be
       0.029559894 0.016630406 -0.092853695 -0.12677497
0003a0 71 96 a3 3c 87 9d 13 3d 83 04 dd 3d 72 bb 9a 3c
       0.019969197 0.0360389 0.10791876 0.018888209
0003b0 21 93 f1 3c fb 8e 76 3c 0b 03 e1 3c fc a2 49 3b
       0.029489102 0.015048738 0.027467271 0.0030767312
0003c0 70 cc 45 3e 64 4e 0e bd 57 46 1c be 58 f5 77 3c
       0.19316268 -0.034742728 -0.15261208 0.015134178
0003d0 0b dc 2b 3e a7 df 55 3c 13 d8 ad 3c 1b aa 3a 3e
       0.16783158 0.013053811 0.021221196 0.18228953
0003e0 75 ff d3 3c de 24 2c 3e 64 19 0c 3d 45 81 a1 bc
       0.025878647 0.16810939 0.034203902 -0.01971496
0003f0 44 f5 01 be aa 12 e2 3c 23 60 aa 3c 0a 8b 9b bd
       -0.12691218 0.02759679 0.020797795 -0.07594879

bias f4 [16]
000000 60 c9 8b 3b b6 5b e7 bc 3f 94 a1 3d 6e 0b 21 bc
       0.004265949 -0.028241973 0.07889604 -0.009829385
000010 d0 c9 24 bc d3 64 84 3d 88 b6 56 bc db f9 1f bd
       -0.0100578815 0.06464543 -0.013105042 -0.03905664
000020 42 37 31 3c 4a ac 88 bd 22 24 ed 3d 38 a2 02 bd
       0.010816397 -0.066734865 0.115791574 -0.031892985
000030 bd c2 c3 3d 23 69 bc bb 0b fa 8a bc d0 6f b0 bc
       0.09558628 -0.005749838 -0.016964933 -0.021537691

weight f4 [16]
000000 13 27 64 3f f0 83 92 3e df 7c 95 3f 24 1d 8d 3f
       0.8912212 0.28616285 1.1678733 1.1024518
000010 12 50 88 3f 86 a9 7d 3f e4 6c 6c 3f 64 50 c8 3e
       1.0649436 0.990868 0.92353654 0.39123833
000020 a2 67 42 3f d7 4e ab 3f 15 42 47 3f 02 71 95 3f
       0.7593938 1.3383435 0.7783521 1.1675112
000030 22 0f 73 3f b6 60 7a 3e 02 9f aa 3e 91 21 5a 3e
       0.94944966 0.24450955 0.33324438 0.21301867

bias f4 [16]
000000 3f 29 97 3b 48 a8 00 bd 23 bd 9c 3d c2 b2 11 bc
       0.004613071 -0.031410486 0.076532625 -0.008892717
000010 7d 9c 1b bc 42 26 86 3d 00 d8 50 bc c3 e1 1f bd
       -0.009497759 0.06550266 -0.012746811 -0.039033663
000020 0c 5f 42 3c dc 4c 81 bd 82 cd f5 3d 44 e8 f4 bc
       0.011863481 -0.06313488 0.12002088 -0.02989591
000030 08 63 c5 3d 8c a0 bf bb db ec 8a bc aa 3a 09 bd
       0.09638029 -0.005847996 -0.016958645 -0.033503212

running_mean f4 [16]
000000 00 00 00 00 00 00 00 00 00 00 00 00 00 00 00 00
       0.0 0.0 0.0 0.0
000010 00 00 00 00 00 00 00 00 00 00 00 00 00 00 00 00
       0.0 0.0 0.0 0.0
000020 00 00 00 00 00 00 00 00 00 00 00 00 00 00 00 00
       0.0 0.0 0.0 0.0
000030 00 00 00 00 00 00 00 00 00 00 00 00 00 00 00 00
       0.0 0.0 0.0 0.0

running_var f4 [16]
000000 00 00 80 3f 00 00 80 3f 00 00 80 3f 00 00 80 3f
       1.0 1.0 1.0 1.0
000010 00 00 80 3f 00 00 80 3f 00 00 80 3f 00 00 80 3f
       1.0 1.0 1.0 1.0
000020 00 00 80 3f 00 00 80 3f 00 00 80 3f 00 00 80 3f
       1.0 1.0 1.0 1.0
000030 00 00 80 3f 00 00 80 3f 00 00 80 3f 00 00 80 3f
       1.0 1.0 1.0 1.0

weight f4 [16, 16]
000000 71 86 a1 be cc b9 43 b8 52 5f d1 bb 46 bc 2c be
       -0.31547883 -4.666466e-05 -0.006389537 -0.16868696
000010 02 3a 1f 3e 30 d1 15 3a 82 14 f7 3e 8f 15 d7 bc
       0.15549472 0.00057150703 0.48257834 -0.026255397
000020 05 31 22 3d 63 a1 a8 3e 7b b3 a3 39 a5 39 89 be
       0.03959753 0.32935628 0.00031223506 -0.26801792
000030 a3 33 00 bf e4 10 46 b5 8c da 5c 39 8d 7a 6f bc
       -0.5007879 -7.3785327e-07 0.0002106225 -0.014616621
000040 b5 94 fa be 43 a2 76 bb 9c 9f 1b 3f 82 47 04 bf
       -0.4894158 -0.0037633337 0.6079042 -0.5167161
000050 eb 9f d4 be b1 59 58 3e 59 36 0f 3e 79 4e 2e 3e
       -0.41528258 0.21127965 0.13985576 0.17022122
000060 56 68 ca 3e 06 22 26 bf f4 df ef 3e ef 04 b3 bd
       0.39532727 -0.64895666 0.4685055 -0.087411754
000070 5c cf f1 3d bd 88 bd 3b 59 3c 8b bc 03 9a 5e 3c
       0.11807129 0.0057841227 -0.01699655 0.013586524
000080 e2 8b af bd 0a 3f da 36 fc 86 1e bd e9 19 9c be
       -0.085716024 6.504245e-06 -0.03870295 -0.30488518
000090 19 09 41 3e a9 9a 68 bc 66 3d fb 3e d5 60 57 3e
       0.18851127 -0.01419703 0.4907028 0.21033032
0000a0 f5 75 ce 3d 1c b1 3f 3d 2b 56 e0 3a 55 98 af be
       0.10081092 0.046799764 0.0017115524 -0.34295908
0000b0 e6 9b 85 be 94 16 01 36 53 ad fc 3c dd bf bc ba
       -0.26095504 1.923564e-06 0.030844366 -0.0014400441
0000c0 5b 80 4a 3e 72 90 12 39 12 51 00 bf 5d 91 bc bd
       0.19775526 0.00013977455 -0.50123703 -0.09207413
0000d0 16 66 c2 3e d5 23 88 be b8 cc 19 be 7e a2 88 39
       0.3796851 -0.26589838 -0.150195 0.00026061008
0000e0 4f e4 3e 3e 69 13 8e bd 38 49 db bb 6b 05 f2 3d
       0.1864178 -0.06937296 -0.006692078 0.1181744
0000f0 80 1b 4d 3e d7 a5 8f 38 e8 37 61 bc 1f a4 f2 39
       0.20030022 6.8496614e-05 -0.013746239 0.00046280117
000100 b4 e1 e5 3e d9 88 17 ba b1 de 8e bd d0 08 24 bd
       0.4489876 -0.0005780585 -0.06976069 -0.040047467
000110 61 20 28 be 5b ef 99 3c 2f 7a 96 3d 4c ee 1e 3d
       -0.16418602 0.018790891 0.073475234 0.038801476
000120 84 f5 c9 3e 55 01 25 3f 14 e0 92 be c6 82 0d 3f
       0.39445126 0.6445516 -0.28686583 0.5527767
000130 1f 94 a5 be a8 38 5c b9 5e b2 5f ba 9a 59 f1 b8
       -0.3233957 -0.00021001941 -0.00085333537 -0.00011508465
000140 d1 3d c4 3d ec d5 2a b9 fe 5f b5 3e e0 0d 53 3e
       0.09582103 -0.00016292155 0.354248 0.20610762
000150 75 b1 94 3e a8 4b 7c 3e e9 f0 5f be 79 06 04 3b
       0.2904164 0.24638236 -0.21869244 0.002014546
000160 7a 8d 51 3e d8 1a 9a 3e ed f7 f9 bc 60 46 b4 3e
       0.20464125 0.30098605 -0.030513728 0.35209942
000170 dc 63 22 3e b2 60 e3 b9 74 a4 82 bb c4 13 2d b9
       0.15858406 -0.00043368858 -0.0039868895 -0.00016505929
000180 65 09 00 be 3c 69 48 38 61 1d 43 3d 42 25 45 3e
       -0.12503584 4.7781723e-05 0.04763544 0.19252494
000190 82 4a c9 3d 58 57 dd 3d b6 39 bd bc 04 18 8c 37
       0.09828664 0.10807675 -0.023098808 1.6700484e-05
0001a0 8d d3 87 bd de d9 88 3c f2 2d 36 3c 3a df 99 3d
       -0.06632147 0.01670545 0.011119353 0.0751328
0001b0 df 26 62 be 54 a5 38 38 1f 2f e8 37 1a 68 0d 38
       -0.2208514 4.4022992e-05 2.7678498e-05 3.371397e-05
0001c0 e5 72 97 bc a1 e5 13 bb f1 1c 0e b9 32 b1 74 bd
       -0.018487403 -0.002256729 -0.00013552957 -0.0597393
0001d0 4b 72 62 3c 91 78 0e b8 da c5 82 3e d9 b0 97 b6
       0.013821195 -3.3967724e-05 0.25541574 -4.5207385e-06
0001e0 bb 81 02 be c8 7b d1 3d ed 85 a9 3a c8 a4 dd bd
       -0.12744801 0.102286875 0.001293359 -0.10822445
0001f0 0f be a0 bd 58 7c 4f bc 32 40 b7 b6 54 24 69 b6
       -0.07848751 -0.012663923 -5.4612983e-06 -3.4740851e-06
000200 4e d2 aa 36 90 99 78 36 b2 70 e2 39 df bd 05 38
       5.0908775e-06 3.7044265e-06 0.00043190044 3.1886502e-05
000210 2a ad f0 36 01 66 d2 b5 71 22 89 bb 44 81 16 3b
       7.1727163e-06 -1.5675906e-06 -0.004185014 0.0022965232
000220 d6 1c c4 b4 5a c9 1c bc 83 0d f3 b5 58 84 03 35
       -3.6528826e-07 -0.00956949 -1.8108843e-06 4.899389e-07
000230 b5 88 8c b7 b8 1a 7d b3 d2 48 b3 b9 5c 0a 99 b6
       -1.675296e-05 -5.8930453e-08 -0.00034195796 -4.5609613e-06
000240 e1 61 49 3e ae 59 b4 39 d4 88 38 bf 2c b4 59 3e
       0.19666244 0.00034399092 -0.72083783 0.21260136
000250 21 c5 ae 3d 56 d6 9c be 97 1e 9b 3e b7 54 f8 39
       0.08533693 -0.30632275 0.30296776 0.00047365364
000260 e6 3c 9e bd 92 81 67 3d c9 75 0b bd 30 3d 5d 3d
       -0.07726459 0.056520052 -0.034047876 0.05401343
000270 a0 fd d1 bd 83 69 f1 bb d2 9b 4e b8 03 3e 05 3a
       -0.10253453 -0.0073673143 -4.9259346e-05 0.0005082788
000280 81 4b ce 3e 86 b5 c1 bb eb 61 9c be 79 0a ba 3e
       0.4029198 -0.005911532 -0.30543455 0.36336115
000290 c0 f6 36 3e cd e3 00 bf a1 ea 1e 3e 73 f4 44 3e
       0.17867565 -0.50347596 0.15519191 0.19233875
0002a0 a1 3c ba 3e 51 42 80 3e 73 c2 bd bb 90 62 af be
       0.3637438 0.25050595 -0.0057910024 -0.34254885
0002b0 a3 47 a3 3e 45 05 23 b9 7a b5 ca 3b 4a c9 fc bc
       0.31890592 -0.00015546854 0.0061861845 -0.0308577
0002c0 1e c0 74 be ae 0d ce bd e0 6b 3b 3d f7 3d c5 3d
       -0.23901412 -0.10061203 0.045757174 0.096309595
0002d0 94 b2 54 3d 48 88 23 be 91 5f 81 3e 3b 73 47 3e
       0.051928118 -0.15969956 0.25268224 0.1947755
0002e0 e4 3d fe 3d 8f 08 38 3f 59 ad ed be e6 97 0c 3f
       0.124141484 0.7188806 -0.46421316 0.5491928
0002f0 9b 5b 18 be ac 48 4a bb ff 06 eb bb 61 66 f5 3b
       -0.14878695 -0.003086607 -0.007172465 0.007489011
000300 5d 7a e7 3d be 03 27 3a 9d 94 ca 3e 46 19 0f bc
       0.11302636 0.0006371102 0.39566508 -0.008734053
000310 a5 ba 22 bf 8e 1f f9 3e fc cc da be 7b 56 22 3b
       -0.63566047 0.48656887 -0.42734516 0.0024770785
000320 b0 fe 45 be 2e c8 a5 be b6 2a 92 3e 19 cb 2c be
       -0.19335437 -0.32379287 0.2854821 -0.1687435
000330 3e 8b 36 3c fb e2 d2 ba c4 a5 07 3a 4c 2c 46 3b
       0.011141596 -0.0016089374 0.00051745423 0.0030238805
000340 54 da 13 3c 3f 7b 16 36 02 15 8b bb c7 e2 15 be
       0.009024221 2.242348e-06 -0.0042444477 -0.1463729
000350 0a d7 67 3e 10 bc 62 3a 45 89 92 be 25 60 35 3e
       0.22640625 0.00086492393 -0.28620353 0.17712457
000360 95 60 59 bd e1 b4 c2 3e 59 68 51 38 f2 e9 00 3e
       -0.053070623 0.38028625 4.9926664e-05 0.12589243
000370 63 d4 d1 be d6 32 6c b9 96 72 27 bb 68 46 40 b8
       -0.4098235 -0.00022525652 -0.0025550476 -4.5841938e-05
000380 e7 2b 89 ba e1 9f 9c ba 1a d4 3d bd 89 05 1d 3e
       -0.0010465354 -0.0011949503 -0.046344854 0.15334143
000390 7a 2a 8e 3d 02 1a 19 bc 04 5f 27 3d e6 e7 d8 3b
       0.069416955 -0.00934458 0.0408621 0.0066194413
0003a0 c3 20 08 3d 40 cc 11 bd d6 58 6a bd f8 27 01 3e
       0.03323437 -0.03559518 -0.057213627 0.12612903
0003b0 12 2d 47 be fe 23 8e 37 b9 dd 31 38 9e 2b 08 35
       -0.19450787 1.694448e-05 4.2406584e-05 5.072742e-07
0003c0 26 1a 2e 3e 63 20 aa 38 55 f8 81 be 29 ff 9d 3e
       0.17002162 8.112264e-05 -0.25384775 0.30858734
0003d0 27 45 fc 3d 0e 5b 33 be c8 19 4e 3e 0e 7d 75 3a
       0.12317877 -0.17515203 0.20127022 0.0009364643
0003e0 3c 2d 42 be 27 55 6f 3e 52 e9 37 bd d0 a0 c0 be
       -0.18962568 0.23372327 -0.044900246 -0.3762269
0003f0 b5 a6 a9 3d 5a e7 b3 37 18 ce 54 39 fb 12 76 b8
       0.0828375 2.1446194e-05 0.00020294671 -5.8668647e-05

bias f4 [16]
000000 e8 7e b3 bc df 97 48 3d e1 7c f5 bc ad e5 b4 3c
       -0.0219111 0.04897296 -0.029966773 0.022082174
000010 50 d6 0f bd 55 d8 c2 3b 34 d4 21 3d 70 20 bd bc
       -0.035116494 0.005946199 0.039509013 -0.023086756
000020 ef 48 f3 b6 9f 63 8f 3d ec f1 5a bc cd 4c 61 bd
       -7.250455e-06 0.07001423 -0.013363343 -0.055004884
000030 67 5a 7b 3d 13 1c 15 bd 21 22 a9 3c 45 4b c2 3c
       0.06136551 -0.036403727 0.020646157 0.023717532

weight f4 [16]
000000 01 22 09 3f 81 f1 ab 3f b3 85 29 3f 31 80 7b 3f
       0.5356751 1.3433076 0.66219634 0.9824248
000010 a3 07 95 3f a3 8a 5a 3f e4 1a c2 3e 48 2b 74 3e
       1.1642956 0.8536779 0.3791114 0.23844635
000020 0e 22 3e 3e ab 35 90 3f f0 5d 89 3f db ed b1 3f
       0.18567678 1.1266378 1.0731792 1.3900713
000030 2b e9 a1 3f 1f 49 bf 3e 8a 17 8e 3e 04 a3 20 3f
       1.2649282 0.37360474 0.27752334 0.6274874

bias f4 [16]
000000 75 41 b3 bc 29 b9 42 3d 38 32 f4 bc 31 f2 b2 3c
       -0.021881798 0.047539864 -0.029809102 0.021844001
000010 47 f8 07 bd 00 2d cb 3b f4 8f 1e 3d c4 cd bc bc
       -0.03319576 0.006200433 0.038711503 -0.023047335
000020 ed bb cc b7 7a 34 8c 3d 91 e4 55 bc e2 33 56 bd
       -2.4406205e-05 0.068459466 -0.013054983 -0.052295573
000030 8c 24 6d 3d 59 1b 15 bd 10 67 d1 3c 37 e0 d0 3c
       0.057896182 -0.036403034 0.02556184 0.025497539

running_mean f4 [16]
000000 00 00 00 00 00 00 00 00 00 00 00 00 00 00 00 00
       0.0 0.0 0.0 0.0
000010 00 00 00 00 00 00 00 00 00 00 00 00 00 00 00 00
       0.0 0.0 0.0 0.0
000020 00 00 00 00 00 00 00 00 00 00 00 00 00 00 00 00
       0.0 0.0 0.0 0.0
000030 00 00 00 00 00 00 00 00 00 00 00 00 00 00 00 00
       0.0 0.0 0.0 0.0

running_var f4 [16]
000000 00 00 80 3f 00 00 80 3f 00 00 80 3f 00 00 80 3f
       1.0 1.0 1.0 1.0
000010 00 00 80 3f 00 00 80 3f 00 00 80 3f 00 00 80 3f
       1.0 1.0 1.0 1.0
000020 00 00 80 3f 00 00 80 3f 00 00 80 3f 00 00 80 3f
       1.0 1.0 1.0 1.0
000030 00 00 80 3f 00 00 80 3f 00 00 80 3f 00 00 80 3f
       1.0 1.0 1.0 1.0

weight f4 [1, 16]
000000 d0 2c 5e 3e 23 11 98 3f 64 98 1a bf 12 c3 a9 be
       0.21696782 1.188023 -0.6038878 -0.3315664
000010 78 24 e0 3e a8 35 11 3e 91 8f a7 3e f3 07 f7 bc
       0.43777823 0.14180624 0.3272672 -0.030155158
000020 ce b3 c0 3a 23 b9 b0 be bf 23 3b bf 81 6f 49 3f
       0.0014702023 -0.34516248 -0.7310142 0.78685766
000030 01 4d f2 3e b2 0c 40 3e 2a 47 14 bd f4 f1 e0 bd
       0.47324374 0.18754843 -0.03620068 -0.10983649
