checkpoints/swarm_1d/linear/unknown/1-ra/95pct-constraint/run-1/dynamics225.pt (torch, 699400 bytes, 1015 tensors)

weight f4 [16, 2]
00000000: b197 28bf 3dff f83d bd8d 8bbe 0f29 e13e
00000010: 032b 5c3e c8ed 25be f70d 8ebe 67db c23e
00000020: 49bc 3bbf ae15 b23e 58b4 e23e 9aae bfbd
00000030: 6434 b2be 9c67 1ebf 8bd4 903e 3812 143e
00000040: b880 723e 6dba 8abd 8b01 253e fba9 d7be
00000050: f83c 10bf dcaf 3d3f b1d1 1d3e 5521 eebe
00000060: 2235 89be ef39 543e 4ca6 793e 3f76 503f
00000070: 424a fcbe 9ed0 0dbe 042e c7be 59ff 8abe
-0.6585646 0.12158058 -0.27256575 0.43976638 0.21500783 -0.16203988 -0.2774503 0.38058016
-0.73334175 0.34782165 0.44278216 -0.093594745 -0.34805596 -0.61876845 0.28287157 0.14460075
0.23681915 -0.06773839 0.1611387 -0.42121872 -0.5634303 0.74096465 0.15412022 -0.46509805
-0.2679835 0.20725225 0.24379843 0.8143043 -0.49275404 -0.13849112 -0.38902295 -0.2714794

bias f4 [16]
00000000: 9df5 7f37 5f53 d2b8 0f05 0ab5 8835 9838
00000010: d933 0fb8 49e0 a438 a920 80b9 ff7c c234
00000020: 4b8c e934 66a6 de38 9b5f 27b9 9146 db39
00000030: 0932 38b9 d32d 80ba b248 c539 7d93 0b39
1.5256371e-05 -0.000100291094 -5.141637e-07 7.257896e-05 -3.4142144e-05 7.861906e-05 -0.00024438396 3.6226263e-07
4.3501709e-07 0.00010616779 -0.00015961977 0.0004182351 -0.00017566247 -0.0009779282 0.0003762893 0.00013311017

weight f4 [16]
00000000: 74e7 70be e8de 033e c4e2 ed3c 09bf 53be
00000010: 3404 d93e 9c7d 53bb 738b d2be da68 d13c
00000020: e588 6fbd 7b3d e33b 870d 1f3f b2c1 933f
00000030: 5b71 2b3e 8cea 093f d9ed 8a3e 36b3 f7bd
-0.23525792 0.12878 0.029038794 -0.20678343 0.4238602 -0.0032270914 -0.41122016 0.025562692
-0.058480162 0.0069348193 0.62130016 1.1543486 0.1674246 0.53873515 0.27134588 -0.12094729

bias f4 [16]
00000000: e11c f9bd 1dd7 3ebe 1a36 56be a6b9 483e
00000010: cc4d 0b3e a416 2dbc aa12 803a bd50 33be
00000020: 5efe b8be d64e b5bd 0e73 efbd 25fe 49be
00000030: ec9c 783e d82a bd3e 9a36 993e 48b3 5d3e
-0.12163711 -0.18636747 -0.20919076 0.1960207 0.13603896 -0.01056448 0.0009771187 -0.17511268
-0.36131567 -0.088529274 -0.11691867 -0.19725855 0.24278611 0.3694675 0.2992447 0.21650422

running_mean f4 [16]
00000000: af4e 86be 9a7e c43d 9851 c03c 8820 4cbb
00000010: 0e85 41be 86db 2e3e 9d61 f5be d59a 583e
00000020: a030 a83d 4d53 06be 8a6e c13d af3a 19be
00000030: 6d02 27bd adb1 053f 289e a0be 824a a6be
-0.26231906 0.0959446 0.023476407 -0.003114732 -0.18898413 0.17075929 -0.47926036 0.21152814
0.082123995 -0.13117714 0.09444912 -0.14963792 -0.040773798 0.52224237 -0.31370664 -0.3247872

running_var f4 [16]
00000000: 4b95 873b 4aae d43a f171 1a3a 86d6 d83a
00000010: 8c7d bc3b 2cd7 fc3a 738d 033b 91d2 3f3a
00000020: fa2a 123a 07f8 803a 44c0 b23b 517d 8c3a
00000030: e61b 753a 6531 1d3b ffba 0b3b e8f5 b23a
0.00413767 0.0016226259 0.00058916124 0.0016543425 0.005752271 0.00192902 0.0020073324 0.00073174486
0.0005575862 0.0009839543 0.0054550488 0.00107185 0.00093501655 0.002398574 0.0021321175 0.0013653608

weight f4 [16, 16]
00000000: df23 ef3d 37c5 3dbc 44a7 03be c03a 6cbe
00000010: 6588 e83e c982 beba 0ff9 293e 7b31 6e3b
00000020: 45cf fe3c 3533 723a 6a81 e83e 3709 6cbe
00000030: ee3a 413e be85 043f f7d8 74be 75b5 31be
00000040: 1e99 d5be aab1 6a3c 51a9 38b9 010f 243d
00000050: f372 e7be f97d 14be 6b9d 00bf f501 e2be
00000060: 3b78 823d 04a0 15be 3564 833e 8d72 3c3d
00000070: ed0c 0e3e 7278 a0be bafb a8bd 4022 0b3c
00000080: 5efa 153e 7482 fd3c e922 2c39 d1c1 4a3d
00000090: 1b36 a5be 1edc 9238 59d9 debe 3e7b 903e
000000a0: 89c8 93bc 0f2c 8a3b d7db 78be ce5c 383e
000000b0: 211e 21be 64e0 64be bd05 ed3a 0e42 a4bb
000000c0: 37f3 d13e ee4e c4bd d15f 8a39 7759 f63b
000000d0: d5e5 723d 7892 dcbd 1d16 bb3e 2b80 d93d
000000e0: b519 34be 7b40 7a3c 4547 8dbe 622b 18bf
000000f0: f6da 73be 6de2 5a3e 55bd 96bd 04e3 0f3e
00000100: f80f 90bc a84e 54bc 1b2c 3f39 c9b5 84bc
00000110: b72b 70bd d46c 1db8 ec2b d13d c2a8 39bc
00000120: a0e6 96bb c8c1 c0b8 c315 413e 5713 95be
00000130: 198c 4c3d 6b86 84be 4f3d 63bc cbe5 5b3d
00000140: 9908 cabd 79eb ed3c ffa4 8dbb deff 49be
00000150: 479e 07bf dbb7 79b9 1ad4 aa3e b1e6 063a
00000160: 2bac 22bd 2da7 4138 0349 98bd 4dfd e0bc
00000170: 074e 1abe 53b7 2a3f e00b 40be f54a aa3d
00000180: fb2c 043e 27f4 29bb 1bd3 cbba f0f0 3a3e
00000190: f2b8 cabe b10d 9e38 c8cf 8cbe cedb 3bb7
000001a0: c964 d2bc 1111 e638 e242 99bc c6db 313e
000001b0: dd16 a2be 4986 31be 6001 333e fa11 29bc
000001c0: 532a 963e e2dd 053e 662e 913b 5b64 87be
000001d0: 95be ac3e d0d8 4d3e 353e d8be 3f9c 773c
000001e0: 2c2e 833e 3691 86be aef9 9e3d 35ff 09bf
000001f0: 9d9d b23e e3d0 23be cfd1 8ebd 9dfc abbe
00000200: 4b66 40bd f216 c7bb 8843 c8b6 6699 bf3b
00000210: e7cb 2c3e 24e4 09bc e670 643e b811 5c3e
00000220: 66b9 f8bc 44d9 86bd f138 273e bb67 ecbd
00000230: d574 1e3e 16b0 8bbe b37e 36bd 5b43 3c3d
00000240: 81f4 193e 9a9d 013e c563 263e fe7d c63e
00000250: 06ec 9bbd ac79 c7b8 f553 c93e a680 2e3a
00000260: f5b2 7abe 5cd9 c838 c9ed 31bf 1630 e73c
00000270: f4ed f2be c2b6 d5be bc6a 403e 9e0f 8fbe
00000280: acee c53e a7fb a3bd 68f0 31bd 205e a0be
00000290: 0c0d b53e 4c4c b33e 3e85 533d 8beb d53e
000002a0: a786 783d 1f71 3c3e 09f6 9bbb 601d e0be
000002b0: fe90 d23d 4c00 183d 40ed f23e b0f8 79be
000002c0: 9a13 e9be 867d dabd e0b2 1ebd b3ef 143e
000002d0: aa09 b33e 7748 2c37 8a93 f6be 122c 7a3a
000002e0: 45a3 f83d e3f0 b2b8 b034 aa3d 4f43 013f
000002f0: 14bd 823e 5a14 51be acd5 963e 8fec e43e
00000300: b57d 933d 18ca 02be 3cb8 9e3a db7b 853e
00000310: b10a 7dbc 6685 cfb8 b97e 433e ffc1 7a3d
00000320: a518 e5bc c796 3a38 cba3 e9bd 50ba 91be
00000330: 53e8 20be a6be 87bd bba2 74be 1151 2c3e
00000340: e1b8 753e b9a3 0dbb 7655 c738 ab83 123c
00000350: 007c 9cbd 5f03 a63d e822 4cbd 8f3b 5ebe
00000360: 1bcc 523e 36f1 38be 2a0a dc3e 88eb acbc
00000370: f05e f53d 32a2 a63e c92e 5fbc 92b7 803d
00000380: f2da 30be 1a90 10be e4c7 95b7 b7c9 863b
00000390: 60a9 02bf 3b6a e935 5398 86bc 3b25 183c
000003a0: 3fea b0bb 1889 80b8 6d94 133e b551 0f3e
000003b0: b707 8d3c 65f8 ed3e 8d6f f0bd de98 c2be
000003c0: 41ca e73d 27da 23bb 824f 4537 84b9 c0bc
000003d0: 956a 5e3e 63bf afbd f321 11be 0cd6 e53e
000003e0: ab31 52be 8ddb c63e 9579 303e 9fc0 db3d
000003f0: b493 383e 39a5 54be 0fdf 303d cca3 27bd
0.11676764 -0.011582664 -0.12856776 -0.23069286 0.4541656 -0.0014534827 0.16598915 0.003634541
0.031104693 0.0009239198 0.45411235 -0.2305039 0.18870136 0.51766574 -0.2391089 -0.17354377
-0.41718382 0.014324585 -0.00017610683 0.04005337 -0.45204887 -0.1450118 -0.502402 -0.44142118
0.063705884 -0.14611822 0.2566239 0.04600768 0.13872118 -0.31341892 -0.08251138 0.008492053
0.14646289 0.030945994 0.00016416203 0.049501244 -0.32267842 7.0028225e-05 -0.43525198 0.28219026
-0.018039959 0.004216678 -0.24302612 0.18004152 -0.1573415 -0.22351223 0.0018083375 -0.005012757
0.4100587 -0.09585367 0.000263928 0.0075179893 0.059301216 -0.10770124 0.3654031 0.10620149
-0.17587931 0.015274162 -0.27593437 -0.59441197 -0.23813996 0.21375437 -0.07360331 0.14051443
-0.01758574 -0.012958206 0.0001823161 -0.016199963 -0.05863544 -3.753307e-05 0.102134556 -0.011331739
-0.0046051294 -9.191368e-05 0.18855958 -0.29116318 0.049938295 -0.25883803 -0.013869598 0.053685945
-0.09864921 0.029042946 -0.0043226476 -0.19726512 -0.5297589 -0.00023814982 0.33364946 0.000514607
-0.039714973 4.617048e-05 -0.07435801 -0.027464533 -0.15068828 0.6668598 -0.1875453 0.08315078
0.12907784 -0.002593288 -0.0015550585 0.18255973 -0.39594227 7.536577e-05 -0.27502275 -1.1197246e-05
-0.025682824 0.000109704335 -0.01870865 0.17368993 -0.31658068 -0.17336382 0.17480993 -0.010319227
0.29329166 0.13072923 0.00443058 -0.26443753 0.33739153 0.20102239 -0.4223496 0.015112936
0.25621164 -0.26282662 0.07762466 -0.5390504 0.34885874 -0.15997653 -0.069736116 -0.33591166
-0.046972554 -0.0060757333 -5.968326e-06 0.005847144 0.16874658 -0.008416209 0.22308692 0.21491134
-0.030361842 -0.06584409 0.16330315 -0.115432225 0.15474255 -0.2728278 -0.044554424 0.045962673
0.15034677 0.12657776 0.16248997 0.38768 -0.07613377 -9.5117226e-05 0.39321867 0.00066567434
-0.24482329 9.5772295e-05 -0.69503456 0.028221171 -0.4744717 -0.41740996 0.18790716 -0.27941602
0.38658655 -0.08006983 -0.04344216 -0.31321812 0.35361516 0.35019147 0.05164074 0.41781268
0.06067529 0.18402527 -0.0047595543 -0.4377241 0.10281561 0.037109658 0.47446632 -0.24411273
-0.45522767 -0.10668473 -0.038744807 0.14544563 0.3496831 1.0268871e-05 -0.48159438 0.000954331
0.12140516 -8.53257e-05 0.083108306 0.5049333 0.2553488 -0.2041792 0.29459894 0.4471173
0.07201711 -0.12772405 0.001210935 0.26071057 -0.015444444 -9.8953766e-05 0.1909131 0.061220165
-0.027965853 4.4486278e-05 -0.11408194 -0.28462458 -0.15713625 -0.0662816 -0.23890202 0.168278
0.23996307 -0.002161248 9.504978e-05 0.008942525 -0.076408386 0.08106112 -0.049837977 -0.21702407
0.20585673 -0.18060765 0.42976505 -0.021108404 0.119809985 0.3254562 -0.013621994 0.06285013
-0.17271021 -0.1411747 -1.7855265e-05 0.0041134018 -0.51039696 1.739077e-06 -0.016430056 0.00928622
-0.005399018 -6.129051e-05 0.14412089 0.13996013 0.017215593 0.46478572 -0.117400266 -0.38007253
0.11317874 -0.0025001855 1.1760627e-05 -0.02352596 0.21720345 -0.08581426 -0.14173107 0.44889867
-0.2052676 0.3883938 0.1723388 0.10730099 0.18025094 -0.20766152 0.043181475 -0.040927693

bias f4 [16]
00000000: 0637 1cb9 380e 13b5 17ff a7b7 8fef b038
00000010: d2fe aeb7 315a 27b9 4eb0 51b5 b44e 7639
00000020: aa21 5bb7 7923 a6b7 879d 88b9 4a60 76b5
00000030: 326d 8139 59bf 58b7 1e60 8636 f67f c0b4
-0.00014897817 -5.478246e-07 -2.0026737e-05 8.436955e-05 -2.0861076e-05 -0.0001595996 -7.8115124e-07 0.00023489707
-1.3061255e-05 -1.980526e-05 -0.00026057308 -9.178226e-07 0.00024686154 -1.2919155e-05 4.0047007e-06 -3.585589e-07

weight f4 [16]
00000000: 7b9f 623e 9bbb 673d 06c2 ba3d 5fe1 30be
00000010: 8b85 3c3d c067 4a3e a3e6 29bc f387 403e
00000020: 0a43 cdbc 4820 acbd e5e7 a23e d652 5cbc
00000030: 75f8 2b3a 054b f03b 37d7 24bd c6b9 b73c
0.2213115 0.0565754 0.09119038 -0.17273472 0.046025794 0.1976614 -0.0103699295 0.1880186
-0.02505638 -0.08404595 0.31817546 -0.013447484 0.00065601553 0.007333162 -0.040244307 0.02242745

bias f4 [16]
00000000: 7304 b0bc 61dc 10be 4dbc c9bd 84ab c6bb
00000010: 08b1 2bbe 4b62 ca3d caea 4bbe 5d5b 2e3d
00000020: 11b5 41be 1712 f2bd 1b96 32bb f87c 09be
00000030: 639a 33be 161c 63bd aea8 2ebe 8965 06be
-0.021486497 -0.14146568 -0.09850369 -0.0060629267 -0.16766751 0.09882029 -0.19913784 0.0425676
-0.18916728 -0.118198566 -0.0027250114 -0.13426578 -0.17539363 -0.055446707 -0.17056534 -0.1312467

running_mean f4 [16]
00000000: 206c 8f3e fef0 88be 3354 99be e10c 02be
00000010: 6f7f 39be f7b1 8a3d 2b99 15be 750c 97be
00000020: bebd 21bc ba88 9fbe 6c01 9b3c 1cf1 c03e
00000030: 7e72 b9bd 1e9d 893e e807 0b3d 14e9 833d
0.2801218 -0.26746362 -0.2994705 -0.12700225 -0.18115018 0.06772225 -0.1460921 -0.2950169
-0.009871898 -0.31159002 0.018921576 0.37683952 -0.09055041 0.26877683 0.033943087 0.064409405

running_var f4 [16]
00000000: e3f2 953e 3557 913d f74a f43d 930b 203e
00000010: deab b23c 8cf0 463e 2891 b13d f275 553e
00000020: 8f89 aa3c 0a86 633e 9ea7 243e 3e93 0e3e
00000030: 29ce 0d3d 966c 7d3d f7d5 043d 6bfe 433d
0.2928687 0.070967115 0.11928361 0.15629415 0.021810468 0.19427699 0.086702645 0.20845774
0.020817546 0.222191 0.16079566 0.13923356 0.034620438 0.061871134 0.032430615 0.047850054

weight f4 [1, 16]
00000000: e428 db3e db4c c7be b85a 8bbe 1f18 dfbd
00000010: b66f 033f 74c0 4b3e 9a3b 7e3e ffed ad3e
00000020: 7790 c6be bd07 6a3e 9b54 51be bc7f b6be
00000030: 18e2 7f3e 3026 273f 5bb0 813e da8b 0cbf
0.42804635 -0.38925824 -0.2721765 -0.108932726 0.5134233 0.19897634 0.24827424 0.3397064
-0.38782093 0.22854514 -0.2044243 -0.3564433 0.24988592 0.65292645 0.2532986 -0.54900897

weight f4 [1, 16]
00000000: 8a82 21bf 8012 973e c332 c7be 8324 17bd
00000010: 4c48 10bc 124f 3d3c 89c4 adbd f72a 323f
00000020: fd8e 3bbd 6551 9d3d 1cae c13c 7854 95bb
00000030: 094a 84bd 78c3 c0be 9336 e6bd 445f 063e
-0.6308981 0.29506302 -0.38905916 -0.036900055 -0.008806299 0.011554496 -0.08484752 0.6959681
-0.04579066 0.076815404 0.023642592 -0.0045571886 -0.064594336 -0.3764913 -0.11240878 0.13122278

weight f4 [16, 2]
00000000: d911 9c3e 902f e63e cef7 033e 1ac1 cf3e
00000010: 2c22 1bbf dede b93e 887b eb34 f133 b22d
00000020: d510 d4be e418 eebe eefc ed3c 6111 1cbf
00000030: c69f 2d3f ecaa 1a3f ab9a 81bc 6280 5eba
00000040: 5567 e13d d8e9 e8be f04d 95be 70fb 053f
00000050: 7bbf 5428 2c1f 08a8 0291 08bf 5992 343e
00000060: 0c97 29ba 2de2 ccb9 9207 a4b4 ee73 3c34
00000070: cc73 05be 9a13 1dbf 0fe8 bb3b c5d0 db3c
0.30482367 0.44958162 0.12887499 0.40577012 -0.6059902 0.36302847 4.3862042e-07 2.0259324e-11
-0.41419092 -0.46503365 0.02905127 -0.6096402 0.6782192 0.60417056 -0.015820822 -0.00084877585
0.11006037 -0.4549091 -0.29161024 0.5233679 1.1809885e-14 -7.556276e-15 -0.53346264 0.17633952
-0.0006469346 -0.00039078426 -3.0552889e-07 1.755104e-07 -0.13032454 -0.61358035 0.0057344506 0.026832948

bias f4 [16]
00000000: 87a3 88ba 4722 2b38 0f81 dc39 f7c5 08b4
00000010: 121b 4fba bc26 6239 3b72 04b9 ae10 abb8
00000020: 7ccb 32ba 04f4 c637 770c 312f 2ba3 a839
00000030: 1cb6 8133 9e0f 0a34 aa48 2339 1840 cf37
-0.0010424712 4.08015e-05 0.00042057826 -1.2738006e-07 -0.0007900457 0.00021567469 -0.00012631055 -8.157022e-05
-0.00068204827 2.3717068e-05 1.6102485e-10 0.00032165027 6.040156e-08 1.2857933e-07 0.00015571961 2.4706169e-05

weight f4 [16]
00000000: 8ae2 10bf 6e74 14bf c0fd 82be f88e 7c37
00000010: 4f19 f33e 164c 2e3e dafa b3be 2130 2bbc
00000020: 6025 c83e 23f2 823e f910 6bb9 6921 013f
00000030: d4ff e83c b5eb b43a 366c 86be 6cf1 2ebc
-0.5659567 -0.5799016 -0.2558422 1.5053658e-05 0.47480246 0.17021212 -0.35152322 -0.010448487
0.39091015 0.2557536 -0.00022417669 0.50441605 0.0284423 0.0013803156 -0.26254433 -0.010677677

bias f4 [16]
00000000: 6189 f43d 7023 a33d 5cf2 973e c527 1fb5
00000010: 13c0 753e e5a9 103f 1c5d 49bd 20d2 23bc
00000020: beb0 a23e c96f d83b 0242 83b8 2038 393e
00000030: 90dd 36bd da3a abbb c966 073f f562 2ebc
0.119402654 0.079657435 0.29677093 -5.928999e-07 0.23999052 0.5650924 -0.04916106 -0.009998828
0.3177547 0.0066051227 -6.258862e-05 0.18087816 -0.044644892 -0.0052255215 0.5289121 -0.01064371

running_mean f4 [16]
00000000: 5ea6 be3e ecbf 863e a72b f0bd 700c 8b34
00000010: ca79 ddbe f17d 90be 6b31 223f 776f 0dbc
00000020: bc7f 2bbe 66c5 ee3d 126c 8ead 1535 30be
00000030: f64b 0bba 4546 49b3 b0f4 bbbe f8b4 873c
0.37236303 0.263183 -0.11727076 2.5899817e-07 -0.4325698 -0.28221086 0.63356656 -0.008632532
-0.16747946 0.116587445 -1.6191524e-11 -0.17207749 -0.0005313748 -4.686287e-08 -0.3671012 0.016565785

running_var f4 [16]
00000000: f999 9b3a c494 123a 39fa 883b 38ce 3627
00000010: 6094 ed3a 8864 9a3a 4061 933b 6340 2736
00000020: 05ea 5f3a 8947 003b 9d41 1d0e dd9a 3b3b
00000030: 7115 8331 c2ee 2626 dcf1 993a 5164 1d36
0.0011871449 0.0005591626 0.0041802195 2.5369365e-15 0.0018125884 0.0011779228 0.004497677 2.4922417e-06
0.00085416465 0.0019573888 1.9383336e-30 0.0028626241 3.8150394e-09 5.7916397e-16 0.0011745053 2.3453215e-06

weight f4 [16, 16]
00000000: d80c d53d 6239 573e 24d5 863e efbc 8d29
00000010: 5451 603d 1d2f 5bbe 2294 b63e 9a8a c4ba
00000020: d7c9 c9be 79e7 813d 1d87 e62a ed8f 023f
00000030: 31fe 7935 b344 842d 6f85 afbe c721 3b3d
00000040: 2be2 233f 3f84 a43d a5dd 043f 8a4d 6bae
00000050: 3f30 62be 1e7a 113f b9f4 d13e 1cee 26bb
00000060: 4bb8 383f bdbc 48be 6d26 caab da39 213e
00000070: e901 a9b8 42d8 3d2f 286a 56be 4907 c9bc
00000080: 06c2 88bb 0f5e 9ebd bc6f f13c d756 30ac
00000090: e10c 8bbd 3d81 953b cd49 7abd 1f63 2d39
000000a0: 94b4 42ba 87db 4c3c 10d9 10a9 c94d a93c
000000b0: e347 1b36 fef3 8cad e379 d43d 7833 ecb6
000000c0: ae15 9d30 1bba 15b1 020d 7eb2 453f 1621
000000d0: c3e0 2132 0e29 a6b1 2698 8431 29c3 b92c
000000e0: 7f2d 42b2 a2bb fb31 73c2 559d 8395 8232
000000f0: 171a 0daa 2ef8 9c21 30f0 e52f b57c 33ac
00000100: 26af 0cbb 6a07 4a3c f2c2 583c 9675 77aa
00000110: d3cc 86ba f4af bb3c b097 e7ba a9d9 24b7
00000120: fa54 8f3c 6224 dfbb ce8d 41a8 58db 5bbc
00000130: f143 6fb3 055e ea2c 2e29 96bb d1a9 0337
00000140: 2b4f 5fbd b629 8fbd 8357 593b 9317 3bac
00000150: 4b7a 1dbd eea8 65bc c1c2 d33b 9abd 2539
00000160: 88b5 01bd c4dc c73c d087 0c2a e5da f03b
00000170: fa7f 3cb6 67ed 9fae bc57 263d a40e 43b7
00000180: da58 7f3e dd41 573e 7210 2bbe d459 16ae
00000190: 6b98 693d af2d d5bd 733e ae3e 9371 cd3a
000001a0: 32d3 86be 2b72 e73c a05f fe2c 69ed a53c
000001b0: 832a 5139 65aa c838 bb6c f8bd 9f06 853c
000001c0: 0ce2 873e c893 1a3f 453d be3e aa6b 2d37
000001d0: 8fe7 283f 3261 dd3e e15c bcbd ea00 533a
000001e0: 3a9c 803d 5ec8 203e fe3d bbaa 7c62 9dbe
000001f0: 493d f73a 430b 5a32 d19f f7be 5e66 c43c
00000200: e405 07bd 8efb 01bd c56c b73a 1291 bb29
00000210: c8f9 24bd 7edb 2dbc 235d 00bc e084 06b7
00000220: ae12 1fbc 5545 9d3a c104 1ca9 9507 083d
00000230: ddb4 abb6 7f0d f4ad 9229 b33c a597 54b6
00000240: a51e 16ba 7d31 47ba d45f afbb 7a65 0f2a
00000250: 755f 813c 9f4a b13a 0892 ab3b 796f efb6
00000260: 9705 44bb d1a3 513b a46e efa5 e0dd ec3b
00000270: e76b 8f34 e4e5 902b 1355 ca3a 6cb0 e434
00000280: cce3 b1bc 6e26 61bc e5eb 91bc 8a33 8b2b
00000290: 0686 07bd 7cd5 56bd f4a7 58bc 69a8 d837
000002a0: dd97 70bd 5457 5f3a 77bb c2a9 72b1 1c3d
000002b0: e965 4cb6 8a22 cc2f 8ba9 083d 76ec 4db8
000002c0: 98fe f5b8 6701 b7b7 fa13 d939 c0b8 e4a8
000002d0: 4b2e 1cba 4725 d738 c211 f0b9 f92c 9135
000002e0: a873 c939 4323 76b9 c36e 5726 f0fb 813a
000002f0: 29c5 be31 096e ca2a cc2b 73b9 6dbc 8133
00000300: c092 cd3b 5600 3e3b 2c3d 9c3b 1c6e 852a
00000310: 3669 d1bc 255c 11bc cf3b 45ba f1b0 7c37
00000320: e827 513b e502 03bb f92c caa9 b8c8 fbbb
00000330: 7c0a 90b4 a002 1e2c 10e2 8fb8 6e69 9234
00000340: 46fb c43b 84e4 3b3b b5c0 bdbb b81a 872a
00000350: 171e 223c 70a1 383b 2f3f 923b f744 8d36
00000360: 97ca 8bba f86b 2e3b b092 d1a7 b0e7 283c
00000370: 920f 8e32 6335 d2ab 06c7 cdba 885e fe34
00000380: 5d6c 423d a979 513c b5fa fd3d b200 cdac
00000390: 9386 41bd f39c a53c 9cad 2cbd a838 e1b8
000003a0: 1f7b 713d 4622 23be 946d 17aa a241 c0bd
000003b0: d5a7 8bb6 8509 a2ad 0f52 2d3d 4825 0db5
000003c0: 8404 f03d f266 d8bc cef2 c3bd 432b 052d
000003d0: b893 823d 89f5 073c a2f1 233e 6998 0eb9
000003e0: 8e0f dabd 2090 d43d c1e3 bf29 bae5 a43d
000003f0: 82f9 d2b6 77a3 59b0 c94b 0f3c 0fd1 3ab9
0.104028404 0.21017984 0.26334488 6.2944326e-14 0.05476506 -0.21404691 0.3565989 -0.001499492
-0.39411804 0.06342978 4.094996e-13 0.51000863 9.3129626e-07 1.5037171e-11 -0.3428149 0.04568651
0.6401698 0.080330364 0.519007 -5.3501682e-11 -0.22088717 0.5682696 0.4100702 -0.0025471514
0.7215621 -0.19603248 -1.4363629e-12 0.15744725 -8.058904e-05 1.726628e-10 -0.20938933 -0.024539607
-0.00417352 -0.07732784 0.029472224 -2.505931e-12 -0.06789566 0.0045625255 -0.06110554 0.00016535491
-0.0007427421 0.012503511 -3.2162695e-14 0.020666974 2.3138643e-06 -1.6024512e-11 0.103748105 -7.03934e-06
1.1429415e-09 -2.1788142e-09 -1.47877035e-08 5.0905713e-19 9.422538e-09 -4.8359032e-09 3.859003e-09 5.2796834e-12
-1.1302631e-08 7.326393e-09 -2.8290843e-21 1.5201982e-08 -1.2532367e-13 1.0636664e-18 4.182552e-10 -2.5506656e-12
-0.0021466701 0.012330869 0.013230072 -2.1978803e-13 -0.0010284431 0.02291105 -0.0017669108 -9.82584e-06
0.017496575 -0.006809757 -1.0744401e-14 -0.013418995 -5.5708316e-08 6.6611183e-12 -0.0045825457 7.847747e-06
-0.05451886 -0.069903776 0.0033163733 -2.6587385e-12 -0.038446706 -0.014017327 0.0064624255 0.00015806258
-0.031667262 0.024397261 1.2481617e-13 0.007350313 -2.8088675e-06 -7.272654e-11 0.040611014 -1.16263145e-05
0.24936238 0.21021219 -0.16705492 -3.4185835e-11 0.057030123 -0.10409104 0.3403202 0.0015674107
-0.26333004 0.028252682 7.2297307e-12 0.020254808 0.0001994763 9.5684816e-05 -0.12130114 0.016238509
0.26539648 0.60381746 0.3715612 1.0336671e-05 0.6597833 0.43238217 -0.09197403 0.00080491474
0.06279798 0.15701434 -3.3260889e-13 -0.307392 0.0018862869 1.2691831e-08 -0.48364118 0.023974594
-0.032964602 -0.031734042 0.0013994208 8.329634e-14 -0.040277272 -0.010611413 -0.0078347055 -8.01796e-06
-0.009709043 0.0011998812 -3.4643082e-14 0.033210356 -5.1172524e-06 -2.7745582e-11 0.021870408 -3.167873e-06
-0.0005726612 -0.0007598622 -0.005352 1.2736158e-13 0.015792588 0.0013526267 0.005235914 -7.135732e-06
-0.0029910558 0.0031988511 -4.1534864e-16 0.007228598 2.6714335e-07 1.0295623e-12 0.0015436731 4.2596673e-07
-0.021715067 -0.0137420725 -0.017812679 9.890849e-13 -0.0330868 -0.05244969 -0.013223637 2.5827629e-05
-0.058738578 0.0008519788 -8.6478506e-14 0.038255163 -3.0457688e-06 3.7131925e-10 0.033364814 -4.909603e-05
-0.00011729932 -2.1815953e-05 0.0004140435 -2.5393208e-14 -0.0005957826 0.00010258942 -0.00045789598 1.0816431e-06
0.00038423878 -0.00023473524 7.474322e-16 0.0009917002 5.5521423e-09 3.595876e-13 -0.00023190601 6.041305e-08
0.0062735975 0.00289919 0.0047680344 2.370195e-13 -0.025562864 -0.008872067 -0.0007523866 1.5061568e-05
0.0031914655 -0.001999074 -8.9784036e-14 -0.0076838396 -2.6829719e-07 2.2454608e-12 -6.860879e-05 2.727133e-07
0.0060113994 0.0028670141 -0.0057907947 2.3999357e-13 0.009894869 0.0028172396 0.0044630985 4.210156e-06
-0.0010665235 0.0026614647 -5.816819e-15 0.010309145 1.6538056e-08 -1.4936215e-12 -0.0015699572 4.7379967e-07
0.047466625 0.012785354 0.12401334 -5.8265276e-12 -0.04724748 0.02021644 -0.042157754 -0.00010739389
0.058955308 -0.15931043 -1.3449512e-13 -0.093875185 -4.162061e-06 -1.8421495e-11 0.042314585 -5.2580845e-07
0.11719611 -0.026416276 -0.09567796 7.569781e-12 0.06375831 0.008298286 0.16010144 -0.00013598953
-0.10647498 0.10379052 8.521613e-14 0.08051629 -6.2875342e-06 -7.917644e-10 0.008746096 -0.00017816223

bias f4 [16]
00000000: 552c ac37 3ff0 86b7 2458 7638 2bb1 0539
00000010: b75f 6c38 8fee 7c38 13e7 12b9 4ca7 d838
00000020: 2fca e7b7 27f0 f035 d15a 2738 6207 e6b8
00000030: ba04 29b8 c742 6835 eb60 c7b7 44f1 71b9
2.0524642e-05 -1.6085918e-05 5.8733058e-05 0.00012749869 5.6355926e-05 6.0303657e-05 -0.00014009727 0.00010330844
-2.7631495e-05 1.7951287e-06 3.9900482e-05 -0.0001096863 -4.0297142e-05 8.652391e-07 -2.376778e-05 -0.0002307343

weight f4 [16]
00000000: ba74 17be e43f 69be 676d 873d 2471 83b4
00000010: 8683 423c e630 9e3d efc8 363e 1b17 08be
00000020: 8044 833c ca3c 91bc a4ba 543c b143 2e3b
00000030: 93ab b23c bb4c 57bc f1b9 adbd 1a80 013e
-0.14790621 -0.22778279 0.06612664 -2.4482972e-07 0.011872178 0.077241704 0.17850088 -0.13290064
0.016023874 -0.017729182 0.012983952 0.002659064 0.021810329 -0.013140853 -0.08482731 0.12646523

bias f4 [16]
00000000: 8b02 7dbe 3845 9b3d 7e15 4bbe 5cfb a1b9
00000010: 49c8 fabd a04f 80be 853f 7bbe c56c 8b3d
00000020: 6d6d b9bd 1aab 78bd ae92 dcbd b44b 86bb
00000030: 5477 9cbd e7d7 68bd 6473 7abe bf21 1bbe
-0.24708001 0.07581562 -0.19832417 -0.0003089559 -0.122452326 -0.2506075 -0.2453595 0.068078555
-0.090540744 -0.06071005 -0.107701644 -0.00409838 -0.076399475 -0.056846526 -0.2445808 -0.15149592

running_mean f4 [16]
00000000: a221 81bd 860e 5c3f 4685 a23c 2e60 a7b6
00000010: b9d9 4f3c 2477 23bd cfb9 67bd eb4e 043f
00000020: 1faf a1bc 6dd8 063b 70c9 09bd 8a17 dd39
00000030: 56d6 d3bb 5e53 d13b 7d58 483d 0546 653d
-0.06305243 0.8595966 0.01983894 -4.9881846e-06 0.0126861865 -0.039908543 -0.056573685 0.5168292
-0.019736825 0.0020575777 -0.03363937 0.00042169943 -0.00646476 0.006388112 0.048912514 0.05597498

running_var f4 [16]
00000000: 29dc 993d 4688 9a3e 2b96 ce3b c82c 8d25
00000010: cc73 9039 50bd a13b a62a 4d3d 2b6d df3e
00000020: e4dc eb3a bef9 8e38 c63d 083b 328e d133
00000030: 091a 9438 6020 bd38 474c 473c d3f5 803c
0.07512695 0.30182093 0.0063045225 2.4489946e-16 0.00027552096 0.004935898 0.0500895 0.43637976
0.0017994908 6.817606e-05 0.0020788773 9.758186e-08 7.0620394e-05 9.0182526e-05 0.012164182 0.015742218

weight f4 [1, 16]
00000000: 9dc5 3bbf 0772 423e 6665 743e 77c3 04b8
00000010: d26f 473c 1a92 fb3d 9e47 c4bd f993 133f
00000020: f23e 843d af46 b8bb 972a ecbe 2e24 94ba
00000030: 3f3e 15bc 7e90 f7bb a0e7 313e 741f a1bd
-0.7334841 0.1898881 0.23866805 -3.1653293e-05 0.012172656 0.12283726 -0.095839724 0.57647663
0.06457318 -0.0056236605 -0.46126243 -0.0011302286 -0.009109079 -0.0075550666 0.17373514 -0.07867327

weight f4 [1, 16]
00000000: 2e2e e63e 6195 c2be 713a efbb 1636 90b7
00000010: c72f f5bb eefd a3bc d7e4 3bbe c73c c53e
00000020: 2f19 f5bb ff27 b9bb 98b9 00bd 9279 c5b7
00000030: b461 f3bb eef9 dbbb 9393 e9bc 760e aebd
0.44957107 -0.38004592 -0.007300668 -1.7191323e-05 -0.007482502 -0.020018544 -0.18349014 0.38522932
-0.0074798088 -0.00565052 -0.031426996 -2.354084e-05 -0.0074274186 -0.0067131435 -0.028512752 -0.08498852

weight f4 [16, 2]
00000000: cde2 0238 3b87 a3b3 9fc4 2a3b 881f 8539
00000010: fec5 4fbe 0aa3 323f bdab 3fbc 1467 563d
00000020: 97c2 32a1 a2da 1b24 0837 c2b1 9612 0133
00000030: 1581 cca5 1030 c6a8 9203 703e 5f55 b1be
00000040: d9af 8abe 448e 2b3f cc3e 9fb4 6242 05b5
00000050: f9f0 2f3e 2e6a ed3d 7496 f43e 0954 093d
00000060: 4e9d a13e 5226 153f 0f42 0080 2636 0000
00000070: e1da 00bf 5c29 56be c1bd 143f 67b0 95bd
3.120564e-05 -7.614877e-08 0.0026057137 0.0002539123 -0.20290372 0.6978003 -0.01169866 0.052344397
-6.0566283e-19 3.3795457e-17 -5.6523994e-09 3.0052057e-08 -3.5475828e-16 -2.200326e-14 0.23438862 -0.34635445
-0.27087286 0.67013955 -2.966175e-07 -4.964296e-07 0.17181768 0.11592518 0.47771037 0.033527408
0.31565326 0.582616 -2.3697e-41 1.9425e-41 -0.5033398 -0.20914215 0.5810204 -0.07309037

bias f4 [16]
00000000: e8ae 7835 704f c6b5 e9de c739 3c89 9e36
00000010: 4979 66b3 8df5 88b5 486a 18b1 8125 863a
00000020: ac76 c339 c85f c2b2 0085 a336 6749 b7b4
00000030: 47e5 f937 f2cc 5233 01fb 983a af6e c0b8
9.264172e-07 -1.4775269e-06 0.0003812232 4.724743e-06 -5.3661356e-08 -1.0204254e-06 -2.2179325e-09 0.0010234566
0.00037281716 -2.2628129e-08 4.873262e-06 -3.4139813e-07 2.9789879e-05 4.9080832e-08 0.0011671485 -9.17589e-05

weight f4 [16]
00000000: 0fac 3c38 adcc e839 6c14 ec3e aea9 8c3a
00000010: 9a60 73b7 80e9 8cb9 c51b d134 95e8 cabe
00000020: 0045 37bf 55a6 76b7 b80d 60bd 6222 84bc
00000030: ebe2 013f 5a30 ee18 7ff4 3a3f e0d1 1e3f
4.4982935e-05 0.00044402984 0.4610933 0.0010731721 -1.45064205e-05 -0.00026876852 3.894949e-07 -0.3963057
-0.7158966 -1.470147e-05 -0.054700583 -0.016129676 0.50736874 6.157038e-24 0.7302932 0.62038994

bias f4 [16]
00000000: cffe 1a35 b1e4 213b 0d06 dd3e 7939 7e3d
00000010: c9a3 02b4 08ec dd39 9004 0db6 bc9e 8abe
00000020: cfd5 57bd 1681 8537 f0f0 a8bd 66d5 f4bc
00000030: 4277 19bf 6d00 0080 27d2 44bd 16b5 a7bd
5.7740266e-07 0.002470296 0.4316868 0.06206653 -1.2166778e-07 0.00042328262 -2.1013293e-06 -0.2707423
-0.05269414 1.5914946e-05 -0.0824908 -0.029886913 -0.599476 -1.53e-43 -0.04805198 -0.08188836

running_mean f4 [16]
00000000: 411d 8237 27d5 b83a 3e55 6e3e 6392 ab3c
00000010: c79b 38b0 881c c531 27c5 e42e 6fb4 81bd
00000020: 744b 4b3e 42da 91b3 af95 113e 2422 7f3e
00000030: f74d e43e d68e 86b1 da8c b2be dc44 803e
1.551083e-05 0.001410161 0.23274705 0.020943826 -6.7160183e-10 5.7366982e-09 1.0403261e-10 -0.06333243
0.19853002 -6.7917895e-08 0.14217256 0.24915367 0.44590732 -3.916152e-09 -0.34873086 0.25052536

running_var f4 [16]
00000000: 978a 252d 0ee6 8133 10c6 133b 58b2 4737
00000010: 2305 8211 7314 ab24 5245 520e 1252 893a
00000020: dde1 243b cb31 0227 6f5d 8a39 10bd 033b
00000030: 771b cb3a 43a1 0e10 5884 0e3b 722d 4d3b
9.409937e-12 6.048877e-08 0.0022548474 1.1902848e-05 2.051355e-28 7.419407e-17 2.5917875e-30 0.0010476729
0.002515904 1.8068117e-15 0.00026391025 0.0020101704 0.0015495856 2.8128794e-29 0.0021746363 0.0031307605

weight f4 [16, 16]
00000000: c889 3922 98ce 2327 74bf a8ac cbc2 80a8
00000010: 71a2 4b94 9d3c 8c1d 68bf 9395 5ecf a9ab
00000020: 7ca8 e32b 40ab 0f9e 263d 98a8 666f e2a7
00000030: 78e1 b02c d65c 0000 0093 63ad 7436 712d
00000040: 8549 b518 6737 a29e ee44 37a3 e07a 72a2
00000050: 3fdb b50e 4096 c596 1fb8 268f 4b60 6b25
00000060: 6d3c 6126 c217 8795 c851 0021 7449 c91f
00000070: f9bd 88a5 c66c 0000 2f35 4e25 9a88 a324
00000080: 9f91 f6af a5f4 8eb4 fefb afb9 41e9 53b6
00000090: cd35 e7a3 f89b 26ad 9ed8 8824 b259 223a
000000a0: eed6 9539 4e98 b52c f96b 09b6 1b20 a235
000000b0: 3cb9 39ba 844d 0000 5176 4bb8 96fb 05bb
000000c0: 5b82 c632 5ea3 3737 7969 083d 0313 9abd
000000d0: 87b8 a026 8627 462e 8efd 1dae 6f17 cc3b
000000e0: 48d9 ab3d 7549 09b2 ab1f 59bd 81e7 d2bd
000000f0: 0bb9 6a3d 0105 0680 0f88 67bb 1c42 143e
00000100: 4cbe 5929 2a85 2d2e 2f75 67b3 60a6 3cae
00000110: 1590 ae1b 90c0 6fa6 2678 879c acfd b1b2
00000120: 56bd 1533 a5c9 f7a4 7f7a afaf 83ba 97ae
00000130: a29c 8a33 7f6a 0080 ec7e fcb3 549d c133
00000140: 1a3c b8b4 a1eb e7b9 8696 3bbd 3fb2 a0bc
00000150: 4d59 3728 abb2 efb1 1944 1628 59b8 04bd
00000160: 9eac eebe 8b92 7a31 d99e 8c3d a108 c3bb
00000170: 8c4d 233e f0dd 1400 37fe b53e abcd 1f3e
00000180: b3f5 0837 2ee7 7e3a a504 22bf 592f e9ba
00000190: 2723 f024 1b4d 0035 5196 d029 e6e2 ffbe
000001a0: fc39 9d3e c64d 9b37 be52 033d b545 e33a
000001b0: cf0c 12bf debe 0300 d4cb 303e 36e9 53be
000001c0: a8ba 7ca2 01fd c026 42ce 082c 724b 4329
000001d0: f105 8095 8774 f89e 5c3f e113 d9ca 26ad
000001e0: 1493 27ae 9342 249e 7143 aca9 012b 4629
000001f0: b391 502d 0158 0080 6bba 6c2e a94b 91af
00000200: 6276 d09d dff9 1a23 e2fd a2a7 6775 2d25
00000210: c128 9d8f fe51 4319 fb16 5f91 c726 6ea3
00000220: b233 cc27 aebe d31a 1378 0e25 7adb 1924
00000230: 47aa 42a8 7d7b 0080 ddd2 3e29 96f1 19a9
00000240: d42d 7c31 755f 0a36 8fea df3d 250e 1c38
00000250: 5821 0325 dfce f12e ffc2 c924 55dd 0aba
00000260: aa2c 43bd da7f 5aad 6126 49b8 9ad1 8ebb
00000270: b8ea 453d fd64 0000 7bfb f23c ebc3 37bb
00000280: 9afc e5b5 edb1 0abb 132a 3d3e 5aac 9d3c
00000290: 13ae 7ba9 a8cb 45b3 17ac 1f2a e7c9 b13e
000002a0: e968 eebd 9548 7f33 143e 4b3b a8f9 ec3c
000002b0: 6c16 e13e 15f6 0e80 04f8 d13e eaff 883d
000002c0: ea7d 35af f453 52b4 3e6d 05b9 b40d 8d32
000002d0: 85ff 36a2 19e0 0aac 8702 c7a2 8acf 0139
000002e0: 9f06 dab9 2829 45aa f196 3736 9aa3 fe34
000002f0: 8018 30b9 e00b 0080 0c71 723a 5c1c 3cba
00000300: 4d8d 2436 b5d4 863a 91b1 053f 1a1c 923b
00000310: 010e afa7 f5a5 1333 1b29 fb30 dc7f 33be
00000320: 3d5d e2bd 413d d339 a2b3 e53d 3206 bebc
00000330: f719 cf3e 93d1 b700 7f1f 5abd 9bf8 16ba
00000340: 8cd5 5c35 0127 04b9 c0e1 3bbd f961 a93b
00000350: 5f3c b929 174b 35b1 26e1 19aa 0ec8 27bd
00000360: 5633 f73e 958b 75b1 536d 463d 6c2a 22bc
00000370: c82a 723e 68ef ac81 414c 303f a97b b93e
00000380: fa13 6b2c 2c66 8d31 c6e8 ddb6 ae0e 7231
00000390: e49f d89f 4042 8429 5691 6220 2762 12b6
000003a0: 0483 6936 0161 d1a7 8234 d932 2777 d7b1
000003b0: 95f7 a836 1b2f 0000 babf 0bb7 217c 2637
000003c0: 6e79 8533 a000 3438 bd1e 1dbe 10e4 b83b
000003d0: 0adf 9327 c619 b531 e6da 26a9 2ddf 46bd
000003e0: f934 a73d 2740 3a38 1308 223d 0a25 1e3d
000003f0: 3a89 94bd c955 0e00 25f4 873d fad0 1abe
2.5145116e-18 2.2732789e-15 -4.7961028e-12 -1.4295333e-14 -1.0280917e-26 3.7120364e-21 -5.967481e-26 -1.2065728e-12
1.6176084e-12 -7.605771e-21 -1.6901909e-14 -6.284838e-15 5.027253e-12 3.3303e-41 -1.2936097e-11 1.3711355e-11
4.686164e-24 -1.7175331e-20 -9.935046e-18 -3.2862165e-18 4.483107e-30 -3.1921888e-25 -8.219892e-30 2.0415626e-16
7.814445e-16 -5.456355e-26 4.3476323e-19 8.524833e-20 -2.372097e-16 3.902e-41 1.7885671e-16 7.0921394e-17
-4.485061e-10 -2.6627563e-07 -0.0003356635 -3.1577222e-06 -2.5067856e-17 -9.4706396e-12 5.934756e-17 0.0006193175
0.0002857963 5.1612386e-12 -2.047744e-06 1.2079284e-06 -0.0007084792 2.7807e-41 -4.8509162e-05 -0.0020444146
2.3109513e-08 1.0945687e-05 0.03330371 -0.075231574 1.1152246e-15 4.505509e-11 -3.592287e-11 0.0062283794
0.083910525 -7.991152e-09 -0.053008717 -0.10298062 0.057305377 -5.52808e-40 -0.00353289 0.14478344
4.8348735e-14 3.945392e-11 -5.3890457e-08 -4.289402e-11 2.8878996e-22 -8.3180753e-16 -8.964608e-22 -2.0720869e-08
3.4863966e-08 -1.07460774e-16 -3.1919353e-10 -6.899816e-11 6.454617e-08 -3.8204e-41 -1.17577514e-07 9.015881e-08
-3.43164e-07 -0.0004423531 -0.045797847 -0.019616244 1.0177905e-14 -6.9761277e-09 8.341439e-15 -0.03240237
-0.4661607 3.6463088e-09 0.06866235 -0.0059519564 0.1594755 1.916326e-39 0.35545513 0.156058
8.163438e-06 0.00097237795 -0.63288337 -0.00177906 1.0414296e-16 4.779592e-07 9.263131e-14 -0.49977797
0.307083 1.8513656e-05 0.03206133 0.00173395 -0.57050794 3.43977e-40 0.17265254 -0.20694432
-3.4251183e-18 1.3391253e-15 1.9441258e-12 4.3364136e-14 -5.170816e-26 -2.6306216e-20 5.6860462e-27 -9.481049e-12
-3.8102035e-11 -8.695855e-21 -7.6500336e-14 4.4002132e-14 1.1855783e-11 -3.157e-41 5.382576e-11 -2.6429106e-10
-5.5179547e-21 8.401269e-18 -4.5239293e-15 1.5045136e-16 -1.5497093e-29 1.0097822e-23 -1.759868e-28 -1.2910217e-17
5.6677422e-15 8.7575614e-23 1.235722e-16 3.336249e-17 -1.0806086e-14 -4.4299e-41 4.237137e-14 -3.4182367e-14
3.6696877e-09 2.0619166e-06 0.109334104 3.720647e-05 1.1373736e-16 1.0996159e-10 8.750019e-17 -0.0005297263
-0.047650017 -1.2420254e-11 -4.7957878e-05 -0.0043584825 0.04831955 3.6228e-41 0.02966093 -0.002804036
-1.7135346e-06 -0.002116318 0.18473081 0.019247223 -5.588418e-14 -4.605286e-08 1.4181743e-13 0.34724352
-0.11641104 5.9437827e-08 0.0031012343 0.02892764 0.4396242 -1.373975e-39 0.41009533 0.06689437
-1.6506588e-10 -1.9588316e-07 -0.00012724564 1.6420792e-08 -2.480087e-18 -1.9735379e-12 -5.3941734e-18 0.00012379713
-0.00041585133 -1.7511394e-13 2.7356984e-06 4.7430223e-07 -0.00016793795 -4.26e-42 0.00092484127 -0.0007175857
2.4520152e-06 0.001028678 0.5222407 0.0044589164 -4.858744e-15 3.437704e-08 1.8274336e-09 -0.17529243
-0.1105294 0.00040290694 0.11215903 -0.023196314 0.40449497 1.6881077e-38 -0.053252693 -0.0005759091
8.226714e-07 -0.00012603031 -0.04586959 0.00516915 8.226123e-14 -2.638165e-09 -1.3667244e-13 -0.04096227
0.48281354 -3.5731536e-09 0.048444103 -0.0098978095 0.23649132 -6.352635e-38 0.68866354 0.36227158
3.3406598e-12 4.1152557e-09 -6.6134116e-06 3.522398e-09 -9.1744075e-20 5.87347e-14 1.9191032e-19 -2.1812828e-06
3.4795967e-06 -5.8114325e-15 2.5286003e-08 -6.2708696e-09 5.0356125e-06 1.6898e-41 -8.329685e-06 9.923272e-06
6.215383e-08 4.2915926e-05 -0.15343757 0.0056424215 4.1042516e-15 5.2707234e-09 -3.704927e-14 -0.04855268
0.081644006 4.4405602e-05 0.03955848 0.038609542 -0.072527364 1.316471e-39 0.06638364 -0.1511878

bias f4 [16]
00000000: bc2d fcae e65a 3c31 37ca adb8 38bc c638
00000010: 3672 4c38 98bb 0438 af84 f338 6e2a f832
00000020: 88c2 ecb2 db36 03b7 9ab5 0339 067e 4738
00000030: 5bd1 2938 ca2a dab9 9434 b838 05b7 9937
-1.1467757e-10 2.740927e-09 -8.286948e-05 9.476434e-05 4.8743757e-05 3.1645963e-05 0.00011611857 2.8890295e-08
-2.7562479e-08 -7.8209805e-06 0.00012560785 4.7562666e-05 4.0487717e-05 -0.0004161208 8.783597e-05 1.8324246e-05

weight f4 [16]
00000000: edcc 8234 0122 45b4 676c e2bb db7a 1fbe
00000010: ef61 0039 b4d4 b6be 421e fb3d 49f0 9e37
00000020: 37a5 d029 a063 4a3d 3c51 803e 3e45 85bb
00000030: 1cea 92be e882 02bf d26b 9e3a d70a 1d3e
2.436349e-07 -1.8359425e-07 -0.006909895 -0.1557421 0.00012243514 -0.35709155 0.122616306 1.894696e-05
9.265716e-14 0.049411416 0.25061977 -0.004067092 -0.28694236 -0.50981 0.0012086576 0.15336166

bias f4 [16]
00000000: 5b08 d0b3 0073 90ad 9175 c4bc 449b f2be
00000010: c402 c5b7 b439 c7be 635e 9e3e ff4c 86b2
00000020: 4665 e9bc 1045 41be aaaf cbbe 5c90 14bc
00000030: 149a c93d a570 fdbe 5745 88b9 732b 86be
-9.6872746e-08 -1.6421975e-11 -0.023981841 -0.47384083 -2.3485518e-05 -0.38911211 0.30931386 -1.5634667e-08
-0.028490674 -0.18874002 -0.3978246 -0.009067621 0.09843841 -0.49500003 -0.00025991604 -0.26205024

running_mean f4 [16]
00000000: 9aae 9b2c 917d 14af 4baa 48ba ae1d 863d
00000010: afd4 12b6 363f a7bb 185f 87be 0ae7 2f2f
00000020: 1507 f330 7134 403d fb2d 693e efff 9bb8
00000030: 3a5c 423e 383a c93e ecce d3b6 9ef4 6bbd
4.4247496e-12 -1.3505132e-10 -0.000765477 0.0654863 -2.1879493e-06 -0.005103971 -0.26439738 1.5998239e-10
1.768259e-09 0.046925012 0.22771446 -7.438647e-05 0.18980494 0.3930223 -6.312379e-06 -0.057606332

running_var f4 [16]
00000000: b220 921a 2186 180c f900 0335 fdb4 493b
00000010: 1d5c 3427 e8bb eb3c d8d5 2e3e 83f8 081f
00000020: 1e1d e112 482e 943b 77ee 773d 20c4 5034
00000030: 6cc5 6b3d 7eea b53c 7670 4f2e fb1d e43b
6.0437007e-23 1.1750017e-31 4.880272e-07 0.0030778043 2.5029953e-15 0.028776124 0.17073762 2.9004684e-20
1.4206674e-27 0.0045221187 0.060530152 1.944286e-07 0.057561323 0.022206541 4.7166236e-11 0.0069615818

weight f4 [1, 16]
00000000: 4786 1a33 794c c3ac d625 cd3a a817 43be
00000010: be04 f735 50fe d43d 89ac fcbe 3648 0e30
00000020: bcd7 4cba 5a7f 333d ae38 413e c748 a439
00000030: 68d6 ccbd 89e4 5c3e 5f28 4337 80d7 45be
3.5978044e-08 -5.5507235e-12 0.0015651535 -0.19051993 1.8404314e-06 0.10400069 -0.49350384 5.1761917e-10
-0.00078141293 0.043822624 0.18869278 0.0003133474 -0.10001832 0.21571554 1.1632305e-05 -0.19320488

weight f4 [1, 16]
00000000: 2094 3fb3 a3f1 7daa 8c02 acb8 afcb 283c
00000010: bd80 a8b6 c248 21bf 3e5f db3e ce9a c9b1
00000020: 2b1e eb39 c1ac 8c3a 9a03 39be 9d5f 9eba
00000030: ac2e 0d3f f8e2 a5bf 201e 35b8 4c23 36bd
-4.4605372e-08 -2.2554749e-13 -8.2020735e-05 0.010302468 -5.0217773e-06 -0.63001645 0.42846102 -5.867469e-09
0.0004484517 0.0010732637 -0.1806778 -0.0012082938 0.5514934 -1.295989 -4.318182e-05 -0.044467255

weight f4 [16, 2]
00000000: 9647 d327 0b9a b39c d256 83be 4114 83be
00000010: 396e 0f3e ec24 d3be ad39 3e12 a77a 9510
00000020: 698d 423d 4d9b debe 626c 5fbe 332d c1be
00000030: eb2e 08bd f068 0ebe 1503 0000 1503 0080
00000040: 4d09 b831 5519 1534 e344 003e 8faf 0a3f
00000050: 3693 4935 c630 2caa e6ba d93e 9069 14be
00000060: f953 a43d bcf3 0a3f 5640 98be fdb3 1f3e
00000070: 8e78 39be a0ec f3bd 42a6 9f3e 68f8 28bf
5.864188e-15 -1.1885046e-21 -0.25652176 -0.2560139 0.1400689 -0.41239107 6.002452e-28 5.8959113e-29
0.04749814 -0.4347786 -0.21818689 -0.37729797 -0.03324787 -0.13907218 1.106e-42 -1.106e-42
5.356162e-09 1.3885922e-07 0.12526278 0.5417413 7.5092555e-07 -1.529359e-13 0.42525405 -0.14493394
0.08023829 0.5427816 -0.29736584 0.15596004 -0.18112394 -0.11910367 0.31181532 -0.6600404

bias f4 [16]
00000000: 5aaa 5cb8 e95d 1eb9 2a86 76b9 3cff a32e
00000010: aeb3 03b9 c00c e8bb 4a51 e4b5 280c 0033
00000020: 3d98 f639 cde7 803a 20dc 9cad 2508 8e3a
00000030: d259 92b8 6b3d 73b9 99b3 2037 8834 b638
-5.261074e-05 -0.00015103038 -0.00023510368 7.4577206e-11 -0.0001256007 -0.007081598 -1.7010982e-06 2.981338e-08
0.00047034203 0.0009834707 -1.7832902e-11 0.0010836167 -6.978553e-05 -0.00023197166 9.578559e-06 8.688221e-05

weight f4 [16]
00000000: 1508 6933 caf7 bb3e b5ca 7ebe db16 9dad
00000010: a7b4 9cbe 3613 efbe 99ca 33bd ecf3 0816
00000020: e66d ecb6 68f1 f8be b9ae 9138 e0c4 103f
00000030: 5447 f93e 2379 b53e a3b4 e3bd 565b 1fbf
5.425689e-08 0.36712486 -0.24882014 -1.7858983e-11 -0.30606577 -0.46694344 -0.043894384 1.1062961e-25
-7.046142e-06 -0.48621678 6.9466834e-05 0.5655041 0.48687232 0.35443982 -0.11118438 -0.6224874

bias f4 [16]
00000000: 7d53 4ab0 aeb3 643d aee2 663e 96d2 29a6
00000010: 4f00 8cbe a947 e8be 4272 31be 3400 0000
00000020: 21e2 55b5 2baa 0c3e 7988 cfb5 9041 ccbe
00000030: 4c63 1cbe 797e 0d3d 025c 643e c680 093f
-7.3605816e-10 0.05583542 0.22547409 -5.891905e-16 -0.27343985 -0.45367172 -0.17328742 7.3e-44
-7.9677744e-07 0.13736789 -1.5462421e-06 -0.3989377 -0.15272254 0.03454444 0.22300723 0.5371212

running_mean f4 [16]
00000000: 1e43 9735 2468 81be 88c5 06be 1722 8eac
00000010: 00cb 41be 83fb 96be 8b6a b0bd f1e6 89b1
00000020: 7af6 aeb7 c120 a93e 5bd9 d234 5f60 083e
00000030: 499f 9e3e 2c5a 8fbd 24b4 17be d26b 2cbe
1.126991e-06 -0.25274765 -0.1316129 -4.0396675e-12 -0.18925095 -0.29488763 -0.086140715 -4.0134798e-09
-2.0857191e-05 0.33032802 3.9273695e-07 0.13318013 0.309809 -0.06999621 -0.14814812 -0.16838005

running_var f4 [16]
00000000: 6625 8e19 ed26 303a b456 5d3a ad0f e505
00000010: 07f2 303a 49de 3b3a ca79 8638 af41 a010
00000020: 3daa a424 346e 793a b889 d127 0412 eb3a
00000030: 3258 763a 4cc1 7e3a eed2 9739 6026 313b
1.4697561e-23 0.00067196676 0.0008443401 2.1540815e-35 0.0006749932 0.0007166607 6.412303e-05 6.3210074e-29
7.141206e-17 0.0009515018 5.815847e-15 0.0017934446 0.00093972974 0.00097181345 0.0002895812 0.002703093

weight f4 [16, 16]
00000000: 0c50 a19d 13f3 11b7 e02f 1eba e6c0 5993
00000010: 319b 0139 e68e 6939 5583 d7b4 e13e 0080
00000020: b74d daa5 6994 b53a 132d b028 397d 1938
00000030: eba8 9f39 1cb3 2cba b117 0d39 362f caba
00000040: 285b d186 8d63 21a2 f844 4da3 da95 0100
00000050: 46fe 37a2 7962 e721 9b36 b99d 1103 0000
00000060: 2788 c88f d302 6323 377b 7293 f4d6 0da3
00000070: 4782 4ba2 0d9b 9ea3 2ba7 cca0 fe0f 11a4
00000080: 6eae d11a 7d96 67b6 1afc 34b7 f8fb 3510
00000090: 6ea7 64b5 361b 2636 c37f 36b2 c600 0000
000000a0: cb49 95a3 1324 5d37 a802 fc25 a2b8 e5b5
000000b0: 9e6b 0836 3563 81b7 1c8a e135 0a68 e5b7
000000c0: c428 6c93 9b61 d72f 586b 1ab0 df3a 0d89
000000d0: 4de2 9bae 2478 25ad 9c7a e9aa 0806 0000
000000e0: 7c77 af1a a8c4 10b0 557a fc1d 5f2b de2f
000000f0: 51cb 77af 7ccd 042e 2fd5 dfae a9b2 97b0
00000100: 2aa5 bfa0 47f4 de3b 58c6 063c b53e 3622
00000110: 3711 143b 661a 9e3c 1eb1 02b8 0331 0000
00000120: 4628 e4a8 0a52 82bc 0817 d6aa b632 5b3c
00000130: 4d3c 483c dc16 363b 9819 013c c069 753c
00000140: b4f2 09a0 30e4 4f3c 9b3d 883c f49b 5b16
00000150: cf61 bcbb c297 61bb a7a7 b43b 5322 0080
00000160: aed8 4128 3a41 66bc cb5a a0ac 1ded 97bb
00000170: 44ad 583c 3b2f 383c b257 f1bb fe21 613d
00000180: bd0e 199f 28c5 eab8 d700 f5b9 9f1c 0c95
00000190: 7a65 5d39 3762 c339 9243 a034 9a72 0000
000001a0: 9520 4aa7 c31d 82b7 c22c c729 eacd 7ab9
000001b0: 72d3 133a 26b9 80ba d302 8039 640e 9eba
000001c0: af28 1424 14a4 d73d 4058 4f3e a789 5699
000001d0: 08a3 883e 44a6 0b3f 42c3 b13d 5c58 0000
000001e0: 46db 02ac 23fc 433e 4800 852f 4796 9b3e
000001f0: 026a b23e c0c8 7b3e 7135 0a3e 187e af3e
00000200: aeed 0428 a828 e53e 526f 0fbd d0cc 94a2
00000210: 334b efbd ba8d 2dbe 99e7 893d ab65 0080
00000220: 9f79 ad2c 987a 043f ee35 c3ad 95a0 953d
00000230: af47 48be b296 503e 8ecf 94be 4fd5 a8be
00000240: 0e4d fc98 68ff 8134 8d0d e134 1784 040e
00000250: feaf c532 7a70 ddb3 0b51 cf2f 083b 0080
00000260: c76b 4421 4a9c 32b5 755e 83a3 12e7 ec33
00000270: e074 b9b3 da22 2035 8c64 aab3 6f21 8d35
00000280: 19d4 c922 0870 683d 6bd1 7e3c bb6e 5a18
00000290: bebc 063d 8335 0fbd 255d 823c c006 0080
000002a0: 30fd a82a f481 39bc 8009 a1ad 24b7 fe3c
000002b0: f61d 80bd a3b6 8e3d 62e1 1cbb 2c1a fc3d
000002c0: 5786 730b a92f 4127 010e 2d27 d04a 0902
000002d0: 4941 4aa5 ebf1 2925 74cf 6aa2 cb2e 0080
000002e0: 3e80 f293 4b1f 98a6 3c90 1496 efcf a726
000002f0: a667 17a6 390a 5d27 05ab d9a6 0990 c327
00000300: a29f 19a1 61e1 11bc 9408 bd38 461d 8516
00000310: 1291 ce3b b686 d83a d2a6 3337 b8d7 0000
00000320: ab14 3da8 5cfc b33c 8fd1 392a d03c 4abb
00000330: 9201 473c a19b f53a a040 9e3b 7753 c2bc
00000340: 54d5 b11d af68 2f3a 306a a338 1fa1 8a12
00000350: 6a8c a3b8 5d3e 9839 e588 cbb6 5227 0080
00000360: b79b 9725 9f73 63b8 82af 4da9 353c b939
00000370: 36b0 22b8 983e 38b7 7d13 18b8 da01 89b8
00000380: 95da c0a3 c3a8 0b3e 7aed 633e 3279 ce9a
00000390: 4ac9 233d 6da1 593e 850c 6fbd 89aa 0280
000003a0: 14e1 812b 75d5 7fbe 0f5c 83af c932 09bf
000003b0: a9ea 6c3e 2b95 833e fe8c e1bd 8a36 3e3f
000003c0: f7e2 e114 603d d531 0922 0c32 5b60 f18b
000003d0: 4170 b6b0 1419 3db2 6aef bfac 7cb4 0000
000003e0: e065 e79e d746 adb2 b369 e120 fb35 d331
000003f0: fd9e e0b1 b6ea 9532 cba3 40b1 b540 0333
-4.269911e-21 -8.699269e-06 -0.00060343556 -2.7484357e-27 0.00012360212 0.00022273845 -4.0142427e-07 -2.2557e-41
-3.7869633e-16 0.0013853434 1.9559473e-14 3.6594665e-05 0.00030452697 -0.00065879687 0.00013455634 -0.0015425447
-7.8751004e-35 -2.187227e-18 -1.1127677e-17 1.45592e-40 -2.4935736e-18 1.5679234e-18 -4.9025553e-21 1.1e-42
-1.9773967e-29 1.2306293e-17 -3.0605444e-27 -7.689143e-18 -2.7580598e-18 -1.7196061e-17 -3.4669567e-19 -3.145541e-17
8.672218e-23 -3.4509278e-06 -1.0787533e-05 3.5890066e-29 -8.518026e-07 2.4751766e-06 -1.0622844e-08 2.77e-43
-1.6185865e-17 1.3181026e-05 4.3716832e-16 -1.7115565e-06 2.032822e-06 -1.5424195e-05 1.6804001e-06 -2.7347374e-05
-2.9807487e-27 3.9177625e-10 -5.617742e-10 -1.6999939e-33 -7.088783e-11 -9.405841e-12 -4.1474192e-13 2.164e-42
7.257134e-23 -5.266636e-10 6.6830333e-21 4.0412382e-10 -2.2536752e-10 3.0195832e-11 -1.0178735e-10 -1.1037474e-09
-3.2465955e-19 0.0068040225 0.008226 2.4698796e-18 0.0022593269 0.019299697 -3.115937e-05 1.7582e-41
-2.533055e-14 -0.01590826 -3.8030018e-13 0.01337879 0.012221408 0.0027784621 0.007879637 0.014978826
-1.1684655e-19 0.0126886815 0.016630938 1.7739889e-25 -0.0057489644 -0.003442273 0.00551315 -1.2313e-41
1.0760637e-14 -0.014053637 -4.5575536e-12 -0.0046364204 0.0132249035 0.011241729 -0.0073651904 0.054964058
-3.24112e-20 -0.00011194713 -0.00046730667 -2.8295353e-26 0.00021114005 0.00037266474 2.9851486e-07 4.1111e-41
-2.8050794e-15 -1.5511067e-05 8.8451395e-14 -0.00023918567 0.0005639113 -0.0009820804 0.00024416167 -0.0012058732
3.2126845e-17 0.10529342 0.20248508 -1.1091339e-23 0.26686883 0.54550576 0.086798206 3.1697e-41
-1.8595832e-12 0.19139151 2.419276e-10 0.3038809 0.34846503 0.24588299 0.13496949 0.3427589
7.3790105e-15 0.4475758 -0.035018273 -4.0332334e-18 -0.11684265 -0.16948596 0.06733627 -3.6472e-41
4.9304584e-12 0.51749563 -2.2192883e-11 0.07306019 -0.19558595 0.20369986 -0.29064602 -0.32975242
-6.521828e-24 2.4213955e-07 4.1919375e-07 1.6333855e-30 2.301385e-08 -1.0311574e-07 3.7710665e-10 -2.1176e-41
6.6550025e-19 -6.65376e-07 -1.4243053e-17 1.1031638e-07 -8.635993e-08 5.965536e-07 -7.934531e-08 1.0515049e-06
5.4705726e-18 0.056747466 0.015552859 2.8231744e-24 0.032894842 -0.034963142 0.015913555 -2.421e-42
3.001848e-13 -0.011322487 -1.83078e-11 0.031093188 -0.062557146 0.06968429 -0.002393805 0.123096794
4.6901164e-32 2.6809967e-15 2.4016164e-15 1.008664e-37 -1.7542827e-16 1.4740378e-16 -3.1822738e-18 -1.6786e-41
-6.1215845e-27 -1.0555601e-15 -1.2000857e-25 1.1644313e-15 -5.252912e-16 3.0675453e-15 -1.5103755e-15 5.4279536e-15
-5.204969e-19 -0.008903832 9.01382e-05 2.1505783e-25 0.006303915 0.0016519639 1.0708072e-05 7.7385e-41
-1.0496089e-14 0.02197092 1.6504006e-13 -0.0030859 0.0121463705 0.0018738398 0.0048294812 -0.02372144
4.7072086e-21 0.0006691319 7.792225e-05 8.748744e-28 -7.7986e-05 0.00029038163 -6.065808e-06 -1.4105e-41
2.629984e-16 -5.4228698e-05 -4.5671373e-14 0.00035330807 -3.878792e-05 -1.0981828e-05 -3.6257774e-05 -6.533014e-05
-2.0909255e-17 0.13638596 0.22258559 -8.5395405e-23 0.039986886 0.21252985 -0.05836155 -2.44847e-40
9.228473e-13 -0.24983771 -2.3894173e-10 -0.53593117 0.23136391 0.25699744 -0.1101322 0.7430197
2.2808716e-26 6.2060934e-09 8.156811e-09 -9.29748e-32 -1.3274147e-09 -1.100695e-08 -5.455127e-12 6.4746e-41
-2.4500211e-20 -2.0172065e-08 3.8186429e-19 6.147045e-09 -6.537333e-09 1.7452617e-08 -2.8032783e-09 3.0559665e-08

bias f4 [16]
00000000: 700d 2eb9 fb61 70b3 2956 8834 834d b333
00000010: a5c1 74b9 86ce 1436 ff0e cf38 cc8d 9938
00000020: a0f2 32b9 f6a1 b2af 815f 89b8 d845 31b3
00000030: 66ce b536 7e77 e435 5fea 88b9 cbe9 3032
-0.00016598939 -5.5968467e-08 2.5394664e-07 8.349436e-08 -0.00023341792 2.217393e-06 9.8733224e-05 7.32202e-05
-0.00017065788 -3.2493092e-10 -6.550458e-05 -4.1274546e-08 5.4182483e-06 1.70221e-06 -0.00026114561 1.0297707e-08

weight f4 [16]
00000000: bb6f 28bb 69c5 04b7 339e c4b9 468a 5e35
00000010: e893 20bb 6951 013d 75b7 9a39 7418 983e
00000020: 8b74 793e fee1 e237 cba5 303e ebd3 13b6
00000030: 1a3d aebc db0a c838 33ad bbbe a409 6038
-0.0025701362 -7.913776e-06 -0.000375019 8.290266e-07 -0.0024502221 0.03157178 0.00029509855 0.29706156
0.24360864 2.7046535e-05 0.17250745 -2.202806e-06 -0.02126937 9.538765e-05 -0.36655578 5.341474e-05

bias f4 [16]
00000000: 37d9 62bc f2f5 98a7 01a6 b3ba 91d0 c2b6
00000010: b606 dbbd 0320 2fbe c0e0 debd 4fed 1dbe
00000020: dcb4 e13d 632f 87b9 c93f 84be 1ba1 81ac
00000030: 72de 66bd dd44 8dbc e1ab cdbd 38dd 0cb6
-0.013845733 -4.245513e-15 -0.0013706089 -5.805931e-06 -0.106946394 -0.17102055 -0.108827114 -0.15422557
0.11020824 -0.00025784512 -0.25829914 -3.684287e-12 -0.056364484 -0.01724475 -0.10042549 -2.0990392e-06

running_mean f4 [16]
00000000: 0f5d 39ba ca98 3031 9258 aeb7 6aea 85b1
00000010: 68bb 473c 0ac8 0f3d 1e89 67ba b806 f93e
00000020: 18e9 b4bc 42ae 4f35 a267 b53d e3f5 0131
00000030: b0a1 b7bb 9267 8f38 8444 e93e 571d dd32
-0.0007071057 2.5698221e-09 -2.078366e-05 -3.8974592e-09 0.012190677 0.03510288 -0.0008832383 0.48637938
-0.022083804 7.736709e-07 0.08857657 1.891174e-09 -0.0056039914 6.838063e-05 0.45560086 2.5741128e-08

running_var f4 [16]
00000000: 1594 2b36 ff32 7b0b fa57 8030 6240 6822
00000010: c3c7 af39 92f2 003b 1f67 a135 fb99 063e
00000020: 34e7 163e 9280 e02b b094 133c d6df bf10
00000030: 2495 9739 56f4 b132 522e ea3e 8b26 0227
2.556718e-06 4.8379207e-32 9.33823e-10 3.1475947e-18 0.00033527435 0.0019675833 1.2025447e-06 0.13144676
0.14736634 1.5951843e-12 0.009007618 7.568109e-29 0.00028912083 2.0716623e-08 0.45738465 1.8062018e-15

weight f4 [1, 16]
00000000: dd06 3f3a f2a7 d126 b996 5a38 64b4 4935
00000010: b115 983e d68e be3c 7b81 e43c 28a3 6c3e
00000020: d19b 04be 72d0 c337 cfb2 66bc b9eb 9f2c
00000030: 5e4f a9bb 5ce0 c7bc 20b1 87be 102f 2733
0.00072870945 1.454781e-15 5.211562e-05 7.514084e-07 0.2970405 0.023261469 0.027893772 0.23109114
-0.12950064 2.3342876e-05 -0.014080717 4.5452223e-12 -0.005166932 -0.024398975 -0.26502323 3.892552e-08

weight f4 [1, 16]
00000000: 2713 653b 2489 8427 0b2b 4239 2da0 8936
00000010: 4d4c 533b c289 b73a 9710 b53b b3c2 be3d
00000020: d960 2f3f 46a2 b238 7290 e9bd 30c6 252c
00000030: 5c4c 173c 088e f43a 330f 05bc 7c5f c535
0.0034954043 3.678605e-15 0.00018517316 4.101565e-06 0.0032241524 0.0014002847 0.0055256593 0.0931448
0.6850715 8.517927e-05 -0.11404504 2.3557926e-12 0.009234514 0.0018658051 -0.0081213 1.4705433e-06

weight f4 [16, 2]
00000000: 7d03 0db9 ce67 85b4 502f 39b0 5cff 21b0
00000010: c73f 4cbd 5b33 3a3f c88e db3e b9c8 94be
00000020: 66ef 1f10 ce25 100c 2cf7 b636 8753 e834
00000030: c04f b5be db30 9cbe bd9c 563e 3f51 c8be
00000040: 23cb 1abd fc0d 43be 7f9a 8fb9 c5ae 802f
00000050: 096b 68be 6ca9 213f 7255 153f be0d ed3d
00000060: fe7f afa6 9b01 8f23 215f 04ae 616d faab
00000070: 5346 5335 fa3f e8b7 0fe1 512f e5fe fdb1
-0.00013448107 -2.4848708e-07 -6.7369843e-10 -5.8934346e-10 -0.04986551 0.7273461 0.4288237 -0.2905939
3.1541647e-29 1.1104733e-31 5.4527973e-06 4.3274142e-07 -0.35412407 -0.30506024 0.20958228 -0.39124486
-0.037791383 -0.19048303 -0.00027390194 2.3407246e-10 -0.2269708 0.6314914 0.58333504 0.11574887
-1.2177757e-15 1.5504771e-17 -3.0097817e-11 -1.7793927e-12 7.870596e-07 -2.7686347e-05 1.9088396e-10 -7.3922473e-09

bias f4 [16]
00000000: a9f2 a9b7 af7e 55b4 1396 9e38 fdcd ad38
00000010: 491f 20ad b3ea e433 64d6 8bba 41c4 d338
00000020: 90bb fbb8 0c2c 18b3 f035 8f3a 953c a3b2
00000030: a4ec a5b8 8954 1137 7271 b3b1 bac6 cc33
-2.0259367e-05 -1.9883258e-07 7.5619806e-05 8.287651e-05 -9.101894e-12 1.0659769e-07 -0.0010668752 0.00010097819
-0.00012003549 -3.543032e-08 0.0010926109 -1.9003247e-08 -7.911891e-05 8.662356e-06 -5.222483e-09 9.5356384e-08
