checkpoints/swarm_1d/linear/unknown/1-ra/95pct-constraint/run-1/policy225.pt (torch, 14965 bytes, 14 tensors)

weight f4 [16, 101]
00000000: 9bd5 2ca3 2b52 ee31 fa7e 30b6 06cd f02e
00000010: 2fb0 0c30 437f c5b1 5845 db32 ec68 ef2a
00000020: b730 8333 0844 93a2 4a70 4535 4ed8 9fb9
00000030: 90c1 25ae 982e bda8 24fa 38b6 01f2 f2af
00000040: 0f18 3e29 9cd9 4b28 0c62 d6b2 97ea cb31
00000050: 2da0 2e32 6f1f 0ea6 c76f 4da9 00b2 45b7
00000060: acef 0fb0 0ad8 1db1 9797 a234 32fb 1ab4
00000070: 9c43 1736 875e efb6 e98d c736 2213 30a6
00000080: f951 86ac d79c d635 8a58 9635 2806 4d31
00000090: 996a 9ab6 3bc1 c730 5b97 a138 ee68 6b2f
000000a0: 01f1 d636 c4be 17b8 faa1 2139 db3e 0739
000000b0: 1a7c 89a3 fb62 b537 ea20 7f36 3dac 05a6
000000c0: 9b8d a7b6 d187 f82c ae3a aeb1 ad3a 2732
000000d0: aebf bdb7 7284 da36 c574 0b35 7e30 20b8
000000e0: d3d2 4035 c036 79a7 d6d0 7fae 8d57 8735
000000f0: 68d3 bab6 e998 6539 384e d434 b2db 5bb6
00000100: 6823 1235 8ff2 b133 e39e 89b5 39ee 80b5
00000110: 11fd 9fb3 9de5 f633 7fb1 3730 9203 a1a9
00000120: 3d19 12af e6b6 94b4 6b63 96b7 37b6 7636
00000130: 63d6 762e e7c7 0ea4 88de 8d31 2838 7ca2
00000140: 0498 9727 3792 44a3 528f a531 25b5 ed31
00000150: 607e ca38 84ab 3938 22cf b336 9de6 ee36
00000160: a69b 5fa3 7f6d 0d36 d8dd 2bb0 069a 2d37
00000170: 1fb6 c3af 15f2 3db7 b9d1 13b7 45bb 2eb4
00000180: f628 eab2 6d71 7db3 ba3b 6d35 c17b 7733
00000190: 2d4c b934 c577 32bf 75dc 03bd 8a7f 42bd
000001a0: 97bf 81bd 2e43 a3bd 3594 c5bd 1273 e8bd
000001b0: e7c9 05be c951 17be d59f 28be ee83 39be
000001c0: 3bc4 49be 992d 59be 9485 67be 3992 74be
000001d0: d911 80be a801 85be dc03 89be 6c08 8cbe
000001e0: 24fa 8dbe 60d3 8ebe c18b 8ebe 0124 8dbe
000001f0: 7c9d 8abe 7503 87be 475d 82be 537e 79be
00000200: 5377 6cbe 48db 5dbe 23e2 4dbe 43c0 3cbe
00000210: 5dac 2abe bce9 17be e9b3 04be b390 e2bd
00000220: a2ad bbbd bc3d 95bd 0c0d 5fbd d3d4 15bd
00000230: 02ba 9ebc a267 40bb cd49 4f3c 75f3 df3c
00000240: f93f 283d a598 5c3d 5d8a 863d 41e1 9c3d
00000250: 0161 b13d 5b20 c43d 6437 d53d 88be e43d
00000260: c9d0 f23d 4f86 ff3d d77b 053e 3e9d 0a3e
00000270: 8b31 0f3e 5f41 133e d9d4 163e 0ef3 193e
00000280: 0ca2 1c3e f5e7 1e3e f0c9 203e e94c 223e
00000290: 5076 233e b24a 243e 26cf 243e f407 253e
000002a0: 0afa 243e 75a9 243e 311a 243e d74f 233e
000002b0: 514d 223e e714 213e 84a7 1f3e 1406 1e3e
000002c0: 5a2f 1c3e 2922 1a3e dedb 173e 6359 153e
000002d0: e395 123e 688c 0f3e 2837 0c3e 918f 083e
000002e0: eb8e 043e 4d2d 003e 76c7 f63d c653 ec3d
000002f0: 7eef e03d a489 d43d 2c12 c73d c777 b83d
00000300: 7daa a83d 429a 973d b537 853d f4e8 623d
00000310: ff88 383d 4d3b 0b3d fae2 b53c 5799 1e3c
00000320: 9f2b 6abb 1cb2 8fbc b869 f62a 920d b3a8
00000330: 077b ecae 2c80 892d 248a a22e 4db6 33ac
00000340: 8a70 012f 329f 3a2c c9af c6aa 6602 a22e
00000350: 4551 332e 283c 85af cd8b bd2f fe5e 7caf
00000360: 1798 782d c54b ed2d d63a 572f c25d 80ab
00000370: b5ec 3aac 513c a92d 671d b02d f630 d0ad
00000380: 749d 45ab f7eb 8f2e 5cb8 e92e ef9f 20ad
00000390: fa06 19aa b359 0a2c fa89 dbad 509a 94ac
000003a0: fab9 1e2d bb0c a1ad 3e90 e52d 91ac 74aa
000003b0: 867d 9b2e 78c0 202d a8af 242d 5849 10ae
000003c0: 3c8d 6c2c 1ef5 42b0 8e19 9db0 eeca 16ae
000003d0: e259 8a2e 8ab2 b0af 4476 82af 16a0 1733
000003e0: 4c58 bfb1 5bad 982d 19af 3e39 a293 b9b8
000003f0: 9914 a2b8 b6b1 342a fa5a 3db9 5596 32b6
-9.369371e-18 6.936053e-09 -2.6299954e-06 1.0950356e-10 5.1182075e-10 -5.7479226e-09 2.552649e-08 4.2527733e-13
6.109024e-08 -3.991646e-18 7.355162e-07 -0.00030488003 -3.7688574e-11 -2.1003422e-14 -2.7563738e-06 -4.4191498e-10
4.2209342e-14 1.131595e-14 -2.4957465e-08 5.9347474e-09 1.0164553e-08 -4.9308747e-16 -4.5616095e-14 -1.1783559e-05
-5.236369e-10 -2.296931e-09 3.0285148e-07 -1.4433752e-07 2.2540107e-06 -7.1337595e-06 5.9471827e-06 -6.1088196e-16
-3.81761e-12 1.5989889e-06 1.1201639e-06 2.9834926e-09 -4.6019672e-06 1.4534075e-09 7.7052704e-05 2.1410404e-10
6.4057535e-06 -3.617887e-05 0.00015414497 0.00012898019 -1.4906129e-17 2.1622973e-05 3.801712e-06 -4.637707e-16
-4.993473e-06 7.0636626e-12 -5.0707376e-09 9.734021e-09 -2.2619814e-05 6.512325e-06 5.195146e-07 -3.8192135e-05
7.1832363e-07 -3.4585372e-15 -5.816577e-11 1.0083764e-06 -5.567843e-06 0.00021896105 3.954499e-07 -3.2761423e-06
5.444076e-07 8.286326e-08 -1.0253538e-06 -9.606075e-07 -7.450047e-08 1.1497034e-07 6.682725e-10 -7.1504556e-14
-1.3287589e-10 -2.7700224e-07 -1.7927689e-05 3.676292e-06 5.6124338e-11 -3.0960666e-17 4.128939e-09 -3.4182097e-18
4.2075735e-15 -1.06561435e-17 4.8184257e-09 6.9182016e-09 9.65565e-05 4.4267174e-05 5.358729e-06 7.1197996e-06
-1.2121814e-17 2.1074372e-06 -6.2524697e-10 1.0347465e-05 -3.5599698e-10 -1.1321642e-05 -8.810713e-06 -1.6273141e-07
-2.7259812e-08 -5.9009313e-08 8.8376294e-07 5.7621723e-08 3.451436e-07 -0.69714004 -0.032192666 -0.047484912
-0.06335371 -0.07971798 -0.09647409 -0.11350073 -0.13065301 -0.14777292 -0.16467221 -0.18116733
-0.19703762 -0.212088 -0.2260955 -0.23883905 -0.25013617 -0.25977826 -0.26760757 -0.27350175
-0.27729905 -0.2789564 -0.27841 -0.2756653 -0.27073276 -0.26369825 -0.2546179 -0.24364595
-0.23092394 -0.2166568 -0.20105796 -0.18432717 -0.16667314 -0.14835256 -0.12959255 -0.110627554
-0.09163977 -0.072871655 -0.0544558 -0.036579918 -0.019375805 -0.0029358645 0.012651873 0.027337769
0.041076634 0.05385651 0.065693595 0.07660151 0.0866108 0.09576484 0.104109555 0.111691535
0.11856229 0.12476789 0.13035522 0.13536546 0.13983743 0.14380406 0.14729632 0.15034124
0.15296191 0.15518172 0.15702033 0.15849651 0.15963101 0.16044119 0.16094646 0.16116315
0.16111007 0.16080268 0.16025616 0.15948425 0.15849806 0.1573063 0.15591246 0.15432006
0.15252438 0.15052094 0.14829966 0.1458488 0.1431499 0.14018404 0.13692915 0.13336016
0.12945144 0.12517281 0.12049763 0.11539416 0.109831795 0.10377815 0.09720263 0.09007221
0.08235643 0.07402469 0.06504766 0.055397943 0.045052525 0.0339921 0.022202957 0.009680114
-0.0035731567 -0.017540984 4.3771735e-13 -1.9878877e-14 -1.07538915e-10 1.5632017e-11 7.391446e-11 -2.5538627e-12
1.1772464e-10 2.652056e-12 -3.529384e-13 7.367333e-11 4.077207e-11 -2.4235303e-10 3.4478234e-10 -2.2953014e-10
1.4130939e-11 2.6977429e-11 1.9575039e-10 -9.12097e-13 -2.6563589e-12 1.9239861e-11 2.002194e-11 -2.3668605e-11
-7.020697e-13 6.544803e-11 1.0628362e-10 -9.130459e-12 -1.359155e-13 1.9660773e-12 -2.4958691e-11 -4.223545e-12
9.022555e-12 -1.8309234e-11 2.6098342e-11 -2.1731424e-13 7.0708814e-11 9.137684e-12 9.361324e-12 -3.280695e-11
3.3616018e-12 -7.092512e-10 -1.1430517e-09 -3.428629e-11 6.29148e-11 -3.2141073e-10 -2.3730895e-10 3.5303025e-08
-5.56887e-09 1.7357385e-11 0.00018185041 -8.848986e-05 -7.7285986e-05 1.6048867e-13 -0.00018058336 -2.6611572e-06

bias f4 [16]
00000000: 55d4 e6a3 97ab 653e 64e7 122c c45a e821
00000010: cd62 eb99 7d44 09b8 81a5 e9be 482c 00b0
00000020: 52af 7eb3 5ea6 3b96 aed2 521c 7792 09a9
00000030: 9f41 06bf a1fc 06bd 3d8b 86ae ac2f a42d
-2.5026576e-17 0.22428738 2.0876295e-12 1.5744957e-18 -2.4338336e-23 -3.272713e-05 -0.45634082 -4.6629056e-10
-5.9298436e-08 -1.5158236e-25 6.975547e-22 -3.054715e-14 -0.5244388 -0.03295577 -6.118348e-11 1.8665812e-11

weight f4 [16]
00000000: 59e5 10ae 7b16 cd3f c2b4 7b2f 5ee9 532d
00000010: d060 0ba8 80de a537 7b45 da3f bed4 2e32
00000020: bf83 0434 568c 0aa7 56eb e829 2164 38b0
00000030: 858c 1dc0 903f 0a3c 3b25 1733 67f2 29b2
-3.294551e-11 1.6022485 2.2892535e-10 1.2045779e-11 -7.737043e-15 1.9773142e-05 1.7052454 1.0176505e-08
1.2341387e-07 -1.9227423e-15 1.0343694e-13 -6.70811e-10 -2.4617016 0.008438006 3.5191288e-08 -9.892211e-09

bias f4 [16]
00000000: 3de8 acb4 2d7f 9f3e ceac 33b9 6c59 42b3
00000010: 0b05 03b0 9089 8dbd 3760 21be d85a e8b7
00000020: 2959 6bb9 455f 17ac fa44 d2af 6a90 1cb7
00000030: bd92 1e3f 4a5b 8ebc 3c35 b4bb dcb3 80bb
-3.2206472e-07 0.31151715 -0.00017135145 -4.5250474e-08 -4.766469e-10 -0.069110036 -0.1575936 -2.7698858e-05
-0.00022444561 -2.1511276e-12 -3.8247788e-10 -9.331949e-06 0.61942655 -0.017377514 -0.00549951 -0.003927691

running_mean f4 [16]
00000000: 0000 0000 0000 0000 0000 0000 0000 0000
00000010: 0000 0000 0000 0000 0000 0000 0000 0000
00000020: 0000 0000 0000 0000 0000 0000 0000 0000
00000030: 0000 0000 0000 0000 0000 0000 0000 0000
0.0 0.0 0.0 0.0 0.0 0.0 0.0 0.0
0.0 0.0 0.0 0.0 0.0 0.0 0.0 0.0

running_var f4 [16]
00000000: 0000 803f 0000 803f 0000 803f 0000 803f
00000010: 0000 803f 0000 803f 0000 803f 0000 803f
00000020: 0000 803f 0000 803f 0000 803f 0000 803f
00000030: 0000 803f 0000 803f 0000 803f 0000 803f
1.0 1.0 1.0 1.0 1.0 1.0 1.0 1.0
1.0 1.0 1.0 1.0 1.0 1.0 1.0 1.0

weight f4 [16, 16]
00000000: 73f7 48b7 b877 e305 b87d 7434 0ead 1735
00000010: 47fd 0b37 c461 9f34 b4f9 0905 30d7 2836
00000020: 023f cbb6 c64a bb31 c316 cab6 7e63 8f37
00000030: a10d 7f03 1238 1db5 bf41 98b6 7feb 8d37
00000040: 0308 ceb8 9e30 9332 e3f4 0837 d5af e4a5
00000050: f988 73b3 6e47 f834 1713 8cb3 2bbc 1437
00000060: 1455 4fb0 ce61 eb30 190d 24b6 f733 21b1
00000070: 28e1 aa34 5cac 7130 cd61 74b6 ce7d 5336
00000080: 4780 408d d7a3 5b00 be32 b7a5 5400 0080
00000090: c159 18b7 6306 0180 f634 3c00 1112 07b6
000000a0: 082f 9db6 f246 0080 1c0a 78b0 3808 aab0
000000b0: 0244 7380 4323 0080 e025 d122 b023 4731
000000c0: c63b 34b5 de05 5f20 78f3 bd36 36b4 2d31
000000d0: 50cf 7cb7 81ec 1734 884f ef1f 8f05 0eb4
000000e0: a59f 8836 61ea 3437 a3f3 f032 8811 2834
000000f0: b2c4 e834 a10a 2534 5b61 0f36 0391 2335
00000100: 550e d4b6 0ad7 1ea5 92b5 32ad 2ecd f7b5
00000110: 3e39 80b6 2e1f 99b3 6741 2825 76ce cdaa
00000120: f046 b236 4f5c 34b3 c6cf 9cb5 0d25 fb35
00000130: 67cb 33a6 4366 3137 8fd2 68b7 4792 0eb0
00000140: 3726 5636 e7d1 5f36 8d69 c9ac 5b06 1f28
00000150: 8078 ba36 16e3 aa38 7788 ef36 80d6 5fb3
00000160: fddd 9db6 a83d 2e30 f6eb 9e38 9787 fd37
00000170: 4fff 0538 3999 0230 b5e1 6d34 d997 0136
00000180: 8229 1133 d5d5 873f e39a 31b7 e6c6 aeb1
00000190: de34 00ae 3969 a4bc a219 a2bf fc0b dc37
000001a0: 7864 e6b9 2b69 eb29 6062 532e 25de 24b5
000001b0: b9cf 1bc0 caf7 2fbc 7c75 a9b9 c0c1 86b9
000001c0: e51f 3333 bee4 c68c aaca 5136 5642 61a2
000001d0: a200 acb7 9c49 3c85 04e2 c70c 5c62 102b
000001e0: a2da efaf 0649 0000 3432 6233 b1a0 b336
000001f0: 10c7 4f25 b28a db87 b1a5 1332 a5f9 0e36
00000200: 7b46 a62d a7ca 9429 6f69 11b7 a95e dc1d
00000210: f07e 91b9 3370 1227 7ec3 8a2b 3c32 7fb1
00000220: 25d8 3c35 33f2 2097 8ec0 ffb4 b3c0 412c
00000230: e881 eb2b 46f3 2626 f0c4 79b5 d30d b2b5
00000240: 5c9d b62a 73e8 200c de77 9ab6 4a80 0037
00000250: 1ecb bd30 2ccf a829 917f 050c 25c0 89b0
00000260: 0267 6233 a210 0080 dde0 d9b7 d786 9c2f
00000270: 0dac 81b1 5815 b088 0f2c 10b7 6840 2cb6
00000280: 1e0a a931 2362 1137 c783 5233 6858 adb8
00000290: 0eb3 0e36 74a6 0bb1 f631 16b4 f3af a4b6
000002a0: f31a af36 5046 67b7 a6f7 0fb7 d949 6c36
000002b0: 2ba4 18b7 6c72 9db6 e91e 1b28 8ffe 8ea2
000002c0: 6203 1ca8 2b74 3616 8302 33b0 a7f5 58b8
000002d0: 328b d22e df84 0f90 2c9e bd94 6724 79b1
000002e0: f532 c125 01e6 0d00 ae39 ceb7 a15e 4633
000002f0: cb1d ceb1 8dab cc0d d449 d0ac 5ea3 6d39
00000300: 6c74 3c36 b558 1105 0830 8631 f1c2 99b6
00000310: 66a2 07b6 7bbe 23ac 10f0 d682 d418 c036
00000320: b566 d138 8668 0100 ca93 af36 21bb 06b7
00000330: e44b 2904 6efb 1e00 f05f 1837 507f 05b8
00000340: 2aed c3b3 8cb7 66bf 58fe 9e37 490f 1d32
00000350: 7795 2cae 65c8 2d3d aa2b 84bf bf89 d3b5
00000360: b826 2eba c0b3 a72a 7756 39af 4c0b 25b3
00000370: 8d2d 0fbf c3a4 99bc 6611 95ba 3813 01ba
00000380: 9bd5 26b6 716a 0280 a130 99af b648 acb6
00000390: b50d 12b5 afa5 92b4 9047 0200 309e 9035
000003a0: db1c 38b1 a257 cc25 35d5 6bad 55d4 0a34
000003b0: 0199 0080 8a17 eb38 8bbf 0037 228f 84b0
000003c0: 99f7 0531 37ba 5b3e fbbd eb35 20b0 5cb1
000003d0: 1dc5 cdab d10d 12ba e974 113e 2681 15b8
000003e0: 8416 29b7 fd4b 2e2a 25d1 43ae ce3e 1fb3
000003f0: 3f88 153f 6069 2ab9 4935 f8b7 843e e5b7
-1.1978543e-05 2.1390955e-35 2.2770007e-07 5.650371e-07 8.344016e-06 2.9687192e-07 6.487572e-36 2.5159206e-06
-6.0572065e-06 5.450917e-09 -6.022719e-06 1.7093258e-05 7.495341e-37 -5.856865e-07 -4.537607e-06 1.6918171e-05
-9.824338e-05 1.713516e-08 8.163249e-06 -3.9670844e-16 -5.6702422e-08 4.6245572e-07 -6.5227304e-08 8.865299e-06
-7.5427065e-10 1.7126298e-09 -2.4445528e-06 -2.3458122e-09 3.182879e-07 8.7920227e-10 -3.641576e-06 3.1514678e-06
-5.9318976e-31 8.415805e-39 -3.1779824e-16 -1.18e-43 -9.0808035e-06 -9.4127e-41 5.529129e-39 -2.0127084e-06
-4.68444e-06 -2.545e-41 -9.023624e-10 -1.2371464e-09 -1.0585479e-38 -1.265e-41 5.6689665e-18 2.8978597e-09
-6.714221e-07 1.8890776e-19 5.6609824e-06 2.5277251e-09 -1.5068639e-05 1.414901e-07 1.0135201e-19 -1.3226803e-07
4.071701e-06 1.0783407e-05 2.805047e-08 1.5652597e-07 4.3356482e-07 1.5370689e-07 2.1365329e-06 6.093325e-07
-6.319761e-06 -1.3777174e-16 -1.0158445e-11 -1.8462649e-06 -3.821361e-06 -7.130289e-08 1.4593836e-16 -3.6558576e-13
5.3130716e-06 -4.199347e-08 -1.1683376e-06 1.871174e-06 -6.237876e-16 1.0573832e-05 -1.3877302e-05 -5.186717e-10
3.191073e-06 3.3351769e-06 -5.724482e-12 8.827651e-15 5.55726e-06 8.14853e-05 7.1386416e-06 -5.211632e-08
-4.7048075e-06 6.338845e-10 7.577978e-05 3.022309e-05 3.1947446e-05 4.7511467e-10 2.2154457e-07 1.9310885e-06
3.3798194e-08 1.0612131 -1.05860845e-05 -5.0866786e-09 -2.9150786e-11 -0.020069705 -1.2664073 2.6231624e-05
-0.00043943874 1.045434e-13 4.806322e-11 -6.1418024e-07 -2.4345534 -0.01074023 -0.00032321725 -0.00025702827
4.1705693e-08 -3.06444e-31 3.1261393e-06 -3.0528304e-18 -2.0504292e-05 -8.8532374e-36 3.0796833e-31 5.129558e-13
-4.3629195e-10 2.6196e-41 5.2665385e-08 5.3533226e-06 1.8021833e-16 -3.3032975e-34 8.5942e-09 2.1304961e-06
1.8903315e-11 6.607675e-14 -8.667222e-06 5.833139e-21 -0.0002775113 2.0322394e-15 9.85975e-13 -3.7135939e-09
7.034999e-07 -5.2004487e-25 -4.7637553e-07 2.753392e-12 1.673381e-12 5.7922516e-16 -9.304631e-07 -1.3266057e-06
3.2438884e-13 1.2395902e-31 -4.603512e-06 7.659264e-06 1.3809289e-09 7.496637e-14 1.0284335e-31 -1.0022673e-09
5.271341e-08 -5.967e-42 -2.5973126e-05 2.8472044e-10 -3.773954e-09 -1.0597633e-33 -8.593327e-06 -2.5667487e-06
4.9196975e-09 8.665523e-06 4.9014286e-08 -8.26575e-05 2.1263872e-06 -2.032178e-09 -1.3988014e-07 -4.908064e-06
5.2185437e-06 -1.3785044e-05 -8.581124e-06 3.5209725e-06 -9.098129e-06 -4.692285e-06 8.610931e-15 -3.87587e-18
-8.660473e-15 1.4738499e-25 -6.512339e-10 -5.1727195e-05 9.5744204e-11 -2.8304138e-29 -1.9146511e-26 -3.6254961e-09
3.3514693e-16 1.276371e-39 -2.4583973e-05 4.6186532e-08 -5.998776e-09 1.261377e-30 -5.919912e-12 0.0002266294
2.808195e-06 6.83416e-36 3.905374e-09 -4.5824495e-06 -2.0211096e-06 -2.3269431e-12 -3.1582263e-37 5.7249363e-06
9.985027e-05 1.29331e-40 5.2326113e-06 -8.030592e-06 1.9900702e-36 2.845261e-39 9.082243e-06 -3.182824e-05
-9.123535e-08 -0.9012382 1.8953506e-05 9.142078e-09 -3.9241024e-11 0.04242744 -1.0325825 -1.5760814e-06
-0.0006643343 2.9789886e-13 -1.685637e-10 -3.842733e-08 -0.5592888 -0.018755322 -0.0011372983 -0.0004923823
-2.4860262e-06 -2.21855e-40 -2.786509e-10 -5.134464e-06 -5.4409185e-07 -2.731517e-07 2.09343e-40 1.0774875e-06
-2.6791926e-09 3.544774e-16 -1.3405545e-11 1.2929497e-07 -5.4887e-41 0.00011210058 7.673992e-06 -9.644945e-10
1.949479e-09 0.21457754 1.7564156e-06 -3.211433e-09 -1.4620836e-12 -0.0005571517 0.14204754 -3.5644647e-05
-1.0078427e-05 1.5480668e-13 -4.4523624e-11 -3.7077193e-08 0.5841102 -0.00016251719 -2.9588717e-05 -2.7328038e-05

bias f4 [16]
00000000: 0a0c 3083 b9f5 02b4 3eb1 1980 4424 a09e
00000010: 20bb 19a6 8507 61b6 531e da3e 132d e808
00000020: e439 0a2c 3d4b 900d 85fd 1b26 fff0 3b98
00000030: 0bed 9f84 c327 0a3e fd37 0080 9ae8 1c3f
-5.173557e-37 -1.2196587e-07 -2.35947e-39 -1.6955658e-20 -5.333614e-16 -3.353199e-06 0.4260126 1.3973589e-33
1.9643115e-12 8.892798e-31 5.412001e-16 -2.4290855e-24 -3.759841e-36 0.1349173 -2.0085e-41 0.6129242

weight f4 [16]
00000000: 96a2 dc16 44c8 4a34 41c9 3e16 3f51 4e2d
00000010: 103e 0cac 9ed1 04b6 c50a 3d40 b455 909b
00000020: 62a1 99ac ecd2 5d9f 9a9f 59ad 5d77 f6ab
00000030: 2a6d 011c bd2b aa3f a9a9 d215 5f97 5b3f
3.5645523e-25 1.8885572e-07 1.5411582e-25 1.17277845e-11 -1.9929648e-12 -1.9791546e-06 2.9537823 -2.3878186e-22
-4.3664386e-12 -4.697304e-20 -1.23704606e-11 -1.7512481e-12 4.282361e-22 1.3294598 8.5086e-26 0.8577785

bias f4 [16]
00000000: 8af0 89a3 99f0 85b9 94e1 baa6 aa26 34af
00000010: 0686 cab9 9978 d0bb c1d2 e03e ef8e 63a8
00000020: 6054 9fba 9b4d 08a8 3409 3d33 07a4 47aa
00000030: 85d5 eaa8 6499 7f3e 2c7e 1220 e337 3b3f
-1.4955442e-17 -0.00025546996 -1.2967486e-15 -1.6384641e-10 -0.00038628298 -0.0063620326 0.43910792 -1.2632025e-14
-0.0012155883 -7.5663446e-15 4.4013362e-08 -1.7731659e-13 -2.6071818e-14 0.24960858 1.2408428e-19 0.7313215

running_mean f4 [16]
00000000: 0000 0000 0000 0000 0000 0000 0000 0000
00000010: 0000 0000 0000 0000 0000 0000 0000 0000
00000020: 0000 0000 0000 0000 0000 0000 0000 0000
00000030: 0000 0000 0000 0000 0000 0000 0000 0000
0.0 0.0 0.0 0.0 0.0 0.0 0.0 0.0
0.0 0.0 0.0 0.0 0.0 0.0 0.0 0.0

running_var f4 [16]
00000000: 0000 803f 0000 803f 0000 803f 0000 803f
00000010: 0000 803f 0000 803f 0000 803f 0000 803f
00000020: 0000 803f 0000 803f 0000 803f 0000 803f
00000030: 0000 803f 0000 803f 0000 803f 0000 803f
1.0 1.0 1.0 1.0 1.0 1.0 1.0 1.0
1.0 1.0 1.0 1.0 1.0 1.0 1.0 1.0

weight f4 [2, 16]
00000000: d2ea d9a3 64f0 82b9 9137 a8a4 275d b62f
00000010: 32aa 44b8 1e78 eab9 538d a6be e31e b4a5
00000020: 7f54 b03a b7e8 f9a7 159b f2b2 7d95 54a9
00000030: b8f1 23a7 cf75 963f 2a35 53a0 a965 6a3d
00000040: 9227 c5a2 a91b af37 d688 5323 56b1 2c2f
00000050: acf1 f2b5 df96 86b9 3da6 3dc0 89b8 efa4
00000060: 720a b6b7 fc57 3123 0f19 da32 fa13 9827
00000070: 123e d9a5 9cc1 cbbe e850 6b20 9434 a13f
-2.3626637e-17 -0.00024974637 -7.295252e-17 3.3171796e-10 -4.688855e-05 -0.00044721452 -0.32529697 -3.1245952e-16
0.0013452916 -6.9363693e-15 -2.8243031e-08 -4.7203117e-14 -2.275183e-15 1.1754702 -1.7889986e-19 0.057225857
-5.3438854e-18 2.0874506e-05 1.1467309e-17 1.5706311e-10 -1.8100741e-06 -0.0002567088 -2.9632714 -1.0396234e-16
-2.1700955e-05 9.613821e-18 2.5389935e-08 4.2210134e-15 -3.768556e-16 -0.3979615 1.9932044e-19 1.259417

bias f4 [2]
00000000: a13b 9f3d 1cf3 373f
0.07775045 0.7185533
